Src/extractor/limu_bert_usc.pt (torch, 259067 bytes, 29 tensors)

transformer.embed.lin.weight f4 [72, 6]
-0.25177053 -0.09661882 -0.25350296 -0.009694584 -0.52847093 -0.11679199 -0.5206001 -0.22528897
-0.24156974 -0.21216914 0.29683474 0.52066594 -0.3011667 1.336478 0.23699132 0.15553097
-0.6954895 0.38374427 -0.35942435 0.62264204 0.47847086 0.019072663 -0.043672025 0.28978953
0.034873027 -0.56098765 1.0771354 0.45196974 0.6874537 0.33910945 -0.5351528 0.18545794
0.06738336 0.25774783 -0.38987643 -0.050041925 -0.23845932 0.3733809 -0.73165125 0.09162752
0.09616421 0.10362984 0.7093363 -0.009212448 -0.3046436 -0.13134445 0.05479342 0.048911717
-0.37731212 -0.058118694 0.031419463 0.31468117 0.9392239 -0.25861207 0.6894942 -0.16743064
0.11633859 -0.02532488 -0.6857199 0.40901628 0.67121136 -0.62524515 0.33821416 0.07532262
0.22120708 -0.088093676 -0.4084549 -0.12539166 -0.7191069 -0.013617602 -0.158805 0.026202051
0.4527412 -0.80770916 0.30498803 0.41870055 -0.24191096 0.08477862 0.09813646 0.73417926
-0.19106857 -0.20373662 -0.1980738 -0.21374248 0.504403 0.7255963 -0.06320195 0.5083607
-0.31582606 -0.1751826 -0.18434903 -0.9096872 0.7535199 -0.2859729 -0.2736784 0.13739817
-0.16509017 0.104244865 -0.22297753 -0.32271436 0.7587456 -0.66331905 -0.12482421 -0.52464306
-0.69997424 0.32299677 -0.5903976 -0.39811477 -0.11530004 0.28351843 0.0625933 -0.08586321
0.5580509 -0.4254763 0.033009637 -0.40766165 0.3119174 0.09542345 -0.48823646 -0.022123456
-0.110721745 0.34785965 -0.52944255 -0.12772872 0.20885645 -0.1859385 0.63284624 -0.75937617
0.10681008 0.046975616 -0.035259716 -0.70723104 -0.020673512 -0.42651606 0.51881266 -0.0072298623
0.06758631 -0.20868418 -0.3512496 -0.35430852 -0.5485889 -0.14491284 0.1837703 0.2894541
-0.1419576 0.664337 -0.75711083 0.041174892 -0.08498666 -0.053229295 -0.3156717 -0.5847701
0.5469638 -0.11258009 0.35234565 0.33274537 -0.5390643 1.0730289 0.794175 -0.13254964
-0.76926607 0.27209395 -0.081468396 0.20474198 0.5808432 -0.4864267 -0.57695526 0.012047967
0.15073664 -0.012678994 0.097649775 0.28079265 -0.17095377 -0.746408 -0.45143902 -0.23604657
0.07839014 -0.05234255 0.06634089 0.4774683 0.12946665 -0.09000762 0.77903384 -0.4111149
0.57356834 0.38049927 -0.6776706 -0.18315277 1.4198502 0.04743905 -0.7484525 0.35143483
-0.06440327 -0.23773836 -0.19152868 -0.34010953 0.46354145 -0.0062388205 0.55457556 0.4916498
-0.81112856 0.47575852 0.13679653 -0.37398732 0.34653157 -0.6959946 0.54235256 -0.43970537
0.6874251 0.41192546 0.36021796 -0.7888539 0.660371 0.19346987 -0.57752407 -0.85544604
0.096247114 -0.14388125 -0.46097246 0.42643082 0.4101178 0.19019648 0.38310826 0.16949289
0.040489078 -0.122031756 -0.3063545 0.28426614 -0.27625328 1.2111979 0.5305831 -0.32407275
-0.0033275478 0.31562835 -0.478517 -0.59998435 -0.0883703 0.11896607 0.19593397 0.07233756
-0.13883667 0.60334843 -0.8159352 -0.5643533 0.55546564 -0.040491868 -0.65943664 0.6218373
0.20051375 0.2362527 -0.136454 -0.21015203 -0.21812521 0.13629505 0.060326513 0.5521354
00000000: 11e8 80be 17e0 c5bd 24cb 81be 08d6 1ebc
00000010: df49 07bf a430 efbd 0c46 05bf 27b2 66be
00000020: 0f5e 77be de42 59be b9fa 973e 5d4a 053f
00000030: 8632 9abe b611 ab3f daad 723e 8343 1f3e
00000040: 9a0b 32bf 217a c43e 7806 b8be 7865 1f3f
00000050: 22fa f43e 463e 9c3c 70e1 32bd 4b5f 943e
00000060: 05d7 0e3d e39c 0fbf 93df 893f 9468 e73e
00000070: f7fc 2f3f c19f ad3e c6ff 08bf b0e8 3d3e
00000080: 4900 8a3d 86f7 833e e29d c7be c3f8 4cbd
00000090: ae2e 74be c82b bf3e 7f4d 3bbf 36a7 bb3d
000000a0: bef1 c43d e23b d43d 1097 353f cfef 16bc
000000b0: 3ffa 9bbe 297f 06be 116f 603d a757 483d
000000c0: 0e2f c1be de0d 6ebd b2b1 003d e41d a13e
000000d0: fa70 703f cd68 84be b182 303f f072 2bbe
000000e0: ed42 ee3d 1f76 cfbc 578b 2fbf 956a d13e
000000f0: 82d4 2b3f 1110 20bf 682a ad3e bf42 9a3d
00000100: 1c84 623e 756a b4bd 0021 d1be ac66 00be
00000110: 6417 38bf 5d1c 5fbc c79d 22be afa5 d63c
00000120: b2cd e73e 07c6 4ebf 6427 9c3e eb5f d63e
00000130: 82b7 77be 6aa0 ad3d c5fb c83d 2cf3 3b3f
00000140: 7ba7 43be 55a0 50be dcd3 4abe 4fdf 5abe
00000150: 8e20 013f aec0 393f 0670 81bd ed23 023f
00000160: f4b3 a1be 1163 33be fec5 3cbe 43e1 68bf
00000170: aee6 403f 0a6b 92be 931f 8cbe 1bb2 0c3e
00000180: 660d 29be 557e d53d 3954 64be d13a a5be
00000190: 273d 423f 47cf 29bf d6a3 ffbd 024f 06bf
000001a0: 8331 33bf d55f a53e 4c24 17bf b3d5 cbbe
000001b0: 6d22 ecbd 5429 913e eb30 803d 0dd9 afbd
000001c0: 6cdc 0e3f 08d8 d9be 1d35 073d 07b9 d0be
000001d0: a3b3 9f3e 5f6d c33d 21fa f9be 403c b5bc
000001e0: 15c2 e2bd a91a b23e 8c89 07bf 51cb 02be
000001f0: 77de 553e aa66 3ebe 3602 223f 7a66 42bf
00000200: 3ebf da3d 8169 403d 7e6c 10bd 180d 35bf
00000210: 7f5b a9bc 5060 dabe e8d0 043f 7be8 ecbb
00000220: b16a 8a3d 4eb1 55be fdd6 b3be ed67 b5be
00000230: 5270 0cbf 0864 14be 482e 3c3e 5433 943e
00000240: 555d 11be fd11 2a3f 04d2 41bf 01a7 283d
00000250: 7c0d aebd f606 5abd b99f a1be 7eb3 15bf
00000260: d205 0c3f 6490 e6bd a666 b43e 9a5d aa3e
00000270: 1e00 0abf 0359 893f 0e4f 4b3f 18bb 07be
00000280: 9fee 44bf e64f 8b3e e7d8 a6bd e2a7 513e
00000290: 24b2 143f ec0c f9be 57b3 13bf d664 453c
000002a0: b55a 1a3e 8ebb 4fbc 9bfc c73d 0ec4 8f3e
000002b0: 810e 2fbe 9814 3fbf 0423 e7be 31b6 71be
000002c0: 028b a03d 2465 56bd bcdd 873d ba76 f43e
000002d0: e892 043e ea55 b8bd c36e 473f a77d d2be
000002e0: 60d5 123f cdd0 c23e d27b 2dbf 668c 3bbe
000002f0: a7bd b53f 734f 423d 959a 3fbf 44ef b33e
00000300: dde5 83bd af71 73be 1820 44be d622 aebe
00000310: 4e55 ed3e 056f ccbb aaf8 0d3f 86b9 fb3e
00000320: 1fa6 4fbf 9f96 f33e 6414 0c3e 447b bfbe
00000330: 966c b13e b42c 32bf 9ed7 0a3f 1021 e1be
00000340: 17fb 2f3f e5e7 d23e 7d6e b83e 54f2 49bf
00000350: 130e 293f f71c 463e 9ed8 13bf 83fe 5abf
00000360: 351d c53d 9b55 13be 9504 ecbe 2455 da3e
00000370: f6fa d13e dec2 423e c426 c43e 8b8f 2d3e
00000380: e0d7 253d c9eb f9bd 7fda 9cbe 558b 913e
00000390: 1271 8dbe 8808 9b3f 4bd4 073f ddec a5be
000003a0: fd12 5abb 0a9a a13e 2e00 f5be 9398 19bf
000003b0: 7dfb b4bd 7ca4 f33d eaa2 483e b725 943d
000003c0: 332b 0ebe 0b75 1a3f 21e1 50bf 7579 10bf
000003d0: ff32 0e3f cdda 25bd d7d0 28bf bb30 1f3f
000003e0: 7a53 4d3e 3aec 713e 99ba 0bbe 1832 57be
000003f0: 375c 5fbe ee90 0b3e ef18 773d bf58 0d3f

transformer.embed.lin.bias f4 [72]
-0.32189897 0.31794673 0.12729427 -0.15748535 -0.2082157 -0.02023091 -0.1966863 -0.46255377
0.009911307 -0.3860476 0.255936 0.28303424 0.17947547 0.28262374 0.29900768 0.314211
0.067056775 -0.32716873 0.072556615 0.09904885 0.21737748 0.061665516 0.17613572 0.17206317
-0.378881 -0.25995496 0.19133535 -2.719069e-05 0.1649066 0.20629922 0.045760818 -0.3093353
-0.29535368 0.3833332 -0.25359672 0.048633803 0.13701333 -0.060367364 -0.19224715 -0.12667625
0.11313909 0.21950766 0.1730774 0.2185628 -0.05555801 -0.22953378 -0.009268396 -0.17553271
0.35152036 0.24472563 -0.14627708 0.21270823 -0.16862582 0.35684913 0.32860252 0.0653926
0.26423147 -0.010494892 0.37297323 0.29124632 0.21918507 -0.012185986 -0.13518015 -0.2370541
0.40199605 -0.14948669 0.25588226 0.26629668 0.22083129 -0.4203626 0.34112185 -0.22280844
00000000: f1cf a4be eac9 a23e 6e59 023e d743 21be
00000010: 7f36 55be 4bbb a5bc 2268 49be d9d3 ecbe
00000020: 0963 223c 08a8 c5be 0b0a 833e dde9 903e
00000030: 6bc8 373e 0fb4 903e 8917 993e 44e0 a03e
00000040: 1055 893d a982 a7be 9098 943d 20da ca3d
00000050: 3498 5e3e fb94 7c3d ec5c 343e 5431 303e
00000060: b1fc c1be d118 85be 6aed 433e 9017 e4b7
00000070: 47dd 283e 1a40 533e b26f 3b3d 3261 9ebe
00000080: 9938 97be 4044 c43e 6ed7 81be 3d34 473d
00000090: 394d 0c3e c543 77bd 70dc 44be 6bb7 01be
000000a0: 78b5 e73d 9ec6 603e 343b 313e edce 5f3e
000000b0: cc90 63bd e70a 6bbe 78da 17bc d9be 33be
000000c0: 7afa b33e 5b99 7a3e a9c9 15be 30d0 593e
000000d0: 3fac 2cbe eeb4 b63e 973e a83e 8eec 853d
000000e0: 5949 873e c4f2 2bbc 59f6 be3e 3d1e 953e
000000f0: 0d72 603e bba7 47bc aa6c 0abe 4fbe 72be
00000100: 6dd2 cd3e 0a13 19be 0003 833e 0a58 883e
00000110: 9921 623e c439 d7be 86a7 ae3e e527 64be

transformer.embed.pos_embed.weight f4 [120, 72]
0.05790268 -0.32659087 -0.6758683 1.1391448 0.86301786 0.94983715 0.45252082 1.2971091
-0.45325184 -1.5695167 -0.7267054 2.4616706 0.1164679 0.8739476 -0.24189106 -1.4449297
-0.027251432 -0.84871376 0.7510739 0.35018182 1.934553 -1.0282929 -2.1576517 -0.18201171
-0.8601737 1.9846543 0.050911073 -0.30306634 -1.7183204 -1.6970735 1.2711432 1.3719004
0.72221094 0.21281756 -0.28863847 1.0426344 0.809461 1.844323 -0.12764545 1.3365092
-0.23277813 1.0388504 1.3144004 0.6452699 -1.0031557 0.081147775 -1.2452307 -0.34073114
0.83418405 0.5970004 2.1185105 -0.39263916 -2.3146129 -1.2295619 0.9868536 0.021010691
-0.28194958 -0.11475401 0.17942125 -0.30060223 -1.6234103 -0.088192895 -0.2318422 1.4610857
0.45595986 -0.06231904 1.7248081 0.006107329 -1.1091406 -0.6668159 0.17842497 0.551272
0.016956288 0.822582 -1.0167247 0.96537906 0.37697658 1.3812342 1.38289 3.1479895
-0.27525654 -2.626032 0.097804114 0.7920669 0.9457319 -0.7748449 1.2090919 0.011136104
-0.9530412 0.66019076 2.0246406 1.1827817 -0.45284432 0.76464164 1.4216743 0.3472413
1.4981103 1.292275 0.2389051 0.07860645 -1.0726378 -1.3215764 1.6883506 1.0366026
0.50437343 0.54078704 -0.6972292 -0.5552443 -0.15116517 -0.47614577 -0.86449677 1.2769006
1.6062307 0.3129699 -0.27499372 -0.337768 -0.83034635 0.11346447 0.32493752 0.44106802
-0.73559 1.4394275 -0.38276073 -0.76912326 -0.4683369 0.86178976 -0.034531254 -0.85071844
0.8594697 -0.21815859 2.0931995 0.15146296 -0.24796985 1.2093282 -0.36550325 0.43644723
-0.46930006 0.20882878 -0.25851798 0.98711985 0.6635158 -2.2626796 0.23538142 1.7826614
0.6051154 -1.3341987 -2.4733977 2.0181804 1.3024917 0.8841971 0.7637066 1.0799804
-1.2078227 -2.4030201 1.3191497 0.8686116 -2.382625 -1.1086286 0.5926081 0.8580777
1.078639 1.0347097 -2.216388 0.9676292 -0.4972684 -0.1013604 -0.03880842 1.522568
0.2819193 0.9422306 0.6172776 -0.51401895 -1.4455447 -0.10042327 1.4650506 -1.8118504
-0.7433843 0.0092690075 -0.5540714 0.34660226 0.94505674 1.0065743 -0.28005382 0.8870176
0.6750729 0.4598284 -0.7173615 0.7153399 0.14358957 0.72653735 -0.26574925 1.5574472
-0.1861584 1.6546466 -1.4421571 -1.8891913 0.6185762 -1.4682851 0.05050221 -0.35258824
1.4483262 -0.9595919 0.98673254 0.3886525 0.35680482 0.52855736 -0.19872715 -1.8057091
-0.5992485 0.58489615 1.6195642 0.2271726 -0.09337648 -0.46165204 0.04436886 1.2063631
-0.7398426 -0.7461568 -0.56656754 0.44586807 -0.023534369 -0.3464389 0.7903551 0.9898623
-1.1912462 -0.7760534 -0.5248321 -0.7098852 0.08055641 -1.8654784 1.2624587 0.4356576
-0.7727244 0.75766385 1.9314504 0.84889466 2.4407475 -1.2373735 -0.6837236 2.3755124
-1.3825146 -1.7629818 0.32419744 1.0605384 -2.2322073 -0.14873683 -0.6777704 0.80559033
0.76775634 0.77508223 -0.54859936 0.9367358 -1.8739299 1.532645 -0.6111096 0.69443226
00000000: 5c2b 6d3d eb36 a7be b405 2dbf 7fcf 913f
00000010: bdee 5c3f 8728 733f cfb0 e73e ac07 a63f
00000020: a010 e8be ece5 c8bf 5d09 3abf 038c 1d40
00000030: b986 ee3d 08bb 5f3f 4ab2 77be 75f3 b8bf
00000040: 653e dfbc 4e45 59bf 6146 403f 084b b33e
00000050: 6f9f f73f 1a9f 83bf f716 0ac0 4761 3abe
00000060: 5834 5cbf 2709 fe3f 2188 503d 832b 9bbe
00000070: ecf1 dbbf b439 d9bf d2b4 a23f 6f9a af3f
00000080: d1e2 383f d9ec 593e 6cc8 93be 0b75 853f
00000090: d638 4f3f c712 ec3f 7db5 02be bc12 ab3f
000000a0: 645d 6ebe 0df9 843f 463e a83f 6830 253f
000000b0: 6867 80bf ce30 a63d b863 9fbf 5074 aebe
000000c0: 168d 553f 05d5 183f ad95 0740 0008 c9be
000000d0: 9e22 14c0 4962 9dbf 70a2 7c3f 9d1e ac3c
000000e0: b25b 90be 2704 ebbd 34ba 373e 89e8 99be
000000f0: e9cb cfbf 7a9e b4bd 0b68 6dbe db04 bb3f
00000100: 9273 e93e 4042 7fbd 83c6 dc3f fd1f c83b
00000110: 52f8 8dbf 72b4 2abf 09b5 363e 2920 0d3f
00000120: eae7 8a3c bc94 523f 0924 82bf 1523 773f
00000130: 1303 c13e 48cc b03f 8a02 b13f a978 4940
00000140: 6dee 8cbe e910 28c0 864d c83d e5c4 4a3f
00000150: 7c1b 723f 3c5c 46bf 86c3 9a3f 3574 363c
00000160: 82fa 73bf 4302 293f b693 0140 6465 973f
00000170: 36db e7be 8ebf 433f 6cf9 b53f 9dc9 b13e
00000180: 14c2 bf3f 4469 a53f 8aa3 743e 6bfc a03d
00000190: 324c 89bf 6a29 a9bf df1b d83f 65af 843f
000001a0: 9e1e 013f 0571 0a3f 9d7d 32bf 7e24 0ebf
000001b0: 0bcb 1abe 61c9 f3be a94f 5dbf 7b71 a33f
000001c0: f898 cd3f 973d a03e facb 8cbe edef acbe
000001d0: 9491 54bf 0f60 e83d 365e a63e abd3 e13e
000001e0: a04f 3cbf 293f b83f 37f9 c3be 43e5 44bf
000001f0: dbc9 efbe 419e 5c3f a570 0dbd afc8 59bf
00000200: 3506 5c3f f764 5fbe fbf6 0540 1b19 1b3e
00000210: cfeb 7dbe 44cb 9a3f 3e23 bbbe 0376 df3e
00000220: 1948 f0be 36d7 553e 785c 84be e3b3 7c3f
00000230: 2cdc 293f becf 10c0 d407 713e 402e e43f
00000240: d8e8 1a3f 06c7 aabf 264c 1ec0 de29 0140
00000250: 0cb8 a63f be5a 623f 4782 433f cc3c 8a3f
00000260: ef99 9abf 15cb 19c0 e6d9 a83f 545d 5e3f
00000270: ee7c 18c0 8be7 8dbf 2ab5 173f fbaa 5b3f
00000280: d810 8a3f 5e71 843f 4dd9 0dc0 8cb6 773f
00000290: f799 febe 0b96 cfbd 94f5 1ebd 82e3 c23f
000002a0: ba57 903e 0636 713f e805 1e3f bf96 03bf
000002b0: 9c07 b9bf b7aa cdbd c786 bb3f b7ea e7bf
000002c0: 6f4e 3ebf 09dd 173c a0d7 0dbf da75 b13e
000002d0: 3def 713f 6dd7 803f 3763 8fbe 9613 633f
000002e0: 94d1 2c3f a16e eb3e 01a5 37bf 8420 373f
000002f0: 2509 133e 5afe 393f 4910 88be 6e5a c73f
00000300: 4fa0 3ebe 76cb d33f 9b98 b8bf 05d1 f1bf
00000310: 035b 1e3f c4f0 bbbf 68db 4e3d 7286 b4be
00000320: c162 b93f d1a7 75bf 819a 7c3f 76fd c63e
00000330: 1faf b63e 894f 073f 217f 4bbe 7a21 e7bf
00000340: 5a68 19bf c1bb 153f e14d cf3f ef9f 683e
00000350: 2b3c bfbd a85d ecbe 1fbc 353d 1b6a 9a3f
00000360: 5366 3dbf 2204 3fbf 920a 11bf d248 e43e
00000370: 26cb c0bc 7160 b1be b654 4a3f 9e67 7d3f
00000380: c17a 98bf 70ab 46bf 665b 06bf 09bb 35bf
00000390: c2fa a43d ffc7 eebf 3f98 a13f 830e df3e
000003a0: 44d1 45bf 42f6 413f c439 f73f 2951 593f
000003b0: 3535 1c40 4162 9ebf 8308 2fbf 6508 1840
000003c0: 3df6 b0bf 63a9 e1bf 35fd a53e b9bf 873f
000003d0: 7cdc 0ec0 784e 18be 5c82 2dbf 2b3b 4e3f
000003e0: ae8b 443f ca6b 463f 0271 0cbf ebcd 6f3f
000003f0: efdc efbf b62d c43f ae71 1cbf 50c6 313f

transformer.embed.norm.gamma f4 [72]
0.74901515 0.84875345 0.6857899 0.705283 0.75326836 0.5559816 0.6357261 1.0542264
0.658956 0.9105764 0.80317664 0.6893775 0.7301955 0.60993916 0.7071202 0.95206
0.56430274 0.9021002 0.6364712 0.51887655 0.64523923 0.64963806 0.6224013 0.7508517
0.98296255 0.48676214 0.80708015 0.5529824 0.48747626 0.7349685 0.6034938 0.844809
0.68565834 0.7789489 0.669793 0.49388558 0.5549159 0.7148292 0.76679695 0.6173933
0.6651091 0.7127838 0.4659245 0.76089686 0.6146343 0.80281645 0.78272957 0.6477805
0.7874577 0.805533 0.49849677 0.91078496 0.81660014 0.8011239 0.74875855 0.7459407
0.57605976 0.6984612 0.7393628 0.5672459 0.7082406 0.69016945 0.42240918 0.5542015
0.79996485 0.56867874 0.6490133 0.7921116 0.6777163 0.8109843 0.60622215 0.70425826
00000000: 75bf 3f3f e847 593f ed8f 2f3f 6d8d 343f
00000010: 32d6 403f cf54 0e3f f2be 223f e4f0 863f
00000020: 57b1 283f 891b 693f fc9c 4d3f 0b7b 303f
00000030: 18ee 3a3f f924 1c3f d405 353f 34ba 733f
00000040: 2576 103f 0af0 663f c7ef 223f 18d5 043f
00000050: 662e 253f ae4e 263f b155 1f3f d137 403f
00000060: 6fa3 7b3f e338 f93e ce9c 4e3f 4190 0d3f
00000070: 7d96 f93e e526 3c3f 927e 1a3f 6745 583f
00000080: 4e87 2f3f 3269 473f 8e77 2b3f 92de fc3e
00000090: f80e 0e3f 0cff 363f ce4c 443f 7d0d 1e3f
000000a0: 9744 2a3f 0079 363f a88d ee3e 23ca 423f
000000b0: ac58 1d3f 6185 4d3f f760 483f f1d4 253f
000000c0: d496 493f 6937 4e3f f83a ff3e 3429 693f
000000d0: b50c 513f 7516 4d3f a4ae 3f3f f8f5 3e3f
000000e0: a778 133f 5ace 323f e146 3d3f 0737 113f
000000f0: 424f 353f f2ae 303f 0446 d83e 26e0 0d3f
00000100: 7fca 4c3f ee94 113f bc25 263f d3c7 4a3f
00000110: d17e 2d3f ab9c 4f3f 6031 1b3f 454a 343f

transformer.embed.norm.beta f4 [72]
0.21061982 0.045693807 0.010173588 0.13088055 0.091913775 0.08585686 0.062499706 0.003974189
0.081198044 0.11283746 -0.15440848 -0.04815232 -0.07637241 -0.14991947 0.028299578 0.0064638234
0.12997825 0.05286821 -0.09277355 -0.016922252 0.0059917965 -0.065335386 0.027381299 -0.08317259
0.17415547 0.1341877 0.027821478 -0.012674603 -0.01597014 -0.0724551 0.041762896 0.2955832
0.16545354 -0.23027033 0.009551471 0.033633545 -0.089440055 -0.09832049 0.12029349 0.006964573
-0.07234754 -0.04354452 -0.05417204 -0.0393919 -0.008579216 0.12364786 0.11077025 0.093083926
-0.20326445 -0.12665817 0.07913627 -0.10101937 0.13252279 -0.01138582 0.0151000535 0.015292461
-0.0016863114 0.09490528 -0.15617615 -0.065558404 -0.07024582 0.15008794 -0.021620587 0.0537412
-0.16814741 0.12230056 -0.08681983 -0.21058847 0.07321841 0.08875575 -0.07498874 0.06759013
00000000: b9ac 573e 6e29 3b3d 1faf 263c 8d05 063e
00000010: 4a3d bc3d b9d5 af3d b1ff 7f3d ea39 823b
00000020: 294b a63d 5417 e73d 421d 1ebe 5e3b 45bd
00000030: 2369 9cbd 7d84 19be 84d4 e73c 7bce d33b
00000040: 0519 053e 568c 583d 0f00 bebd 89a0 8abc
00000050: d556 c43b 8fce 85bd bf4e e03c 6456 aabd
00000060: d055 323e 8068 093e dee9 e33c 23a9 4fbc
00000070: d0d3 82bc 5763 94bd 920f 2b3d ae56 973e
00000080: a76c 293e fccb 6bbe c67d 1c3c 54c3 093d
00000090: 592c b7bd 415c c9bd 6f5c f63d 1337 e43b
000000a0: f22a 94bd bd5b 32bd 80e3 5dbd 6759 21bd
000000b0: d78f 0cbc 173b fd3d 83db e23d c9a2 be3d
000000c0: 8e24 50be aeb2 01be 3212 a23d 3ee3 cebd
000000d0: 0eb4 073e 978b 3abc 3766 773c 3b8d 7a3c
000000e0: 3907 ddba b35d c23d a4ec 1fbe 7c43 86bd
000000f0: 0add 8fbd a7b0 193e a81d b1bc bc1f 5c3d
00000100: d62e 2cbe b778 fa3d 98ce b1bd 81a4 57be
00000110: 89f3 953d 93c5 b53d b293 99bd b26c 8a3d

transformer.attn.proj_q.weight f4 [72, 72]
-0.0047161784 -0.22768103 0.04139439 -0.01397702 -0.065282136 0.17638597 -0.032700583 0.07609797
-0.3906559 0.13808115 0.27350694 0.011680681 0.07271801 -0.16339198 -0.21193717 -0.084214605
-0.198986 0.059078347 -0.18579392 0.12875776 -0.14897332 -0.049767148 0.11079923 0.3261673
-0.07393985 -0.26140925 0.43048787 0.2363608 -0.06392287 0.2628108 -0.08560342 0.0722769
0.15892352 -0.0028582972 0.32037225 -0.06685425 0.12697789 0.31728205 -0.46749175 0.2592174
-0.113383025 0.011292527 0.31016004 0.48191273 0.1348711 0.004240666 0.123131685 0.30231237
-0.30807135 0.1455306 -0.082961634 -0.13883054 -0.58724743 -0.11410923 -0.1529282 -0.21036512
0.1915018 -0.24081342 -0.054432422 -0.2063792 -0.14685833 -0.349322 0.05388447 -0.04940422
0.035091884 0.1203172 -0.20626563 0.33903116 0.11152278 0.02453043 0.19238415 -0.107330546
0.3250341 -0.15347041 -0.16257575 -0.052379165 -0.01267561 -0.15584435 -0.041293237 -0.051610474
0.114774734 -0.0084714275 -0.19218403 0.009241791 -0.14387512 0.0072547137 0.30759236 -0.011399452
-0.2148493 0.08610344 0.08539105 -0.24660592 0.052183263 0.0106485095 -0.18680531 0.015177764
-0.3240288 0.23705004 0.028172059 -0.06345312 -0.17899606 0.559575 -0.22882006 -0.38010037
0.45821258 0.017172417 -0.29826152 0.03718572 -0.13746706 0.07456272 -0.12203264 -0.14468032
0.15523617 0.32739738 0.25080493 -0.23719172 0.066283055 0.17672122 0.53094137 -0.12112889
0.092928804 -0.09027135 -0.2983746 -0.009957098 -0.07108527 0.24584043 -0.18210852 0.013242056
-0.06943652 -0.2246991 0.23837896 -0.149293 0.17016734 -0.24825269 -0.09542902 0.10611175
-0.11873512 0.1491113 -0.18007927 -0.21857923 -0.04271131 0.3346135 0.30320558 -0.2779507
0.2996084 0.012950996 0.010691697 -0.094547324 -0.05316659 -0.061901774 0.38297865 0.0076189875
0.09466094 -0.12571539 -0.20765498 0.416556 -0.38984296 0.17051136 -0.005452899 0.18855515
0.115541115 0.17093904 -0.12757482 0.45472515 0.058495328 0.22335175 -0.30033216 -0.24043821
-0.17464444 -0.030776117 0.20983672 -0.04876025 -0.13708198 -0.15164942 0.039756034 0.16706948
-0.24471894 -0.05227494 -0.30647033 0.038957223 0.03010398 -0.362027 0.23417857 0.33620253
0.20524594 -0.086872734 0.035481475 0.18014923 -0.23457591 -0.3553337 0.155984 0.13653821
-0.13463338 0.29869747 0.33068225 0.11604098 -0.24248672 -0.05585861 -0.40367502 -0.07448498
0.05309138 0.18638854 -0.16296417 -0.41171506 0.102642864 -0.27301788 -0.157716 0.14899914
0.13695516 0.07127961 -0.19478738 0.23291847 0.033499476 0.17622156 -0.37106168 0.070157304
-0.03883411 0.10889083 0.27038318 -0.21008433 0.39627296 0.20816532 0.06338915 -0.021281347
0.2546606 -0.30281907 0.256678 -0.26510426 0.033032805 -0.06671795 -0.33671865 -0.08905794
0.063817345 -0.19911489 -0.026434949 0.12269697 -0.144914 -0.22920671 0.15649521 0.09991582
0.05558857 -0.016634881 -0.35950252 -0.1889461 0.044046182 -0.036571298 -0.09644937 -0.36000594
0.16635418 -0.006386179 -0.17518114 -0.17148843 0.5521026 -0.2208622 0.27822244 0.44198546
00000000: 2c8a 9abb 3725 69be 2a8d 293d dfff 64bc
00000010: a4b2 85bd 869e 343e 0cf1 05bd 41d9 9b3d
00000020: 0d04 c8be 2565 0d3e 1a09 8c3e 5460 3f3c
00000030: 2eed 943d 3a50 27be 0f06 59be b578 acbd
00000040: fcc2 4bbe 23fc 713d c340 3ebe 13d9 033e
00000050: 768c 18be a3d8 4bbd b5ea e23d 66ff a63e
00000060: c76d 97bd 6fd7 85be e868 dc3e 9108 723e
00000070: fee9 82bd 238f 863e d950 afbd e905 943d
00000080: d9bc 223e 4552 3bbb d507 a43e e2ea 88bd
00000090: 7e06 023e cb72 a23e 145b efbe 25b8 843e
000000a0: 5c35 e8bd 4b04 393c 4ccd 9e3e 44bd f63e
000000b0: a61b 0a3e 49f5 8a3b 772c fc3d b0c8 9a3e
000000c0: 87bb 9dbe f905 153e cae7 a9bd 9829 0ebe
000000d0: d955 16bf 1ab2 e9bd 3699 1cbe f469 57be
000000e0: 0c19 443e cb97 76be 88f4 5ebd 1255 53be
000000f0: 0862 16be 55da b2be f6b5 5c3d 145c 4abd
00000100: 82bc 0f3d dd68 f63d 4c37 53be 7e95 ad3e
00000110: 0e66 e43d 0af4 c83c 5a00 453e 1ed0 dbbd
00000120: df6a a63e 5927 1dbe 427a 26be 898b 56bd
00000130: 5dad 4fbc a995 1fbe 1923 29bd 8165 53bd
00000140: 040f eb3d becb 0abc e4cb 44be e26a 173c
00000150: 0054 13be f3b8 ed3b bf7c 9d3e c4c4 3abc
00000160: 7401 5cbe 0057 b03d 81e1 ae3d 4386 7cbe
00000170: 1ebe 553d 1677 2e3c e449 3fbe 28ac 783c
00000180: 1ae7 a5be 3fbd 723e 17c9 e63c b6f3 81bd
00000190: be4a 37be 4f40 0f3f ce4f 6abe 849c c2be
000001a0: d79a ea3e 2bad 8c3c bcb5 98be 0e50 183d
000001b0: 2ac4 0cbe 57b4 983d 40ec f9bd 1427 14be
000001c0: 3bf6 1e3e a1a0 a73e 8169 803e 63e2 72be
000001d0: 69bf 873d 68f6 343e c6eb 073f 6c12 f8bd
000001e0: 7551 be3d 30e0 b8bd 8ec4 98be 1923 23bc
000001f0: 2795 91bd 98bd 7b3e a87a 3abe 35f5 583c
00000200: bc34 8ebd 8517 66be 9d19 743e 44e0 18be
00000210: 5940 2e3e f435 7ebe 4a70 c3bd 1e51 d93d
00000220: 662b f3bd a2b0 183e b366 38be 3cd3 5fbe
00000230: 0ef2 2ebd 7652 ab3e c33d 9b3e 8e4f 8ebe
00000240: 4666 993e 6a30 543c 3a2c 2f3c 07a2 c1bd
00000250: 36c5 59bd b78c 7dbd c715 c43e b3a8 f93b
00000260: 98dd c13d 89bb 00be 82a3 54be d446 d53e
00000270: 7f99 c7be 889a 2e3e 3bae b2bb 9a14 413e
00000280: d2a0 ec3d a50a 2f3e f9a2 02be bcd1 e83e
00000290: cc98 6f3d 52b6 643e 23c5 99be 6f35 76be
000002a0: fed5 32be 321e fcbc 70df 563e d4b8 47bd
000002b0: 385f 0cbe fc49 1bbe 39d7 223d 4314 2b3e
000002c0: 9a97 7abe 3f1e 56bd aee9 9cbe 9c91 1f3d
000002d0: 9f9c f63c 9a5b b9be 82cc 6f3e bd22 ac3e
000002e0: fe2b 523e 55ea b1bd 0655 113d 0a79 383e
000002f0: ab34 70be 4cee b5be 45ba 1f3e acd0 0b3e
00000300: 55dd 09be e0ee 983e 2f4f a93e e5a6 ed3d
00000310: 704e 78be ffcb 64bd 7eae cebe 958b 98bd
00000320: 5976 593d a3dc 3e3e 14e0 26be 51cc d2be
00000330: 6c36 d23d 00c9 8bbe 4e80 21be 3b93 183e
00000340: f93d 0c3e 0bfb 913d 5876 47be 2e82 6e3e
00000350: bf36 093d 6d73 343e ccfb bdbe a2ae 8f3d
00000360: 8410 1fbd 2802 df3d aa6f 8a3e 5920 57be
00000370: 4ae4 ca3e 4a29 553e 2cd2 813d 3856 aebc
00000380: e062 823e 1a0b 9bbe 4c6b 833e bfbb 87be
00000390: 684d 073d 6ca3 88bd 6366 acbe 0264 b6bd
000003a0: abb2 823d c6e4 4bbe 1b8e d8bc 8d48 fb3d
000003b0: 5664 14be 2ab5 6abe 4840 203e aaa0 cc3d
000003c0: d7b0 633d e045 88bc b710 b8be 167b 41be
000003d0: c569 343d c9cb 15bd 3f87 c5bd b352 b8be
000003e0: c058 2a3e 2743 d1bb af62 33be aa9a 2fbe
000003f0: 9956 0d3f b329 62be 2c73 8e3e eb4b e23e

transformer.attn.proj_q.bias f4 [72]
-0.46758014 0.3181965 0.023935618 -0.050388772 -0.38547522 0.13066442 0.48840466 -0.11864386
0.3009534 0.105707996 -0.022854757 -0.3139968 -0.38308653 -0.28157917 -0.049655203 -0.033137996
0.27409282 0.23204738 0.08818527 0.005196716 -0.3979944 -0.35279575 0.2898322 0.03575707
0.3832864 -0.18208197 0.17821623 -0.15631175 -0.2633231 0.15609348 -0.0020857288 -0.37769377
0.39193544 -0.29125234 0.313197 -0.06628336 0.032554336 -0.1563342 -0.04242598 0.1886529
0.03877482 0.06817988 0.05578593 0.12055659 0.19589894 -0.13981189 0.02755361 0.14219531
-0.10616537 -0.06116423 -0.13159883 -0.14149709 -0.15669776 -0.045642108 0.43727472 0.16337414
-0.1744776 -0.046632584 -0.092146546 -0.16917089 0.10431392 -0.42001137 -0.07737156 0.20875305
-0.019064842 -0.6283213 0.42522424 0.28642905 0.13081853 0.3279049 -0.08138257 -0.42105302
00000000: aa66 efbe a7ea a23e a114 c43c 7564 4ebd
00000010: 025d c5be e5cc 053e 2d10 fa3e 8dfb f2bd
00000020: 9016 9a3e 6f7d d83d e639 bbbc 30c4 a0be
00000030: eb23 c4be 252b 90be 4163 4bbd b5bb 07bd
00000040: e555 8c3e d49d 6d3e 7b9a b43d 3749 aa3b
00000050: ecc5 cbbe a5a1 b4be e364 943e 0176 123d
00000060: 1d3e c43e b273 3abe 517e 363e 3010 20be
00000070: 49d2 86be f8d6 1f3e b9b0 08bb 1461 c1be
00000080: c3ab c83e 071f 95be 5b5b a03e 92bf 87bd
00000090: b257 053d 1316 20be ddc6 2dbd 3a2e 413e
000000a0: 58d2 1e3d e5a1 8b3d ca7f 643d 60e6 f63d
000000b0: bb99 483e d92a 0fbe 1cb8 e13c a69b 113e
000000c0: 3b6d d9bd 5887 7abd d8c1 06be 9de4 10be
000000d0: 6175 20be 38f3 3abd 79e2 df3e 8d4b 273e
000000e0: 42aa 32be cf01 3fbd 54b7 bcbd 223b 2dbe
000000f0: 89a2 d53d bb0b d7be fb74 9ebd 5cc3 553e
00000100: df2d 9cbc aad9 20bf feb6 d93e d4a6 923e
00000110: 4bf5 053e 27e3 a73e e8ab a6bd 4394 d7be

transformer.attn.proj_k.weight f4 [72, 72]
-0.22231528 0.28599712 -0.25597188 -0.24213989 -0.05890452 -0.23082119 -0.46444565 -0.281705
-0.075685576 0.13042103 0.24228454 0.34965396 -0.07104244 0.09335244 0.0014313328 0.029086491
0.10098338 -0.23801146 -0.2612128 0.047879547 -0.23784256 -0.19992524 0.37623784 0.46177036
-0.46131107 -0.1784458 0.3823079 0.16387883 -0.18175897 0.1312177 -0.05540778 0.21608901
-0.34361896 0.54942197 -0.13678657 0.16334754 0.115220636 -0.18100385 0.03127032 -0.0014006994
-0.09531691 0.085410714 -0.3701531 0.059779495 -0.22165643 0.12947215 0.22641483 0.2559603
0.07957169 0.047112398 -0.12339047 -0.25754946 -0.3204464 0.072135694 -0.1033309 0.05049065
-0.031012457 -0.13831754 0.16282623 0.41894913 -0.21379507 0.039942488 -0.00874907 -0.09539526
-0.05152307 -0.11780791 0.3084097 0.26482052 0.049053863 -0.14509958 0.0753353 -0.1968662
0.09601515 -0.25870678 -0.049038596 -0.24228269 -0.0772165 0.36592615 0.09182245 -0.103344366
-0.06353257 0.20358662 -0.15704499 0.05135047 -0.038858112 -0.17760168 0.03146082 0.09338018
-0.11594496 0.52651083 0.0358427 -0.38932762 0.3789537 -0.13138703 0.23079476 -0.22516976
-0.082816035 0.018994767 -0.03303664 -0.5290094 0.29240325 0.24987178 -0.4456714 0.2952705
0.43235248 -0.24293366 -0.06342525 0.14710346 0.2851217 -0.14534797 0.025173675 0.12137362
0.1886658 -0.169179 -0.102401964 -0.20878078 -0.51361966 0.08198359 0.15245005 0.39415732
-0.14597173 -0.43146107 -0.049233228 -0.12230142 0.09035842 0.072115205 -0.18257943 -0.10683639
-0.10435063 0.11846608 -0.018506136 -0.018774021 0.25953636 0.013195728 0.5590526 -0.11862228
-0.2833239 0.28223377 -0.19700727 -0.01984676 0.27331305 -0.16516848 -0.04604989 0.10015392
0.31411085 0.20236674 -0.12559617 -0.18220681 0.13876814 0.062010057 0.12440143 -0.06485817
-0.027871268 0.019273125 0.0059081744 0.2491922 -0.55092007 -0.070130564 -0.38256 -0.07103481
-0.20099743 -0.03718412 0.33916542 0.40829885 0.31752875 0.08642209 -0.15352352 -0.277784
0.12259431 0.5219433 -0.08885264 -0.2519547 -0.10156506 -0.16472654 0.46161944 -0.029079122
0.06328066 -0.12667309 0.29556334 0.14259057 -0.36614385 0.08900024 -0.04581859 -0.12003493
0.20186943 -0.031909358 -0.077478565 0.40673262 -0.32570472 0.0057330243 0.25226426 0.021599134
0.10720544 0.37845668 0.16943139 0.16089737 -0.27645355 0.01314226 -0.31515563 -0.035576817
-0.49621835 0.2821963 -0.06995784 0.16639988 0.09853748 -0.37223053 -0.14546907 -0.17234196
0.0139775155 -0.09651577 0.055198904 0.115875185 -0.0017957952 0.015760403 0.13568002 -0.025283754
-0.04024807 0.1878357 0.09172301 -0.43534568 -0.059450194 -0.19768645 0.3320694 -0.12005843
0.11278967 -0.15931627 0.117505044 -0.3551953 -0.010982662 -0.25353405 0.36112598 -0.10784481
-0.02610745 0.3804131 -0.053842027 -0.40604442 0.18406725 0.0505667 -0.27693725 -0.08736866
-0.0077338475 -0.25899568 0.09755229 -0.014477533 -0.01945597 0.023399763 0.27200738 -0.30860022
0.054696735 0.10910051 -0.28047085 0.13169804 -0.24701004 0.13698728 -0.089524314 -0.29929683
00000000: 9ea6 63be 376e 923e bf0e 83be 85f3 77be
00000010: de45 71bd 645c 6cbe d2cb edbe a33b 90be
00000020: 0a01 9bbd 178d 053e 7019 783e d805 b33e
00000030: b37e 91bd 902f bf3d 8f9b bb3a cb46 ee3c
00000040: 60d0 ce3d 47b9 73be afbd 85be 581d 443d
00000050: 008d 73be 34b9 4cbe 3fa2 c03e 2a6d ec3e
00000060: f730 ecbe 7fba 36be dcbd c33e dacf 273e
00000070: 061f 3abe ef5d 063e 45f3 62bd 7046 5d3e
00000080: d3ee afbe eba6 0c3f c711 0cbe 9444 273e
00000090: ccf8 eb3d 1359 39be 4f15 003d ac97 b7ba
000000a0: 8335 c3bd d0eb ae3d b584 bdbe 58db 743d
000000b0: e7f9 62be 5994 043e 4ad9 673e 3a0d 833e
000000c0: 7bf6 a23d eef8 403d 25b4 fcbd 86dd 83be
000000d0: 8d11 a4be e1bb 933d 279f d3bd 49cf 4e3d
000000e0: d60d febc 1da3 0dbe ebbb 263e 8080 d63e
000000f0: 18ed 5abe bc9a 233d 4258 0fbc 975e c3bd
00000100: db09 53bd 4645 f1bd e0e7 9d3e 8e96 873e
00000110: b4ec 483d fc94 14be 6549 9a3d 4b97 49be
00000120: 97a3 c43d 3775 84be b2dc 48bd f418 78be
00000130: af23 9ebd ac5a bb3e 690d bc3d 36a6 d3bd
00000140: 5d1d 82bd 0379 503e 67d0 20be df54 523d
00000150: af29 1fbd 37dd 35be 10dd 003d 1c3e bf3d
00000160: 8d74 edbd 6ac9 063f cccf 123d f355 c7be
00000170: 3806 c23e 528a 06be 7655 6c3e e792 66be
00000180: 749b a9bd ea9a 9b3c 6e51 07bd 296d 07bf
00000190: e1b5 953e 63de 7f3e 0b2f e4be b22d 973e
000001a0: 4e5d dd3e 9ac3 78be 19e5 81bd 4aa2 163e
000001b0: 79fb 913e 19d6 14be 0639 ce3c bc92 f83d
000001c0: 9c31 413e 433d 2dbe 1fb8 d1bd a1ca 55be
000001d0: 947c 03bf 03e7 a73d de1b 1c3e fdce c93e
000001e0: 9d79 15be 77e8 dcbe c8a8 49bd 2b79 fabd
000001f0: d60d b93d 23b1 933d 1af6 3abe 0acd dabd
00000200: c8b5 d5bd 589e f23d 2e9a 97bc facb 99bc
00000210: f3e1 843e e532 583c 121e 0f3f 3df0 f2bd
00000220: d50f 91be f280 903e 46bc 49be ac95 a2bc
00000230: b0ef 8b3e ed21 29be cf9e 3cbd 801d cd3d
00000240: 23d3 a03e 3a39 4f3e 489c 00be 6c94 3abe
00000250: 3c19 0e3e 42fe 7d3d 2dc6 fe3d 5cd4 84bd
00000260: 4952 e4bc ace2 9d3c 5c99 c13b 3d2c 7f3e
00000270: 1909 0dbf 9da0 8fbd e8de c3be b37a 91bd
00000280: 45d2 4dbe 604e 18bd 17a7 ad3e 8c0c d13e
00000290: 2193 a23e 11fe b03d 4535 1dbe b439 8ebe
000002a0: ba12 fb3d 139e 053f 5ff8 b5bd 3500 81be
000002b0: 5801 d0bd 13ae 28be 6259 ec3e 5737 eebc
000002c0: 4a99 813d 97b6 01be 1454 973e 4303 123e
000002d0: 3577 bbbe c245 b63d 46ac 3bbd e0d4 f5bd
000002e0: dcb6 4e3e 63b3 02bd 15ad 9ebd 423f d03e
000002f0: c5c2 a6be 18dc bb3b c828 813e abf0 b03c
00000300: 878e db3d 13c5 c13e 6c7f 2d3e 48c2 243e
00000310: 528b 8dbe a252 573c 145c a1be ffb8 11bd
00000320: 5510 febe 097c 903e 0e46 8fbd bb64 2a3e
00000330: 05ce c93d 0095 bebe d8f5 14be 697a 30be
00000340: f301 653c 0faa c5bd 3f18 623d f84f ed3d
00000350: e360 ebba f61b 813c b4ef 0a3e e01f cfbc
00000360: 29db 24bd 0058 403e 46d9 bb3d a1e5 debe
00000370: 0c82 73bd 516e 4abe 0005 aa3e 32e1 f5bd
00000380: 45fe e63d ce23 23be 7ca6 f03d 29dc b5be
00000390: a0f0 33bc 37cf 81be 81e5 b83e bddd dcbd
000003a0: 4adf d5bc 81c5 c23e 7589 5cbd 0ee5 cfbe
000003b0: 207c 3c3e 071f 4f3d b8ca 8dbe 57ee b2bd
000003c0: 376c fdbb 159b 84be 7fc9 c73d 2d33 6dbc
000003d0: 2062 9fbc dcb0 bf3c 8d44 8b3e d900 9ebe
000003e0: af09 603d 1770 df3d e099 8fbe dadb 063e
000003f0: 33f0 7cbe 6546 0c3e 8658 b7bd 6f3d 99be

transformer.attn.proj_k.bias f4 [72]
-0.041918825 -0.041257598 0.07752589 0.07158884 -0.018926641 0.048180364 -0.042827245 0.054124158
0.04541618 0.06200712 -0.039132696 0.04943509 0.018273313 0.068781674 0.02988842 0.0068697375
0.08075558 0.11761958 -0.06497678 0.04543492 0.07551247 -0.0012439609 -0.029427908 -0.083508305
-0.06007103 -0.110929094 -0.08569118 -0.09099255 0.09474366 0.040509883 0.11684009 0.006290286
0.002310536 0.05422079 -0.09118336 -0.027893893 0.061770756 0.10165993 0.07246461 0.02524258
0.029369274 -0.0412983 0.0757939 -0.0051303273 0.042846866 -0.03243221 0.012369935 -0.11760639
-0.019063085 0.075962745 0.013292867 0.105526514 -0.10059351 -0.0529378 -0.10115674 0.0592718
-0.09248647 -0.014697745 0.07035609 -0.04092937 0.026807623 -0.046196077 -0.0047254716 -0.043762412
-0.055363905 -0.015487314 0.06635247 0.06811857 -0.049023584 0.08109754 0.12022224 -0.026948607
00000000: 13b3 2bbd bafd 28bd e5c5 9e3d 2b9d 923d
00000010: 0b0c 9bbc c658 453d 9f6b 2fbd 4bb1 5d3d
00000020: 5106 3a3d 2efb 7d3d 9b49 20bd 737c 4a3d
00000030: eab1 953c 68dd 8c3d 8fd8 f43c 891b e13b
00000040: 2e63 a53d 89e2 f03d 8c12 85bd f719 3a3d
00000050: 48a6 9a3d 670c a3ba cc12 f1bc 6706 abbd
00000060: 0a0d 76bd cb2e e3bd db7e afbd 4d5a babd
00000070: f708 c23d b1ed 253d db49 ef3d be1e ce3b
00000080: 5d6c 173b 9e16 5e3d 57be babd bc81 e4bc
00000090: 5503 7d3d 1533 d03d 5368 943d 87c9 ce3c
000000a0: d597 f03c 6828 29bd d539 9b3d 4e1c a8bb
000000b0: 3280 2f3d a3d7 04bd 45ab 4a3c 9edb f0bd
000000c0: 302a 9cbc 5b92 9b3d 53ca 593c 491e d83d
000000d0: f803 cebd 4ed5 58bd 442b cfbd fdc6 723d
000000e0: 8c69 bdbd d0ce 70bc db16 903d 8ea5 27bd
000000f0: a99b db3c 1938 3dbd 21d8 9abb 3740 33bd
00000100: 43c5 62bd 81be 7dbc cee3 873d c081 8b3d
00000110: f4cc 48bd 7816 a63d 1437 f63d 53c3 dcbc

transformer.attn.proj_v.weight f4 [72, 72]
-0.35723472 -0.042704456 -0.049940843 -0.17391977 0.07048848 -0.16001645 -0.2821776 -0.15437038
0.006432852 -0.14670281 0.04565759 0.056785133 0.04545611 0.028891908 0.22844622 0.61347324
0.28758004 -0.047061518 0.27111745 0.33065078 -0.30997044 0.3827496 0.060172167 -0.0101225935
-0.263221 -0.004050937 -0.03070514 0.07457408 0.28789705 -0.03831099 -0.24808751 -0.38762936
-0.034762833 0.07965802 -0.17795658 0.20255536 0.3919995 0.07302208 -0.16661778 0.14982113
-0.22471985 0.28258285 0.039529927 -0.24789728 -0.32887533 -0.07479662 -0.25478113 -0.46530572
0.31103942 0.019981697 0.14097667 0.42553374 -0.2764447 0.50598735 0.354369 0.12602231
0.40221247 -0.315305 0.08011347 -0.17457049 -0.29650143 -0.06014225 -0.043705884 -0.044391043
0.13898651 -0.05968531 0.2732525 0.10012632 0.36311945 -0.17507812 0.24177596 -0.6791734
-0.2038484 0.25795928 0.111037694 0.40994942 -0.15818077 0.7745778 0.0016693408 -0.47853556
-0.06873614 -0.14167942 -0.91301805 0.007957891 -0.31696418 -0.23393711 -0.0151271215 0.07754756
-0.043183938 0.32987344 0.04978596 -0.15568163 0.028758466 -0.17625737 -0.06552644 -0.19221114
0.13049755 0.14756103 0.308975 -0.39603335 0.1867962 0.2811946 0.13021131 0.38809434
-0.33705086 0.24723184 -0.2781971 0.16668844 -0.43414038 -0.1575582 0.33072123 0.11806816
0.03449066 0.17582354 0.11487749 -0.095920555 0.19544509 -0.25662142 -0.06926811 0.24330924
0.21778597 -0.052350987 -0.11009344 -0.2938118 -0.2641682 0.2262782 0.08132037 0.08290289
0.48222366 -0.074384004 -0.08414429 0.013743952 0.17290446 0.30433497 0.043477193 -0.46278244
-0.01644523 0.3646892 0.049807925 -0.10991964 -0.3086461 -0.108241916 0.2332396 -0.56581295
-0.1486813 0.36826646 0.069908395 0.21290216 0.049168207 -0.064574815 0.28270644 -0.54259
-0.07342775 -0.35757604 -0.35207564 -0.03479425 0.15589117 0.100855686 0.28942913 0.3460033
-0.007169875 0.21212108 -0.29684255 -0.061345454 0.07517385 -0.25808725 0.1421245 0.27872786
-0.1381954 0.18366447 0.3651582 -0.008823084 0.17642625 0.17781793 -0.43177307 0.3542249
-0.10567361 -0.5958676 -0.0023738137 -0.10141141 0.54200214 -0.2955111 0.068245985 0.11167255
0.10992476 0.17973572 0.1507968 0.043436993 0.12824471 -0.17669472 -0.1259691 0.26010612
-0.27052712 0.120105915 0.18233784 0.059922792 -0.518987 0.31239623 0.22824825 -0.22665556
0.283445 -0.08142215 -0.05720009 0.08040626 0.089161836 -0.06930124 0.09622587 -0.017288037
0.12885821 0.05688952 -0.079634346 -0.3435146 0.1892897 -0.18478517 0.23649095 0.1462913
-0.18550847 0.13019305 -0.060543068 0.2364536 -0.07782585 0.23341715 0.085284226 0.18770127
-0.14084955 0.14215381 0.1811122 0.18322703 -0.14437729 0.684537 -0.37324893 -0.19518061
0.17246176 -0.28202087 0.011784844 -0.29797232 0.3205342 -0.21354698 0.109626725 0.06874198
0.03924854 -0.38931906 0.36379546 0.25079075 0.22303236 -0.25484502 0.20197387 -0.13091998
-0.27045274 -0.18325283 -0.39916486 0.106445484 -0.072868764 -0.14755447 0.35421938 -0.32507387
00000000: 78e7 b6be deea 2ebd c58e 4cbd 0618 32be
00000010: 445c 903d 5adb 23be 9579 90be 4513 1ebe
00000020: acca d23b 4339 16be 7403 3b3d 8797 683d
00000030: 3030 3a3d b9ae ec3c ceed 693e 950c 1d3f
00000040: b13d 933e 94c3 40bd e8cf 8a3e 0f4b a93e
00000050: 72b4 9ebe c1f7 c33e 1777 763d 3cd9 25bc
00000060: e7c4 86be b9bd 84bb 5989 fbbc 4cba 983d
00000070: 3e67 933e fceb 1cbd a70a 7ebe 5b77 c6be
00000080: 7963 0ebd be23 a33d 403a 36be ac6a 4f3e
00000090: 29b4 c83e 9a8c 953d da9d 2abe b66a 193e
000000a0: f61c 66be b3ae 903e 22ea 213d c9d8 7dbe
000000b0: 5962 a8be f82e 99bd ac72 82be 8d3c eebe
000000c0: 8f40 9f3e a8b0 a33c 305c 103e 8fdf d93e
000000d0: 298a 8dbe 6388 013f db6f b53e fe0b 013e
000000e0: cbee cd3e a86f a1be 8812 a43d 9bc2 32be
000000f0: 09cf 97be b857 76bd f104 33bd 62d3 35bd
00000100: 7b52 0e3e 9578 74bd c0e7 8b3e 070f cd3d
00000110: cbea b93e ae47 33be 1e94 773e 4fde 2dbf
00000120: a3bd 50be 3d13 843e bb67 e33d e4e4 d13e
00000130: 24fa 21be bb4a 463f c8cd da3a 9d02 f5be
00000140: 89c5 8cbd 6914 11be 8dbb 69bf d061 023c
00000150: 2149 a2be 368d 6fbe bfd7 77bc 41d1 9e3d
00000160: a4e1 30bd 2ce5 a83e 5dec 4b3d 016b 1fbe
00000170: e096 eb3c d07c 34be ba32 86bd ffd2 44be
00000180: 26a1 053e 3d1a 173e f931 9e3e e2c4 cabe
00000190: 8147 3f3e bdf8 8f3e 1d56 053e 4db4 c63e
000001a0: ee91 acbe 582a 7d3e da6f 8ebe 60b0 2a3e
000001b0: a647 debe f056 21be 4b54 a93e b8cd f13d
000001c0: 1446 0d3d 160b 343e e444 eb3d ff71 c4bd
000001d0: c222 483e e263 83be 70dc 8dbd 0f26 793e
000001e0: 4903 5f3e fd6d 56bd ab78 e1bd 806e 96be
000001f0: 0e41 87be 79b5 673e 4b8b a63d fec8 a93d
00000200: 05e6 f63e a456 98bd d753 acbd 502e 613c
00000210: de0d 313e cbd1 9b3e 2415 323d d2f1 ecbe
00000220: 26b8 86bc 8bb8 ba3e 6503 4c3d 8c1d e1bd
00000230: dd06 9ebe f0ad ddbd 5dd6 6e3e 1ed9 10bf
00000240: e93f 18be 6c8d bc3e 222c 8f3d 0603 5a3e
00000250: 9a64 493d cd3f 84bd e6be 903e 2ee7 0abf
00000260: 4a61 96bd 3514 b7be 4243 b4be 6a84 0ebd
00000270: efa1 1f3e 6d8d ce3d 0e30 943e 5827 b13e
00000280: 45f1 eabb 4536 593e bffb 97be 5f45 7bbd
00000290: bff4 993d 0324 84be 1689 113e 6bb5 8e3e
000002a0: 1883 0dbe 8a12 3c3e 04f6 ba3e b28e 10bc
000002b0: 15a9 343e e715 363e 5c11 ddbe f75c b53e
000002c0: 686b d8bd c78a 18bf fc91 1bbb c9b0 cfbd
000002d0: a7c0 0a3f 3b4d 97be 8dc4 8b3d 94b4 e43d
000002e0: 3c20 e13d a40c 383e 7a6a 1a3e fdea 313d
000002f0: 9552 033e 76ef 34be 0bfe 00be a12c 853e
00000300: 8882 8abe 17fa f53d c5b6 3a3e 9a71 753d
00000310: 55dc 04bf 66f2 9f3e e9b9 693e 6518 68be
00000320: b41f 913e a8c0 a6bd a44a 6abd 0aac a43d
00000330: 7b9a b63d cfed 8dbd 1212 c53d a49f 8dbc
00000340: 68f3 033e fc04 693d 5517 a3bd 25e1 afbe
00000350: 29d5 413e 5338 3dbe af2a 723e 63cd 153e
00000360: eff5 3dbe 5451 053e 02fc 77bd e420 723e
00000370: 2963 9fbd e804 6f3e 7fa9 ae3d c334 403e
00000380: dd3a 10be c590 113e 7a75 393e de9f 3b3e
00000390: a4d7 13be d13d 2f3f 7c1a bfbe 6ddd 47be
000003a0: d199 303e 0a65 90be 3815 413c d48f 98be
000003b0: 0f1d a43e 0fac 5abe fa83 e03d 98c8 8c3d
000003c0: 14c3 203d d454 c7be 6643 ba3e a567 803e
000003d0: 9862 643e 0c7b 82be 3dd2 4e3e e30f 06be
000003e0: c878 8abe a1a6 3bbe 565f ccbe 1700 da3d
000003f0: 383c 95bd 8518 17be 3e5c b53e 1570 a6be

transformer.attn.proj_v.bias f4 [72]
0.1611342 0.069588445 0.21313544 -0.057976477 -0.14509682 -0.06309453 0.10326853 0.0013617919
0.06154955 0.05206734 0.051206622 -0.06618931 -0.038309358 0.15691434 -0.0232928 0.18018451
-0.11308476 -0.1861139 -0.19619927 -0.14137457 -0.081482895 0.14245561 0.03984236 -0.112120084
-0.14383297 -0.14257233 0.22433412 -0.29587415 -0.034507558 0.10130728 0.31800914 0.08269022
0.16568826 0.0060275043 -0.019302247 0.2594002 -0.001565701 0.033638183 0.047732297 -0.08685787
-0.08809169 0.056004178 -0.005939441 -0.15058479 -0.016245946 -0.030619176 -0.14050046 0.041507114
0.031427197 -0.01209312 -0.047759373 0.021963844 0.18272561 -0.036899023 -0.18099548 0.0636087
-0.025708938 -0.2281333 -0.15525751 -0.14216042 -0.13206373 0.06413439 0.017027924 -0.07952101
0.040906675 0.109939896 0.07163681 0.13806304 -0.16981485 0.010231759 0.06123289 -0.18898387
00000000: 5d00 253e 6384 8e3d 2d40 5a3e be78 6dbd
00000010: 4394 14be b437 81bd 737e d33d 277e b23a
00000020: 621b 7c3d 9044 553d 09be 513d 438e 87bd
00000030: 46ea 1cbd 27ae 203e 8bd0 bebc 4a82 383e
00000040: fc98 e7bd a494 3ebe 76e8 48be 7fc4 10be
00000050: 81e0 a6bd e2df 113e be31 233d 379f e5bd
00000060: f348 13be 7bfe 11be d8b7 653e d17c 97be
00000070: cc57 0dbd 317a cf3d 18d2 a23e 7d59 a93d
00000080: 2faa 293e 5f82 c53b bf1f 9ebc 1ad0 843e
00000090: 3538 cdba 31c8 093d f182 433d 8ae2 b1bd
000000a0: 6a69 b4bd a364 653d a49f c2bb e632 1abe
000000b0: 3816 85bc 11d5 fabc 5adf 0fbe 5d03 2a3d
000000c0: ceb9 003d 3922 46bc 559f 43bd 85ed b33c
000000d0: 6c1c 3b3e 6e23 17bd e156 39be 4745 823d
000000e0: 8d9b d2bc c79b 69be d3fb 1ebe 8092 11be
000000f0: b73b 07be e458 833d 257e 8b3c e9db a2bd
00000100: c28d 273d 2b28 e13d 52b6 923d 6660 0d3e
00000110: f2e3 2dbe 1ca3 273c 57cf 7a3d fd84 41be

transformer.proj.weight f4 [72, 72]
0.34788007 0.0025660351 0.21631159 0.1330793 -0.27404732 -0.14022645 0.09822168 -0.12748344
0.35716242 0.076598264 0.26883823 0.10814176 0.10330174 -0.42571175 0.34199396 0.25304347
0.08565251 -0.026952986 -0.54900336 -0.24937059 0.360409 0.12423611 0.18636614 0.27728066
-0.086100645 -0.26738286 -0.093945764 -0.07715838 -0.03199176 0.052949592 0.20566957 0.20529345
0.07411514 0.02253306 0.034326945 -0.1624529 -0.06393771 0.075025946 0.005486018 -0.21371825
-0.11983286 0.46393874 -0.07363968 0.2548385 -0.3049258 -0.23436113 -0.22296144 -0.35412976
0.053684086 0.08145771 0.17708433 -0.059734765 0.037197784 0.05604669 0.109512135 0.23412271
-0.075485066 0.025414387 -0.25311965 0.32141662 -0.014286141 0.07593813 0.027694842 0.10834944
0.5926243 -0.15550789 -0.31343293 -0.16247767 0.17127782 -0.07737173 -0.06050449 -0.30989105
-0.1138085 0.9265277 0.20969594 -0.11595239 -0.015196054 0.07951052 -0.33455196 0.3474532
0.20286511 0.43429542 -0.102544166 0.009211742 -0.17982183 -0.036323063 0.28665206 -0.31578386
-0.062955774 -0.11384601 -0.3666179 0.20170893 0.034593593 0.32535508 -0.31752276 0.1308347
-0.060169112 0.13262604 -0.21197537 -0.0023810295 -0.051890533 0.01829341 0.06355665 -0.12119055
-0.0654564 0.10610085 0.21101236 0.2397274 0.2013332 0.1597381 0.11443665 -0.04108647
-0.023273552 -0.2224323 0.25390393 0.09966295 -0.3564567 -0.17032276 0.118696146 0.0012176546
0.22497737 -0.119127266 0.14799668 -0.037327025 -0.25436893 -0.059374094 -0.15795983 0.23519021
0.061392054 -0.28322467 -0.3833297 -0.14895613 0.11837304 -0.25061548 0.5075487 0.22268538
-0.378452 0.099510424 0.27968824 0.24245147 0.115403585 -0.0049903486 0.28633755 -0.071619436
-0.08266367 0.40245444 0.70856947 0.063865945 -0.24193208 0.10643444 0.17104287 -0.047018927
0.07656315 -0.33473 -0.045928 0.026189972 -0.14595485 -0.13788007 0.29762214 0.23754658
-0.058985326 -0.005597651 0.09851953 -0.15864198 -0.20366229 0.051406976 0.21918708 -0.10812758
-0.13251393 -0.03345444 0.29223436 -0.29756114 -0.35902062 -0.20799668 -0.53218776 -0.013610713
-0.03224962 -0.3582576 -0.080771066 -0.009731051 0.07194033 -0.17882685 -0.14788857 0.30152735
-0.064111166 0.15369473 0.40438303 0.08251763 0.11932429 -0.09633058 0.095594674 -0.18543263
0.37774858 0.15791942 -0.29595003 0.049842425 0.080526456 -0.1608613 -0.190601 -0.21969078
-0.08027688 0.08733093 -0.0664749 0.3589321 -0.10325765 -0.017770538 0.26814574 0.14428303
-0.1880563 -0.07995316 -0.41243502 0.3241337 0.03726833 0.032464 -0.04580329 -0.36744672
-0.2108827 0.14021255 -0.17393415 0.68966174 0.09598334 0.15066823 -0.06097765 -0.08938825
0.018149756 0.11691641 -0.016875066 0.7003178 0.2210853 -0.08818966 -0.23081218 0.24988
-0.06457224 -0.3443741 0.39268047 0.26327723 -0.07577177 -0.07542022 0.02266509 0.31081435
-0.25894535 0.27939937 -0.16087799 -0.1299456 0.30484825 0.076807536 0.009482507 -0.12607688
0.12678866 -0.057568274 -0.3063695 -0.29386795 0.37330934 -0.2355381 0.13765725 -0.3919945
00000000: 561d b23e ed2a 283b c980 5d3e f145 083e
00000010: ee4f 8cbe 8697 0fbe 7328 c93d 058b 02be
00000020: fedd b63e 8ddf 9c3d 2aa5 893e 6d79 dd3d
00000030: dd8f d33d e4f6 d9be d519 af3e ea8e 813e
00000040: 956a af3d 82cc dcbc 7c8b 0cbf 015b 7fbe
00000050: 8787 b83e 806f fe3d c4d6 3e3e bbf7 8d3e
00000060: 8955 b0bd 68e6 88be a366 c0bd 3605 9ebd
00000070: cb09 03bd ace1 583d 0b9b 523e 7238 523e
00000080: aec9 973d 4097 b83c 699a 0c3d 0e5a 26be
00000090: c6f1 82bd 34a7 993d 0ec4 b33b f5d8 5abe
000000a0: ee6a f5bd 6189 ed3e 67d0 96bd 317a 823e
000000b0: 3c1f 9cbe 5dfc 6fbe 0150 64be 7f50 b5be
000000c0: d8e3 5b3d 4dd3 a63d 9855 353e 71ac 74bd
000000d0: b45c 183d 3791 653d e647 e03d ddbd 6f3e
000000e0: ea97 9abd d531 d03c e698 81be b890 a43e
000000f0: 6b10 6abc 7385 9b3d 4be0 e23c 50e6 dd3d
00000100: 3ab6 173f 763d 1fbe 487a a0be 8c60 26be
00000110: 7463 2f3e 1275 9ebd 8ed3 77bd 0aaa 9ebe
00000120: 6e14 e9bd eb30 6d3f 88ba 563e 7278 edbd
00000130: dff8 78bc 69d6 a23d 654a abbe 63e5 b13e
00000140: dfbb 4f3e f85b de3e ad02 d2bd d9ec 163c
00000150: 3723 38be 7ec7 14bd 0fc4 923e 6cae a1be
00000160: f5ee 80bd 1928 e9bd 57b5 bbbe c98c 4e3e
00000170: 03b2 0d3d f194 a63e 5892 a2be 88f9 053e
00000180: e373 76bd 1fcf 073e 1210 59be 0c0b 1cbb
00000190: 2b8b 54bd 10dc 953c fd29 823d c032 f8bd
000001a0: 010e 86bd 674b d93d a013 583e 197b 753e
000001b0: 4a2a 4e3e 6292 233e c35d ea3d 494a 28bd
000001c0: 2da8 bebc 4bc5 63be b2ff 813e 171c cc3d
000001d0: 7e81 b6be 1769 2ebe f716 f33d b599 9f3a
000001e0: 7860 663e fff8 f3bd 718c 173e 39e4 18bd
000001f0: a53c 82be 4032 73bd 39c0 21be b4d5 703e
00000200: 3c76 7b3d d302 91be ca43 c4be f587 18be
00000210: 906d f23d ac50 80be b6ee 013f a307 643e
00000220: 76c4 c1be 1fcc cb3d 4c33 8f3e 3345 783e
00000230: b758 ec3d 1486 a3bb d69a 923e 36ad 92bd
00000240: 924b a9bd 820e ce3e cf64 353f 26cc 823d
00000250: 0bbd 77be 4dfa d93d dd25 2f3e eb96 40bd
00000260: 24cd 9c3d bb61 abbe 001f 3cbd 5a8c d63c
00000270: 3075 15be 6f30 0dbe ee61 983e 693f 733e
00000280: 999a 71bd 806c b7bb 9bc4 c93d 0b73 22be
00000290: d98c 50be 1f90 523d 9472 603e fe71 ddbd
000002a0: bbb1 07be 8607 09bd be9f 953e ef59 98be
000002b0: 8dd1 b7be 15fd 54be 753d 08bf 78ff 5ebc
000002c0: 2d18 04bd 8a6d b7be 4d6b a5bd fc6e 1fbc
000002d0: 7455 933d 631e 37be 1a70 17be cb61 9a3e
000002e0: b74c 83bd 2762 1d3e 4b0b cf3e 01ff a83d
000002f0: 4b60 f43d f848 c5bd 24c7 c33d 0de2 3dbe
00000300: 4368 c13e a1b5 213e c386 97be 9227 4c3d
00000310: 0eeb a43d d3b8 24be e92c 43be 9ff6 60be
00000320: 3468 a4bd 8fda b23d fe23 88bd f3c5 b73e
00000330: bf78 d3bd 8593 91bc 664a 893e eebe 133e
00000340: d591 40be 7bbe a3bd af2a d3be daf4 a53e
00000350: ada6 183d f9f8 043d 3b9c 3bbd fa21 bcbe
00000360: a2f1 57be e193 0f3e cb1b 32be ac8d 303f
00000370: ea92 c43d c648 1a3e b3c3 79bd 3011 b7bd
00000380: ccae 943c df71 ef3d 943d 8abc 0748 333f
00000390: 2f64 623e c89c b4bd 075a 6cbe 8be0 7f3e
000003a0: 733e 84bd cd51 b0be 6a0d c93e 46cc 863e
000003b0: 3b2e 9bbd eb75 9abd 24ac b93c 0f23 9f3e
000003c0: 7c94 84be 6f0d 8f3e 33bd 24be 7610 05be
000003d0: 1215 9c3e 454d 9d3d 845c 1b3c 4c1a 01be
000003e0: e3d4 013e b6cc 6bbd 77dc 9cbe dc75 96be
000003f0: 6722 bf3e e630 71be 06f6 0c3e 81b3 c8be

transformer.proj.bias f4 [72]
0.49764365 -0.18127325 0.16526462 -0.25895435 -0.4606445 -0.50887764 0.3101046 -0.105931625
0.15566754 0.062402587 0.037992354 -0.13558352 0.21245131 0.7602879 -0.3831517 -0.08676798
-0.08645147 -0.2158355 0.07693609 0.18610229 -0.7368436 0.07229903 0.057836037 -0.21541595
-0.23129532 -0.33818364 0.44673523 -0.38931334 0.17502306 0.31370324 0.17317012 -0.02477174
0.13735707 -0.5108935 0.33567607 0.14245471 0.2514049 0.27180582 -0.32485527 -0.25515905
0.043570545 -0.028325021 0.42612135 -0.41726848 -0.045321584 -0.13960163 -0.13154057 0.37844616
-0.11694449 0.21415569 -0.34051856 -0.053939737 0.3454947 0.09170138 -0.13072327 0.35158423
-0.051909395 0.114090264 -0.038258135 -0.13378528 0.19760254 -0.23036392 0.19094853 0.060016293
0.73461264 -0.27889624 0.045983173 0.24483576 -0.35445988 -0.2864345 0.17269932 0.029838743
00000000: 26cb fe3e b29f 39be 213b 293e aa95 84be
00000010: 99d9 ebbe ce45 02bf 08c6 9e3e aef2 d8bd
00000020: 5067 1f3e db99 7f3d df9d 1b3d 68d6 0abe
00000030: d68c 593e 3aa2 423f 762c c4be 69b3 b1bd
00000040: 780d b1bd fb03 5dbe ab90 9d3d 9991 3e3e
00000050: c8a1 3cbf 8411 943d 7be5 6c3d 0096 5cbe
00000060: aed8 6cbe 6826 adbe 7bba e43e 1454 c7be
00000070: 3f39 333e b69d a03e 8253 313e 1bee cabc
00000080: 55a7 0c3e ebc9 02bf bcdd ab3e a6df 113e
00000090: 25b8 803e 222a 8b3e 6e53 a6be 35a4 82be
000000a0: 0777 323d e009 e8bc 942c da3e 37a4 d5be
000000b0: 20a3 39bd bbf3 0ebe 92b2 06be b2c3 c13e
000000c0: 9880 efbd a14b 5b3e 7358 aebe eaef 5cbd
000000d0: aee4 b03e efcd bb3d 52dc 05be d902 b43e
000000e0: f29e 54bd 28a8 e93d 90b4 1cbd 02ff 08be
000000f0: 5258 4a3e 85e4 6bbe 0388 433e a5d3 753d
00000100: 930f 3c3f 7dcb 8ebe da58 3c3d 3ab6 7a3e
00000110: c47b b5be 8ba7 92be 17d8 303e 6170 f43c
