Src/extractor/limu_bert_td2.pt (torch, 259067 bytes, 29 tensors)

transformer.embed.lin.weight f4 [72, 6]
000000 e8 3e 8a be d7 aa 25 3f 8a eb c9 3e bf 84 a3 bd
       -0.2700112 0.64713806 0.39437515 -0.07984304
000010 ee 1b 0c bf 19 fb 39 bd 1f da 92 be 47 54 a7 be
       -0.5473012 -0.04540548 -0.28682038 -0.32681486
000020 f8 d5 21 bd 39 a7 97 be 5d 28 88 3f 0d b9 9b 3f
       -0.039510697 -0.29619768 1.0637318 1.2165848
000030 fc 69 ee be 42 16 c1 3f d3 1a 8c be 82 ae ae 3d
       -0.46565235 1.5084918 -0.27364215 0.085293785
000040 f6 6d 77 bf 20 36 73 3f f3 4c 76 be c4 60 1a 3f
       -0.9665216 0.95004463 -0.24052791 0.603039
000050 56 77 c0 3e ab cf 22 3e f8 1c ce 3d 95 d9 44 3e
       0.37591046 0.15899532 0.10064119 0.19223626
000060 37 6c 5a bf 57 f0 21 3d 8d 2a cd 3f f4 e4 d3 3e
       -0.8532137 0.039535847 1.602861 0.41385615
000070 eb 13 a5 3e dd b3 8d 3e c3 a2 4f bf b6 e0 f5 bd
       0.3224176 0.27676287 -0.8110773 -0.12005751
000080 71 99 86 3d 5b f9 9d 3e 7f b4 bb be 64 10 93 bd
       0.065722354 0.30854306 -0.36661145 -0.07180861
000090 d9 57 18 c0 c7 f0 95 3f 8a f2 86 bf 50 14 6f 3d
       -2.3803618 1.1714104 -1.0542767 0.05836898
0000a0 8d 8a ed 3e 8e 29 9d bd 2f 28 5a 3f 1a d3 12 3f
       0.46394768 -0.076739416 0.85217565 0.57353365
0000b0 18 7e b4 be d2 78 83 3d 53 17 d6 3e 04 49 29 be
       -0.35252452 0.06419529 0.4181467 -0.1653176
0000c0 4b e6 36 bf c4 0a a9 3e ee cb ca 3e 94 02 b7 3e
       -0.7144515 0.33016026 0.3960871 0.35744154
0000d0 bd 99 3a 3f ee c3 98 bf a3 01 fe 3f 4b 91 be bf
       0.72890836 -1.1934793 1.984425 -1.488809
0000e0 2f f2 2a bc 98 18 39 3d 17 26 24 bf 1b 9f a3 3e
       -0.010433718 0.04518947 -0.6412062 0.31957325
0000f0 26 1a 81 be ee c2 11 be 8e 8f 7c 3f 84 65 9e 3d
       -0.25215262 -0.14234516 0.9865655 0.07734206
000100 e2 0d 84 3e 14 ba 34 3e 56 c0 79 bf cd fe 5c bf
       0.25791842 0.17649108 -0.97559106 -0.86326295
000110 ab 99 19 bf 3a 75 23 be 39 fc 5b 3d 11 1f ac be
       -0.60000104 -0.15962687 0.053707335 -0.33617452
000120 8b 41 09 3f e2 2a d9 be ff d3 94 be 1e c6 75 3f
       0.53615636 -0.4241553 -0.2906799 0.9600543
000130 6e fc 18 be b9 92 06 be 65 82 b6 bd 61 cd 57 3f
       -0.14940044 -0.13141908 -0.089115895 0.8429776
000140 6f 82 b5 3d cd a4 96 be 8e ae 48 bc ad a2 94 be
       0.08862769 -0.29422608 -0.012248648 -0.29030362
000150 1c cb a7 3f 33 df c3 3f 7f b5 14 bf 36 97 cc 3f
       1.3108859 1.530249 -0.5808944 1.5983646
000160 48 4a 06 bf 45 49 57 be 8f 39 ba bf 52 c7 80 be
       -0.52457094 -0.21024044 -1.4548815 -0.2515207
000170 b1 a5 a7 3f 14 0b 3e be eb 0b af bd 74 02 12 3e
       1.309744 -0.18558913 -0.08547195 0.14258748
000180 be 67 a1 bd 2c e7 4a be 16 d2 99 3e 39 ec 5f be
       -0.078811154 -0.19814748 0.30043095 -0.21867456
000190 33 66 4b 3e fb 0c a8 bd b9 37 b2 3e af 19 bd bf
       0.19863205 -0.08205601 0.34808138 -1.4773463
0001a0 b5 e7 09 c0 d9 f6 bf bd a7 59 d6 be f4 1c e0 be
       -2.1547673 -0.09373254 -0.41865274 -0.4377209
0001b0 95 65 17 bf a9 14 24 be e4 59 3d bd b8 43 13 bf
       -0.59139377 -0.16023506 -0.046228305 -0.57525206
0001c0 bc cc 0f 3d 30 b2 fe be cc 2f 6f 3f b2 0f 62 3e
       0.03510736 -0.4974532 0.9343231 0.220763
0001d0 8f ba 9b 3f ac 3f 41 3e 9c 18 2b bf cc e5 2d be
       1.2166308 0.18871945 -0.66834426 -0.16982192
0001e0 2e 0f 9b 3d c5 db 94 3f 7b f4 c5 be 83 f6 05 bd
       0.07571255 1.1629568 -0.38663086 -0.032705795
0001f0 d8 5d 9e bd f1 0b 36 be 1a eb 8a 3f c2 7d a2 bf
       -0.07732743 -0.17777993 1.0852997 -1.2694628
000200 87 28 45 bf 92 5a 95 3e a6 5e c8 3e d0 f8 7a bf
       -0.77014965 0.29170662 0.3913471 -0.9803591
000210 f0 bd 2c 3e 21 e7 23 3f a3 e3 54 be 79 0c dc bd
       0.1686933 0.6402455 -0.20789962 -0.107445665
000220 ad d6 d4 3d b1 75 34 be 64 32 d2 be d1 eb e3 bd
       0.10392509 -0.1762302 -0.4105407 -0.11128963
000230 47 b7 51 3c a0 33 19 bf e1 39 9a 3e 6d c3 b8 3e
       0.012800044 -0.598444 0.30122283 0.36086598
000240 7e 63 08 3f 71 52 6d 3f 0b 6f 00 c0 95 c9 89 bd
       0.53276813 0.9270392 -2.0067775 -0.06727902
000250 4b 74 da 3c ff 20 69 3c 43 1b 6c bd c7 c4 1e 3e
       0.026666781 0.014229058 -0.057643186 0.15504752
000260 c2 67 07 3f af 4e 03 bd 5c f1 7e 3e 65 ca e7 bc
       0.52892697 -0.03205746 0.24896759 -0.028294751
000270 71 0c 47 be c7 ac 64 3f a1 0b 93 3f 14 80 01 3e
       -0.1943834 0.8932614 1.1487924 0.12646514
000280 40 68 96 3d e3 d9 cf bb eb 1b 5a 3c 85 07 cb be
       0.07344103 -0.006343113 0.01331232 -0.39654174
000290 f5 18 15 3e 98 b8 18 c0 fd b1 4a bf cb d8 6b bf
       0.14560302 -2.3862667 -0.7917784 -0.92127675
0002a0 1a 98 43 be c2 c8 70 3e bb a5 02 3e 9b f7 d6 bd
       -0.19100991 0.23514083 0.12758534 -0.10496446
0002b0 2c 59 3b bd df 55 42 be 28 68 88 bf bf e1 7e be
       -0.045739338 -0.1897807 -1.0656786 -0.24890803
0002c0 d9 ff 36 3f 57 1a 08 be 48 2e f0 3d c1 8b 6a 3e
       0.7148414 -0.13291298 0.117275774 0.22904874
0002d0 a5 b1 08 3f b6 fc 49 3f 22 03 06 40 0d 40 e8 bd
       0.53396064 0.7890123 2.0939412 -0.11340342
0002e0 c0 ed a3 3e 67 25 02 3e 50 c7 0a bf 07 53 75 bf
       0.32017326 0.1270958 -0.54210377 -0.95829815
0002f0 5a dc 74 3f 92 08 bc 3d d9 22 b3 be bb b5 a0 3e
       0.9564873 0.09181322 -0.34987524 0.3138865
000300 ff 87 02 bf 34 90 29 3f c9 84 54 3f 1e 37 60 3e
       -0.50988764 0.6623566 0.83015114 0.21896026
000310 31 0c e5 3d 43 08 8c be 67 64 82 3f 20 b5 17 3f
       0.11183966 -0.27350053 1.018689 0.5926075
000320 a3 0b 61 bf a2 37 06 3f 5c ed 54 3e 9b 39 e6 be
       -0.8790838 0.5242864 0.2079367 -0.44965824
000330 f6 8e c3 3f c8 7a 90 bf 6c 1c 1e 3f bb 76 08 be
       1.5278003 -1.128747 0.6176212 -0.13326542
000340 43 be 4d 3e 74 82 af 3e 18 c7 d5 be 4b e4 10 bf
       0.2009211 0.34279215 -0.4175346 -0.5659835
000350 36 aa 71 3f e9 94 72 be ce bb b0 3d 74 52 b2 bc
       0.94400346 -0.23689617 0.08629571 -0.021767832
000360 55 d4 88 3e 64 a5 41 bf 26 a6 7c bf 90 55 8f 3f
       0.26724496 -0.7564299 -0.9869102 1.1197987
000370 30 2d 15 3e e4 de ed 3e 55 40 9d be b1 e1 a0 be
       0.14568019 0.46459115 -0.30713144 -0.3142219
000380 1c b4 27 be 5d 12 cc 3d e1 4e ab 3d 8e ee c1 3b
       -0.163773 0.0996444 0.08364654 0.0059183305
000390 b9 e0 c7 3f aa 12 05 40 dd fa 02 40 5f af 45 bf
       1.5615455 2.0792642 2.0465615 -0.7722072
0003a0 1e 88 63 3e 33 23 58 3f 97 f1 79 bf 0d 2e 3d bf
       0.22219893 0.8442871 -0.9763426 -0.7389839
0003b0 ea 63 f7 3d c1 d4 9f 3f d1 d9 9c 3d de 39 5f 3f
       0.12079604 1.2486802 0.07658733 0.87197673
0003c0 81 db fe ba 32 85 0d 3f 90 09 b2 be f0 c1 94 bf
       -0.0019444079 0.55281365 -0.3477292 -1.1621685
0003d0 4a b8 05 3d 8c 64 48 bf 4e b2 85 3d f0 d8 48 3f
       0.032646455 -0.7827842 0.065281495 0.7845602
0003e0 d5 52 e6 3e 47 51 3e be de 92 1d bd 51 05 43 be
       0.4498507 -0.18585692 -0.03847014 -0.19044997
0003f0 3e 28 94 bf 2b 9d 84 ba 01 21 c6 3f 5d 68 0b 3f
       -1.1574781 -0.001011764 1.5478822 0.5445612

transformer.embed.lin.bias f4 [72]
000000 63 15 99 bf fe 53 0e 3f 40 be 20 3f a2 95 db be
       -1.1959652 0.5559691 0.627903 -0.42887598
000010 6b 71 da be a3 33 2d be 94 e7 d9 be b0 86 c8 be
       -0.42664656 -0.16914229 -0.42559493 -0.39165258
000020 5f 91 82 be bd 96 0e bf dd 28 07 3f 65 eb 46 3f
       -0.25501534 -0.5569876 0.5279673 0.77702934
000030 c1 7e 76 3e a8 9c e1 3e 86 18 05 3f ad 37 bd 3e
       0.2407179 0.44064832 0.51990545 0.3695654
000040 b6 62 3b 3e b6 0b 52 bd 99 c0 98 3e 91 cb 28 3d
       0.18299374 -0.0512807 0.2983444 0.04120976
000050 57 78 a2 3e 58 9c 29 3e cc bd ba 3e 92 1b e7 3e
       0.31732437 0.16563547 0.3647293 0.45138222
000060 11 08 61 bf 7a 81 64 3e 88 46 67 3e d6 cb 35 3e
       -0.87902933 0.22315016 0.225855 0.17753538
000070 01 79 37 3e 14 53 87 3e a0 45 cf bd 58 b2 bd bf
       0.17917253 0.2643057 -0.10120702 -1.4820051
000080 9b 2e 42 3e 0f 9c 37 3f 85 87 7e be 5e 6f 98 bd
       0.18963091 0.717225 -0.24856384 -0.074431166
000090 77 f4 e6 3d 88 d0 7a be 36 d7 b1 be 85 79 d8 be
       0.11277097 -0.24493611 -0.34734505 -0.42280212
0000a0 4c 98 db 3d f2 cc 8c 3e c3 66 18 3e e1 26 ec 3d
       0.10722408 0.2750011 0.1488295 0.11530853
0000b0 6a 3a be be fe c3 64 3e fd 05 cf 3e 8e fa 1f bf
       -0.3715394 0.2234039 0.40434256 -0.6249169
0000c0 ea 7d 81 3f 20 0a 82 3e cf 60 73 3f 5d 68 96 3e
       1.0116551 0.2539835 0.95069593 0.29376498
0000d0 4f bf 32 3c 92 6a 19 3f f5 a0 3b 3f a2 28 e2 3d
       0.010909869 0.5992824 0.73292476 0.11042906
0000e0 5c 77 ea bc 3b c1 4f 3d 88 a0 db 3d 1a e5 ea 3e
       -0.028621368 0.05072139 0.10723978 0.45877916
0000f0 88 56 08 3f b0 b5 e0 bd 63 6b a8 3e 2f 38 60 3e
       0.53257036 -0.10972154 0.3289443 0.21896432
000100 1b f9 47 3f 93 c0 7e be bb 52 5d 3e 59 ce 36 3f
       0.7811448 -0.24878149 0.2161359 0.7140861
000110 8e 41 d0 3e b3 e5 ff be b9 d3 e1 3d 64 80 6a bd
       0.40675014 -0.49979934 0.11026711 -0.05725135

transformer.embed.pos_embed.weight f4 [120, 72]
000000 85 0f 92 3e d7 5e 02 c0 d6 66 03 3f 4f be cd 3f
       0.28527465 -2.0370386 0.5132879 1.6073703
000010 c8 3e 4e bd f7 e3 11 3f 3c 55 1d 3f 00 94 4d 3f
       -0.05035284 0.5698847 0.6145818 0.80303955
000020 08 08 5e bf 00 17 83 bf 0e b8 d1 bf 9c f3 1b 40
       -0.86731005 -1.0241394 -1.6384294 2.4367437
000030 36 96 52 be ce 55 b3 3f 8c 19 9f be b4 33 25 c0
       -0.20565113 1.401056 -0.31074178 -2.5812807
000040 a8 34 35 3f 23 1c 4d bf 3a be 14 3f b1 2d 89 3f
       0.7078347 -0.8012106 0.5810276 1.0717069
000050 0c 11 13 bd 0c 95 83 3e 15 13 2e c0 d5 17 09 40
       -0.03590493 0.2569965 -2.7199147 2.1420796
000060 8f 9b 6a be aa 44 04 40 c3 05 ca 3e d6 ce a4 3d
       -0.22910903 2.066691 0.3945752 0.08047263
000070 5f be f5 be e6 53 d7 bf 2f 7a 54 3f 68 b8 82 3f
       -0.47996804 -1.6822479 0.8299894 1.0212526
000080 a3 af 33 bf b1 25 0b 3f ee 25 0d bf 6d fc 1f bf
       -0.70189875 0.5435439 -0.55136 -0.62494546
000090 08 20 9a bf 81 87 8d 3f a5 5b 5c 3f de eb a3 3f
       -1.2041025 1.1056978 0.8607734 1.2806356
0000a0 b7 3a 68 3f ac 6d dd 3c ce e7 92 bf eb 2c 51 bf
       0.9071459 0.027029835 -1.1476991 -0.81709164
0000b0 8d 5d 1a 3e 8c 1a 96 3f 46 29 30 bf 26 06 88 3f
       0.1507475 1.1726851 -0.6881298 1.0626876
0000c0 ad bf a1 3f 1e 9e 43 3f 42 bd 98 3f d9 c4 a7 be
       1.263662 0.7641314 1.1932757 -0.3276737
0000d0 8a 05 55 3f c2 9b 34 bf ce 8b 9f bf c2 15 2f bf
       0.83211577 -0.7055017 -1.246454 -0.68392575
0000e0 e5 be 61 bf 9f 52 f6 be 4f 61 8c bf d9 a5 c1 3f
       -0.88181907 -0.4810991 -1.0967196 1.5128738
0000f0 3e 48 f3 be 9d 66 d4 3f 88 7e 4d bd b4 ab c1 3e
       -0.47516054 1.6593815 -0.050169498 0.37826312
000100 f1 07 7e bd ca 1e 3a be 7d 84 f4 3f 1b ad b8 3e
       -0.062019292 -0.18175808 1.9102932 0.3606957
000110 7f 18 09 bf d1 f8 2a 3f cd 94 66 bf a9 c6 5d be
       -0.53553003 0.66785914 -0.900708 -0.21657814
000120 34 d7 3f 3e 85 bb 85 bf 9d cf 87 bd 47 2a 25 40
       0.18734437 -1.0447851 -0.06631396 2.5807054
000130 bb ca c3 3e 86 b1 92 3f 86 1b bd 3e a1 a9 2a 40
       0.3824061 1.1460426 0.3693506 2.6666033
000140 15 b8 a5 bf 56 50 b9 bf f7 45 2b 3f 0b d2 c7 bc
       -1.2946802 -1.4477642 0.6690363 -0.024392148
000150 9c 80 25 bf a4 3c 09 3f 41 08 af 3f 85 27 e3 bf
       -0.6464937 0.53608155 1.3674394 -1.7746435
000160 2e 34 f1 bd 75 e5 7f bf 6c 23 03 3f c9 3e 4c 3f
       -0.117775306 -0.999595 0.51225924 0.797833
000170 34 33 7f bf 53 cd c0 bd 36 c4 ac be 84 e4 f8 3f
       -0.99687505 -0.094141625 -0.33743447 1.9444737
000180 79 ff 59 3f 9b b2 c0 3f 4d 59 40 3e 04 08 21 3f
       0.85155445 1.5054506 0.18784066 0.62902856
000190 a3 ca c0 3f e6 c7 8c bf 57 81 94 3f b7 bc f4 3f
       1.506184 -1.0998504 1.1601971 1.9120091
0001a0 36 2a b6 3e 57 91 8d be c8 66 9e bf dd 83 ca 3e
       0.3557908 -0.27649948 -1.2375116 0.3955373
0001b0 04 2a 81 3f 8a a3 2f 3f 78 e8 4a 3f b0 10 d0 be
       1.0090947 0.68608916 0.7926097 -0.40637732
0001c0 77 35 01 40 bc 2c 8e bf 13 b4 09 3e 14 c3 1a bf
       2.0188882 -1.1107402 0.13447599 -0.60453916
0001d0 62 47 dc be 97 1e c1 be 4b eb 94 3e 20 18 b7 be
       -0.4302321 -0.3771865 0.29085764 -0.35760593
0001e0 89 1b e3 3f 29 52 58 3f 72 bf ee 3f 97 c5 fe 3e
       1.7742778 0.84500366 1.8652174 0.49760124
0001f0 fb 14 80 3f e6 45 a7 3f 92 2d b1 bf 54 74 ca 3e
       1.0006403 1.3068206 -1.3842032 0.39541876
000200 c7 7a 4a bf ad 35 b0 3f 0e 55 28 be 0c 28 21 40
       -0.79093593 1.376638 -0.16438696 2.5180693
000210 2c 78 ef 3e be 05 05 40 85 ec 30 be 49 b7 24 bd
       0.4677137 2.0784755 -0.17277725 -0.040213857
000220 7a 23 80 3e 95 df 03 3f 58 35 7c be 8d 68 ba 3e
       0.25027066 0.51513034 -0.24629724 0.3640789
000230 f1 81 ac be fe f2 55 be 08 9a bd bf 41 00 9b be
       -0.33692887 -0.20893475 -1.4812632 -0.3027363
000240 fc 2c 81 bd 95 f0 fc bf a5 e6 31 bf 4d 8e 0b 3f
       -0.06307408 -1.976092 -0.6949256 0.5451401
000250 bb ec df be 23 6e cb 3f 4a 02 3b 3f 73 e2 33 40
       -0.437353 1.5892986 0.7305037 2.8106964
000260 33 89 35 3f 44 8f 60 bf 46 74 ab bf 85 a4 0d 3f
       0.70912474 -0.87718606 -1.3394859 0.5532916
000270 c8 3b 94 bf 1f ab a5 be 41 80 23 bd 98 26 92 bf
       -1.1580744 -0.32357118 -0.039917234 -1.1418028
000280 af 25 97 3e 92 0f 09 3f 91 53 16 bf f5 de d0 3f
       0.29520938 0.53539383 -0.5872126 1.6318041
000290 5d 3a 71 bf 53 b3 8e be ad c8 9f bf f5 8a a3 3f
       -0.9422968 -0.2787119 -1.2483116 1.2776781
0002a0 57 b5 3e 3e fe f7 8c 3f 8f 62 8f be b5 82 5e bf
       0.18623863 1.1013181 -0.28004882 -0.86918193
0002b0 5d e0 55 3e 1f ea 18 c0 17 7c 9a 3f 60 8b 4c 3e
       0.20886369 -2.3892896 1.2069119 0.19975042
0002c0 df f6 23 c0 06 57 57 bf 4d 15 b5 bf 43 9a 8a bf
       -2.5619428 -0.8411716 -1.4147125 -1.0828327
0002d0 32 21 f8 bc 82 6e 2b 3f 5c ca 9e 3f 4d 1e c2 3f
       -0.030289266 0.66965497 1.2405505 1.5165497
0002e0 c2 9c 8e 3f 7c d0 82 3f a7 fe 06 c0 9a ec dd 3e
       1.1141589 1.0219874 -2.1092927 0.43344575
0002f0 5e d5 96 bf 12 14 f3 3e 53 a5 9f 3f be 0d e9 3e
       -1.1783864 0.4747625 1.2472328 0.45518297
000300 55 93 df 3f 44 95 9c 3f 52 56 f1 3e db 79 13 3f
       1.7466837 1.2233052 0.4713617 0.5760781
000310 1c 76 b6 3f dc 47 8c bf 28 96 d3 bd c6 94 02 3f
       1.4254794 -1.095943 -0.103313744 0.5100826
000320 9d 51 36 3f ba e0 8f be a1 37 98 be 97 be 96 3f
       0.7121828 -0.2810114 -0.2972994 1.1776913
000330 7d 02 f9 3e a6 b2 b3 3f e2 9b 3a bf 08 a3 8e bf
       0.4863471 1.4038894 -0.7289411 -1.1143503
000340 c0 93 20 bf f7 c4 9c 3e 8a af 9b 3f ae de 1e be
       -0.6272545 0.30619022 1.2162945 -0.15514633
000350 aa ed 51 bd 01 ac 39 3f c3 36 81 bf 82 e4 77 3f
       -0.051252045 0.7252808 -1.0094837 0.9683305
000360 65 66 c2 bf e3 b6 8e bf 40 24 8a 3f fb ed 9b be
       -1.5187498 -1.1149563 1.0792313 -0.30455002
000370 06 d3 52 bf 16 d2 dc 3d 21 09 69 3f 66 d0 fe 3f
       -0.82353246 0.10782258 0.91029555 1.9907348
000380 8c 91 e6 be 47 44 9a bf c0 2f 2e 3f 18 f7 e8 3e
       -0.45032918 -1.2052087 0.6804161 0.45501018
000390 56 45 3c bf b1 bb a4 be 44 37 08 3f 30 b1 ac bf
       -0.735433 -0.32174447 0.5320933 -1.3491573
0003a0 eb 46 93 bf 8e 6d c6 3f 13 f5 4c bf 04 d7 3b 3f
       -1.1506017 1.5502183 -0.80061454 0.7337496
0003b0 b0 40 61 3f 38 9b 41 bf ba 33 d1 bf 94 76 96 3f
       0.8798933 -0.7562747 -1.6343911 1.1754937
0003c0 12 14 56 be 07 36 f9 be 54 cb 8d bf fc 8f 14 bf
       -0.20906094 -0.48674032 -1.1077676 -0.580322
0003d0 8b 8a af 3e 06 2e e5 bf 45 01 df 3f dc 4c 03 40
       0.34285387 -1.790467 1.7422262 2.0515661
0003e0 31 6f 85 bf 4c fe 34 3f c2 49 60 bf 57 86 01 3e
       -1.0424558 0.70700526 -0.87612545 0.12648903
0003f0 bf a7 93 bf f7 c9 81 3f de bf 1b 3f e0 fe 53 bf
       -1.1535567 1.013976 0.6083964 -0.82810783

transformer.embed.norm.gamma f4 [72]
000000 d1 7c fa 3e 37 f9 ff 3e 1f 32 0d 3f 03 7f af 3d
       0.48923352 0.49994823 0.55154604 0.085691474
000010 8c c7 83 3e 73 06 4f 3e 97 4b 07 3f 4e b9 95 3e
       0.2573818 0.20217304 0.52849716 0.2924294
000020 47 89 d0 3e e5 2c 05 3f e6 59 3a 3e f3 e5 2d 3e
       0.40729734 0.5202163 0.18198356 0.1698225
000030 8c 3d 58 3e f7 2e fe 3d 93 e2 0c 3f 92 2d b2 3e
       0.21117228 0.124113016 0.55033225 0.34800392
000040 10 b6 90 3d 8f de e2 3e 64 90 35 3e 9a db bf 3e
       0.07065976 0.44310424 0.17730862 0.3747223
000050 ea 56 13 3e b6 12 ba 3e 05 9a b6 3d 92 b9 7a 3e
       0.14388624 0.363424 0.08916096 0.24484852
000060 03 68 38 3f 94 a3 93 3d 74 02 94 3d 74 36 f2 3e
       0.7203371 0.072089344 0.072270304 0.4730717
000070 44 b4 9d 3d dd a3 2d 3e 15 90 4e 3e 25 10 39 3f
       0.077003986 0.1695704 0.2017215 0.7229026
000080 82 b9 28 3e 40 55 a7 3e 2a 14 92 3e 3c fb 03 3d
       0.16477016 0.32682228 0.2853101 0.032222018
000090 da d2 96 3e 9b 7d ea 3d 78 8e 0e 3f 45 d4 fe 3e
       0.29457742 0.114497386 0.5568614 0.49771324
0000a0 18 d0 92 3e d6 ca c6 3d d6 a2 ae 3e ef 36 72 3e
       0.28674388 0.09706657 0.3410861 0.23653768
0000b0 be d3 cc 3d 56 c2 a7 3e 39 e2 0e 3e 3a fa 9c 3e
       0.10001324 0.32765454 0.13953485 0.30659658
0000c0 37 6b 1a 3f 9c 2e be 3e 8b bb ac 3d 1e 7a ef 3e
       0.60319847 0.37144935 0.084342085 0.46772856
0000d0 65 9a 91 3e ff 00 83 3e cf fa 90 3e 36 ba 0f 3d
       0.28438106 0.25586697 0.28316352 0.035089694
0000e0 b8 ac f4 3e 56 f1 3f 3e 98 12 06 3e 8a a7 5c 3e
       0.47788024 0.18744406 0.1309303 0.21548286
0000f0 84 01 e3 3c 7b 50 7f 3d b9 1a 67 3d 11 02 b8 3e
       0.027710684 0.06233261 0.05642197 0.35939077
000100 88 95 e8 3e 6e 57 24 3e af 35 14 3e 38 88 d8 3e
       0.45426583 0.16048977 0.14473604 0.42291427
000110 fa 7b f2 3d 6c be fa 3e e8 f6 81 3e 5a 6b 1e 3e
       0.11840053 0.48973405 0.25383687 0.15470639

transformer.embed.norm.beta f4 [72]
000000 2e ae 43 3e 14 16 9a bc 96 d9 44 bd 42 10 c7 3d
       0.19109413 -0.018809356 -0.04805907 0.09719898
000010 43 5a a1 3d c7 8b 70 bb 85 49 17 3e f9 73 2d 3d
       0.07878544 -0.0036704408 0.14774139 0.04234693
000020 bd 94 df 3d f6 1e a5 3d 81 ac 4b 3d b1 26 15 3d
       0.109170415 0.08062546 0.04972506 0.036413852
000030 22 82 16 3b 9d a4 b1 3d af 9d 07 3d 4c cb a9 3c
       0.0022965749 0.086739756 0.033109363 0.020726822
000040 8a 08 9f 3c 14 9c 31 bd 86 e7 fa 3c cd 40 30 3d
       0.019413251 -0.04336174 0.030627977 0.04303055
000050 e0 02 ea 3c 35 14 a6 3c 3a ea 45 3d 1e e2 2a bc
       0.028565824 0.020273307 0.04831908 -0.010429887
000060 f5 cf 53 3e b6 a4 a8 3c 23 b3 6b bb b6 f5 50 3b
       0.20684798 0.020586353 -0.0035964928 0.0031884736
000070 13 aa 99 3b 7c fd c1 3c 63 ba 5a 3d eb 27 ac 3e
       0.004689464 0.023680441 0.05340041 0.33624205
000080 d3 0c d8 3c 7e f9 66 ba b0 25 c0 3b 03 ec 47 3d
       0.026373303 -0.0008810981 0.0058638677 0.048809063
000090 86 d9 63 bd 81 46 e8 3c c8 6e cc 3c 2d 0b 23 3e
       -0.05562737 0.028353931 0.024955168 0.15922232
0000a0 25 d7 4c 3d 02 ec d7 3d dc 46 0f 3d c2 52 09 3d
       0.050009865 0.10543062 0.034979686 0.03352619
0000b0 71 d6 16 3b e0 a9 31 3d c4 00 60 3c 02 33 02 3e
       0.0023016 0.043374896 0.013672058 0.1271477
0000c0 6e 9b 1b be 79 b7 ac 3c c8 4b 87 3c a2 ef 8b bb
       -0.1519601 0.02108358 0.016515628 -0.00427051
0000d0 e0 26 52 3d b0 e6 35 3c f5 57 39 3b b2 e6 5a 3b
       0.051306605 0.0111023635 0.0028281186 0.0033401665
0000e0 06 82 9a 3d c6 83 5c 3d f6 42 ad bc 4a 2e 23 3d
       0.07544331 0.053836606 -0.021150094 0.039839067
0000f0 31 7b 9f 3c 40 f2 7e 3c 5f 69 45 3c ea 02 3e 3d
       0.019467922 0.015560687 0.012049048 0.046389498
000100 20 f0 8e bc c3 c1 7e 3d 28 a7 9a 3d 0b e1 f2 bc
       -0.017448485 0.062196504 0.07551414 -0.029648324
000110 6d 4b 90 3c b1 05 fd 3d 98 2d 0d 3d dc dc aa 3d
       0.01761409 0.12354601 0.03446731 0.08342907

transformer.attn.proj_q.weight f4 [72, 72]
000000 c0 34 4e 3f bf cf 0e 3e 47 81 23 bc 22 b5 99 bb
       0.8054924 0.13946436 -0.009979553 -0.004690782
000010 9a ae 74 3e a5 3a 7d 3d 9b 40 38 3e 97 24 16 bf
       0.2389473 0.061823506 0.17993395 -0.5864958
000020 da f6 84 3e ba ea 2c bf ba 4a b7 3e f6 fa 90 be
       0.25969583 -0.67545664 0.357992 -0.28316468
000030 a8 37 de 3e 03 d1 a4 3d 09 c6 3a be 70 16 31 be
       0.43401837 0.08047678 -0.18239607 -0.17293715
000040 22 d7 6c 3e b9 16 27 3e 71 31 54 3e b1 72 48 3d
       0.23128942 0.16317262 0.20721985 0.048937503
000050 27 0d fa 3d aa 36 7c bd dd 7a 34 3e 37 26 8a 3f
       0.1220954 -0.06157557 0.17624994 1.0792912
000060 42 19 3b 3d 63 97 e4 bb ba 7a 18 bf eb 5f d0 be
       0.045678385 -0.0069760545 -0.59562266 -0.4069818
000070 40 17 88 3f cc c8 57 3f 3c 85 31 3e 32 3c 51 bd
       1.0632095 0.84290767 0.17335981 -0.051082797
000080 e0 c3 e2 3e 06 21 bd be b2 0f a4 3e 18 ab 29 be
       0.44290066 -0.36939257 0.32043225 -0.16569173
000090 08 43 41 3f 50 06 9c 3e be eb 63 bd f0 dd df be
       0.75492907 0.30473566 -0.055644743 -0.43724012
0000a0 68 96 ae 3c 71 27 3d 3c 40 56 b7 3d 60 df 0e be
       0.021311954 0.011545048 0.08951998 -0.13952398
0000b0 10 ce ed be 29 7e da 3e d0 c1 a1 3e 05 f0 a8 3d
       -0.46446276 0.42674378 0.3159318 0.08248905
0000c0 a2 8a ce 3d 6e 86 53 3d b3 46 80 3e 11 08 30 3f
       0.10085036 0.051641874 0.2505394 0.6876231
0000d0 b4 3c 74 3e 70 09 d7 be f7 6a 9d 3c cb aa cf be
       0.23851281 -0.41999388 0.019216044 -0.40559992
0000e0 6f b9 6b be dc ed f3 be 13 52 86 bc de 4d f7 3e
       -0.23019956 -0.4764241 -0.016396558 0.48301595
0000f0 b2 f1 9a be 00 e1 b4 be 4c de 17 bd 27 5d b8 bc
       -0.30262524 -0.3532791 -0.037077233 -0.022505356
000100 6f 5a b4 3e b9 dc 51 bd 9c a3 a0 3d a2 8a b3 3e
       0.35225245 -0.05123589 0.07843706 0.35066706
000110 31 b1 10 3f 28 6b ac 3e 4e 17 35 3e 99 d0 90 3b
       0.5652037 0.33675504 0.17684671 0.004419398
000120 80 27 49 3f 28 07 4d be 05 6b 4d 3e e1 4b 38 bf
       0.785759 -0.20022261 0.20060356 -0.7199078
000130 b2 28 95 3e fe 55 93 3d 9f 13 35 be ea 15 d3 be
       0.2913261 0.07194136 -0.17683266 -0.41227657
000140 ca 2c 2a bd 3c 06 c1 3d ea 84 14 bf f7 69 9e be
       -0.04154662 0.09425017 -0.5801531 -0.3094022
000150 ae 67 04 bd 6c 1b 12 be 59 f0 ae 3e 87 57 22 bf
       -0.03232544 -0.14268273 0.34167746 -0.63414806
000160 b6 4a 2c 3f 5e 80 44 bf 66 e0 e6 bd f3 eb 07 3f
       0.673015 -0.7675837 -0.11273269 0.53094405
000170 2e f7 57 3e 5f 5e 1f bf 68 21 2e be 56 16 7c be
       0.21090385 -0.62253374 -0.17004931 -0.24617895
000180 18 62 e1 3e b1 4d a9 3d 2f 82 c6 3e 2f d7 13 3e
       0.44020152 0.082667716 0.38771197 0.14437555
000190 c2 45 92 3e 7f 8d 0f 3e 33 a6 74 3f 71 ae 8f be
       0.28568846 0.1401882 0.955661 -0.28062776
0001a0 15 d4 69 bf a4 d5 2b bf ab 2b 2f 3e d8 71 b1 3e
       -0.91339236 -0.67122865 0.17106502 0.34657168
0001b0 43 a3 c2 be 56 ab 53 3e 9e 7d c6 be b1 f7 8b 3e
       -0.38015184 0.20670828 -0.38767713 0.2733741
0001c0 8b b9 f1 3e 18 7f 7c be 55 07 57 3e f6 3d 24 bf
       0.4721187 -0.24657857 0.2099889 -0.64157045
0001d0 1f 1a 4e be 0e a2 39 bf 79 85 1e 3f 08 55 0e 3f
       -0.20127152 -0.725129 0.61922413 0.555985
0001e0 f7 46 b4 3d 29 f2 6b 3e 9b e7 a2 be ee 6d 04 3f
       0.08802598 0.23041596 -0.31817326 0.5173024
0001f0 20 27 ec be 6d 9d 3e bd 26 59 2c 3e 27 90 29 bf
       -0.461236 -0.04653685 0.16830882 -0.66235584
000200 b8 1e 7a be 4e 65 15 3d 99 8f ce 3e e4 47 ff 3d
       -0.24425781 0.036473565 0.4034393 0.12464884
000210 c0 61 c5 3e 94 17 2e 3f de 46 0b be 19 53 6d 3d
       0.3855114 0.6800473 -0.13601252 0.057940576
000220 3e de 86 3e cb a6 d3 3e b3 ff 26 be ef ed d9 be
       0.26341432 0.4133819 -0.16308479 -0.4256434
000230 45 85 f1 bd 7a 23 0f 3f 30 4d c1 3e d7 85 e1 bd
       -0.11792997 0.5591351 0.37754202 -0.11011856
000240 d1 a6 a9 be c4 f4 54 3e 47 f1 d4 bd f8 89 03 3f
       -0.33135083 0.20796496 -0.103975825 0.513824
000250 ec 1e 2e 3f 24 d9 9e bc 8c fd 3e 3f 79 b6 95 3f
       0.68015933 -0.01939065 0.7460563 1.1696311
000260 f4 2f 27 3f c0 ba a9 3e 3c 6f 19 3f 52 1d 4d 3e
       0.65307546 0.3315029 0.59935355 0.20030716
000270 24 3d 23 be 49 81 eb bc ff 50 da 3d 91 ea 11 3f
       -0.15941292 -0.028748171 0.1065998 0.56998545
000280 7f 12 62 3e a2 1a 8b 3e 6b 5f f8 3d 51 76 6b bd
       0.22077368 0.27168757 0.121275745 -0.057485882
000290 d4 81 af bd 23 f8 a4 bd 82 bd 8b be 1b 6f e2 bd
       -0.085696846 -0.08055141 -0.2729302 -0.11056348
0002a0 9c 09 34 be 5c 63 d4 3e 1a 46 cd bd 76 f6 2f be
       -0.1758179 0.41482055 -0.100231364 -0.17183861
0002b0 41 ac 26 be 1c 3d ac be 91 86 13 3e 46 56 72 3c
       -0.16276647 -0.33640373 0.14406802 0.014791077
0002c0 05 93 10 3f d0 91 4e 3e c6 9a a0 be 47 b5 46 be
       0.56474334 0.2017281 -0.31368083 -0.1940509
0002d0 e5 19 c2 be 12 22 93 3e 0b b1 c7 3b a1 dd 43 be
       -0.3791038 0.2873693 0.006094103 -0.19127513
0002e0 d2 42 85 3e 92 0a b3 3e 35 e3 1c bf 11 90 b2 3c
       0.26027542 0.34969002 -0.6128419 0.021797212
0002f0 61 18 be bd 58 fa 2e bd f8 7d cc be 87 0e d5 3c
       -0.09281994 -0.042719215 -0.39939857 0.026007904
000300 9c 4a a3 bd 21 3c c8 bd 97 cb 4d 3e 4d 48 37 3f
       -0.07973215 -0.09777094 0.20097195 0.715947
000310 b7 70 0d 3f fc af a9 3d 4e 8c f3 be 3d e6 90 3e
       0.55250114 0.082855195 -0.4756798 0.28300658
000320 6f 7d 48 3e c0 d2 e0 be 4d 64 40 bf 8f 8c 2b 3f
       0.19579099 -0.4391079 -0.75153047 0.6701135
000330 27 78 6e bd d8 aa 6b bc e5 2f 20 bf aa 58 13 bf
       -0.058220055 -0.014383994 -0.6257308 -0.57557166
000340 85 ac 55 3e 87 b6 b2 be 89 a2 7c be dc 5f 7c ba
       0.20866592 -0.34904882 -0.24671377 -0.0009627321
000350 f1 1f 8e 3e 21 8d 47 3e 83 dc 82 be fc d5 b4 3d
       0.27758744 0.1948743 -0.25558862 0.08829877
000360 22 78 1b 3f 32 33 68 3d ea 6c 39 3e 80 c7 92 3f
       0.60730183 0.05668945 0.18107954 1.1467133
000370 ff 54 4c 3e 9c 48 09 be 44 98 50 3e 62 84 00 be
       0.19954298 -0.13406605 0.20370585 -0.125505
000380 80 50 8a 3e 0a 87 0a be 33 83 61 3d b8 12 70 bd
       0.27014542 -0.13528076 0.055056762 -0.0586116
000390 2a f2 05 3f 5c 1f 8a be b0 57 7f bc bb 52 cc 3e
       0.5232264 -0.2697705 -0.015584871 0.39906868
0003a0 22 86 19 bf ae 47 fc 3e 13 d6 c1 be 3e a1 d3 3e
       -0.59970295 0.49273437 -0.37858638 0.41333956
0003b0 0b 9f 35 3e 2a e0 38 3f a9 4d d6 3d 26 61 84 bf
       0.17736451 0.7221705 0.10464031 -1.0342147
0003c0 09 22 8a 3e ec f6 d8 be df 73 e2 bc 5c 36 df 3e
       0.26979092 -0.42375886 -0.027643142 0.4359616
0003d0 ae 64 94 bb 4c f9 16 bf 0c 36 08 bf 80 9d 10 be
       -0.0045286035 -0.58974147 -0.5320747 -0.14122581
0003e0 bd 5a c0 3e ab 12 09 3f a2 81 3b be 3f cc af 3d
       0.37569228 0.5354411 -0.1831117 0.08583879
0003f0 b2 86 ef be 1b 11 13 bf de 20 24 3f 77 fe 72 bc
       -0.46782452 -0.57447976 0.6411265 -0.014831177

transformer.attn.proj_q.bias f4 [72]
000000 46 7a b5 be 0b 69 02 be 1c 04 88 be b5 3e 1a be
       -0.3544485 -0.12735383 -0.26565635 -0.15062983
000010 16 54 db bd 77 f9 e4 be 10 c0 c3 3e 32 57 1f 3f
       -0.107093975 -0.44721577 0.3823247 0.62242424
000020 cb 3e 4e 3e b2 5b 29 3e aa 8f 02 be 6e 1f 31 bf
       0.20141141 0.16538885 -0.12750116 -0.6918858
000030 8e a1 3e 3d 60 fa 89 3d 79 db 17 3d 94 44 19 3e
       0.04654079 0.06737208 0.03707454 0.14967567
000040 05 2a 50 3c 29 13 98 3e a0 0c 12 3e 7f 38 e9 bd
       0.012705331 0.29702118 0.14262629 -0.11387729
000050 76 86 52 3c a5 8d b2 bd 42 e7 1a 3f bb 31 42 bf
       0.012849441 -0.08718423 0.6050912 -0.7585713
000060 d1 6c bb be 01 80 ed be d3 d1 57 3d 83 41 5f be
       -0.36606458 -0.46386722 0.05269034 -0.21802334
000070 df 3e 2e 3d f1 cd 1f 3e 3b 04 7a be a4 5f c4 bc
       0.042540427 0.15605904 -0.24415676 -0.023971386
000080 13 13 19 bd ed fc 16 be b8 dd 91 3e 5f 61 95 be
       -0.037371706 -0.14744921 0.2848947 -0.2917585
000090 69 a3 47 be ca a1 5a bf 1a 0f 14 3f dc ef 91 be
       -0.1949593 -0.8540312 0.57835543 -0.2850331
0000a0 ae 1d af 3e bf 40 95 3d e8 83 b6 be 9c 76 80 3d
       0.3420233 0.0728774 -0.3564751 0.06272623
0000b0 72 a7 43 be 54 4b e4 3e 94 6b 7b bd 86 31 6a 3e
       -0.19106844 0.4458872 -0.06138189 0.22870454
0000c0 00 17 74 be 9f f1 17 3f fc 1a 74 bd 18 65 26 be
       -0.23836899 0.5935306 -0.059596047 -0.16249502
0000d0 7b f2 ae be 0d 5c 97 3e fd 50 ab 3e 16 15 eb 3e
       -0.34169373 0.29562417 0.33460227 0.45914525
0000e0 c0 1a 21 3e fb 39 b4 3e ab f9 c8 bd e7 f3 ba 3d
       0.1573286 0.35200486 -0.098132454 0.09128552
0000f0 98 4a a2 bc 8b 09 5c bf 2a 32 05 bf f3 ac 60 3d
       -0.01981096 -0.8595206 -0.5202967 0.054852437
000100 da 64 12 bf d4 8a 7f bf fa fc bb 3e 7c 1b db 3d
       -0.5718514 -0.9982121 0.36716443 0.106986016
000110 d1 1f cd be b7 e9 83 be 03 1e 7c be 54 32 9a be
       -0.40063336 -0.25764248 -0.24620824 -0.30116522

transformer.attn.proj_k.weight f4 [72, 72]
000000 be a3 72 3e bc 24 c3 bd 24 a8 d2 3d 9e 16 e9 3e
       0.23695275 -0.09528491 0.102859765 0.45525068
000010 84 75 ba 3e 08 eb 03 bf 0d 4b e8 3e 92 aa bb 3e
       0.36417782 -0.51530504 0.4536976 0.36653572
000020 40 79 8f 3c 55 10 21 bf 2d 6a 61 3e 5a 87 43 be
       0.017513871 -0.62915546 0.22013159 -0.19094601
000030 1c 32 27 bd 5b 1f 82 3e 16 ab 87 3e 4b a8 22 bf
       -0.040819272 0.25414547 0.26497716 -0.63538045
000040 a1 a2 31 bd 17 f5 e0 3d 1d 8e bf bd 05 0f cb 3c
       -0.043367986 0.10984247 -0.09353278 0.024787435
000050 5e ab c2 3d 9e d1 40 bf 98 9c 6e 3e a2 0d 6b 3e
       0.09505342 -0.7531985 0.23301923 0.2295442
000060 34 69 02 be 20 d6 51 bf af ec 83 3d 64 fe 1d 3f
       -0.12735444 -0.81967354 0.06441628 0.61716294
000070 7a 9f 76 be c4 ee ea 3e a3 3d 7c 3e 7f a9 80 be
       -0.24084273 0.4588529 0.24632888 -0.25129315
000080 ab d2 79 3e 2d 6e c9 3e 53 9b 8d be cd 7f f4 3c
       0.2439677 0.3934187 -0.27657565 0.029846096
000090 a0 e6 b3 3e 77 e1 98 bc a7 64 4c 3d a4 9e 17 3f
       0.3513689 -0.018662198 0.049900677 0.5922644
0000a0 d2 32 70 3f 8b 99 16 be 00 ce 6b bf 09 70 ac be
       0.93827546 -0.1470701 -0.92111206 -0.33679226
0000b0 c5 b8 f8 bc 04 1c a9 3d de 76 14 be fb e1 9e be
       -0.030361542 0.08257297 -0.14498469 -0.31031784
0000c0 c8 e5 3a 3e 18 d4 31 3f 2d 7c 10 be 0e de 67 3f
       0.18251717 0.69464254 -0.1410987 0.90573204
0000d0 e5 61 ed be 02 66 b9 3e 1a 54 51 be 47 33 bb bd
       -0.4636375 0.36210638 -0.20442238 -0.0914064
0000e0 81 d9 f6 bb 0b 0f 82 3e 72 33 39 bf 2a 5c cd 3e
       -0.0075332527 0.25402102 -0.72344124 0.40109378
0000f0 57 d8 be 3e 06 5d 40 bf 0b ee 19 3d 68 ac d0 3e
       0.3727443 -0.7514194 0.03758053 0.40756536
000100 5b 42 fc be a1 93 2c bf 26 24 d8 bd fd a2 01 3f
       -0.49269375 -0.67412764 -0.1055377 0.50639325
000110 74 93 80 3e 06 7f a2 bb 66 5b 91 be c4 51 44 bb
       0.25112498 -0.00495899 -0.28390044 -0.0029955963
000120 22 27 bb 3e a0 61 2e be e4 58 5f 3e 3b 9b b5 3e
       0.36553293 -0.17029428 0.21811253 0.35469994
000130 79 24 d2 be 93 02 7e bf 67 66 61 3e e9 42 59 3e
       -0.4104345 -0.9922268 0.2201172 0.2121693
000140 90 6f 18 3f 50 b2 35 3d 36 be 26 3f 75 4f a7 3e
       0.5954523 0.044359505 0.6513399 0.32677808
000150 6e c6 07 be e7 b9 a6 3e 8d 9c e0 3d 5d 99 36 3f
       -0.13259289 0.32563707 0.1096736 0.71327764
000160 f0 04 9f bd 07 e6 b9 3e 25 7b 40 3f 03 d5 a7 be
       -0.07764614 0.3630831 0.75187904 -0.32779703
000170 6c 1d d8 3e ac fc d3 be af 67 3b 3e 38 5a fc 3e
       0.42209947 -0.4140371 0.18301271 0.4928758
000180 f6 c8 1e 3e 77 58 50 bf 70 6d be be e3 86 1c be
       0.15506348 -0.81384987 -0.3719287 -0.1528583
000190 b5 42 89 3e 04 98 76 3f 31 91 0f bf 17 dc 8f be
       0.26808706 0.9632571 -0.5608092 -0.28097603
0001a0 8f b0 87 be 15 4a 80 3e 15 d0 02 3e 6d a8 90 3e
       -0.2650189 0.2505652 0.1277469 0.282535
0001b0 50 43 61 be 79 4b ff be 1c 43 47 3e 46 6d 39 bf
       -0.21998334 -0.4986227 0.19459194 -0.72432363
0001c0 9c ad 2f bf 33 cc 72 3f 65 85 b9 3e b6 f4 cb be
       -0.6862428 0.94842833 0.36234584 -0.39835137
0001d0 35 ee 07 be 63 00 40 bd b6 69 27 be cc f4 ea 3e
       -0.13274463 -0.04687537 -0.1634892 0.4588989
0001e0 5f 2f f6 3e 4b b1 72 bc 90 15 76 bf d4 06 25 3f
       0.48083016 -0.014812778 -0.9612665 0.64463544
0001f0 07 b2 bb be fc b3 1f bd 3d 66 b6 be 71 27 36 3f
       -0.36659262 -0.038990006 -0.35624877 0.7115393
000200 28 c6 80 bd a4 c5 e3 be db 8e 14 3e 54 18 31 3f
       -0.06287795 -0.44486725 0.1450762 0.69177747
000210 92 5c c6 be 68 1c 74 be 8b 6b 2d 3f a6 e3 e5 bd
       -0.387425 -0.23838961 0.6774222 -0.11225061
000220 67 bb 49 bf c6 00 17 3f 69 40 8b bc 2e c3 f4 3c
       -0.7880158 0.58985555 -0.016998487 0.029878225
000230 eb 02 fc 3e 13 79 b4 be d2 62 c8 3e 0b 18 09 3f
       0.49220976 -0.35248622 0.39137894 0.5355231
000240 06 d2 92 3e 42 fa 1b be ee 03 ac be 51 1e 34 3e
       0.2867586 -0.15232185 -0.33596748 0.1758969
000250 da be 98 be e7 a9 cc bd 5c 43 ec 3e 02 99 29 3f
       -0.29833108 -0.09993344 0.4614514 0.66249096
000260 0b 5a be 3e c8 e5 12 be da 19 46 3e 33 40 2d 3e
       0.37178072 -0.14345467 0.19345799 0.16919021
000270 79 39 4d 3e d6 bd ab bd 23 97 d4 3e 8f c3 ad bf
       0.20041455 -0.08385818 0.41521558 -1.3575305
000280 4b 68 60 be 53 1d a1 3d d4 7d 72 bf 96 af e7 3d
       -0.21914785 0.07866921 -0.9472325 0.11312787
000290 b4 37 26 be 40 c4 63 bf 39 3c 94 bd 24 67 20 3f
       -0.16232187 -0.8897133 -0.07238049 0.6265738
0002a0 4b 2c af be 79 96 4b be d8 d9 84 be 8f 10 fe 3e
       -0.3421348 -0.1988162 -0.25947452 0.49622008
0002b0 87 35 9c 3e 57 8b 4d be c4 2b 72 be 8e 47 bb 3d
       0.30509588 -0.20072685 -0.23649508 0.09144507
0002c0 b0 0f 42 be a1 d8 58 bb 55 2a 3c bf 43 15 9d bd
       -0.18951297 -0.0033088105 -0.73502094 -0.07670071
0002d0 8a d4 1a bf 5e 41 9c be 7e 16 3d 3e f6 14 7d 3e
       -0.6048056 -0.3051862 0.18465611 0.24715027
0002e0 40 11 15 bf 38 56 38 3f 7f 3e 9c 3d da 8c f4 bd
       -0.58229446 0.7200656 0.07629108 -0.11940928
0002f0 2b bb 49 bf 3f 1e 1c 3e 91 3a d9 be 53 7e 9b 3e
       -0.7880122 0.15245913 -0.42427495 0.30369815
000300 3d 4d ce 3e 2a fe 7e 3e 4a 0b ae 3e ab 62 a9 3e
       0.40293303 0.24901643 0.33992988 0.3308309
000310 20 8e f4 bd c6 8d f9 3e 4f 6d c0 bd 63 62 3a 3f
       -0.11941171 0.48740977 -0.09395849 0.72806376
000320 8f 00 11 be 5b 91 97 be 64 c3 a3 be 68 2e 84 3f
       -0.1416037 -0.29603085 -0.3198501 1.0326662
000330 ed 80 10 3f f2 e5 08 3e b0 5c 85 bd e3 fe 42 be
       0.56446725 0.13368967 -0.06511819 -0.19042544
000340 da 3e 69 3e a1 a2 a8 be f6 5a e8 3e ce 75 3c 3e
       0.22777882 -0.32936576 0.45381898 0.18404314
000350 38 d4 97 be d6 65 14 3f 69 02 12 3e 51 0b c7 bc
       -0.29654098 0.5796789 0.14258732 -0.024297388
000360 de e5 5b 3e f6 2b eb 3e a5 1e 99 bc 0e 0c 06 bf
       0.21474406 0.45931977 -0.01869137 -0.52362144
000370 26 f3 01 bf b3 26 46 bf 55 de 92 3e 72 6b ec 3d
       -0.5076164 -0.774028 0.2868525 0.11543931
000380 59 97 c5 3e 28 1d 2b 3f 17 8c 9a bf e1 c0 7c bd
       0.38592032 0.66841364 -1.2074002 -0.06170738
000390 35 8c f9 be 20 9c e9 bd 7c 41 aa 3e a8 d9 9b 3e
       -0.48739782 -0.114067316 0.33253086 0.30439496
0003a0 60 66 fa 3e 5e be 80 bf 9d f4 a5 3e 20 8f 1e 3f
       0.4890623 -1.0058095 0.32413188 0.6193714
0003b0 c8 a2 13 3f 3c ae 6e bf c1 27 3a bf 57 a3 21 3f
       0.5767026 -0.9323461 -0.7271691 0.6313986
0003c0 e5 30 f8 bd e9 5e 9d 3e 09 68 a9 be 3b 25 cf 3d
       -0.12118701 0.30736473 -0.33087185 0.10114523
0003d0 63 46 e6 bd 96 bd 4c 3f e0 29 3a 3e cd 41 8e be
       -0.11243894 0.79976785 0.18180037 -0.27784577
0003e0 6a 21 c0 3d 57 4d 54 be 6d 83 36 3f c5 f8 f5 be
       0.09381373 -0.20732628 0.7129429 -0.4804136
0003f0 ac b8 6f 3c 3f d5 09 bf 8d 76 33 bf d0 82 ff be
       0.014631432 -0.5384101 -0.7010277 -0.4990449

transformer.attn.proj_k.bias f4 [72]
000000 7e f2 73 bd f0 c4 28 bd c3 12 1c 3d 30 fe a2 3d
       -0.05955743 -0.04120344 0.03810383 0.07958639
000010 1d 95 6f bb c7 db da 3c e3 0c 34 bd 5e db a7 3d
       -0.0036557384 0.026716126 -0.043957602 0.08196138
000020 27 21 6a 3d 7a 44 b0 3c ee 81 6d bc 97 fe 07 3d
       0.057160523 0.021517027 -0.01449631 0.03320178
000030 09 3c 62 3d 02 b2 ed 3d b0 7c b4 3c f2 5e f7 3a
       0.055233035 0.11606218 0.022032112 0.00188729
000040 be a5 9f 3d e3 69 c8 3d 78 67 75 bd d4 df 54 3d
       0.07795285 0.09785821 -0.05991313 0.05197127
000050 1a 88 b4 3d a2 21 9b 3c 89 ed 64 bc b8 6b a2 bd
       0.08815022 0.018936936 -0.013972648 -0.07930702
000060 2a ad 9b bd 14 c3 cf bd ba 4f aa bd 7a 0f ed bd
       -0.07601388 -0.1014463 -0.08315988 -0.115752175
000070 3e 85 ad 3d 44 56 93 3d 7f aa ec 3d 82 8a 99 3c
       0.084726796 0.07194188 0.11555957 0.018742803
000080 89 4f 17 3a 4a a4 9c 3d 90 96 ad bd a5 51 12 bb
       0.00057720445 0.07648523 -0.08475983 -0.0022326496
000090 23 70 75 3d 71 31 74 3e 91 f0 89 3b fb af 4f 3d
       0.059921395 0.23846985 0.004209586 0.050704937
0000a0 53 64 a3 3c 2f 5e 9b bd 29 fb 0c 3e 03 cd 10 3c
       0.0199453 -0.075863235 0.13767685 0.008837941
0000b0 c0 0f ca 3d 72 1c cd bd 90 08 2b 3d 43 a3 fb bd
       0.09866285 -0.10015191 0.041756213 -0.12286999
0000c0 c6 83 c8 bc 76 7e 9f 3d f3 99 28 bd 4f 1e 14 3e
       -0.024476897 0.077877924 -0.041162442 0.14464687
0000d0 ff fb 42 be 0a 63 35 bd c1 32 cc bd db 4e e3 3d
       -0.19041441 -0.044283904 -0.09970618 0.11099025
0000e0 ca a9 91 bc 51 9a e3 bd fd 3b e8 3c 59 8e 71 bd
       -0.017781157 -0.11113418 0.028348917 -0.058973644
0000f0 00 d2 88 bd 3c 10 8f bd c8 28 3f bb 42 1a 99 bd
       -0.06680679 -0.06985518 -0.0029168595 -0.074757114
000100 03 30 11 be d4 5d e7 bd 80 2b 2f 3e 64 79 51 3d
       -0.14178471 -0.11297193 0.17106438 0.051141158
000110 9b 77 c6 3d b1 9b 51 3d 32 52 8a 3e e7 51 85 bd
       0.09690782 0.05117387 0.27015835 -0.06509762

transformer.attn.proj_v.weight f4 [72, 72]
000000 58 10 8b 3e 73 32 95 be 84 29 41 3e bd 1d 3b 3e
       0.27160907 -0.29140052 0.18863493 0.18273063
000010 06 ba 68 be 97 78 38 be 6a 42 d9 be 8e 0a 1f 3f
       -0.22727212 -0.18014751 -0.42433482 0.6212548
000020 6b 98 7b 3f 3f 9a 8a be a4 df 63 be b4 96 d2 be
       0.98279446 -0.27070805 -0.22253281 -0.41130602
000030 01 ef 51 bf 52 cd 2f bd 0b c2 94 3e e5 9b b0 3e
       -0.82005316 -0.042920418 0.29054293 0.34493938
000040 27 e9 82 be 99 0a d3 3e 75 e0 32 bf fe 1e 0a 40
       -0.25568506 0.41219023 -0.69873744 2.1581416
000050 9f 02 58 bf 60 db 84 bc 66 31 75 3e f3 eb 26 3e
       -0.84379 -0.016217887 0.23944625 0.16300945
000060 1c 4a b8 bf 6a 27 93 3e 73 e5 7f 3f 16 d4 ff 3e
       -1.4397616 0.28741008 0.99959487 0.49966496
000070 37 91 1e bf 75 88 76 3e d3 06 2a be 9a d6 b8 3d
       -0.6194033 0.24075492 -0.16604166 0.09025307
000080 65 9e 14 bf c2 9f 82 3f 3d 23 57 bf 51 aa 44 3e
       -0.5805419 1.0205004 -0.84038144 0.19205596
000090 3b 1f 2a 3e ed c6 67 bf d6 7b 0c bf 51 e4 9f 3e
       0.16613476 -0.9053791 -0.5487646 0.3122888
0000a0 eb fb ba be e3 22 97 bf 55 e6 6a 3f 31 34 5e bf
       -0.36520323 -1.1807522 0.9175771 -0.8679839
0000b0 07 45 54 3f 5e 74 a1 bf 23 45 b0 bf 0a 23 62 bf
       0.8291783 -1.2613637 -1.3771099 -0.88334715
0000c0 ec 8f b9 bd 16 0d 85 3f 6f 76 5a be 6e 11 4d bd
       -0.09060654 1.0394619 -0.21334241 -0.05006545
0000d0 22 40 83 bf a2 93 1c bf 45 a5 83 3e b4 e2 a5 3e
       -1.0253947 -0.6116277 0.25712028 0.32399523
0000e0 e9 c9 4b 3f f0 8b 29 3e 2d 4a 15 bf 46 25 a7 bf
       0.79604965 0.16557288 -0.5831631 -1.305825
0000f0 c9 26 07 bf 17 c3 d9 be 3f 2e a9 3f ca 84 91 bf
       -0.52793556 -0.42531654 1.3217238 -1.1368649
000100 f4 e7 bb 3c 6d 6f fd 3d af 51 88 3f 2c 91 75 3e
       0.022937752 0.123747684 1.0649928 0.2398116
000110 77 96 91 3e 48 b2 88 bf 58 74 f1 be c7 f5 e8 be
       0.28435108 -1.0679407 -0.47159076 -0.45500013
000120 e4 40 3d 3f 7c 23 72 bd 11 48 2a 3f 95 59 9f be
       0.7392714 -0.05911587 0.66516215 -0.31123033
000130 09 bf 08 bf 01 30 6a 3f 6d fe 9c 3e 9c 59 ca 3d
       -0.53416497 0.914795 0.3066286 0.09880373
000140 1a bb 15 be 17 e0 ab be f2 9f 8d bd cb 96 5a 3f
       -0.14622155 -0.33569404 -0.06915273 0.8538634
000150 82 7d a8 be c2 6b 14 3f f4 11 cb bc f1 44 42 be
       -0.32908255 0.57976925 -0.024788834 -0.18971612
000160 a8 30 59 bf f4 fc 0d 3f 9b 67 8c be c9 bd 9d bf
       -0.8483987 0.554641 -0.27422795 -1.2323543
000170 b4 a1 14 bf 37 69 6f bf 36 9c 88 be 10 72 ca 3e
       -0.5805924 -0.9351992 -0.2668168 0.39540148
000180 1f d6 56 3f ea 7c 38 bf 15 a1 fb be b1 20 4a be
       0.8392047 -0.72065604 -0.49146333 -0.19739033
000190 ef 7a 5f 3e 7c f9 54 bd 80 41 9f be 0f 80 83 3f
       0.21824239 -0.05199574 -0.3110466 1.0273455
0001a0 d4 14 2a bf 72 7a af 3f bc bd d0 3d 98 12 f0 be
       -0.6643803 1.3709242 0.10192439 -0.46889186
0001b0 c6 21 78 3e 22 fb 02 be 24 32 90 be 47 84 22 3f
       0.24231634 -0.12791112 -0.28163254 0.6348309
0001c0 06 cd ab 3f dd 52 82 3e 3a 52 f6 3d 38 fb 2e bf
       1.3421943 0.25453845 0.12027402 -0.6835208
0001d0 fc 63 de 3e b3 b8 38 bf 91 98 3d 3e a7 bb 07 3f
       0.43435657 -0.7215683 0.1851523 0.5302071
0001e0 8d 30 10 bf d2 50 58 bf dd 96 46 bf b5 c2 a0 bd
       -0.5632408 -0.8449832 -0.7757395 -0.078496374
0001f0 2f 30 c9 be 5e 83 3d bf 41 a4 43 3f cf ea 80 3d
       -0.39294574 -0.74028575 0.76422507 0.06294786
000200 63 53 8d bd 47 ba f7 bd cf 03 8f be bc e3 81 3b
       -0.069006704 -0.120960765 -0.27932593 0.0039639156
000210 fe f1 45 3e 45 67 54 be b1 6f a4 be 2e af fc 3e
       0.19330594 -0.20742519 -0.32116464 0.49352401
000220 dc c8 dc 3e ee 79 3d be 47 93 ac 3e 65 6c 9b bf
       0.43121994 -0.18503544 0.33706114 -1.2142454
000230 be bd bf bf b6 6d 0e bf 00 20 ab be f3 52 a6 bf
       -1.497978 -0.55636156 -0.33422852 -1.2994064
000240 3c 00 c7 be f3 44 04 be e0 6e 84 bd 5a 45 2b 3f
       -0.38867366 -0.12916927 -0.0646646 0.669027
000250 86 67 ec bd f5 60 98 3e 33 80 50 bf 79 a1 6c bf
       -0.11543183 0.29761472 -0.81445616 -0.9243389
000260 17 a5 aa be c2 1b 3f bf e6 d5 87 be fd 69 21 bf
       -0.3332908 -0.7465173 -0.2653038 -0.6305235
000270 dc d1 ef be d2 a7 63 3e d9 8b 76 3c 18 22 c6 3e
       -0.46839797 0.22231987 0.015047991 0.38697886
000280 06 ea b4 bf 0b 9c 2b bf e3 9b 2a bf eb ec 8d be
       -1.4133918 -0.6703498 -0.66644114 -0.27719817
000290 fd 32 d0 3c cc 25 1c bf 5f fb 8b 3e e3 b7 af be
       0.025414938 -0.60995173 0.27340218 -0.34319982
0002a0 01 f6 b6 bf 2c ff 2e 3f 48 75 98 bf b0 f8 21 3f
       -1.4293824 0.6835811 -1.1910791 0.6327009
0002b0 65 60 d1 3f 0b 18 99 3f 03 38 89 3d 78 33 d1 be
       1.6357542 1.1960462 0.067001365 -0.4085958
0002c0 19 a5 88 be f6 54 07 3f 96 74 72 be 7b 94 d5 be
       -0.2668846 0.52864015 -0.23677287 -0.41714844
0002d0 12 18 94 be 75 ef a9 bc 17 7a 8d be 92 ab bc be
       -0.28924614 -0.020744065 -0.2763221 -0.36849648
0002e0 96 62 90 3f c1 83 d0 3c 9a 69 39 bf fe c6 50 3e
       1.1280086 0.02545345 -0.7242676 0.2038841
0002f0 5f 3a ca 3f 76 43 8e 3e b1 60 50 3f 5d ab b9 bd
       1.5799063 0.27785844 0.8139754 -0.09065888
000300 d8 c2 3d be 5e 41 f9 be df b4 39 bf e6 7e 15 3e
       -0.18531358 -0.48682684 -0.7254161 0.14599189
000310 d2 8a b8 be f5 bf 6f be 15 e1 58 3d 8d 6a b2 3f
       -0.36043411 -0.2341307 0.05294903 1.3938767
000320 29 ce 34 be d4 75 03 bf a3 a7 97 3d e9 3d a1 3e
       -0.17656769 -0.51351666 0.07405021 0.31492546
000330 64 32 4a 3e 15 7c 2e 3e 7c 60 d5 bf ec fe 2b bd
       0.19745785 0.17039521 -1.667007 -0.04199116
000340 3b b1 e2 be 6d e6 93 3d 51 bd d1 3e 75 4c 93 be
       -0.4427584 0.072216846 0.4096475 -0.2876927
000350 ea 5c cc 3f e7 93 36 3f 74 e1 14 3d cc 2b d0 be
       1.5965855 0.7131943 0.03634782 -0.40658414
000360 b6 d1 fe be c5 bb dc 3f 7b de 0e 3f b8 cf 2f be
       -0.49769372 1.7244803 0.5580823 -0.17169082
000370 b4 3f a7 be 72 4c 06 be a0 8e 49 3f e1 7e 7b 3e
       -0.3266579 -0.13115099 0.78733253 0.24560119
000380 fb 07 1a bf fa 22 ca be f2 4c 08 be 6b c3 97 3d
       -0.6016843 -0.3947981 -0.13310602 0.0741032
000390 ca ae ac 3e c2 30 fa 3e 13 f4 d0 bf 0b 42 b8 3e
       0.33727103 0.48865324 -1.6324486 0.35987887
0003a0 b8 cb 26 3f 79 15 c4 be 2c f3 4c 3e 0a fc 1f bf
       0.651546 -0.38297632 0.20014638 -0.62493956
0003b0 69 58 6a be 02 28 12 bf 70 76 71 3e fa d4 db 3e
       -0.22885288 -0.570923 0.23580337 0.42935926
0003c0 0b 51 1a bf 90 ef 89 be 89 f7 4f bf b1 44 62 3f
       -0.6027991 -0.26940584 -0.81237084 0.88386065
0003d0 85 aa a4 3f d5 9c d5 be 1e 84 f6 bb 52 ae 40 bf
       1.2864538 -0.41721216 -0.007523074 -0.7526599
0003e0 58 d1 6d bf 9a 13 f5 bd 03 0e 03 bf e8 8d 86 3d
       -0.9289756 -0.11966629 -0.51193255 0.06570035
0003f0 71 cf 32 bf 15 1d 2b 3d 13 96 1d 3f bb dc 5c bf
       -0.6984778 0.04177578 0.6155712 -0.8627431

transformer.attn.proj_v.bias f4 [72]
000000 ff f4 cd bd b8 09 d7 bd 48 b7 41 3e 5b fd cd be
       -0.10056495 -0.104999006 0.18917572 -0.40232357
000010 17 d3 49 bd e6 70 b9 bd 1f ef 1e 3e e9 8c f1 bc
       -0.049273577 -0.09054737 0.15520905 -0.029486137
000020 8a 61 b2 3d cb 1f 8d 3b b7 14 6e 3c c3 fb 25 be
       0.0871001 0.0043067685 0.014531306 -0.1620932
000030 8a 9d 23 3e e3 67 a7 3d ce 6d 82 be 21 dc db 3d
       0.15978065 0.08174112 -0.254744 0.10735346
000040 33 0e 28 bb 05 ca 1a bd ef db a1 be 08 68 d6 bc
       -0.002564323 -0.037790317 -0.3161311 -0.026172653
000050 a8 c7 38 be 2c 30 84 3d 7f 0c 85 bd 92 42 bb bd
       -0.18044913 0.064545006 -0.06496524 -0.09143557
000060 b2 7f 75 be 83 aa 82 be 86 18 ad be 2b 1b 22 be
       -0.23974493 -0.25520715 -0.33807772 -0.15830676
000070 4b 12 60 3e 88 aa 9b 3e 95 3b 23 bc e4 e7 f5 bd
       0.21881978 0.30403543 -0.009962936 -0.1200712
000080 98 ee 89 3d 7a b8 f7 3c f4 10 5c be 1a ce 84 bc
       0.06734961 0.030239332 -0.21490842 -0.016211558
000090 93 73 da bd 75 8a 3d 3e ef 60 d5 3e ae de 7a be
       -0.10666575 0.18509848 0.41675517 -0.24499008
0000a0 10 9f c6 3d d3 e6 a9 be e4 1c ee 3c 45 f9 08 3e
       0.096983075 -0.33183917 0.02906651 0.13376339
0000b0 e5 47 35 3e 03 40 02 bd fd a2 0f be e5 ed ea 3d
       0.17703207 -0.031799328 -0.14027019 0.11471156
0000c0 a5 88 ff bd 56 91 db 3d 97 0e 8a 3d 5a 89 df bd
       -0.12477235 0.1072108 0.06741064 -0.109148696
0000d0 31 50 17 bd 8f b2 12 bd 2f 42 49 bf 28 f9 d4 bc
       -0.03694171 -0.035814818 -0.78616613 -0.025997713
0000e0 6e c3 b8 3d 11 7c 5a 3e 1f a4 15 3e 6b 69 b5 3d
       0.0902165 0.2133639 0.14613388 0.088579975
0000f0 60 99 13 bf c7 60 76 be 68 4c 1d 3e 3d f1 75 be
       -0.57655907 -0.24060355 0.15361178 -0.24017806
000100 37 43 80 3c 9d c1 32 3d d4 16 08 bf 43 3a 5d 3e
       0.01565705 0.043641675 -0.5315983 0.21604256
000110 59 c2 0f bf 6c f2 6f 3d 0c 4d 00 be a2 e9 73 bd
       -0.56155926 0.0585808 -0.12529391 -0.05954898
