Src/extractor/limu_bert_td4.pt (torch, 259067 bytes, 29 tensors)

transformer.embed.lin.weight f4 [72, 6]
-0.22598074 0.28615066 -0.2304821 -0.10118308 -0.45111227 -0.1417351 -0.68315554 -0.050355017
0.21068068 -0.39504808 0.051493622 0.083060995 -0.13764305 1.1698257 -0.29035038 -0.18641809
-0.32067984 0.6108038 0.2376183 0.63347083 0.26934636 -0.3352148 0.054456536 0.86539906
0.20778301 0.049377933 0.40655988 1.1032536 0.31733376 0.47216317 -0.5155022 0.5307733
-0.25358063 0.22193311 -0.22182555 -0.48688284 -1.2281648 0.27220282 -0.65938723 0.48260137
0.6140966 0.19482869 0.99832207 0.2993138 -0.20482853 0.50508296 0.26118767 -0.3150284
0.22657652 0.04292928 0.1746276 0.5311523 0.4060857 -0.8264834 0.9128811 -0.7291697
-0.03323944 -0.066788435 -0.42599016 0.56120217 0.8001329 -0.19059438 0.71974546 -0.09432475
0.14462763 -0.07017366 -1.2440383 -0.5995524 -0.91107136 0.07821433 -0.41952354 -0.05298342
0.2388892 -0.012650675 0.25909027 0.74838233 -0.15465271 0.26699966 0.6814994 0.7702437
0.53250074 -0.1569663 -0.11076385 -0.23479395 0.050226483 0.23482059 0.42528617 0.46265042
-0.019480433 0.09734434 -0.31841314 -0.15479103 0.916258 -0.5392365 0.19024773 0.030908596
-0.3430098 0.19441374 -0.04985612 -0.43704247 0.8000374 -0.3362494 0.46713197 -0.7886881
-0.90838164 0.34685817 -0.10912491 -0.31486103 0.028993243 0.10589516 -0.028362244 -1.1508703
0.681566 -1.5329186 0.7823953 -0.42850697 0.7970849 0.3121572 -0.6838102 -0.63308406
-0.10599289 0.12116213 -0.50776964 -0.7865639 -0.0172816 -0.1369313 0.23011461 -0.7271852
-0.07594931 0.34181172 0.11890909 -1.0844694 -0.21543998 0.035427388 0.7903719 -0.48698893
0.21501313 -0.24591352 -0.36932138 0.30078152 -0.012834179 -0.48765793 0.049722757 0.4615726
-0.23834197 0.47208083 -0.9490668 0.12589377 -0.31167415 -0.2401652 -0.033759438 -0.66084135
-0.024732092 -0.13277428 0.40883595 0.4195956 -0.19232069 0.7566108 0.2772369 -0.2782031
-0.49445668 0.5578376 -0.22385031 -0.21632667 -0.09012726 -1.654156 -1.3859926 -0.18993457
-0.23298548 -0.055921424 0.38524893 0.18055457 -0.054732885 -0.23717795 -0.97300047 -0.40479302
0.9024082 -0.16794302 -0.024744537 0.40659243 -0.33875078 0.17510517 1.4132448 -0.33228016
0.12250351 0.44475543 -0.5859676 -0.1805791 0.8744874 -0.07267888 -0.23750085 0.35786325
-0.74313205 -0.50071937 -0.114813134 -0.08983612 -0.17953539 -0.05574089 0.77109766 0.43757054
-0.021202587 0.3642005 0.60247046 -0.32990676 1.0810477 -0.51374924 0.3671593 -0.18086684
0.039500028 0.7419867 0.19266377 -0.0021110682 0.5746504 0.06977433 -0.25948486 -0.171877
0.55021155 -0.13510592 -0.38150445 1.9137834 -0.043823153 1.5512944 -0.3024167 -0.4270149
-0.18681787 -0.005245698 0.08163399 0.7768902 -0.29658931 0.8820766 1.0259233 -0.6754545
0.20499322 0.7649653 -0.9183209 -0.74669623 0.63355935 0.86974996 0.055529 0.9443812
0.5547578 0.034984488 -0.47277898 -1.7302203 0.21802297 -0.39662308 -0.28920498 1.2861451
0.39782786 0.3530512 0.08889128 -0.52491987 -0.79755026 0.09639245 0.5005546 0.187723
00000000: 7f67 67be 5782 923e 8003 6cbe 1339 cfbd
00000010: 30f8 e6be 0223 11be 48e3 2ebf 1041 4ebd
00000020: adbc 573e be43 cabe faea 523d e21b aa3d
00000030: 4df2 0cbe d9bc 953f cea8 94be 62e4 3ebe
00000040: 2630 a4be a35d 1c3f 3652 733e 252b 223f
00000050: c4e7 893e 46a1 abbe d10d 5f3d cb8a 5d3f
00000060: 12c5 543e 8440 4a3d 9e28 d03e 6a37 8d3f
00000070: 9279 a23e 5fbf f13e f4f7 03bf c2e0 073f
00000080: 52d5 81be 6f42 633e 3d26 63be b548 f9be
00000090: 8134 9dbf 2b5e 8b3e 9acd 28bf 8717 f73e
000000a0: 6f35 1d3f 2c81 473e 0992 7f3f a93f 993e
000000b0: 92be 51be 1e4d 013f 64ba 853e 674b a1be
000000c0: ad03 683e 9dd6 2f3d 94d1 323e 99f9 073f
000000d0: 77ea cf3e 6b94 53bf 93b2 693f deaa 3abf
000000e0: 1426 08bd 60c8 88bd 621b dabe f2aa 0f3f
000000f0: 82d5 4c3f 2c2b 43be 3d41 383f 562d c1bd
00000100: 4419 143e 35b7 8fbd a63c 9fbf 447c 19bf
00000110: f93b 69bf d62e a03d cacb d6be 2505 59bd
00000120: 5f9f 743e c744 4fbc 7ba7 843e fc95 3f3f
00000130: 485d 1ebe 2eb4 883e bf76 2e3f b12e 453f
00000140: f851 083f c6bb 20be 28d8 e2bd d36d 70be
00000150: 49ba 4d3d cf74 703e 1cbf d93e 84e0 ec3e
00000160: 6e95 9fbc 785c c73d 0c07 a3be 8a81 1ebe
00000170: e28f 6a3f 670b 0abf 4dd0 423e 0634 fd3c
00000180: fb9e afbe 6514 473e ee35 4cbd 08c4 dfbe
00000190: 40cf 4c3f e228 acbe ec2b ef3e 77e7 49bf
000001a0: b38b 68bf 6597 b13e e17c dfbd 7735 a1be
000001b0: 3d83 ed3c 90df d83d f057 e8bc b84f 93bf
000001c0: 1c7b 2e3f ad36 c4bf 0f4b 483f 4465 dbbe
000001d0: c20d 4c3f 12d3 9f3e 2f0e 2fbf cc11 22bf
000001e0: cd12 d9bd da23 f83d 31fd 01bf 405c 49bf
000001f0: 2492 8dbc b837 0cbe 2aa3 6b3e cf28 3abf
00000200: 508b 9bbd f201 af3e 9c86 f33d e5cf 8abf
00000210: 4c9c 5cbe 4f1c 113d d055 4a3f 9d56 f9be
00000220: 672c 5c3e c1d0 7bbe b117 bdbe 0900 9a3e
00000230: 7346 52bc 4dae f9be 17aa 4b3d 3e53 ec3e
00000240: eb0f 74be 94b4 f13e 0bf6 72bf 4cea 003e
00000250: c193 9fbe deed 75be 5647 0abd e62c 29bf
00000260: f59a cabc fbf5 07be f252 d13e 3cd5 d63e
00000270: b7ef 44be 3fb1 413f fff1 8d3e a370 8ebe
00000280: 6d29 fdbe 72ce 0e3f 0439 65be bd84 5dbe
00000290: a494 b8bd 62bb d3bf 3568 b1bf 357e 42be
000002a0: bf93 6ebe dd0d 65bd 593f c53e 4ce3 383e
000002b0: 972f 60bd c7de 72be 8f16 79bf 0841 cfbe
000002c0: 3904 673f 41f9 2bbe 0eb5 cabc e22c d03e
000002d0: be70 adbe c54e 333e 35e5 b43f a020 aabe
000002e0: 1fe3 fa3d fcb6 e33e f901 16bf bae9 38be
000002f0: 68de 5f3f aad8 94bd 6c33 73be da39 b73e
00000300: e73d 3ebf 252f 00bf 2623 ebbd 00fc b7bd
00000310: 20d8 37be 8f50 64bd a866 453f 3f09 e03e
00000320: 0cb1 adbc 7d78 ba3e 813b 1a3f 8ae9 a8be
00000330: c55f 8a3f 1285 03bf 4efc bb3e 2835 39be
00000340: c8ca 213d d7f2 3d3f a749 453e d959 0abb
00000350: 4a1c 133f d8e5 8e3d 33db 84be 8600 30be
00000360: aada 0c3f 3559 0abe 8d54 c3be dbf6 f43f
00000370: e87f 33bd d190 c63f 5dd6 9abe b2a1 dabe
00000380: 2f4d 3fbe 1be4 abbb b92f a73d 47e2 463f
00000390: 8eda 97be c6cf 613f 7451 833f 96ea 2cbf
000003a0: bee9 513e c4d4 433f 1417 6bbf 7c27 3fbf
000003b0: f230 223f efa7 5e3f 6072 633d f7c2 713f
000003c0: 9b04 0e3f e54b 0f3d 1610 f2be dc77 ddbf
000003d0: 6a41 5f3e 2e12 cbbe ad12 94be 67a0 a43f
000003e0: 18b0 cb3e 20c3 b43e a20c b63d 2661 06bf
000003f0: 412c 4cbf 6869 c53d 5924 003f 753a 403e

transformer.embed.lin.bias f4 [72]
-1.0055867 0.3231411 -0.07945201 -0.062242813 -0.43016005 -0.05346591 -0.77005225 -0.604549
-0.008281595 -0.96778345 0.41234687 0.9728233 -0.038926713 0.44492003 0.05293007 0.4000167
0.17559199 -0.409028 0.6451409 0.07789242 0.379672 0.07310572 0.40329438 0.33888534
-0.97548497 -0.5692781 0.09361099 0.2802689 0.0006192333 0.38192922 0.30655637 -1.2625372
-0.43844208 0.6932256 -0.44363204 0.069484 0.2259678 -0.58016795 -0.14401264 -0.6982369
0.6449708 0.127946 0.23299584 0.008634078 -0.36231965 0.15920019 -0.30714148 -1.0859947
1.3377012 0.12630843 -0.4515422 0.41900003 -0.09914155 0.93824106 0.35450625 0.085255444
0.17642374 -0.12070586 0.6365939 0.5478618 -0.0571796 -0.047225583 -0.12576833 -0.07918092
0.86239886 -0.6293744 0.0538927 0.7136969 0.3478523 -0.730655 0.47597948 -0.66770685
00000000: 11b7 80bf c072 a53e bcb7 a2bd 52f2 7ebd
00000010: f03d dcbe 12ff 5abd 2522 45bf b9c3 1abf
00000020: 87af 07bc a8c0 77bf 211f d33e f30a 793f
00000030: 9e71 1fbd 8fcc e33e 33cd 583d fdce cc3e
00000040: 63ce 333e 1e6c d1be f427 253f 1086 9f3d
00000050: 5e64 c23e 74b8 953d 9a7c ce3e 6182 ad3e
00000060: 62b9 79bf 36bc 11bf 1eb7 bf3d 687f 8f3e
00000070: 0b54 223a 3a8c c33e f5f4 9c3e d29a a1bf
00000080: 7b7b e0be 3c77 313f bd23 e3be a14d 8e3d
00000090: 1a64 673e e385 14bf 0d78 13be a7bf 32bf
000000a0: ce1c 253f 4704 033e 7696 6e3e f375 0d3c
000000b0: f681 b9be 6005 233e a641 9dbe e001 8bbf
000000c0: cb39 ab3f ff56 013e 8a30 e7be 2c87 d63e
000000d0: ba0a cbbd 9130 703f d881 b53e 689a ae3d
000000e0: 6da8 343e a234 f7bd d1f7 223f ac40 0c3f
000000f0: 2835 6abd 9d6f 41bd 6ac9 00be 9b29 a2bd
00000100: 2cc6 5c3f ae1e 21bf 97be 5c3d d7b4 363f
00000110: b219 b23e 350c 3bbf 95b3 f33e d6ee 2abf

transformer.embed.pos_embed.weight f4 [120, 72]
-0.59153825 -0.9257347 -0.6266631 1.4548095 -0.8591629 0.09505286 1.4307264 1.7815316
-2.1539211 -1.0731407 -0.77984047 0.847631 1.0261775 0.98755354 0.22142199 -0.76523083
1.0435714 0.104701385 0.08484022 -1.0459199 0.6771935 0.9972877 -3.2737324 1.3698025
-0.6467539 -0.25863585 0.745511 0.24066031 -1.0052803 -2.7370238 1.4147694 0.8005212
1.4381385 -0.22445406 0.1278906 -0.19046292 -0.14115074 1.6470679 0.2566605 0.65781057
0.9302056 0.1256164 0.9385175 0.51158255 -0.2351088 -1.2703856 -0.7297949 0.5344146
0.13688609 0.5422568 0.9366736 0.18597178 1.1910889 -0.6438741 0.02226354 0.1523788
-0.7521473 0.85629016 0.0092361625 -0.43417925 -1.7389061 0.25730118 -0.13076937 0.7587487
-0.33193764 -0.005844841 2.6521957 0.48984876 0.046129663 -1.3059863 0.69789106 0.28986722
-0.43551585 -1.1891904 -1.1425198 0.93228114 -0.31570473 0.801492 1.1485835 3.0536044
-0.105598465 -1.4402007 -0.65769917 -0.20639037 1.6706967 -0.21956557 2.398866 -0.7889957
0.18729796 -0.0019106036 0.24488074 0.62264615 0.61729383 -0.06091382 -0.016746668 3.010365
1.0168293 0.94714683 -0.7518317 0.99442667 -1.9824772 -0.893162 2.1998606 0.29388964
0.50984997 0.3010998 -0.092165425 0.4194696 -0.51630116 -0.33593154 0.13117033 1.278618
1.4282508 0.20590508 -0.03220822 0.4945816 0.94146824 -0.8380009 -0.40315902 2.3113549
0.50967485 1.5492138 -1.4244251 0.56359506 1.5903157 1.3489791 0.39285874 -0.51247853
-0.4962726 0.8726743 1.5961449 -0.25306025 -1.4030352 1.6485292 -0.9452987 -1.0755286
-1.1592861 -0.38701606 0.19173592 0.7102319 1.7341897 -1.7422246 -0.5977309 0.42706275
0.18503314 -0.71241045 -1.8680819 0.7239486 0.80067235 0.54517996 1.4549148 2.10054
-0.7228414 -1.626425 -0.90087754 0.5130517 -1.7866108 -0.052436195 0.08775746 -0.42721444
0.28634474 -0.41371408 -1.6009215 1.6916224 0.63454705 -0.5081593 0.30885267 1.2025241
0.6052316 1.2365804 0.3299371 0.3442962 -1.5329278 -0.5084001 0.6750176 -0.5800657
-1.0662714 -0.13484569 -0.89145106 2.1904259 0.15703629 1.0205894 0.477868 0.24599902
0.9288306 0.14184332 -0.39814478 1.5333662 0.14585906 -0.96090025 -0.43768102 1.2213014
-0.09522262 0.34068966 -1.1407919 1.0575913 1.7649889 -0.9154235 -0.37431353 -0.5459191
0.5256401 -0.6150043 1.9697984 -0.2287703 -1.0318222 0.113360725 0.36424842 -0.6218343
-0.9111843 0.31347767 1.8183053 0.7231608 1.1835806 -0.253559 -1.1991223 0.08535175
-0.24193934 -0.5562132 -0.5993419 0.14336881 -0.18637162 -0.14069252 1.4346107 1.1636708
-2.3352096 -1.274719 -0.3625615 -0.57350165 -0.61756384 -1.356757 0.58559304 -0.15023404
-0.90385103 -0.31809518 -0.70372266 0.99666876 0.8733297 0.27805975 -0.08673417 2.3481576
-1.2682463 -0.63182515 -0.7544016 0.3831084 -0.6016124 -1.6427981 -0.46085456 0.75497305
1.1951165 0.9758697 -0.43365374 1.6550791 -0.9248146 2.2114725 1.0903416 -0.4807176
00000000: 0d6f 17bf f3fc 6cbf fe6c 20bf 3337 ba3f
00000010: 1af2 5bbf 13ab c23d 0b22 b73f 3a09 e43f
00000020: d8d9 09c0 ad5c 89bf a0a3 47bf 58fe 583f
00000030: c959 833f 4fd0 7c3f 72bc 623e 2be6 43bf
00000040: bf93 853f ae6d d63d b6c0 ad3d b4e0 85bf
00000050: 8e5c 2d3f 3f4e 7f3f d584 51c0 b055 af3f
00000060: aa91 25bf eb6b 84be cfd9 3e3f a86f 763e
00000070: 06ad 80bf 662b 2fc0 2a17 b53f f5ee 4c3f
00000080: ec14 b83f 49d7 65be c1f5 023e b608 43be
00000090: d289 10be 1fd3 d23f 0169 833e 4666 283f
000000a0: f421 6e3f 96a1 003e af42 703f 13f7 023f
000000b0: 5cc0 70be ff9b a2bf d7d3 3abf 65cf 083f
000000c0: de2b 0c3e 57d1 0a3f d7c9 6f3f 636f 3e3e
000000d0: 9a75 983f efd4 24bf 0762 b63c 3009 1c3e
000000e0: ba8c 40bf d535 5b3f 4653 173c be4c debe
000000f0: 7a94 debf fbbc 833e 68e8 05be 5b3d 423f
00000100: bbf3 a9be 1486 bfbb 93bd 2940 75cd fa3e
00000110: 75f2 3c3d 8f2a a7bf fda8 323f 7a69 943e
00000120: effb debe 6437 98bf 173e 92bf faa9 6e3f
00000130: 0da4 a1be 942e 4d3f c904 933f 416e 4340
00000140: 0244 d8bd 7f58 b8bf f95e 28bf ff57 53be
00000150: 64d9 d53f ccd5 60be 0587 1940 9ffb 49bf
00000160: 09cb 3f3e 386d faba 04c2 7a3e bd65 1f3f
00000170: f806 1e3f c580 79bd 4f30 89bc d2a9 4040
00000180: 7627 823f 3778 723f 0b78 40bf bf92 7e3f
00000190: d0c1 fdbf 44a6 64bf 84ca 0c40 b478 963e
000001a0: 8785 023f c129 9a3e 3ac1 bcbd b8c4 d63e
000001b0: 502c 04bf 38ff abbe 8451 063e c1a9 a33f
000001c0: ecd0 b63f c8d8 523e c4ec 03bd cd39 fd3e
000001d0: 1004 713f 3a87 56bf dc6a cebe 3ded 1340
000001e0: 0d7a 023f a34c c63f 9053 b6bf c447 103f
000001f0: 778f cb3f 59ab ac3f c824 c93e cb31 03bf
00000200: 7117 febe 9567 5f3f 7a4e cc3f 1d91 81be
00000210: a896 b3bf 0103 d33f 18ff 71bf ecaa 89bf
00000220: 7d63 94bf f826 c6be 6c56 443e c2d1 353f
00000230: eef9 dd3f 3701 dfbf e404 19bf f8a7 da3e
00000240: 5479 3d3e 8860 36bf 4f1d efbf b254 393f
00000250: ddf8 4c3f ea90 0b3f a63a ba3f 3f6f 0640
00000260: 220c 39bf b22e d0bf e99f 66bf 5b57 033f
00000270: aaaf e4bf 56c7 56bd 2fba b33d dabb dabe
00000280: c79b 923e 55d2 d3be ffea ccbf 1587 d83f
00000290: ad71 223f ba16 02bf f021 9e3e 4fec 993f
000002a0: 75f0 1a3f 4448 9e3f 84ed a83e 9747 b03e
000002b0: fa36 c4bf 8226 02bf f4cd 2c3f 307f 14bf
000002c0: 957b 88bf fd14 0abe 2336 64bf f02f 0c40
000002d0: 1fce 203e aca2 823f 1dab f43e 2be7 7b3e
000002e0: d8c7 6d3f 603f 113e a2d9 cbbe 5845 c43f
000002f0: 145c 153e 8ffd 75bf ba17 e0be 9b53 9c3f
00000300: 1404 c3bd e06e ae3e 7805 92bf 275f 873f
00000310: 28eb e13f 3259 6abf 06a6 bfbe 5bc1 0bbf
00000320: 5990 063f ec70 1dbf 5b22 fc3f c342 6abe
00000330: c012 84bf ab29 e83d c57e ba3e 8830 1fbf
00000340: 6043 69bf 2580 a03e 3abe e83f 1121 393f
00000350: 927f 973f 7cd2 81be d77c 99bf e6cc ae3d
00000360: f2be 77be fd63 0ebf 796e 19bf 46cf 123e
00000370: 34d8 3ebe b311 10be 53a1 b73f 2af3 943f
00000380: 1374 15c0 fe29 a3bf a9a1 b9be 01d1 12bf
00000390: aa18 1ebf 37aa adbf 6de9 153f f4d6 19be
000003a0: c862 67bf 5fdd a2be 2b27 34bf af25 7f3f
000003b0: 8992 5f3f d95d 8e3e afa1 b1bd 3748 1640
000003c0: e555 a2bf 4bbf 21bf 7720 41bf c926 c43e
000003d0: 4503 1abf 3547 d2bf 21f5 ebbe ea45 413f
000003e0: 94f9 983f 99d2 793f dd07 debe a2d9 d33f
000003f0: a6c0 6cbf c488 0d40 5090 8b3f 9e20 f6be

transformer.embed.norm.gamma f4 [72]
0.5927859 0.23210165 0.44403535 0.40886557 0.17492269 0.31909674 0.4503051 0.47525492
0.39871326 0.60068035 0.2767729 0.72596383 0.24105284 0.37221423 0.21374117 0.30542323
0.32184294 0.49168268 0.53887826 0.52746004 0.24242893 0.57579494 0.18601549 0.29872182
0.61728734 0.39323622 0.40154424 0.6268431 0.19138123 0.40864906 0.34348392 0.6860329
0.41069594 0.5132462 0.45631883 0.17748338 0.56972885 0.3931943 0.5140282 0.4792321
0.3544936 0.5145089 0.23442653 0.3192944 0.28312913 0.4396025 0.27292693 0.46750352
0.78137916 0.59595585 0.3635341 0.49699068 0.34796736 0.4445775 0.2026817 0.22449988
0.16827151 0.2083752 0.41639513 0.35298306 0.21554084 0.2666828 0.28976357 0.3907575
0.4684991 0.44984668 0.19576664 0.47149473 0.17928614 0.5291276 0.55483204 0.5306295
00000000: d1c0 173f 0eac 6d3e 9a58 e33e d456 d13e
00000010: ef1e 333e a660 a33e 648e e63e 9d54 f33e
00000020: 2524 cc3e 30c6 193f 2db5 8d3e c4d8 393f
00000030: 8ed6 763e dd92 be3e f7de 5a3e 6f60 9c3e
00000040: 99c8 a43e d5bd fb3e edf3 093f 9f07 073f
00000050: 4a3f 783e 4c67 133f d87a 3e3e 11f2 983e
00000060: 8b06 1e3f 4256 c93e 3597 cd3e ca78 203f
00000070: 71f9 433e 733a d13e 20dd af3e da9f 2f3f
00000080: bd46 d23e 1a64 033f 9fa2 e93e 34be 353e
00000090: c0d9 113f c350 c93e 5a97 033f e95d f53e
000000a0: 2f80 b53e dbb6 033f 820d 703e 8e7a a33e
000000b0: 4df6 903e 9413 e13e 14bd 8b3e 9f5c ef3e
000000c0: 7708 483f 9090 183f 2421 ba3e 9075 fe3e
000000d0: c728 b23e a99f e33e cb8b 4f3e 4ce3 653e
000000e0: 5e4f 2c3e 4f60 553e be31 d53e 32ba b43e
000000f0: bdb6 5c3e a68a 883e e45b 943e 5e11 c83e
00000100: 1ddf ef3e 4e52 e63e 0d77 483e c267 f13e
00000110: c996 373e e874 073f 7909 0e3f 56d7 073f

transformer.embed.norm.beta f4 [72]
0.12394346 0.050736584 -0.007235072 0.04048346 0.014374908 0.013578439 0.122939505 0.12746431
0.05956001 0.23718838 0.007377341 -0.11584626 0.031468857 -0.042611226 0.05383812 0.08130544
-0.02258289 0.17430708 -0.1171701 0.07797515 0.023955476 0.09906062 0.012457553 -0.053689115
0.16446558 0.11147619 0.056924753 -0.024953827 0.054472234 -0.009178877 -0.003272652 0.27504072
0.095887154 -0.082635544 0.07333915 0.020888602 -0.07189873 0.09872606 -0.04235103 0.15802549
-0.03368419 -0.021951742 0.012546224 0.03161496 -0.0016365717 0.008499343 0.009837383 0.19803105
-0.23807444 0.017947633 0.04205478 -0.034521893 0.068575285 -0.104427285 0.10969109 0.027918402
-0.010041044 0.04334663 -0.08968885 -0.012322557 0.017118579 -0.03404933 -0.012243191 0.09723469
-0.08207587 0.12342924 0.047993932 -0.076252244 -0.0028708552 0.20149271 -0.049184207 0.17504443
00000000: 12d6 fd3d 2ad1 4f3d 2f14 edbb fcd1 253d
00000010: bc84 6b3c 1a78 5e3c b5c7 fb3d 0186 023e
00000020: 32f5 733d 83e1 723e 9fbd f13b ce40 edbd
00000030: 7de5 003d 1c89 2ebd 5c85 5c3d 7783 a63d
00000040: c1ff b8bc 8e7d 323e e1f6 efbd 6fb1 9f3d
00000050: 463e c43c 4be0 ca3d c41a 4c3c 1ee9 5bbd
00000060: aa69 283e a14d e43d ee29 693d f86b ccbc
00000070: 471e 5f3d 0063 16bc fd79 56bb 23d2 8c3e
00000080: 7c60 c43d d33c a9bd d632 963d 931e ab3c
00000090: a43f 93bd e330 ca3d 4678 2dbd 6fd1 213e
000000a0: 6ff8 09bd 24d4 b3bc ad8e 4d3c b07e 013d
000000b0: 3c82 d6ba d440 0b3c fa2c 213c a7c8 4a3e
000000c0: c9c9 73be ea06 933c a241 2c3d d466 0dbd
000000d0: 3371 8c3d f9dd d5bd b9a5 e03d 22b5 e43c
000000e0: 3183 24bc 3c8c 313d caae b7bd 8de4 49bc
000000f0: 433c 8c3c 4f77 0bbd aa97 48bc fb22 c73d
00000100: 6517 a8bd 78c8 fc3d 4995 443d 232a 9cbd
00000110: f524 3cbb 1b54 4e3e 6175 49bd d93e 333e

transformer.attn.proj_q.weight f4 [72, 72]
-0.082573764 0.35386926 -0.14097624 0.37174428 0.11853273 -0.3017459 0.0156835 0.070323825
0.07286189 -0.57228404 -0.22416902 0.3811162 0.1189964 -0.73084277 0.05015011 -0.2222348
0.3115804 -0.30422458 -0.25762314 -0.55583763 -0.2701689 -0.42610362 0.21740173 0.48766354
0.023190707 0.12425933 0.20949468 -0.012535844 -0.286092 0.52908784 0.5286521 -0.28917196
0.25032452 0.14874895 -0.04273913 -0.30274752 0.4330282 -0.34719312 0.037849326 -0.36888292
0.18152973 0.09065192 -0.022062046 0.33751217 -0.16167511 0.5823889 0.09815866 -0.41047603
0.21080577 -0.08393572 0.19402498 0.49846366 0.07432804 0.1783401 -0.17700708 0.018637894
-0.115886405 0.14723586 0.40145925 0.20168644 0.022095786 -0.47259676 -0.09327926 0.41371936
0.28529522 -0.27129298 0.14166497 0.5171443 -0.53648275 -0.23567086 0.082653105 -0.019491259
0.29459545 -0.27569336 -0.18292303 -0.50577027 -0.05821943 -0.018035946 -0.4176175 0.56244516
-0.37233827 0.3775859 0.015753783 0.12423386 -0.43404728 0.14880763 0.16951843 -0.5531107
-0.24093637 -0.16173486 -0.20574492 0.47932366 0.20307116 0.16057411 0.10129422 0.09026924
0.70555246 -0.07845809 -0.23006985 0.16434215 -0.4098552 -0.29504284 -0.5556204 0.050708983
0.13000734 0.0042563356 -0.09422858 0.4610663 -0.31116334 0.09094931 0.06808455 -0.95877033
0.12160029 -0.22225447 0.19027044 0.3376445 0.4679177 0.095729254 -0.25981835 0.027580902
0.23822226 -0.16686636 0.50362885 -0.27009398 -0.42370042 0.4032122 -0.26058698 -0.0036791991
0.15232842 0.0264013 0.5053447 -0.05993694 -0.708037 -0.29112804 0.6508923 0.016972594
0.25084507 0.19913687 0.10993439 -0.34608504 -0.2775813 0.10799321 0.43477768 0.58743656
-0.31011736 0.5075712 0.10968103 0.27810502 -0.5129098 0.2879028 -0.41133532 -0.10510558
-0.033848733 0.36896002 -0.060352724 0.25989842 -0.16490713 0.6956764 -0.78499115 0.59987634
-0.18781272 0.1709702 -0.37633952 -0.18323603 0.27502835 -0.12543249 0.091490276 0.22743826
-0.31007478 0.03662157 0.15168907 -0.029396899 0.41127762 -0.3100701 -0.47589403 0.026198467
-0.20696464 -0.06318743 -0.12808916 0.41667417 -0.32903698 -0.775856 0.29028213 0.26449344
0.03457738 0.2422005 0.3895369 0.021832887 -0.28127337 -0.535343 0.09574678 -0.29887515
0.15131675 -0.18002674 -0.27492824 -0.19895944 0.20143664 0.122547776 0.1828991 0.056247905
0.7709072 0.34891164 -0.031747524 0.318916 0.32244834 -0.08278316 -0.059025202 -0.68365633
0.06141181 0.23711327 -0.5836984 -0.03142419 -0.0830151 0.025108173 0.20108414 0.2112639
0.109835625 -0.33057156 0.296501 0.36552796 0.08665018 0.34650445 0.5789129 -0.01578696
0.53077215 0.18668526 -0.020930571 -0.32300094 0.039975848 -0.25822306 -0.028646285 0.42103285
-0.24793865 0.1284265 -0.41858587 -0.5412124 -0.24283402 -0.032386586 0.3567976 0.35524428
-0.1510618 0.41171488 -0.039885793 -0.6631686 0.29912084 -0.11501688 -0.266701 0.08112435
0.1279582 0.25446507 0.73560053 0.22499819 0.31041732 0.24587405 0.3922472 0.2669604
00000000: 6f1c a9bd 5a2e b53e 135c 10be 4455 be3e
00000010: 4ac1 f23d 707e 9abe af7a 803c f005 903d
00000020: 9d38 953d 3581 12bf 908c 65be aa21 c33e
00000030: 62b4 f33d 8318 3bbf 346a 4d3d 8591 63be
00000040: 7787 9f3e 53c3 9bbe 2ee7 83be 604b 0ebf
00000050: 9453 8abe 412a dabe 8f9e 5e3e 09af f93e
00000060: 70fa bd3c ad7b fe3d c685 563e 2463 4dbc
00000070: a77a 92be 4d72 073f be55 073f 590e 94be
00000080: 892a 803e a551 183e 3a0f 2fbd b901 9bbe
00000090: dfb5 dd3e 4cc3 b1be e507 1b3d 39de bcbe
000000a0: eee2 393e b7a7 b93d 77bb b4bc 65ce ac3e
000000b0: 298e 25be 7017 153f 6807 c93d ea29 d2be
000000c0: 78dd 573e 7ee6 abbd 7cae 463e a136 ff3e
000000d0: 4d39 983d ca9e 363e 5841 35be 7fae 983c
000000e0: da55 edbd ffc4 163e 118c cd3e e486 4e3e
000000f0: 3902 b53c 34f8 f1be 3209 bfbd 06d3 d33e
00000100: 3712 923e eae6 8abe 9f10 113e 9263 043f
00000110: ef56 09bf b453 71be 0846 a93d 22ac 9fbc
00000120: 37d5 963e ae27 8dbe 2d50 3bbe 297a 01bf
00000130: 7f77 6ebd 1fc0 93bc f6d1 d5be 68fc 0f3f
00000140: 1fa3 bebe f052 c13e 140e 813c 526e fe3d
00000150: 723b debe 0761 183e 3d96 2d3e aa98 0dbf
00000160: 06b8 76be d39d 25be ccae 52be e969 f53e
00000170: e3f1 4f3e 8a6d 243e 5873 cf3d 14df b83d
00000180: 169f 343f a3ae a0bd 6e97 6bbe 4f49 283e
00000190: 8ad8 d1be db0f 97be 233d 0ebf 39b4 4f3d
000001a0: a520 053e bb78 8b3b eafa c0bd e210 ec3e
000001b0: cd50 9fbe a243 ba3d ea6f 8b3d f971 75bf
000001c0: 9309 f93d ad96 63be 41d6 423e bddf ac3e
000001d0: e992 ef3e b30d c43d e906 85be 58f1 e13c
000001e0: 89f0 733e 04df 2abe d2ed 003f c249 8abe
000001f0: 43ef d8be d471 ce3e a86b 85be b81e 71bb
00000200: fbfb 1b3e 8a47 d83c 455e 013f 7080 75bd
00000210: ea41 35bf bc0e 95be e1a0 263f 1c0a 8b3c
00000220: c46e 803e 89ea 4b3e 4825 e13d 0f32 b1be
00000230: 231f 8ebe 8b2b dd3d 2e9b de3e 3e62 163f
00000240: b4c7 9ebe 30f0 013f 73a0 e03d c863 8e3e
00000250: 0f4e 03bf ff67 933e 8b9a d2be 9841 d7bd
00000260: f8a4 0abd 54e8 bc3e 6b34 77bd 6811 853e
00000270: 6add 28be d917 323f 2ef5 48bf 7f91 193f
00000280: fa51 40be d012 2f3e 93af c0be 3aa2 3bbe
00000290: 84d0 8c3e 6071 00be 415f bb3d 93e5 683e
000002a0: 1fc2 9ebe 8000 163d 6154 1b3e c4d1 f0bc
000002b0: fb92 d23e 82c1 9ebe 62a8 f3be 2b9e d63c
000002c0: 8aee 53be 6968 81bd ce29 03be 5156 d53e
000002d0: 8977 a8be 809e 46bf dc9f 943e af6b 873e
000002e0: 03a1 0d3d 6803 783e 6171 c73e e2da b23c
000002f0: 1003 90be 3d0c 09bf e316 c43d 2a06 99be
00000300: c7f2 1a3e ee58 38be 65c3 8cbe 06bc 4bbe
00000310: 6845 4e3e 54fa fa3d e749 3b3e 3464 663d
00000320: 2d5a 453f 8ca4 b23e b109 02bd f548 a33e
00000330: f317 a53e 388a a9bd 69c4 71bd 1a04 2fbf
00000340: f38a 7b3d d2cd 723e 426d 15bf a7b6 00bd
00000350: d203 aabd a8af cd3c 00e9 4d3e 9055 583e
00000360: 80f1 e03d ad40 a9be fbce 973e 7b26 bb3e
00000370: a675 b13d 0869 b13e a333 143f a853 81bc
00000380: afe0 073f 6c2a 3f3e 9776 abbc 6160 a5be
00000390: b7bd 233d d035 84be 9dab eabc 9e91 d73e
000003a0: a1e3 7dbe 3d82 033e e350 d6be e58c 0abf
000003b0: 7ba9 78be cca7 04bd 2dae b63e 94e2 b53e
000003c0: f2af 1abe 4bcc d23e 495f 23bd 6bc5 29bf
000003d0: 5e26 993e f88d ebbd 098d 88be 8624 a63d
000003e0: 7907 033e 3f49 823e 5150 3c3f ed65 663e
000003f0: 05ef 9e3e 68c6 7b3e a0d4 c83e 09af 883e

transformer.attn.proj_q.bias f4 [72]
0.39204916 -0.10403418 0.040246554 0.044042185 0.42779875 0.19607526 -0.58227956 -0.13105054
-0.020964988 -0.51833063 -0.10593177 0.13089469 0.4948379 -0.05676946 0.041417547 -0.053403348
-0.11164274 -0.577283 -0.07591051 -0.004874044 -0.04077128 -0.20545098 0.40561852 -0.03905451
-0.16137454 -0.023491643 0.18119423 0.015475752 0.16815981 0.006715904 -0.2929791 0.13250934
-0.03882831 -0.19754936 -0.015157369 -0.10623222 -0.27604127 -0.059702855 -0.31041095 0.5916479
-0.2503985 0.08619679 -0.13645428 0.2948794 -0.25492397 -0.31935894 0.17641391 0.12567121
-0.10471344 -0.5496581 0.2048876 0.109584235 0.24312368 0.5456171 0.14421548 0.12909329
-0.049629305 0.30188045 -0.12274039 -0.30395585 0.029516637 -0.36375383 -0.47855031 -0.012631683
0.024946734 -0.35362843 0.13997267 0.089680284 -0.4086175 0.055577733 -0.025956335 -0.41133934
00000000: abba c83e df0f d5bd 92d9 243d 9465 343d
00000010: 7008 db3e f4c7 483e 4610 15bf 1d32 06be
00000020: c4be abbc 51b1 04bf c1f2 d8bd 4209 063e
00000030: 655b fd3e 1887 68bd 72a5 293d 78bd 5abd
00000040: f3a4 e4bd d2c8 13bf f876 9bbd 72b6 9fbb
00000050: c9ff 26bd be61 52be 3bad cf3e 9ff7 1fbd
00000060: 5e3f 25be 8c71 c0bc fb8a 393e 028e 7d3c
00000070: 1632 2c3e 1611 dc3b 5b01 96be 87b0 073e
00000080: 6f0a 1fbd 614a 4abe 9d56 78bc 4790 d9bd
00000090: 4855 8dbe fb8a 74bd 2fee 9ebe 3d76 173f
000000a0: 3b34 80be f187 b03d acba 0bbe 6ffa 963e
000000b0: 6585 82be 0483 a3be d9a5 343e f4af 003e
000000c0: 0074 d6bd 65b6 0cbf 0ece 513e b36d e03d
000000d0: 6af5 783e 90ad 0b3f 39ad 133e 0831 043e
000000e0: 1948 4bbd 1390 9a3e 505f fbbd 1aa0 9bbe
000000f0: e0cc f13c f13d babe 8c04 f5be 1ef5 4ebc
00000100: 185d cc3c c90e b5be ff54 0f3e 4caa b73d
00000110: 5036 d1be 7aa5 633d 61a2 d4bc 129b d2be

transformer.attn.proj_k.weight f4 [72, 72]
-0.41793224 -0.1499647 0.23279476 -0.027173834 0.43756545 -0.43830955 0.03899297 -0.22978622
-0.33208126 -0.005786188 0.119625814 -0.3487547 -0.2682892 0.21881622 0.23150462 -0.12284866
0.6574612 -0.191613 -0.06582216 -0.059547395 0.0786867 -0.18292679 0.15714951 0.20880839
-0.043167938 -0.5587746 0.7368626 0.2148833 -0.08928536 -0.13731962 0.22261205 -0.22361542
-0.014629822 0.5928384 -0.27125958 -0.0066607217 -0.38635647 -0.7003775 0.0084141595 -0.41003162
0.17964017 0.31838667 0.106327616 0.0200402 0.15789835 0.29753196 0.16986114 -0.12406697
0.42268687 0.16056646 -0.41601554 0.27017155 0.07688614 0.4535708 0.3384419 -0.2356454
0.51189476 0.10966401 -0.08760919 -0.070306875 0.2663952 0.11226943 -0.31175563 0.11330355
-0.09269696 0.15942627 -0.15755914 -0.2444554 -0.32889435 -0.4092868 -0.11570185 0.2494405
0.22672074 0.33448765 -0.036791783 -0.18685593 -0.3662139 -0.18264955 -0.2095582 0.001324113
0.26606616 0.3874423 0.1561452 0.2356804 -0.14363667 -0.18656656 -0.07007017 0.45384452
-0.05830708 0.19787169 -0.25183302 0.07091861 -0.19878735 -0.42556047 0.09261059 -0.14375049
0.12152232 -0.086202316 -0.019026665 -0.3993955 -0.37797987 -0.50016963 -0.40149036 0.06620768
-0.04875543 0.20450172 -0.57755697 0.341837 0.06544292 -0.044626188 -0.044658273 0.13693242
-0.2807672 -0.010256371 0.53104395 0.069438145 0.09381041 -0.19521597 0.3946603 -0.4127195
-0.22497399 -0.04178802 -0.3906233 0.19897251 0.14640063 -0.1873096 -0.03178607 0.16690828
-0.15996088 0.5276527 0.4536477 0.3084771 0.62352854 -0.4578245 0.37139168 0.16632606
-0.42328694 0.014659711 0.32880607 0.15743466 -0.25475284 -0.5712776 -0.33907092 0.70168185
-0.06679762 0.25561 0.1779927 0.28271946 -0.046610355 -0.24679497 0.11103143 -0.19101956
0.46628183 -0.020973776 0.2091026 0.4635517 -0.18251054 0.14873852 -0.13416287 0.06915579
0.018068044 -0.57015455 -0.3277411 -0.40697044 0.39816675 0.029720316 -0.29875728 0.014731802
-0.109765634 0.30231333 0.13956447 0.07225047 0.6560965 0.46199283 0.6277048 -0.2345559
-0.06383007 -0.24656634 0.35607722 -0.3018372 -0.43222624 0.026543912 0.11050639 0.25634924
-0.0154586 0.17418298 -0.16546169 0.24613106 0.021614647 -0.493685 0.021177888 0.1453575
0.038129766 -0.16933502 -0.09547895 -0.18413828 0.021940548 -0.15311079 -0.5142737 0.7495706
-0.34685913 0.018927747 0.16249463 0.057668492 0.40603706 -0.21881 0.144039 0.40400165
0.017603235 0.45654854 -0.5915675 -0.03216842 -0.10363543 0.393563 0.25637016 -0.50761914
-0.32562745 -0.48842314 0.18105187 -0.1233124 -0.5257989 -0.4477735 0.3304196 -0.13419718
-0.123101406 0.13770409 0.8281248 0.100561745 0.27811447 0.06568039 -0.50588465 -0.5952347
-0.030137286 0.22481127 -0.20983578 0.10876819 0.037969425 0.49849138 -0.22044855 0.24267013
-0.15974545 -0.17547554 -0.22997028 0.052916568 -0.13012753 -0.18075582 -0.27028382 0.3225721
0.07289836 0.0951662 0.28193405 -0.012543148 0.13590828 0.33646986 0.1629505 -0.17636885
00000000: 37fb d5be 5990 19be c061 6e3e a99b debc
00000010: 9408 e03e 1c6a e0be 18b7 1f3d 144d 6bbe
00000020: 8e06 aabe 109a bdbb 61fe f43d fa8f b2be
00000030: 345d 89be 5c11 603e 8c0f 6d3e 1498 fbbd
00000040: 614f 283f 3336 44be c5cd 86bd f8e7 73bd
00000050: 7e26 a13d 2951 3bbe cdeb 203e ded1 553e
00000060: ddd0 30bd da0b 0fbf 07a3 3c3f 5e0a 5c3e
00000070: 3edb b6bd 849d 0cbe 6af4 633e 71fb 64be
00000080: ecb1 6fbc 42c4 173f 89e2 8abe 2f42 dabb
00000090: 84d0 c5be f14b 33bf 8bdb 093c aaef d1be
000000a0: 98f3 373e 9403 a33e 4bc2 d93d 582b a43c
000000b0: 1bb0 213e 1c56 983e 14f0 2d3e d316 febd
000000c0: 6a6a d83e 896b 243e fdff d4be ed53 8a3e
000000d0: 7b76 9d3d 6f3a e83e 4248 ad3e 074d 71be
000000e0: 890b 033f 8697 e03d 726c b3bd 0dfd 8fbd
000000f0: f464 883e 84ed e53d 6f9e 9fbe b10b e83d
00000100: e7d7 bdbd a440 233e 2f57 21be 8452 7abe
00000110: d764 a8be 0a8e d1be 17f5 ecbd 556d 7f3e
00000120: 7b29 683e f741 ab3e fbb2 16bd 2957 3fbe
00000130: 6380 bbbe 7c08 3bbe 6d96 56be dc8d ad3a
00000140: d339 883e d65e c63e 87e4 1f3e 3456 713e
00000150: 7e15 13be 4e0b 3fbe f380 8fbd 4f5e e83e
00000160: 68d3 6ebd e09e 4a3e 42f0 80be c73d 913d
00000170: e98e 4bbe 10e3 d9be 9faa bd3d 5433 13be
00000180: b2e0 f83d d78a b0bd cfdd 9bbc 917d ccbe
00000190: 9486 c1be 1e0b 00bf 2590 cdbe e497 873d
000001a0: c6b3 47bd e668 513e c6da 13bf 4205 af3e
000001b0: f006 863d f3c9 36bd 98eb 36bd 0338 0c3e
000001c0: b8c0 8fbe 570a 28bc 7ff2 073f 9635 8e3d
000001d0: ac1f c03d b2e6 47be ea10 ca3e f84f d3be
000001e0: 955f 66be ea29 2bbd c7ff c7be 73bf 4b3e
000001f0: 0cea 153e 16ce 3fbe 1c32 02bd 01ea 2a3e
00000200: c9cc 23be 3f14 073f 8344 e83e b6f0 9d3e
00000210: 919f 1f3f f967 eabe 0d27 be3e 6151 2a3e
00000220: 11b9 d8be 492f 703c 4559 a83e 8d36 213e
00000230: f76e 82be 403f 12bf b49a adbe 6ca1 333f
00000240: 31cd 88bd 50df 823e b843 363e 9bc0 903e
00000250: 80ea 3ebd d2b7 7cbe 7264 e33d a29a 43be
00000260: 7ebc ee3e 32d1 abbc fe1e 563e a656 ed3e
00000270: 0be4 3abe e94e 183e fe61 09be 8da1 8d3d
00000280: 6f03 943c a6f5 11bf aecd a7be 6e5e d0be
00000290: 83dc cb3e 0578 f33c b7f6 98be a85d 713c
000002a0: cecc e0bd d0c8 9a3e fde9 0e3e 0ef8 933d
000002b0: f1f5 273f 538a ec3e 43b1 203f 6c2f 70be
000002c0: 57b9 82bd e37b 7cbe c14f b63e 688a 9abe
000002d0: c24c ddbe 9e72 d93c 2d51 e23d 3540 833e
000002e0: 1146 7dbc 065d 323e ca6e 29be c809 7c3e
000002f0: 3311 b13c 48c4 fcbe 407d ad3c 99d8 143e
00000300: f52d 1c3d 2966 2dbe 788a c3bd bf8e 3cbe
00000310: aabc b33c 13c9 1cbe 71a7 03bf dce3 3f3f
00000320: 8597 b1be 5d0e 9b3c fe64 263e cc35 6c3d
00000330: 17e4 cf3e bb0f 60be f67e 133e 4ed9 ce3e
00000340: a934 903c bbc0 e93e f870 17bf 08c3 03bd
00000350: d03e d4bd 1781 c93e f342 833e 54f3 01bf
00000360: a4b8 a6be 9912 fabe a965 393e 368b fcbd
00000370: c29a 06bf 9142 e5be c22c a93e fc6a 09be
00000380: 971c fcbd 4d02 0d3e fdff 533f 51f3 cd3d
00000390: 0565 8e3e 7183 863d a881 01bf 4d61 18bf
000003a0: 78e2 f6bc ed34 663e 31df 56be dbc1 de3d
000003b0: d485 1b3d 433a ff3e 44bd 61be 857e 783e
000003c0: 5094 23be dcaf 33be 547d 6bbe 0bbf 583d
000003d0: 2740 05be 0e18 39be a462 8abe 2c28 a53e
000003e0: bc4b 953d 7fe6 c23d a959 903e c781 4dbc
000003f0: 8a2b 0b3e c745 ac3e 7fdc 263e 099a 34be

transformer.attn.proj_k.bias f4 [72]
-0.054172013 -0.044195488 0.07096288 0.062365133 -0.02130039 0.04068057 -0.025165621 0.051784918
0.047212206 0.052039508 -0.041957412 0.045025185 0.024739394 0.080257215 0.023401037 0.005089005
0.0817004 0.121134184 -0.07565799 0.05404756 0.06127235 0.016219761 -0.029094424 -0.10067186
-0.0651858 -0.11423538 -0.08148881 -0.08959991 0.10686868 0.045135584 0.105448574 0.0011745954
0.00021051684 0.05620693 -0.07970299 -0.021486633 0.057628676 0.10115122 0.07603311 0.017411578
0.020456623 -0.042208027 0.104408056 -0.0012726937 0.042907793 -0.028411724 0.011165768 -0.11337034
-0.020593302 0.088416554 0.012937953 0.112059526 -0.10018137 -0.039139044 -0.09001267 0.069991715
-0.096881375 -0.02267296 0.06672683 -0.043348737 0.011041695 -0.07786336 -0.01399049 -0.040855624
-0.052358653 -0.0173804 0.08712757 0.067932434 -0.04702627 0.05198962 0.10690377 -0.03981871
00000000: 79e3 5dbd 5406 35bd fd54 913d 9572 7f3d
00000010: 287e aebc aba0 263d 2228 cebc 6c1c 543d
00000020: 9661 413d 6127 553d 89db 2bbd 546c 383d
00000030: 45aa ca3c e55d a43d 88b3 bf3c abc1 a63b
00000040: 8a52 a73d 3315 f83d 94f2 9abd f960 5d3d
00000050: b7f8 7a3d 4edf 843c 6e57 eebc 0c2d cebd
00000060: 2280 85bd 3df4 e9bd 9be3 a6bd 2880 b7bd
00000070: f7dd da3d 17e0 383d 6cf5 d73d e2f4 993a
00000080: 2fbe 5c39 3d39 663d 523b a3bd bc04 b0bc
00000090: 0c0c 6c3d 5f28 cf3d 3fb7 9b3d baa2 8e3c
000000a0: a694 a73c 53e2 2cbd e4d3 d53d 84d0 a6ba
000000b0: 15c0 2f3d b4bf e8bc a0f0 363c b52e e8bd
000000c0: 49b3 a8bc bd13 b53d b5f9 533c 777f e53d
000000d0: e42b cdbd 4350 20bd 9058 b8bd d157 8f3d
000000e0: be69 c6bd a5bc b9bc 14a8 883d 728e 31bd
000000f0: 3ae8 343c d376 9fbd 5e38 65bc 3a58 27bd
00000100: 0776 56bd 5761 8ebc f06f b23d 2920 8b3d
00000110: 9e9e 40bd 11f3 543d 5df0 da3d f218 23bd

transformer.attn.proj_v.weight f4 [72, 72]
-0.16467749 0.24291617 0.27758798 0.45614263 -0.8000579 -0.22026135 -0.27112615 -0.56856316
-0.32673898 -0.5316111 0.5852169 0.12973851 -0.37467957 -0.041249044 -0.42161873 0.0030134493
-0.68039185 -0.18493257 0.12846853 0.54874486 -0.20625591 0.7253938 -0.050527565 0.043689393
-0.61765397 -1.0757773 -0.020372422 0.27277336 0.44169757 -0.60196763 -0.2624223 -0.11561648
-0.15644374 0.10282708 -1.0065116 0.97652274 0.05177576 -0.55290955 0.00966323 -0.30522725
0.04863197 0.116818175 0.24987863 -1.319578 0.04034641 -0.4056609 -0.16485776 -0.7294014
0.5646003 0.3285619 0.55374956 0.49418727 -1.1232516 0.5922832 -0.64678884 0.2631868
0.78484696 -0.2979123 0.3844826 -0.52835095 0.17613034 0.48294246 -0.31728348 -0.54229164
1.0670633 -1.3429981 0.06697544 -0.49930394 0.13812666 -0.44727254 1.0026478 -0.79451483
0.462505 0.31666 0.33367524 0.2444699 0.50281614 0.71920335 1.107625 0.23424934
0.34942564 0.29314077 -0.263464 -1.0257435 0.35718253 -0.50094444 0.109533854 0.4386208
0.013657477 0.31793672 0.035677526 -0.54370177 -0.35797316 0.1267041 -0.23831846 0.22293152
0.75649345 -0.29883468 0.108122535 -0.26804277 0.22894837 -0.40231615 -0.05114099 0.81266207
0.38047597 0.35091344 -0.20576936 0.12187177 -0.26806045 0.35781193 0.64524275 0.8461122
0.07386865 0.159269 0.28126252 -0.515398 0.45338932 -0.13118866 0.5638178 1.0028868
-0.88650274 -0.5554025 0.40507585 0.084488474 0.24121058 0.05391365 0.42979932 0.74044144
-1.1361556 -0.40082842 0.24272501 0.030571103 1.0968966 0.485999 0.24173597 0.18423848
-1.2931159 -0.28891984 0.50826037 -0.9021247 -1.0345018 0.13598396 -0.046367303 -0.1303701
-0.091640495 -0.742511 -0.47437054 -0.27428535 0.11666215 -0.588711 -0.12546451 -0.24075782
0.67905074 0.3147593 0.23977593 0.039640214 1.0050634 0.009910018 1.2762612 0.052014768
0.2384815 0.11440937 -0.2096652 0.71026397 -0.55638385 0.58085835 0.30674776 0.08895735
-1.3303813 0.32130304 -0.3391622 0.22358702 1.1159298 0.3411221 0.20865494 0.40208477
0.49055967 -0.02805551 0.96211857 0.114669345 0.5374902 0.5481561 -0.65688926 0.5936229
-0.097060576 -0.71216834 -0.24751015 -0.105116144 0.3536703 -1.0156432 0.61329424 0.09729333
-0.3924934 0.74222285 0.107865304 -0.093107946 0.25133997 -0.8538031 0.46359494 0.36558422
0.20551994 -0.1752619 0.23235421 -0.088548206 -0.090440445 0.27179745 0.5484357 0.7851983
-0.23918886 0.15319268 0.31952977 -0.026524294 -0.20856392 0.80215186 0.36152607 -0.2527753
-0.36092177 0.388957 -0.17610143 -0.55074716 0.5802316 0.06518238 -0.15155092 0.536089
-0.10326939 -0.21186236 -0.03687319 0.16496572 0.6297648 0.22744267 -0.6563345 0.3964238
0.13944998 -0.8410884 -0.6533454 0.3091102 -0.5603583 -0.8320838 0.24454482 -0.6077352
-0.3417218 0.05451009 -0.042303674 -0.44237316 0.45514032 -0.19366741 0.06057916 -0.77271765
-1.1475409 0.15858573 -0.29037455 0.7782997 1.5311098 0.14347854 -0.43440148 0.2926906
00000000: 37a1 28be 04bf 783e 0320 8e3e 878b e93e
00000010: 98d0 4cbf 318c 61be 0cd1 8abe 5b8d 11bf
00000020: 554a a7be aa17 08bf c6d0 153f 2cda 043e
00000030: 00d6 bfbe c2f4 28bd 69de d7be 4a7d 453b
00000040: 292e 2ebf f75e 3dbe 418d 033e 8b7a 0c3f
00000050: c034 53be 68b3 393f fef5 4ebd a6f3 323d
00000060: 921e 1ebf 12b3 89bf 11e4 a6bc f3a8 8b3e
00000070: 2f26 e23e 8d1a 1abf 375c 86be 55c8 ecbd
00000080: ca32 20be 0197 d23d 5fd5 80bf 65fd 793f
00000090: d212 543d 7b8b 0dbf 8652 1e3c bf46 9cbe
000000a0: 5132 473d 5e3e ef3d 2fe0 7f3e efe7 a8bf
000000b0: 4742 253d c9b2 cfbe 79d0 28be 0dba 3abf
000000c0: a589 103f 4439 a83e 88c2 0d3f 1d06 fd3e
000000d0: b5c6 8fbf df9f 173f f493 25bf 6cc0 863e
000000e0: bbeb 483f f687 98be e7da c43e 0242 07bf
000000f0: 835b 343e 3c44 f73e fb72 a2be a0d3 0abf
00000100: 8895 883f 5de7 abbf 6b2a 893d c4a4 ffbe
00000110: 1371 0d3e e800 e5be c356 803f 5365 4bbf
00000120: 75cd ec3e 4221 a23e 7bd7 aa3e 5156 7a3e
00000130: 8fb8 003f b61d 383f a8c6 8d3f 0fdf 6f3e
00000140: ebe7 b23e 8c16 963e c1e4 86be 904b 83bf
00000150: a1e0 b63e e53d 00bf 4953 e03d e892 e03e
00000160: 9cc3 5f3c 9ac8 a23e 9922 123d 0a30 0bbf
00000170: 4248 b7be b8be 013e c109 74be 2948 643e
00000180: 8ea9 413f dc00 99be 596f dd3d e73c 89be
00000190: 7171 6a3e 62fc cdbe 3779 51bd 9f0a 503f
000001a0: bfcd c23e edaa b33e 34b5 52be e897 f93d
000001b0: 383f 89be 2033 b73e a12e 253f cf9a 583f
000001c0: 7248 973d 6a17 233e a401 903e 20f1 03bf
000001d0: a522 e83e 5256 06be 5d56 103f 985e 803f
000001e0: d8f1 62bf dc2e 0ebf 1a66 cf3e 4b08 ad3d
000001f0: e8ff 763e 8fd4 5c3d a80e dc3e 928d 3d3f
00000200: 8c6d 91bf 6239 cdbe e88c 783e 4070 fa3c
00000210: 1c67 8c3f dcd4 f83e a289 773e 03a9 3c3e
00000220: d284 a5bf 4ded 93be 5a1d 023f a5f1 66bf
00000230: 8e6a 84bf 613f 0b3e a4eb 3dbd bd7f 05be
00000240: 03ae bbbd 3315 3ebf b2e0 f2be 216f 8cbe
00000250: 91ec ee3d c4b5 16bf c579 00be 3889 76be
00000260: 45d6 2d3f 2228 a13e d287 753e c75d 223d
00000270: eba5 803f a15d 223c 875c a33f 700d 553d
00000280: 7f34 743e 764f ea3d 79b2 56be dcd3 353f
00000290: 2c6f 0ebf 22b3 143f 0b0e 9d3e 452f b63d
000002a0: ef49 aabf d581 a43e aba6 adbe fff3 643e
000002b0: cad6 8e3f 8ea7 ae3e a4a9 553e 0ede cd3e
000002c0: a32a fb3e abd4 e5bc 674d 763f c3d7 ea3d
000002d0: f598 093f f553 0c3f e529 28bf acf7 173f
000002e0: b2c7 c6bd aa50 36bf 4d73 7dbe 2247 d7bd
000002f0: 4614 b53e 9900 82bf da00 1d3f ba41 c73d
00000300: e5f4 c8be 5102 3e3f 7ce8 dc3d 61af bebd
00000310: a2af 803e d792 5abf 515c ed3e db2d bb3e
00000320: d273 523e db77 33be 43ee 6d3e c358 b5bd
00000330: d738 b9bd 0929 8b3e 4866 0c3f c102 493f
00000340: eded 74be 8bde 1c3e 6899 a33e 7a49 d9bc
00000350: c891 55be d359 4d3f f219 b93e c46b 81be
00000360: bdca b8be 5f25 c73e ef53 34be c4fd 0cbf
00000370: 0f8a 143f 577e 853d 2a30 1bbe 213d 093f
00000380: e77e d3bd 72f2 58be 5808 17bd c6ec 283e
00000390: 4438 213f bbe6 683e 8a05 28bf 0ff8 ca3e
000003a0: facb 0e3e 9251 57bf a541 27bf b143 9e3e
000003b0: a473 0fbf 7203 55bf f569 7a3e 8994 1bbf
000003c0: 29f6 aebe f945 5f3d 9e46 2dbd bc7e e2be
000003d0: 2708 e93e c050 46be da21 783d d3d0 45bf
000003e0: 9fe2 92bf 4c64 223e f9ab 94be a63e 473f
000003f0: 68fb c33f 0aec 123e df69 debe 8bdb 953e

transformer.attn.proj_v.bias f4 [72]
-0.16265276 0.23775147 0.04579903 0.02799555 -0.20913818 -0.040626988 0.14612734 0.17915294
0.349234 0.23394983 0.13480699 -0.14452644 0.049467064 0.2528779 -0.20180759 -0.07410818
-0.020687914 -0.47436762 -0.21038717 -0.15860553 -0.059905037 -0.13863145 0.27626082 -0.06653126
-0.20590022 0.008503054 0.03260361 -0.16179186 -0.22986871 0.31692088 -0.069802195 -0.13640323
0.0717718 -0.0750449 -0.3091677 0.1236486 0.25263005 0.12674545 0.06709523 -0.064254835
0.100604564 0.090179846 -0.05749393 0.15620224 0.08713769 -0.28555077 0.1613134 0.059904333
0.040249687 0.03363892 0.15868628 0.1101007 0.14254971 -0.16378975 0.020373555 0.03712061
-0.16757068 0.15187533 -0.057440564 -0.03118848 0.078913435 0.02803105 0.023405053 -0.17548601
0.18951964 0.022594912 0.008002394 0.21128951 -0.06423482 0.05508798 -0.20872262 -0.01888968
00000000: 728e 26be 1f75 733e c497 3b3d ec56 e53c
00000010: 5228 56be 7c68 26bd 68a2 153e de73 373e
00000020: cdce b23e 8b90 6f3e d80a 0a3e bdfe 13be
00000030: fa9d 4a3d 3679 813e a6a6 4ebe 08c6 97bd
00000040: b379 a9bc 50e0 f2be bc6f 57be 7d69 22be
00000050: fc5e 75bd 67f5 0dbe 0f72 8d3e 8b41 88bd
00000060: 82d7 52be 6550 0b3c 5d8b 053d c4ac 25be
00000070: b462 6bbe 7443 a23e 74f4 8ebd 4aad 0bbe
00000080: 18fd 923d 24b1 99bd 3b4b 9ebe 7a3b fd3d
00000090: ba58 813e 8fc9 013e 3969 893d 0a98 83bd
000000a0: c409 ce3d 36b0 b83d c17e 6bbd 7bf3 1f3e
000000b0: 3f75 b23d b633 92be 572f 253e 3f5e 753d
000000c0: dbdc 243d f7c8 093d a87e 223e 7a7c e13d
000000d0: 8df8 113e 80b8 27be 71e6 a63c c80b 183d
000000e0: a697 2bbe 3585 1b3e cc46 6bbd fc7e ffbc
000000f0: 5e9d a13d 5fa1 e53c f4bb bf3c 9bb2 33be
00000100: 7011 423e f718 b93c 791c 033c 475c 583e
00000110: 8c8d 83bd efa3 613d 62bb 55be 88be 9abc

transformer.proj.weight f4 [72, 72]
1.5941137 -0.23936278 -0.2687241 0.39718515 -0.13827404 -0.24545486 0.5086519 -0.18465112
0.08268269 -0.5541989 -0.0023120486 -0.21870089 0.24280843 0.07614415 0.5817541 0.15836695
-0.0993841 0.4553959 0.39251512 0.26498023 0.13803315 0.092272215 0.26406825 -0.35773465
0.60995024 -0.26237202 -0.2390772 -0.71625215 -0.10617601 -0.6448845 -0.18583658 0.42914018
-0.22299172 -0.5586657 0.065195486 0.19811371 0.1571712 -0.048891038 0.12374581 -0.6249946
-0.27778295 0.5195481 -0.10379594 0.030011153 0.5978663 0.06718638 -0.2953199 -0.21089436
-0.9559661 -0.32412514 -0.6843609 0.03485365 -0.19861692 -0.38268813 0.24314566 -0.49412787
-0.42905387 -0.538419 0.17246838 0.5785637 0.6509377 0.47019652 -0.63795763 -0.5697379
0.007971041 -0.24649426 -0.47379026 -0.2108357 -0.08542727 -0.30384842 0.41916963 -0.16667975
-0.39412108 2.0167198 -0.107477106 0.243234 -0.31006154 0.32171577 -0.73000354 0.6266517
0.05266422 -0.01893627 0.15689483 -0.5019045 0.032170862 0.1427627 0.38426024 0.06655406
-0.49204406 -0.38182825 0.16155265 -0.532424 -0.47979245 -0.198252 -0.13487405 -0.37925822
-0.43448368 -0.2521691 -0.83307457 0.5602702 -0.16271324 -0.42929754 0.10730595 0.17825659
-0.5364893 0.1480039 -0.117187776 0.23602295 0.42975247 0.81473124 0.6819481 -0.14784063
-0.59983116 0.14065386 0.7756678 -0.26055714 0.05653721 -0.39681816 0.4338428 0.052457795
-0.30095243 -0.69367623 0.20076263 0.94247067 0.1953643 0.061452325 -0.17202184 -0.05841474
-0.27509552 -0.09705909 -0.066330686 0.30150786 -0.21726333 -0.19418474 0.53348136 0.28082076
-0.17601012 0.19422959 0.37476075 0.341798 -0.14061563 0.6614867 -0.1197389 0.32015345
-0.18299018 0.078342006 1.7857636 0.13358532 0.40980682 -0.2618854 0.60170615 0.13178024
-0.44675812 -0.326429 0.21094796 -0.38849762 -0.7346504 -0.5171655 -0.118925 0.15276898
-0.13650343 0.8956921 0.77262664 0.6224224 -0.22489291 -0.18950887 -0.46041256 -0.17931676
-0.58193725 0.4316869 0.44174698 0.66696924 -0.3488005 -0.24400692 -0.33334062 -0.26050526
0.38688207 -0.053219043 -0.0669093 0.09070481 -0.7206048 0.8880763 -0.49322325 0.056552943
-0.5083995 0.0098016085 0.16231488 0.27257127 -0.16975759 -0.33225355 -0.0116442945 -0.26203227
0.9956423 0.13595814 -0.5154203 -0.35392636 0.07629292 0.6595467 -0.48374817 0.44763353
0.24148355 -0.06186623 -0.3010101 0.55544716 -0.09110734 0.25008953 0.4025665 -0.56527555
-0.081559114 0.18085153 0.07811267 0.2319598 0.4736476 0.008853012 -0.032958604 -0.32600603
0.38788307 -0.2668856 -0.85430974 1.6258695 0.29635823 0.03914888 0.2699662 0.04510303
0.25409606 -0.13997762 1.1130061 0.25800017 0.046764877 -0.12426013 -0.3178796 0.15743785
0.2534369 -0.5408874 0.64721614 -0.71675146 0.6323363 -0.17921674 0.097379565 -0.2733518
-0.10503254 0.11903376 -0.33689794 -0.6106623 -0.40621117 0.2683695 0.60859376 0.57011586
0.18524882 0.32961053 0.52708006 0.17530252 -0.16183434 0.10073487 -0.075548075 -0.5231772
00000000: eb0b cc3f 841b 75be 3596 89be da5b cb3e
00000010: b697 0dbe 8558 7bbe 0337 023f 2f15 3dbe
00000020: 8b55 a93d fbdf 0dbf bd85 17bb 20f3 5fbe
00000030: c6a2 783e 77f1 9b3d d6ed 143f f22a 223e
00000040: e489 cbbd a729 e93e bef7 c83e 7dab 873e
00000050: 9058 0d3e 37f9 bc3d f433 873e ff28 b7be
00000060: b325 1c3f a055 86be a7d0 74be 4d5c 37bf
00000070: cf72 d9bd 2717 25bf f24b 3ebe 43b8 db3e
00000080: f157 64be b704 0fbf 3685 853d 52de 4a3e
00000090: 7df1 203e f841 48bd 716e fd3d a5ff 1fbf
000000a0: 9139 8ebe 1b01 053f f792 d4bd f3d9 f53c
000000b0: c40d 193f 0399 893d 2c34 97be b1f4 57be
000000c0: 32ba 74bf bbf3 a5be 4732 2fbf b3c2 0e3d
000000d0: 3c62 4bbe b3ef c3be 2dfb 783e 54fe fcbe
000000e0: f3ac dbbe d4d5 09bf 8d9b 303e c01c 143f
000000f0: daa3 263f 99bd f03e 3151 23bf 58da 11bf
00000100: f898 023c fe68 7cbe a394 f2be 50e5 57be
00000110: 7ef4 aebd 0592 9bbe 679d d63e 19ae 2abe
00000120: 3dca c9be f011 0140 f51c dcbd 5512 793e
00000130: 63c0 9ebe eeb7 a43e 83e1 3abf 3f6c 203f
00000140: 70b6 573d 3d20 9bbc 0aa9 203e d07c 00bf
00000150: 98c5 033d 6330 123e c2bd c43e 7f4d 883d
00000160: 33ed fbbe fe7e c3be 0f6e 253e f04c 08bf
00000170: 5ba7 f5be 9302 4bbe 6c1c 0abe 222e c2be
00000180: a574 debe 4f1c 81be 6044 55bf de6d 0f3f
00000190: 4d9e 26be e3cc dbbe 39c3 db3d e588 363e
000001a0: 5d57 09bf 568e 173e 2500 f0bd 00b0 713e
000001b0: 8408 dc3e 3a92 503f 2794 2e3f 8963 17be
000001c0: 898e 19bf 9107 103e 2a92 463f bf67 85be
000001d0: 9093 673d c02b cbbe a520 de3e fcdd 563d
000001e0: 7016 9abe c494 31bf b894 4d3e c245 713f
000001f0: 940d 483e 6fb5 7b3d 7e26 30be 4b44 6fbd
00000200: 52d9 8cbe ebc6 c6bd 62d8 87bd 3d5f 9a3e
00000210: 477a 5ebe 5dd8 46be 3c92 083f bdc7 8f3e
00000220: ff3b 34be 1fe4 463e a4e0 bf3e 2600 af3e
00000230: 8bfd 0fbe 3157 293f ab39 f5bd 27eb a33e
00000240: c761 3bbe c671 a03d e793 e43f 97ca 083e
00000250: 33d2 d13e d815 86be 6a09 1a3f 66f1 063e
00000260: 7bbd e4be b421 a7be be02 583e 29e9 c6be
00000270: 0c12 3cbf f564 04bf f38e f3bd 796f 1c3e
00000280: 8ec7 0bbe 144c 653f dcca 453f 1357 1f3f
00000290: 544a 66be 9d0e 42be 32bb ebbe d09e 37be
000002a0: d7f9 14bf 1106 dd3e a92c e23e 7fbe 2a3f
000002b0: fb95 b2be f3dc 79be 9fab aabe f260 85be
000002c0: 6815 c63e 36fc 59bd be07 89bd 72c3 b93d
000002d0: 8e79 38bf f858 633f c287 fcbe 0fa4 673d
000002e0: 7826 02bf ed96 203c df35 263e 768e 8b3e
000002f0: efd4 2dbe 231d aabe b6c7 3ebc 1829 86be
00000300: 6ae2 7e3f 9c38 0b3e 96f2 03bf d635 b5be
00000310: 763f 9c3d 0dd8 283f d7ad f7be 3930 e53e
00000320: 7747 773e 7267 7dbd ff1d 9abe c931 0e3f
00000330: 7c96 babd bc0b 803e 321d ce3e e6b5 10bf
00000340: 7708 a7bd 2531 393e 89f9 9f3d df86 6d3e
00000350: f081 f23e 390c 113c 9aff 06bd 43ea a6be
00000360: 9c98 c63e 3ba5 88be 0bb4 5abf 7e1c d03f
00000370: 44bc 973e 935a 203d 0339 8a3e f4bd 383d
00000380: e118 823e 4b56 0fbe fc76 8e3f 9918 843e
00000390: 878c 3f3d 187c febd 1dc1 a2be 6337 213e
000003a0: 7bc2 813e 9977 0abf f5af 253f 067d 37bf
000003b0: cbe0 213f 9884 37be f06e c73d c4f4 8bbe
000003c0: 4d1b d7bd f9c7 f33d e37d acbe 5d54 1cbf
000003d0: e9fa cfbe ba67 893e cdcc 1b3f 1df3 113f
000003e0: deb1 3d3e b6c2 a83e b8ee 063f 8182 333e
000003f0: e7b7 25be 154e ce3d f3b8 9abd f1ee 05bf

transformer.proj.bias f4 [72]
0.91686475 0.2936837 -0.26844743 -0.4158665 -1.3595773 -0.74536186 -0.06064372 -0.7059846
1.3421876 0.45114052 0.45376512 -0.13076605 0.15178742 0.7733089 -0.58084124 -0.7235963
0.12336747 -1.066898 -0.42914575 -0.91087675 -0.08534985 0.15416639 1.2232404 -1.3836135
-0.66175234 0.86818904 -0.14235094 -0.55351377 -0.13623826 0.3047347 0.08272621 -0.5423418
0.33670992 -0.6947155 -0.13531083 0.4414268 0.555503 -0.35697904 -0.5802814 -0.14264338
0.476112 -1.0904597 0.33476943 -0.41398647 0.4728815 -0.7604215 0.9080812 -0.41233814
-0.28833276 0.24913539 -0.1635466 -0.096115656 1.1903183 0.124594115 0.29930338 0.6470627
-0.30464712 0.9170364 0.6016341 0.25665104 -0.20581633 -0.5780287 -0.32071188 -0.6027234
1.1034881 0.36586717 0.81600785 1.7090229 -0.34444675 -0.49074838 -1.1111752 -0.09354372
00000000: a6b7 6a3f b65d 963e f171 89be 74ec d4be
00000010: a106 aebf 09d0 3ebf 8d65 78bd 68bb 34bf
00000020: cecc ab3f e4fb e63e e753 e83e 89e7 05be
00000030: 296e 1b3e 92f7 453f 03b2 14bf 9b3d 39bf
00000040: 16a8 fc3d 1d90 88bf feb8 dbbe 382f 69bf
00000050: e7cb aebd cbdd 1d3e 2493 9c3f 3f1a b1bf
00000060: 9a68 29bf a341 5e3f 72c4 11be 14b3 0dbf
00000070: 0b82 0bbe 3006 9c3e 5c6c a93d ead6 0abf
00000080: 3e65 ac3e e0d8 31bf ec8e 0abe b202 e23e
00000090: 7235 0e3f f5c5 b6be 528d 14bf 1b11 12be
000000a0: f4c4 f33e 2f94 8bbf e666 ab3e 09f6 d3be
000000b0: 861d f23e fcaa 42bf 0278 683f fc1d d3be
000000c0: 5aa0 93be 591d 7f3e c378 27be 49d8 c4bd
000000d0: 5a5c 983f 332b ff3d 4b3e 993e e7a5 253f
000000e0: b5fa 9bbe e6c2 6a3f b104 1a3f c467 833e
000000f0: 84c1 52be b0f9 13bf 5934 a4be 154c 1abf
00000100: 193f 8d3f f152 bb3e e4e5 503f 43c1 da3f
00000110: 535b b0be 5f43 fbbe fd3a 8ebf da93 bfbd
