Src/extractor/limu_bert_td1.pt (torch, 259067 bytes, 29 tensors)

transformer.embed.lin.weight f4 [72, 6]
-0.13558559 0.28989384 -1.1036955 -0.12124222 -0.33198088 -0.18817388 -0.8154466 -0.29761103
0.053360805 -0.29118353 0.15129615 0.40101317 -0.17101713 0.8069028 0.012104967 0.27353755
-0.20981012 0.59354556 0.024518771 0.124247596 0.10943877 0.116707504 0.08591937 0.040196255
-0.105213225 0.073588096 0.51686114 0.5671475 0.13525271 0.090054005 -0.12319901 0.1937792
0.20169352 0.4055694 -0.27056 -0.6562594 -0.42386138 0.3726653 -0.2694519 0.34371862
0.35078108 0.23906113 0.5080991 -0.02662375 -0.062170383 -0.23851772 0.037890274 -0.024254484
-0.12185671 -0.24773325 0.033428073 0.57435685 0.73128814 -0.43588004 0.98384225 -0.7111469
0.13438617 0.19803788 -0.75586325 0.62452877 0.10662271 0.17104943 0.01113796 -0.09138299
0.029996928 -0.09048836 -1.1926352 -0.024259973 -1.7277547 0.04671582 -0.08596603 -0.038833156
0.33674514 -0.080591775 -0.111860044 1.0774916 -0.17888473 0.047135785 0.42672783 0.3333175
-0.19571482 -0.2107092 0.027613671 -0.3722109 1.063917 0.95858693 0.2962811 1.5643344
-0.26813132 -0.07565276 -1.0659947 -0.73981243 0.5640907 -0.014615526 0.16667894 -0.17993508
-0.20760715 0.50142765 -0.17071937 -0.5106265 0.1496001 -0.41064182 0.29270747 -0.56447107
-0.4836458 0.49709597 -0.2784248 -0.9306854 0.19926211 0.30993935 0.25140786 -0.5649916
0.046320967 -0.48835194 -0.21710236 0.13105924 0.09289869 -0.09768528 -0.07498341 -0.087638505
0.28938404 0.51787966 -0.24792148 0.0150048565 0.00037317598 -0.2196031 0.41016722 -0.055436205
-0.1140593 0.29773423 -0.044550262 -0.5286022 0.39095217 0.18276699 0.1476212 -0.03437313
-0.0002457475 -0.028689777 -0.47132504 0.061420057 -0.10802313 -0.47576532 0.46135238 0.8683515
0.4418763 0.98626953 -0.4932757 0.15567878 -0.1273838 -0.07200919 -0.31492475 -0.15631872
0.39037105 0.10677516 0.1641624 0.32460365 -0.2994444 0.16337559 0.32769933 -0.1299817
-0.066268854 0.020609729 -0.18214533 -0.11499861 -0.14120837 -0.9433368 -0.535893 -0.49372005
-0.5853436 0.16298293 -0.08778798 0.03552029 0.098928936 -0.6378831 -1.0357249 -0.008763773
0.75947154 -0.25677347 0.093362406 0.31531006 -0.07251022 0.16455965 -0.06621828 -0.25166905
0.11303515 0.027403433 -1.114728 -0.81040347 0.6855334 -0.10387901 -0.37614587 0.35930654
0.004405413 0.18001385 0.47963908 -0.37363696 0.11973943 -0.027541142 0.30480996 0.21149024
-0.10913282 0.26844075 0.11180295 -0.9974296 0.59072304 -0.31826493 0.50186044 -0.4135352
0.08900363 0.7991671 0.60906947 0.112153225 0.108674735 0.022883806 -0.21105844 -0.32186544
0.3509088 0.0021038179 0.24561967 0.4756222 0.21996692 0.3368343 0.34127423 0.15537214
0.40389577 0.17441748 -0.037012015 0.15182416 -0.34553212 0.99736947 1.0542506 -0.2288159
0.1340131 0.6467421 -0.8579146 -0.99673945 -0.76081336 0.48238045 0.19454345 0.5844945
0.32443216 0.58094454 0.6490467 -2.015807 0.12701415 -0.55716777 -0.00094269105 0.15711787
0.071960345 -0.00942359 -0.040458187 -0.1161374 -0.50764126 -0.26588354 0.23366804 0.5159849
00000000: f3d6 0abe f76c 943e e545 8dbf d74d f8bd
00000010: 66f9 a9be a7b0 40be 1cc1 50bf 7960 98be
00000020: dc90 5a3d 0216 95be 61ed 1a3e 9951 cd3e
00000030: 1d1f 2fbe 2f91 4e3f e953 463c 1d0d 8c3e
00000040: 77d8 56be 9af2 173f 97db c83c 8675 fe3d
00000050: 6f21 e03d 5804 ef3d 7ff6 af3d d4a4 243d
00000060: 087a d7bd 5bb5 963d 0351 043f 9430 113f
00000070: b07f 0a3e 3c6e b83d c34f fcbd 0e6e 463e
00000080: bf88 4e3e cba6 cf3e d786 8abe 9e00 28bf
00000090: 5c04 d9be fccd be3e 99f5 89be e3fb af3e
000000a0: 9499 b33e 71cc 743e c812 023f 0d1a dabc
000000b0: 5fa6 7ebd fd3d 74be d532 1b3d 57b1 c6bc
000000c0: 0390 f9bd c9ad 7dbe e0eb 083d 0d09 133f
000000d0: b335 3b3f ab2b dfbe 16dd 7b3f b90d 36bf
000000e0: 879c 093e 71ca 4a3e 4180 41bf 1ee1 1f3f
000000f0: 025d da3d 9527 2f3e fd7b 363c 0127 bbbd
00000100: 1ebc f53c f651 b9bd 45a8 98bf dabc c6bc
00000110: 1127 ddbf 1659 3f3d f50e b0bd 840f 1fbd
00000120: dc69 ac3e 4d0d a5bd e116 e5bd 3feb 893f
00000130: 8f2d 37be 7411 413d 127c da3e 97a8 aa3e
00000140: 7769 48be 27c4 57be 1136 e23c 6d92 bebe
00000150: 6f2e 883f f465 753f 28b2 973e 1c3c c83f
00000160: 8248 89be d6ef 9abd 8472 88bf 5964 3dbf
00000170: 4068 103f f675 6fbc e2ad 2a3e e740 38be
00000180: f896 54be 905d 003f 0fd1 2ebe 6bb8 02bf
00000190: c530 193e a53f d2be c1dd 953e 2d81 10bf
000001a0: 6ca0 f7be 5d83 fe3e b28d 8ebe 6641 6ebf
000001b0: 5e0b 4c3e 5fb0 9e3e 88b8 803e 4aa3 10bf
000001c0: 0ebb 3d3d 4409 fabe 1550 5ebe 6534 063e
000001d0: ab41 be3d 380f c8bd e790 99bd d17b b3bd
000001e0: 252a 943e c393 043f 21df 7dbe eed6 753c
000001f0: d5a6 c339 a3df 60be 7001 d23e 1311 63bd
00000200: ec97 e9bd 9f70 983e 567a 36bd 7952 07bf
00000210: e22a c83e 4527 3b3e 032a 173e d7ca 0cbd
00000220: acd7 80b9 d306 ebbc 8451 f1be 9993 7b3d
00000230: 3b3b ddbd 8397 f3be 6136 ec3e 494c 5e3f
00000240: 9c3d e23e 297c 7c3f a28e fcbe 426a 1f3e
00000250: e670 02be 8e79 93bd d13d a1be 0412 20be
00000260: b7de c73e efac da3d 301a 283e 7332 a63e
00000270: c750 99be ee4b 273e 35c8 a73e ec19 05be
00000280: f7b7 87bd bcd5 a83c 4e84 3abe 6484 ebbd
00000290: ed98 10be 857e 71bf 4930 09bf e0c8 fcbe
000002a0: 14d9 15bf ffe4 263e 2fca b3bd b97d 113d
000002b0: 419b ca3d 4f4c 23bf a292 84bf ee95 0fbc
000002c0: ba6c 423f d077 83be ca34 bf3d 5270 a13e
000002d0: 3d80 94bd 5382 283e 739d 87bd c4da 80be
000002e0: f97e e73d 2a7d e03c 68af 8ebf 9a76 4fbf
000002f0: 1e7f 2f3f 85be d4bd 3196 c0be 07f7 b73e
00000300: 485b 903b 8d55 383e 4193 f53e 584d bfbe
00000310: f239 f53d f69d e1bc 0d10 9c3e e690 583e
00000320: 0781 dfbd 1171 893e f2f8 e43d 8c57 7fbf
00000330: a039 173f 9ff3 a2be ed79 003f e3ba d3be
00000340: 8947 b63d 3796 4c3f faeb 1b3f 97b0 e53d
00000350: dc90 de3d d276 bb3c b41f 58be 8ccb a4be
00000360: 51aa b33e 35e0 093b b983 7b3e c184 f33e
00000370: 023f 613e 8c75 ac3e 7fbb ae3e e019 1f3e
00000380: 6dcb ce3e 7f9a 323e e999 17bd cb77 1b3e
00000390: 96e9 b0be 9b53 7f3f aff1 863f b74e 6abe
000003a0: bb3a 093e e490 253f 4ba0 5bbf 512a 7fbf
000003b0: aac4 42bf 92fa f63e 6636 473e 6ea1 153f
000003c0: f91b a63e c8b8 143f ed27 263f fb02 01c0
000003d0: ff0f 023e 8ca2 0ebf ed1e 77ba 82e3 203e
000003e0: f25f 933d 6765 1abc 7cb7 25bd 72d9 edbd
000003f0: c7f4 01bf e321 88be ad46 6f3e 9617 043f

transformer.embed.lin.bias f4 [72]
-1.7582424 0.46781805 0.3692063 0.24192967 -0.73981756 -0.14133786 -0.98384154 -1.4354725
0.10723948 -0.8218267 0.55378187 0.8467739 0.73822165 0.9953133 0.7465819 0.38791272
-0.06331881 -0.63487667 0.08938555 0.19597934 0.71743387 0.52344024 0.47561887 0.9902439
-0.91824806 -0.8618839 0.26646036 0.38137662 0.48513746 1.0153345 0.4609972 -1.362839
-0.772458 1.4592105 -0.79566365 -0.17815016 0.75428224 -1.0052283 -0.4568074 -0.7172699
-0.16968867 0.29646719 0.14997484 0.20395485 -0.5538527 -0.13708267 0.35473964 -1.121049
1.2110237 0.55323124 -0.64681673 0.568952 -0.35559195 1.6625695 1.4727092 -0.0502932
0.10886227 -0.25556535 1.062326 1.1847299 0.42389384 -0.11914257 -0.2102799 -0.85573083
0.8553786 -0.26083323 -0.083362706 0.83165765 0.34519345 -1.0740076 0.5038709 -1.0072675
00000000: 160e e1bf d985 ef3e 9c08 bd3e 69bc 773e
00000010: af64 3dbf dfba 10be 0add 7bbf 90bd b7bf
00000020: 5fa0 db3d 3c63 52bf a6c4 0d3f 2dc6 583f
00000030: 18fc 3c3f dacc 7e3f fe1f 3f3f 7f9c c63e
00000040: 4bad 81bd 4787 22bf c50f b73d cfae 483e
00000050: bfa9 373f 2e00 063f 5184 f33e a080 7d3f
00000060: 4e12 6bbf 6ca4 5cbf 7e6d 883e cc43 c33e
00000070: f063 f83e 7bf6 813f d307 ec3e 8271 aebf
00000080: cfbf 45bf 69c7 ba3f 9db0 4bbf ff6c 36be
00000090: a418 413f 52ab 80bf a9e2 e9be 009f 37bf
000000a0: dec2 2dbe 8cca 973e 0193 193e 8ad9 503e
000000b0: 4ac9 0dbf 665f 0cbe 6fa0 b53e 897e 8fbf
000000c0: d302 9b3f 90a0 0d3f c895 25bf d7a6 113f
000000d0: 2610 b6be 14cf d43f bc81 bc3f 3e00 4ebd
000000e0: 2ff3 de3d 76d9 82be 4cfa 873f 3ba5 973f
000000f0: 9d08 d93e 0501 f4bd 9d53 57be 2d11 5bbf
00000100: 18fa 5a3f ef8b 85be 11ba aabd 84e7 543f
00000110: 32bd b03e 1579 89bf affd 003f 24ee 80bf

transformer.embed.pos_embed.weight f4 [120, 72]
-0.04756722 -2.683494 1.5578911 1.4475298 -0.9249523 -0.27236804 1.5899283 0.43784165
-1.6567003 -0.57264644 -0.5592177 1.0179815 0.01663637 0.2935852 0.28342843 -2.486901
0.9999259 -0.8536505 0.91732544 0.8790504 1.0966345 0.09297086 -3.1567802 0.96909374
-0.5241659 1.4633611 0.023471965 0.64406234 -0.2246551 -1.8504106 0.56165177 0.7635587
-0.738549 1.5960581 -0.67318815 0.6391659 0.27274647 1.6658689 0.59466857 1.2831135
0.045972385 1.1333269 0.18551648 -1.0409919 -0.48470676 -0.70128214 -0.09549474 -0.011933584
1.0677137 0.23425329 2.8127067 -0.3365585 -0.72190183 0.09225407 -1.2141969 -1.1374302
-1.6747506 -0.8170999 -0.411066 0.864804 -1.5057588 0.13589273 -0.3768195 1.7011316
-1.2646806 -0.35525334 1.4369453 1.9676398 0.76525265 -0.30775392 -0.7914253 0.37922683
0.12173195 -0.09987388 0.1561043 1.3947588 0.53234106 1.0107653 0.51525146 2.6356175
0.87452084 -0.79841787 -0.3207804 0.5446931 0.37238267 -0.08521465 2.472939 -2.095308
0.3560247 -0.32244256 0.85772103 0.49151173 -1.1413597 0.65108454 0.9664881 1.8886303
0.021094542 3.0238674 -0.03229494 1.0695764 -0.50560933 -1.4501638 0.8808488 1.8295292
-0.08706883 0.09685046 -1.9539225 -1.0174919 0.7121136 -1.042069 0.31119812 1.5104331
2.4360733 0.11512709 -0.7354344 -1.6956614 0.78934896 0.35043278 -0.510774 -0.36737812
-0.40229157 1.3447305 0.2475024 -0.60563034 -0.6505578 1.7974653 -3.9840763 -1.4538504
1.3140163 0.10606782 0.4101834 -0.72929525 -0.5503857 0.88984466 -0.5230203 0.21039262
0.64272535 -0.07944062 -0.3782384 1.9261227 1.2732879 0.03370598 -0.20584022 0.31265578
-0.2425115 -1.2837315 -1.626891 0.032888945 1.7623435 1.3892354 1.6644416 2.0070064
-0.5041932 -2.3616526 -0.072249606 0.75489193 -1.8732374 -1.3906986 0.91871667 -1.0072371
1.371805 0.10955617 -1.1488081 0.4134028 0.06346211 0.14466342 -0.4965203 2.1457672
-0.32508853 2.6189806 0.017651316 -0.122964256 -1.0156147 -1.9996048 -0.30395842 -0.2061928
-3.3945897 -1.3116033 -0.6740821 1.0105095 -0.020287985 1.9327531 0.24990255 0.64683765
0.33401296 -0.20203295 -1.1074282 -0.10814724 -1.0753818 0.6627616 -1.6121447 2.9422703
1.0904682 1.590964 -2.5294402 0.9823593 2.2768936 -1.8998579 -2.6014786 -0.41732624
0.9190809 -1.0637271 0.21300209 -0.64837503 0.94541746 1.5226191 -1.1244259 -1.029382
0.1923705 0.18238522 2.7956142 0.538787 -0.7092878 -0.032672293 1.4360551 1.1025586
-0.49990064 -1.4777143 -0.05220137 1.4190884 0.69505054 0.15772837 1.2455152 1.3498397
-0.89545786 -0.8703574 0.18033949 0.17014268 -0.7121635 -0.9120276 0.5330724 -1.9718276
-0.3359834 0.8015346 -0.67965275 2.502098 2.2426636 0.57165056 -1.9520615 0.59255266
-0.8240798 -0.703348 0.46332753 -0.72059655 -1.1635941 -1.1826683 -0.3594502 1.6196218
-0.7758625 0.2682868 -0.37279516 0.92682135 -1.6676912 1.525603 0.83064127 0.41181856
00000000: d8d5 42bd 5ebe 2bc0 fa68 c73f a848 b93f
00000010: adc9 6cbf d373 8bbe c582 cb3f c82c e03e
00000020: c10e d4bf f598 12bf e428 0fbf 384d 823f
00000030: ff48 883c cd50 963e 881d 913e 6329 1fc0
00000040: 25fb 7f3f d788 5abf d7d5 6a3f 7209 613f
00000050: 855e 8c3f 8267 be3d b008 4ac0 8716 783f
00000060: bd2f 06bf 6b4f bb3f 4748 c03c 45e1 243f
00000070: fd0b 66be 41da ecbf 69c8 0f3f 9578 433f
00000080: 8c11 3dbf a24b cc3f 0f56 2cbf 60a0 233f
00000090: 6da5 8b3e 313b d53f 333c 183f 103d a43f
000000a0: 8a4d 3c3d db10 913f 08f8 3d3e 393f 85bf
000000b0: 7c2b f8be 3a87 33bf bf92 c3bd 1485 43bc
000000c0: d8aa 883f 18e0 6f3e 6303 3440 6551 acbe
000000d0: 8fce 38bf b4ef bc3d ce6a 9bbf 5097 91bf
000000e0: 3a5e d6bf 762d 51bf 3e77 d2be cc63 5d3f
000000f0: b4bc c0bf 7727 0b3e 7cee c0be aebe d93f
00000100: 0ee1 a1bf c4e3 b5be d3ed b73f 9fdb fb3f
00000110: 99e7 433f ec91 9dbe d99a 4abf 052a c23e
00000120: 9a4e f93d ad8a ccbd ced9 1f3e 7587 b23f
00000130: 8147 083f c260 813f 85e7 033f f5ad 2840
00000140: 99e0 5f3f 1d65 4cbf 543d a4be 0271 0b3f
00000150: f1a8 be3e 0585 aebd a244 1e40 8719 06c0
00000160: df48 b63e 3117 a5be 9b93 5b3f 6da7 fb3e
00000170: 1318 92bf 7aad 263f c46b 773f a3be f13f
00000180: 76ce ac3c 0b87 4140 b347 04bd e1e7 883f
00000190: 9d6f 01bf f89e b9bf 4f7f 613f 032e ea3f
000001a0: 2551 b2bd 8959 c63d 221a fabf 2d3d 82bf
000001b0: 144d 363f 8462 85bf 5c55 9f3e df55 c13f
000001c0: a0e8 1b40 c0c7 eb3d 6e45 3cbf 6f0b d9bf
000001d0: c612 4a3f ed6b b33e 16c2 02bf fc18 bcbe
000001e0: 29f9 cdbe 2120 ac3f 4571 7d3e 970a 1bbf
000001f0: f58a 26bf 5813 e63f 1bfb 7ec0 c517 babf
00000200: b031 a83f 163a d93d 8f03 d23e 18b3 3abf
00000210: 14e6 0cbf dccc 633f a9e4 05bf 2a71 573e
00000220: a689 243f c4b1 a2bd 77a8 c1be 308b f63f
00000230: 19fb a23f 480f 0a3d c7c7 52be 6b14 a03e
00000240: ef54 78be 5051 a4bf f73d d0bf 8fb6 063d
00000250: 7994 e13f 77d2 b13f 6c0c d53f cb72 0040
00000260: ce12 01bf 5125 17c0 9af7 93bd 9940 413f
00000270: 3ec6 efbf 6902 b2bf 0431 6b3f 25ed 80bf
00000280: 4e97 af3f fc5e e03d 250c 93bf 88a9 d33e
00000290: 6cf8 813d a622 143e e937 febe 4054 0940
000002a0: 0172 a6be 619d 2740 7e99 903c afd4 fbbd
000002b0: aaff 81bf 0df3 ffbf 70a0 9bbe 3524 53be
000002c0: f540 59c0 9ee2 a7bf a590 2cbf 6058 813f
000002d0: fd32 a6bc 7464 f73f 74e6 7f3e 2797 253f
000002e0: bf03 ab3e bae1 4ebe 35c0 8dbf 4d7c ddbd
000002f0: 1ca6 89bf bfaa 293f c25a cebf 284e 3c40
00000300: 7694 8b3f b5a4 cb3f 59e2 21c0 e67b 7b3f
00000310: a0b8 1140 8b2e f3bf a07e 26c0 c9ab d5be
00000320: e348 6b3f 3628 88bf 381d 5a3e e8fb 25bf
00000330: e106 723f 2fe5 c23f 30ed 8fbf cac2 83bf
00000340: c6fc 443e 31c3 3a3e 58eb 3240 f2ed 093f
00000350: e393 35bf 62d3 05bd a7d0 b73f a420 8d3f
00000360: faf2 ffbe be25 bdbf 1bd1 55bd b0a4 b53f
00000370: d5ee 313f 8c83 213e 0b6d 9f3f 8cc7 ac3f
00000380: ba3c 65bf becf 5ebf eaaa 383e e239 2e3e
00000390: 5950 36bf a47a 69bf 6f77 083f d964 fcbf
000003a0: 0406 acbe 5f31 4d3f b9fd 2dbf 6022 2040
000003b0: cd87 0f40 b157 123f 27dd f9bf 88b1 173f
000003c0: e5f6 52bf 9d0e 34bf 4439 ed3e 0479 38bf
000003d0: a7f0 94bf ad61 97bf db09 b8be c44f cf3f
000003e0: ed9e 46bf e35c 893e 02df bebe 2a44 6d3f
000003f0: e876 d5bf f646 c33f e8a4 543f e2d9 d23e

transformer.embed.norm.gamma f4 [72]
0.8573481 0.24773331 0.33570117 0.080591284 0.22459833 0.38600847 0.43051183 0.44796586
0.64268863 0.6590417 0.12654087 0.6461543 0.3615732 0.183739 0.562453 0.5316688
0.22741373 0.33658072 0.22118793 0.12576129 0.1609081 0.16088057 0.10325678 0.55054814
0.475986 0.18318254 0.1500228 0.39593616 0.11380743 0.41473383 0.13471423 0.6481062
0.35547632 0.538937 0.3310899 0.16748206 0.23206714 0.22693099 0.5220603 0.5048834
0.5630194 0.039700568 0.2261694 0.48582146 0.1642275 0.42187285 0.5153773 0.21791908
0.62018234 0.6467018 0.4059914 0.5807893 0.24772592 0.44114864 0.3080927 0.10347872
0.22970015 0.14506046 0.38052726 0.35082853 0.08820689 0.29609898 0.32236072 0.51329654
0.6951469 0.27981547 0.19445774 0.45142034 0.39444104 0.7697125 0.1740991 0.34711152
00000000: 2a7b 5b3f cdad 7d3e 06e1 ab3e 0b0d a53d
00000010: 1bfd 653e e7a2 c53e 0c6c dc3e c85b e53e
00000020: 3e87 243f f5b6 283f ee93 013e 5e6a 253f
00000030: 1f20 b93e 1426 3c3e ebfc 0f3f 721b 083f
00000040: 25df 683e 4f54 ac3e 177f 623e 91c7 003e
00000050: 18c5 243e e0bd 243e 4a78 d33d b9f0 0c3f
00000060: 70b4 f33e 3494 3b3e 949f 193e 25b8 ca3e
00000070: df13 e93d fe57 d43e 87f2 093e 4aea 253f
00000080: fe00 b63e c6f7 093f 9e84 a93e 6b80 2b3e
00000090: 02a3 6d3e 9960 683e bea5 053f 0a40 013f
000000a0: 0a22 103f 109d 223d f498 673e 97bd f83e
000000b0: 412b 283e b8ff d73e c4ef 033f 2e26 5f3e
000000c0: 45c4 1e3f 408e 253f 1bde cf3e 9cae 143f
000000d0: ddab 7d3e 3cde e13e 54be 9d3e a7ec d33d
000000e0: 8436 6b3e bb8a 143e 78d4 c23e cc9f b33e
000000f0: d0a5 b43d 499a 973e 770c a53e 6767 033f
00000100: 26f5 313f f943 8f3e ee1f 473e 9120 e73e
00000110: 2df4 c93e e10b 453f 0947 323e 9ab8 b13e

transformer.embed.norm.beta f4 [72]
0.50710756 0.009055572 0.017641915 0.063045174 0.06932717 -0.014407606 0.12251479 0.13969432
0.051623963 0.17129304 0.006129087 -0.1254452 -0.017725354 -0.007663679 -0.112150714 -0.0012512094
-0.015124754 0.049176753 -0.009265192 -0.009946669 -0.033418503 -0.007885082 -0.018486429 -0.18199115
0.12490679 0.021303084 -0.015346011 -0.06761111 -0.026619872 -0.07100078 0.042734396 0.2718506
0.06763177 -0.1827381 0.062781565 0.0061081517 -0.050500486 0.026456485 0.034407582 0.112404086
0.0317834 0.0079225665 0.006667578 0.0018765506 -0.017533893 0.047301188 -0.015227431 0.07560791
-0.18175894 -0.092312895 0.106924206 -0.031227674 0.03649555 -0.16794184 -0.064514704 0.016651064
0.014755219 0.03260963 -0.103189036 -0.05721416 -0.005168615 0.03747712 0.048133135 0.1633058
-0.083877765 0.02833588 0.019651702 -0.016096717 -0.03056368 0.27053753 -0.005411247 0.09378676
00000000: cdd1 013f d25d 143c c785 903c d41d 813d
00000010: 67fb 8d3d e10d 6cbc 09e9 fa3d 070c 0f3e
00000020: a673 533d 7167 2f3e 82d6 c83b b574 00be
00000030: c334 91bc 991f fbbb 46af e5bd 9fff a3ba
00000040: d1cd 77bc 906d 493d 08cd 17bc 5bf7 22bc
00000050: d7e1 08bd 6e30 01bc da70 97bc e35b 3abe
00000060: 22cf ff3d ce83 ae3c d66d 7bbc b277 8abd
00000070: eb11 dabc db68 91bd 430a 2f3d 0030 8b3e
00000080: 8782 8a3d b21f 3bbe 9f93 803d e426 c83b
00000090: 99d9 4ebd 45bb d83c f7ee 0c3d 1d34 e63d
000000a0: 4f2f 023d a7cd 013c b37b da3b 97f6 f53a
000000b0: 3da3 8fbc e4be 413d 7a7c 79bc 52d8 9a3d
000000c0: 041f 3abe 8b0e bdbd 14fb da3d 2ed1 ffbc
000000d0: 5c7c 153d f2f8 2bbe 4920 84bd d067 883c
000000e0: e0bf 713c ad91 053d c654 d3bd 6559 6abd
000000f0: 7c5d a9bb 9c81 193d 4027 453d a339 273e
00000100: 1bc8 abbd a620 e83c 9bfc a03c 43dd 83bc
00000110: af60 fabc e583 8a3e d450 b1bb 4613 c03d

transformer.attn.proj_q.weight f4 [72, 72]
0.19371663 -0.7422693 -0.17748964 -0.02175463 -0.19602385 -0.026610965 0.52890986 0.57234895
-0.095492676 -0.07764508 0.0043690237 -0.2681469 0.22650751 -0.47462878 -0.26610896 -0.4262611
-0.15989152 -0.3014722 0.24123065 0.38423926 0.60744154 -1.1233739 0.2709532 0.16433825
0.124583945 -0.47515798 0.100630075 0.047604986 0.7191394 -0.022338672 -0.21476065 0.025904266
0.48165858 0.0139945485 -0.044990174 0.19091298 -0.32911754 0.31585947 0.027299615 0.15485284
0.07431599 0.023621276 -0.69079137 0.5338727 -0.4856203 0.42638686 -0.64288217 0.06944477
-0.32373616 -0.14057173 0.17365955 -0.2546387 0.32556477 0.29624057 -0.148629 0.26993522
-0.028705904 -0.36041707 0.3815492 0.14718606 0.20305277 0.22273679 0.011770011 0.21873087
0.24724524 0.09084212 0.19050562 0.25075662 -0.2317488 -0.090452105 -0.036013834 -0.2821774
0.15974846 0.84132856 0.002546297 -0.6461131 -0.36961877 0.43035546 -0.093156785 0.014854997
0.2501578 -0.2597305 -0.43752992 0.4310105 -0.50898707 -0.16249013 0.51526266 0.15109111
-0.4008304 0.15641001 -0.75014555 0.40610698 0.915228 0.52737135 -0.08445973 -0.57307976
0.18871371 -0.22802863 0.027322942 -0.11826232 0.09582851 0.5044774 0.33585292 -0.057734545
0.24335681 -0.010332839 -0.08554806 0.18424122 0.33887798 -0.46068546 0.08687554 -0.3824418
-0.3262887 0.14506939 -0.6853248 -0.31010276 0.15002003 0.34416923 0.34320518 0.07663537
-0.27578375 -0.19156568 0.24525683 0.7802474 -0.20933983 0.11942214 0.3150696 -0.14258285
0.0626026 0.17901245 0.4317501 -0.42344093 0.08947385 0.10178043 0.06533067 0.39357904
-0.10363547 -0.30955058 -0.011375066 -0.05399328 -0.1892739 0.086644016 0.23895457 0.07063779
-0.01659103 0.07750747 -0.73930997 -0.34452718 -0.4276428 0.21442439 -0.31535468 0.07096396
-0.0766718 0.13137735 -0.10454769 0.1509573 -0.58213305 0.43083617 -0.45579186 0.13635297
0.13735212 0.5047484 0.24481456 0.21498013 -0.09989673 -0.14772926 0.34005213 -0.21415073
-0.43347576 -0.21200053 -0.19138905 0.3998195 -0.49042463 0.070034795 0.03372869 0.15685368
-0.030254206 0.14154239 -0.50318456 0.36146295 -0.22279967 0.027374113 -0.20328802 -0.1344019
0.55022377 0.2792 0.0012182038 0.6363944 0.47578296 -0.14379558 -0.39100963 -0.33394235
0.25170416 -0.05976148 -0.032049954 0.31186688 -0.14988323 -0.058259256 0.03974687 0.29209298
0.35316125 -0.57047004 -0.13025044 -0.35976276 -0.100402825 -0.35164422 -0.44794044 -0.21146305
-0.041449126 -0.033028096 -0.18112473 0.8801965 0.72850513 -0.48103115 -0.2820125 0.35706884
-0.16769606 -0.029350573 0.07906152 -0.29915673 -0.042442873 0.1579399 -0.39590478 0.059886385
0.35834053 0.21962038 0.25524077 0.041281883 -0.23271507 0.06467611 0.2760725 0.29544896
-0.20273732 -0.38915598 -0.21017048 0.23002522 -1.1382065 0.23408815 0.052046563 -0.12801404
0.41962096 0.102895334 -0.21782658 -0.5199947 -0.48900098 -0.36941847 -0.027793864 -0.054556
0.100247875 0.53927904 -0.59178483 0.8483941 0.4013914 -0.1924009 0.1216134 -0.20739523
00000000: a75d 463e 5c05 3ebf d8bf 35be c436 b2bc
00000010: 7aba 48be 3dff d9bc a366 073f 7685 123f
00000020: aa91 c3bd 6204 9fbd 072a 8f3b 8d4a 89be
00000030: 96f1 673e 8b02 f3be 6f3f 88be e53e dabe
00000040: 9aba 23be 905a 9abe 2b05 773e 02bb c43e
00000050: 4a81 1b3f b7ca 8fbf 61ba 8a3e 4948 283e
00000060: de25 ff3d e847 f3be 2417 ce3d 72fd 423d
00000070: 8519 383f 97ff b6bc 37ea 5bbe 2f35 d43c
00000080: f49b f63e 6449 653c 9e47 38bd b17e 433e
00000090: 1882 a8be 55b8 a13e 71a3 df3c be91 1e3e
000000a0: fb32 983d 6881 c13c b4d7 30bf e2ab 083f
000000b0: 39a3 f8be 614f da3e ed93 24bf 0f39 8e3d
000000c0: bfc0 a5be 09f2 0fbe cfd3 313e 0160 82be
000000d0: 6db0 a63e d8ac 973e 3332 18be f334 8a3e
000000e0: a528 ebbc 9688 b8be 6b5a c33e f1b7 163e
000000f0: 11ed 4f3e 1d15 643e 01d7 403c fcfa 5f3e
00000100: db2d 7d3e 6f0b ba3d e813 433e 2c63 803e
00000110: 8f4f 6dbe f43e b9bd 3e83 13bd 8e79 90be
00000120: 1a95 233e 4f61 573f c6df 263b ab67 25bf
00000130: ac3e bdbe 8d57 dc3e fcc8 bebd 6062 733c
00000140: af14 803e 65fb 84be ec03 e0be 69ad dc3e
00000150: fa4c 02bf d063 26be 41e8 033f a1b7 1a3e
00000160: a439 cdbe f229 203e 8a09 40bf 41ed cf3e
00000170: 624c 6a3f cf01 073f 39f9 acbd 5bb5 12bf
00000180: 2b3e 413e 5680 69be 5dd4 df3c 8433 f2bd
00000190: bd41 c43d 6e25 013f eaf4 ab3e 0f7b 6cbd
000001a0: 8732 793e 114b 29bc d233 afbd bba9 3c3e
000001b0: 6a81 ad3e f7de ebbe ceeb b13d 69cf c3be
000001c0: 500f a7be 128d 143e 7271 2fbf cac5 9ebe
000001d0: da9e 193e f336 b03e 97b8 af3e 01f3 9c3d
000001e0: 8733 8dbe cb29 44be 9b24 7b3e 4bbe 473f
000001f0: 2e5d 56be 9893 f43d cd50 a13e 3d01 12be
00000200: cb35 803d 0a4f 373e 590e dd3e 40cd d8be
00000210: 113e b73d 4272 d03d 16cc 853d 3183 c93e
00000220: d53e d4bd 6a7d 9ebe 7c5e 3abc 0f28 5dbd
00000230: 04d1 41be 6b72 b13d 82b0 743e 8caa 903d
00000240: e9e9 87bc 3dbc 9e3d 6b43 3dbf de65 b0be
00000250: fff3 dabe 1192 5b3e 2b76 a1be 8d55 913d
00000260: 1b06 9dbd c987 063e 191d d6bd 8d94 1a3e
00000270: ac06 15bf 8f96 dc3e 8d5d e9be 1da0 0b3e
00000280: 09a6 0c3e 3137 013f abb0 7a3e c023 5c3e
00000290: a896 ccbd 5746 17be 501b ae3e 544a 5bbe
000002a0: 89f0 ddbe ab16 59be 7efb 43be 24b5 cc3e
000002b0: f018 fbbe 676e 8f3d 1827 0a3d 409e 203e
000002c0: abd7 f7bc 7df0 103e b4d0 00bf ac11 b93e
000002d0: 9925 64be ad3f e03c bc2a 50be a7a0 09be
000002e0: 77db 0c3f 4df3 8e3e 23ac 9f3a beea 223f
000002f0: d399 f33e 263f 13be 6a32 c8be 7efa aabe
00000300: 5edf 803e 74c8 74bd d046 03bd 04ad 9f3e
00000310: fd7a 19be 42a1 6ebd 9dcd 223d 368d 953e
00000320: 8dd1 b43e 530a 12bf 5f60 05be d332 b8be
00000330: ff9f cdbd b60a b4be 7358 e5be c589 58be
00000340: 8fc6 29bd 7848 07bd c378 39be 8f54 613f
00000350: 507f 3a3f b749 f6be f163 90be bad1 b63e
00000360: 84b8 2bbe 9d70 f0bc 02eb a13d 122b 99be
00000370: 94d8 2dbd ffba 213e 08b4 cabe 6d4b 753d
00000380: 6978 b73e 2ae4 603e ebae 823e 3117 293d
00000390: dc4c 6ebe e974 843d 6059 8d3e 1645 973e
000003a0: 5f9a 4fbe 743f c7be ee36 57be bb8b 6b3e
000003b0: c0b0 91bf ceb4 6f3e c72e 553d 1d16 03be
000003c0: 8fd8 d63e caba d23d ee0d 5fbe 5f1e 05bf
000003d0: 565e fabe 6b24 bdbe f5af e3bc 1d76 5fbd
000003e0: c24e cd3d 310e 0a3f 367f 17bf 5b30 593f
000003f0: 2c83 cd3e be04 45be 7210 f93d 6a5f 54be

transformer.attn.proj_q.bias f4 [72]
-0.19316016 -0.10339465 -0.0372327 -0.2706721 -0.11992123 -0.12736826 0.17300463 0.55587846
-0.29949322 0.17951782 0.007232988 -0.38529587 -0.09616844 -0.19659 -0.051401317 -0.09951179
0.17806488 0.40961 0.15910205 0.20498425 -0.13784085 -0.01102736 0.23611064 -0.4405965
0.051747665 0.2272874 -0.21083729 0.3867603 -0.20295756 0.08161492 -0.26595107 0.005603488
-0.06723344 0.03638341 -0.14537254 0.1434405 0.078613885 0.20980504 -0.21315065 0.09391006
0.04925424 -0.087336235 -0.39432725 0.23039198 -0.395376 -0.507609 -0.14490819 0.38614222
0.07696504 -0.25940645 0.07747706 0.2530158 0.62908787 0.3249955 0.6720604 -0.21980438
0.57268506 -0.22320715 0.12922198 -0.17452611 0.4853427 -0.504297 -0.04989701 0.34544685
-0.2246478 -0.52518713 0.30631453 -0.17658426 -0.33904678 0.50441146 -0.25036645 -0.28803894
00000000: c7cb 45be 93c0 d3bd 5181 18bd 8995 8abe
00000010: 4399 f5bd d36c 02be 2028 313e 0d4e 0e3f
00000020: 2d57 99be 85d3 373e b302 ed3b 8045 c5be
00000030: f6f3 c4bd e44e 49be 308a 52bd d6cc cbbd
00000040: a456 363e 67b8 d13e a6eb 223e 64e7 513e
00000050: 2726 0dbe 1aac 34bc fdc6 713e dd95 e1be
00000060: 5cf5 533d 07be 683e bbe5 57be 7205 c63e
00000070: 1bd4 4fbe b925 a73d bd2a 88be 779d b73b
00000080: b0b1 89bd c506 153d 8adc 14be 11e2 123e
00000090: 5100 a13d 22d7 563e 2a44 5abe eb53 c03d
000000a0: d0be 493d 57dd b2bd 43e5 c9be e0eb 6b3e
000000b0: b96e cabe aaf2 01bf d062 14be 6fb4 c53e
000000c0: d99f 9d3d ecd0 84be 4bac 9e3d 498b 813e
000000d0: e70b 213f cf65 a63e 260c 2c3f 6614 61be
000000e0: 7d9b 123f 6a90 64be c452 043e f9b6 32be
000000f0: d77e f83e 9c19 01bf cf60 4cbd 69de b03e
00000100: 130a 66be aa72 06bf 42d5 9c3e 81d2 34be
00000110: 8a97 adbe 1c21 013f 0830 80be d779 93be

transformer.attn.proj_k.weight f4 [72, 72]
-0.2789158 0.7387773 -0.27692768 0.13582554 0.09360288 -0.78486645 -0.18277541 0.095344976
0.38577992 0.007042115 0.097957544 0.0975209 -0.12636735 0.57010317 -0.09467859 -0.35721475
0.33651683 0.14414021 -0.12526597 -0.18497007 0.0784676 0.25061867 0.36261126 0.2209179
-0.4427029 0.08297876 -0.17028539 -0.029842798 -1.0840944 -0.049691927 0.24718153 -0.16018198
0.008973597 0.13183214 -0.60713375 0.22217059 0.23852192 0.28888845 -0.49334493 0.5620779
0.037804503 -0.14340281 -0.36805817 0.2614047 -0.6599777 -0.50002843 0.18104339 -0.3181538
0.5020119 0.34779683 -0.04751798 0.22470686 0.16121039 -0.08642521 -0.3484743 -0.30594087
0.047512017 -0.0007174971 -0.7147886 0.8960077 -0.17440444 -0.1516216 0.19895698 -0.22940087
0.14150466 -0.3024659 0.42110983 0.50945204 0.1115152 -0.14270929 -0.3467902 0.080124
-0.061978 -0.13111438 -0.45064044 -0.0463468 -0.5963671 -0.9449798 0.059939697 0.1031883
0.5481252 0.64834136 0.5463779 0.5544395 -0.11243975 0.21068314 0.2474195 0.14590807
-0.13305259 0.091928765 0.3993896 -0.62666655 -0.1561563 0.02838473 0.0036878136 0.4112459
-0.11451096 -0.58699673 0.69092435 0.20156987 0.6796281 0.13816114 -0.4840044 -0.19188888
0.10731159 0.16159044 0.09992897 -0.03012873 -0.16954246 -0.23435141 -0.31516346 -0.06923511
0.11804143 -0.030424591 0.5435195 -0.3090035 0.08650298 0.066804074 -0.23527408 0.60841894
0.16581157 -0.12281354 0.07520533 -0.7112081 -0.80306065 -0.28527564 -0.23915537 0.45101753
0.27978647 -0.032603025 -0.26549986 0.8863816 0.16292505 -0.2327372 0.052968193 0.21001737
-0.06346421 0.09858765 -0.23477474 0.06395106 0.29075333 -0.54178566 0.32704565 0.40444788
0.10055361 -0.22918889 0.5281631 -0.3662413 0.1006489 0.0846349 0.079226315 -0.029209437
-0.25171924 -0.31816626 -0.03053238 -0.046258535 -0.05705563 0.06330322 0.5070898 -0.28905016
0.30279458 -0.37943897 0.27493915 -0.069092326 -0.29927304 -0.5884177 0.19489838 0.5206711
0.2502255 0.41462815 -0.20746413 0.2778133 0.3330828 -0.008437436 0.15477827 -0.151767
0.1307381 -0.01499824 -0.36931148 -0.7178965 0.123618074 0.2370422 0.08354046 -0.14303851
0.23745748 -0.73742825 -0.11595839 -0.03237199 -0.8572808 0.27932382 -0.09583884 -0.60034263
-0.16035472 0.044251185 0.43091753 0.3933239 -0.69606715 -0.20937641 -0.22171381 -0.32504085
-0.11614148 0.26833537 -0.5264122 0.29774976 0.27940273 0.45652893 -0.07307091 -0.3213036
-0.00012947737 -0.016135555 0.5337525 0.55037546 -0.1934205 0.014133449 0.4278599 -0.3229122
-0.29934 0.15932116 0.37057465 0.48220214 0.24871576 0.113630295 -0.3113029 -0.5819299
-0.07828934 -0.107346795 -0.77042013 0.4084783 -0.11396365 -0.2688899 -0.15858136 0.3883975
-0.19890082 0.24837908 0.5796186 -0.43007654 0.028129438 0.55652314 -0.19113779 -0.30280074
-0.30941543 0.38723522 -0.17526023 0.17222026 0.559325 -0.4388302 -0.12118967 -0.05189516
-0.73329 0.10197245 0.16100575 -0.22635992 0.24344857 0.05281624 0.1770484 -0.37788373
00000000: 0dce 8ebe 8220 3d3f 77c9 8dbe da15 0b3e
00000010: deb2 bf3d 02ed 48bf 7a29 3bbe 3a44 c33d
00000020: f284 c53e 8bc1 e63b f79d c83d 0ab9 c73d
00000030: 7166 01be 48f2 113f d9e6 c1bd dae4 b6be
00000040: ef4b ac3e 7e99 133e b945 00be cb68 3dbe
00000050: 9fb3 a03d 1751 803e 2fa8 b93e 4d38 623e
00000060: f4a9 e2be c5f0 a93d 4b5f 2ebe e278 f4bc
00000070: 9bc3 8abf c389 4bbd 281d 7d3e bf06 24be
00000080: fe05 133c 01ff 063e 1e6d 1bbf b080 633e
00000090: 173f 743e 30e9 933e b597 fcbe 56e4 0f3f
000000a0: e5d8 1a3d 30d8 12be 1f72 bcbe d6d6 853e
000000b0: 4cf4 28bf dd01 00bf 7063 393e 0ee5 a2be
000000c0: da83 003f 6d12 b23e 37a2 42bd 8e19 663e
000000d0: 5614 253e b3ff b0bd 396b b2be 48a4 9cbe
000000e0: f69b 423d 6a16 3cba 63fc 36bf c360 653f
000000f0: 1497 32be b142 1bbe 61bb 4b3e 10e8 6abe
00000100: 99e6 103e cfdc 9abe b59b d73e 736b 023f
00000110: 1562 e43d 6222 12be 7c8e b1be 0d18 a43d
00000120: a5dc 7dbd d942 06be 58ba e6be 24d6 3dbd
00000130: 84ab 18bf 32ea 71bf 5483 753d 6354 d33d
00000140: ef51 0c3f b3f9 253f 6cdf 0b3f bfef 0d3f
00000150: d046 e6bd 52bd 573e 8a5b 7d3e ed68 153e
00000160: f03e 08be 2645 bc3d cb7c cc3e 386d 20bf
00000170: 70e7 1fbe 1887 e83c 3faf 713b d38e d23e
00000180: b984 eabd 6b45 16bf 6be0 303f 5568 4e3e
00000190: 1bfc 2d3f 1d7a 0d3e 6dcf f7be 857e 44be
000001a0: 2ec6 db3d f777 253e 8fa7 cc3d 87d0 f6bc
000001b0: 8a9c 2dbe d1f9 6fbe 1b5d a1be 23cb 8dbd
000001c0: b5bf f13d fe3c f9bc 1824 0b3f b535 9ebe
000001d0: 7928 b13d 93d0 883d b0eb 70be 58c1 1b3f
000001e0: 82ca 293e aa85 fbbd 4105 9a3d bc11 36bf
000001f0: 6295 4dbf a60f 92be 25e5 74be c5eb e63e
00000200: 2c40 8f3e c08a 05bd 99ef 87be e8e9 623f
00000210: d3d5 263e a952 6ebe 2df5 583d cb0e 573e
00000220: 86f9 81bd 52e8 c93d ca68 70be c6f8 823d
00000230: 9fdd 943e 77b2 0abf 8772 a73e cb13 cf3e
00000240: 0def cd3d 7eb0 6abe b235 073f fb83 bbbe
00000250: 0321 ce3d 1055 ad3d 6841 a23d a148 efbc
00000260: 58e1 80be b0e6 a2be 0b1f fabc 9779 3dbd
00000270: 2ab3 69bd 1ea5 813d a3d0 013f 62fe 93be
00000280: e407 9b3e d345 c2be d3c4 8c3e 4780 8dbd
00000290: 513a 99be 8ba2 16bf 7193 473e b44a 053f
000002a0: 8f1d 803e 244a d43e 7a71 54be 8b3d 8e3e
000002b0: d489 aa3e 2c3d 0abc 327e 1e3e cf68 1bbe
000002c0: 35e0 053e 2ebb 75bc 6516 bdbe 11c8 37bf
000002d0: 792b fd3d 31bb 723e 4317 ab3d b078 12be
000002e0: 0e28 733e 19c8 3cbf 987b edbd 7e98 04bd
000002f0: c176 5bbf 8803 8f3e 2747 c4bd 0eb0 19bf
00000300: 0734 24be bb40 353d 39a1 dc3e c061 c93e
00000310: 7531 32bf c566 56be f208 63be c16b a6be
00000320: 96db edbd 4163 893e f3c2 06bf a872 983e
00000330: e00d 8f3e 29be e93e 34a6 95bd e881 a4be
00000340: 51c4 07b9 b62e 84bc 01a4 083f 68e5 0c3f
00000350: 0610 46be fb8f 673c 7410 db3e bf54 a5be
00000360: 1843 99be 1625 233e f6bb bd3e 33e3 f63e
00000370: 58af 7e3e 00b7 e83d 1863 9fbe 5cf9 14bf
00000380: 2956 a0bd a3d8 dbbd 413a 45bf 1124 d13e
00000390: c665 e9bd f0ab 89be 2763 22be 0adc c63e
000003a0: a8ac 4bbe 1657 7e3e e261 143f fe32 dcbe
000003b0: b56f e63c 4d78 0e3f a0b9 43be b308 9bbe
000003c0: b36b 9ebe b243 c63e 6b77 33be 825a 303e
000003d0: ec2f 0f3f 5aae e0be 4a32 f8bd 0590 54bd
000003e0: e5b8 3bbf efd6 d03d b1de 243e e5ca 67be
000003f0: 954a 793e d755 583d 2d4c 353e fa79 c1be

transformer.attn.proj_k.bias f4 [72]
-0.030374419 -0.040458713 0.053419784 0.049259573 -0.008434076 0.051703874 -0.037299376 0.06029133
0.042078108 0.06299155 -0.027493311 0.04217718 0.020065514 0.07771473 0.059670817 0.009354647
0.12044755 0.14506054 -0.09209872 0.017366573 0.07778554 0.010192859 -0.04462174 -0.0869987
-0.046709836 -0.095801935 -0.08745626 -0.13500091 0.08334128 0.038030595 0.0966795 0.01156399
0.010665843 0.03568194 -0.08368127 -0.03577653 0.0495397 0.10544886 0.058127724 0.0022420618
0.048343834 -0.05382842 0.0890034 -0.008572083 0.039509717 -0.07813546 -0.0041179014 -0.123204775
-0.037801314 0.11556285 0.030589031 0.106395915 -0.08156101 -0.048430923 -0.10609028 0.061305225
-0.08341302 -0.024154851 0.07981263 -0.03617129 0.022368915 -0.050550073 0.006004318 -0.060264286
-0.04129473 0.016678398 0.09685597 0.074137256 -0.056765128 0.044179026 0.0991762 -0.027814487
00000000: c6d3 f8bc 09b8 25bd b4ce 5a3d 68c4 493d
00000010: 142f 0abc 71c7 533d 3bc7 18bd 0bf4 763d
00000020: 185a 2c3d b701 813d a739 e1bc fbc1 2c3d
00000030: 6f60 a43c e628 9f3d 6369 743d 3c44 193c
00000040: 35ad f63d c08a 143e 419e bcbd 5844 8e3c
00000050: 064e 9f3d f3ff 263c 49c5 36bd 602c b2bd
00000060: d052 3fbd ce33 c4bd 451c b3bd ae3d 0abe
00000070: d5ae aa3d f8c5 1b3d e7ff c53d e476 3d3c
00000080: cabf 2e3c 3a27 123d 1661 abbd 698a 12bd
00000090: 24ea 4a3d 92f5 d73d 5617 6e3d 8eef 123b
000000a0: 2f04 463d 307b 5cbd 6a47 b63d ec71 0cbc
000000b0: f1d4 213d 7c05 a0bd 76ef 86bb c952 fcbd
000000c0: 8dd5 1abd 37ac ec3d d995 fa3c 1ae6 d93d
000000d0: 7509 a7bd 815f 46bd dc45 d9bd 301b 7b3d
000000e0: 72d4 aabd 65e0 c5bc ce74 a33d 5928 14bd
000000f0: 043f b73c 980d 4fbd dfbf c43b afd7 76bd
00000100: aa24 29bd 23a1 883c 6c5c c63d 46d5 973d
00000110: 8d82 68bd 11f5 343d e41c cb3d 35db e3bc

transformer.attn.proj_v.weight f4 [72, 72]
-1.5191272 0.38899145 -0.7111578 -0.7012995 -0.2944795 0.12869589 -0.42893142 -0.13383436
0.31712022 0.024721287 0.7846891 -0.4774014 -0.13041912 0.56572765 -0.28451735 0.37568918
0.15086707 -0.24668537 -0.1714286 -0.5393914 -0.22858432 -0.29010913 0.28716707 0.70245904
-1.2041626 0.6254684 0.34856308 -0.60464925 -0.14596659 0.29166567 0.34805876 0.030106613
0.051838804 1.1803212 -0.38424975 1.0848271 -0.008666606 -0.2342483 -0.24905294 0.4134136
0.06408056 0.46056956 0.6222017 -0.48316467 0.4286437 -0.39362866 -0.73421735 -0.25728795
0.4878827 0.38997093 -0.33624998 0.7119422 -0.34123886 0.5424644 0.38965845 -0.3084719
-0.057115782 0.19468214 -0.20567667 -0.97518337 -0.16421372 -0.38338777 0.10701616 1.0179745
0.085317254 0.03940828 0.20838061 -0.17940609 0.735164 -0.25441712 -0.079387166 -0.8713795
0.08233533 0.50203824 0.3316967 0.71122074 -0.21008247 0.7055409 -0.08676283 0.21543416
0.030233048 0.11200465 -0.34373307 0.33429313 0.017264873 -0.08790085 0.5081218 0.32298645
0.14514369 -0.04456912 -0.287508 0.39117786 -0.7960354 -0.69095445 -0.46859512 -0.43793413
0.17783089 0.42097473 0.22254725 -0.62281454 0.14732243 0.45017785 0.16579753 0.7636629
-0.7726713 0.728219 -0.7505045 0.39388782 -0.26224965 0.1305549 -0.07489677 0.66473305
-1.2326441 0.59543455 -0.78610396 -0.7001085 0.3538654 -0.5472057 -0.4183927 -0.43061146
-0.74003285 0.58121043 0.4895753 0.07904413 0.07705048 -0.79315436 0.605458 0.080182664
-0.3287716 -0.6865359 -0.12707749 0.030162415 0.34880403 0.66512245 0.9216032 -0.18919767
-0.554064 0.99094486 -0.50302666 -0.85757244 -1.5660828 -0.38688338 -0.35092753 -0.60616416
-0.99659604 1.0864654 0.5759752 -0.1320031 0.56262267 -0.37130538 -0.33488378 -0.37270895
0.5978505 -0.04569669 -0.34468746 0.12709126 0.43254328 -0.6820619 0.6376159 0.17597519
-0.79779965 -0.418335 -0.886226 0.41184637 -0.43610844 -0.93602204 -0.29218292 1.0326719
-0.76199937 0.7343854 -0.06814314 0.17429286 -0.8289175 0.90066236 0.25430316 0.47276115
-0.4322987 -0.19276217 -0.033804696 -0.3643329 1.064475 0.08083323 0.20750304 -0.29242176
0.07453354 0.17623883 -0.5291328 -0.686583 0.29803467 0.66601133 0.39931464 0.20234653
0.36854059 0.2212076 -0.67245317 0.4083978 -0.05962866 0.4814349 0.16329245 0.077843435
-0.097869426 0.3182169 0.5690789 -0.17225523 0.13782467 -0.24666663 0.31277218 -0.18253455
0.45201215 -0.3562998 1.5319074 0.67305315 -0.35174328 -0.7920627 -0.53064007 0.45684364
0.14252892 0.2884691 0.50871646 -0.3305452 0.46465474 0.6995238 -0.9878167 0.7322027
-0.66779035 -0.1770058 -0.41501427 0.15544717 0.28437644 0.8629685 -0.07461998 0.79245585
-0.06215277 0.009525716 0.45538074 -0.30738813 -0.7203124 0.11844733 0.2485204 0.33499572
0.46891445 -0.19429354 -0.39455986 0.8301213 0.24365544 -0.08676182 0.32459977 0.4318742
-0.16115685 -0.42298302 -0.5996361 -0.037251905 -0.08674757 -0.033438016 0.09784722 -0.65589184
00000000: c372 c2bf e329 c73e 700e 36bf 5d88 33bf
00000010: 04c6 96be dbc8 033e e69c dbbe e00b 09be
00000020: 955d a23e 4c84 ca3c 63e1 483f f56d f4be
00000030: 978c 05be 87d3 103f 42ac 91be 555a c03e
00000040: e67c 1a3e 179b 7cbe fb8a 2fbe 8e15 0abf
00000050: 0212 6abe 2f89 94be 9007 933e 5bd4 333f
00000060: 0022 9abf b21e 203f dc76 b23e 4bca 1abf
00000070: 4478 15be 3455 953e c234 b23e 25a2 f63c
00000080: ed54 543d c414 973f 62bc c4be 9ddb 8a3f
00000090: 61fe 0dbc c9de 6fbe bc07 7fbe f3aa d33e
000000a0: ab3c 833d c6cf eb3e 9c48 1f3f 5c61 f7be
000000b0: 3077 db3e b289 c9be abf5 3bbf 3fbb 83be
000000c0: c3cb f93e 45aa c73e f528 acbe d841 363f
000000d0: dcb6 aebe f2de 0a3f 5081 c73e 07f0 9dbe
000000e0: 3df2 69bd c15a 473e e89c 52be 9ea5 79bf
000000f0: a427 28be 674b c4be 4a2b db3d fd4c 823f
00000100: d0ba ae3d 946a 213d ba61 553e 3bb6 37be
00000110: b533 3c3f f642 82be bd95 a2bd ba12 5fbf
00000120: 6d9f a83d 9485 003f 26d4 a93e 9012 363f
00000130: dc1f 57be 549e 343f b6b0 b1bd c69a 5c3e
00000140: 4cab f73c b262 e53d c8fd afbe 7828 ab3e
00000150: 106f 8d3c 5c05 b4bd 4514 023f 7b5e a53e
00000160: 8ca0 143e 1c8e 36bd 4034 93be 7748 c83e
00000170: fac8 4bbf 64e2 30bf b3eb efbe e738 e0be
00000180: 4d19 363e 008a d73e 6de3 633e c670 1fbf
00000190: b1db 163e b67d e63e d4c6 293e 697f 433f
000001a0: c9cd 45bf 8f6c 3a3f 1021 40bf aaab c93e
000001b0: 9645 86be 2fb0 053e 7a63 99bd f22b 2a3f
000001c0: 48c7 9dbf 666e 183f 1c3e 49bf 503a 33bf
000001d0: d92d b53e ac15 0cbf 9137 d6be 1b79 dcbe
000001e0: cb72 3dbf 35ca 143f 9da9 fa3e e4e1 a13d
000001f0: a4cc 9d3d 2a0c 4bbf 4cff 1a3f cf36 a43d
00000200: c054 a8be d1c0 2fbf 9a20 02be 2b17 f73c
00000210: 7196 b23e 7745 2a3f 30ee 6b3f 09bd 41be
00000220: 23d7 0dbf 90ae 7d3f 5bc6 00bf de89 5bbf
00000230: 6775 c8bf 9415 c6be c6ac b3be 932d 1bbf
00000240: eb20 7fbf 4c11 8b3f 1c73 133f d22b 07be
00000250: 0a08 103f bd1b bebe e375 abbe b5d3 bebe
00000260: bb0c 193f 742c 3bbd e07a b0be 3624 023e
00000270: 5076 dd3e 9c9b 2ebf cc3a 233f d732 343e
00000280: 993c 4cbf 0130 d6be b5df 62bf 87dd d23e
00000290: 9b49 dfbe 249f 6fbf 0099 95be 982e 843f
000002a0: 6412 43bf ae00 3c3f a18e 8bbd d479 323e
000002b0: f033 54bf cf91 663f 0634 823e c00d f23e
000002c0: 4156 ddbe 7263 45be cb76 0abd d889 babe
000002d0: b840 883f e48b a53d ad7b 543e 4eb8 95be
000002e0: 0aa5 983d f477 343e 3f75 07bf e7c3 2fbf
000002f0: 0098 983e b87f 2a3f f872 cc3e ee33 4f3e
00000300: 5ab1 bc3e 3f84 623e e425 2cbf 8419 d13e
00000310: 2f3d 74bd a37e f63e 2336 273e 616c 9f3d
00000320: c46f c8bd 53ed a23e 28af 113f ad63 30be
00000330: e921 0d3e 2d96 7cbe ad23 a03e 56ea 3abe
00000340: 236e e73e ed6c b6be 8b15 c43f 364d 2c3f
00000350: b217 b4be 9fc4 4abf 07d8 07bf 69e7 e93e
00000360: 1af3 113e 39b2 933e 3e3b 023f 383d a9be
00000370: 3ae7 ed3e fe13 333f 8ee1 7cbf a371 3b3f
00000380: 4ff4 2abf 0241 35be c07c d4be 8b2d 1f3e
00000390: ca99 913e 81eb 5c3f 5cd2 98bd 63de 4a3f
000003a0: e793 7ebd c011 1c3c aa27 e93e fa61 9dbe
000003b0: 6566 38bf 8494 f23d 227c 7e3e 8f84 ab3e
000003c0: 8e15 f03e e3f4 46be c003 cabe d482 543f
000003d0: d080 793e 2eb0 b1bd f131 a63e 9d1e dd3e
000003e0: 4d06 25be 3b91 d8be c081 19bf 7495 18bd
000003f0: b6a8 b1bd 4df6 08bd 2064 c83d 87e8 27bf

transformer.attn.proj_v.bias f4 [72]
-0.10624203 -0.11294335 0.005947909 -0.27229536 -0.22610179 0.056220673 0.16012405 -0.14305867
-0.2457415 0.20573358 -0.12265009 0.057154387 -0.06570506 0.101222776 -0.18372114 0.15653613
-0.08698214 -0.13731042 0.042125687 -0.06074043 0.06596689 0.0017367741 -0.22270177 -0.22619006
-0.2642213 0.039390806 0.18778661 -0.09786884 -0.242444 0.0061899247 0.19770686 -0.06631246
0.042577855 -0.048351124 -0.023040477 0.13255952 0.5449599 -0.051978238 0.22879675 -0.025314342
-0.042686615 -0.21809936 0.0033693465 -0.076226056 0.22185397 -0.10964325 -0.1609352 0.2909643
0.06789001 -0.1271162 0.30263382 0.040184613 0.19633678 -0.018703813 -0.114597656 0.12884082
0.16016631 0.38067475 -0.061491236 -0.04474743 0.041318156 -0.32158104 -0.45910487 -0.15293494
0.08451851 -0.23272172 -0.023122737 0.49715084 -0.04020456 -0.18490647 -0.04421565 -0.08855941
00000000: 6c95 d9bd d84e e7bd ade6 c23b 4c6a 8bbe
00000010: 3a87 67be a647 663d 8ff7 233e f97d 12be
00000020: a9a3 7bbe d3ab 523e f82f fbbd b81a 6a3d
00000030: 6090 86bd e34d cf3d 6521 3cbe 024b 203e
00000040: b123 b2bd 1a9b 0cbe fc8b 2c3d f5ca 78bd
00000050: a619 873d 78a4 e33a ef0b 64be 5e9e 67be
00000060: 0448 87be 4158 213d 224b 403e 756f c8bd
00000070: 3d43 78be dad4 ca3b ab73 4a3e d4ce 87bd
00000080: 1e66 2e3d d40b 46bd 62bf bcbc afbd 073e
00000090: 7e82 0b3f 22e7 54bd b249 6a3e 0660 cfbc
000000a0: 29d8 2ebd 7055 5fbe 41d0 5c3b 681c 9cbd
000000b0: b02d 633e a48c e0bd 32cc 24be 46f9 943e
000000c0: eb09 8b3d c02a 02be d2f2 9a3e 9f98 243d
000000d0: 820c 493e bd38 99bc 2db2 eabd d9ee 033e
000000e0: a302 243e cde7 c23e 3cde 7bbd 1549 37bd
000000f0: 3a3d 293d 45a6 a4be cb0f ebbe fa9a 1cbe
00000100: 0a18 ad3d 9a4e 6ebe e56b bdbc 8e8a fe3e
00000110: 89ad 24bd 1f58 3dbe 781b 35bd a35e b5bd

transformer.proj.weight f4 [72, 72]
1.1471024 0.09645939 0.3028949 0.1489984 -0.05536591 -0.8339562 -0.2683131 0.1576115
0.20650169 -0.07156759 -0.009997218 -0.100723855 0.081509344 -0.45127478 0.10388029 0.23170418
-0.58565307 0.21013564 -0.054549932 -0.8386438 -0.58669746 0.52289146 -0.71402514 -0.39856264
0.05303206 0.32873484 0.059150606 0.12291916 -0.21319036 -0.17838944 0.13725165 -0.71196455
-0.43646845 0.282232 0.15217824 0.32905474 -0.37463474 0.611778 -0.14564417 0.40206853
-0.920481 0.23935373 -0.28586507 -0.095341556 -0.20348652 0.269929 0.04058306 -0.21650887
0.19007249 0.14457348 -0.77446306 0.5200832 0.11657809 -0.024877952 -0.62580264 0.14958626
-0.4879255 -0.09304657 -1.5392933 0.111535795 0.04324849 -0.06436271 -0.014352344 -0.08775691
-0.23370594 0.33367783 -0.32909456 0.110767536 0.9517149 -0.23259243 -0.019426212 -0.28208917
0.39482373 2.0473127 0.35185784 -0.20857649 -0.21890241 0.448721 -0.84623986 0.4946155
-0.031989112 0.060411207 -0.35666144 0.037357606 0.5074565 0.35098466 0.6286344 -0.18579549
-0.22654082 -0.3222235 -0.13808064 0.3211533 -0.046020236 0.013322396 -0.074380465 -0.28826573
0.062426426 0.6179021 0.41363582 0.11400099 -0.077933036 0.08554997 0.27355152 0.038174007
0.2894827 0.041982107 -0.33571264 -0.16456883 0.037759677 0.34619433 -0.20502365 -0.21569635
0.88464606 -0.109183654 0.04138493 -0.3120362 -0.13996167 -1.02495 0.38622174 0.2080894
-0.08445408 -0.04211908 -0.067139015 -0.1557228 0.29008296 -0.15147048 -0.2527957 0.4276764
-0.30532718 0.51206595 -0.67092776 -0.16886462 -0.08663788 -0.6406774 -0.081008814 -0.008159296
-0.4230576 0.0060161175 0.05629456 0.47755498 -0.9628465 -0.048270255 0.5900378 0.22945729
0.061261993 0.21482593 1.5401807 -0.01976204 -0.4679782 0.17073904 0.885324 0.32989326
-0.062241677 0.16780826 0.44433218 0.051947825 0.05058885 -0.28293338 0.1925011 0.4412406
0.14003658 0.2416771 0.11160723 0.40323183 -0.026689032 0.30394363 0.4272653 0.5319443
-0.39442652 -0.11407632 0.88585734 -0.37199196 -0.24055783 -0.3726017 -0.06550155 0.09621242
0.43614236 -0.3473487 0.016779525 0.42836335 0.32394627 0.5047211 -0.42939368 0.30232158
-0.12710539 0.32494158 -0.061443124 -0.11442142 0.4756807 0.48344868 0.18250003 -0.45727396
0.29844964 -1.0519896 -0.63470083 -0.15122922 0.35146978 0.23416449 -0.18745285 0.3336698
0.03592517 -0.6258961 0.14432082 -0.1399966 0.399665 0.08310078 -0.5064312 -0.052344646
-0.132398 0.2778976 0.13698529 -0.07156428 0.328541 0.099953234 0.8675346 -0.70636916
0.14446917 0.026652314 -0.083106376 1.3383646 0.12195755 0.4810971 -0.18441668 0.22771025
0.70553213 0.33258843 0.05949802 0.64429504 -0.26988325 -0.056162495 -0.73845476 0.5724065
0.1520656 -0.44502628 0.46982348 -0.12508139 0.29795775 0.8936622 0.3317731 -0.40073842
-0.18177724 0.25553828 -0.030177653 0.6251534 0.74509287 -0.67772037 -0.44196686 0.6243031
-0.16751026 0.27369654 -0.22136137 -0.527349 0.013558405 0.0909419 -0.25912023 -0.6015488
00000000: 40d4 923f 808c c53d 0a15 9b3e 0993 183e
00000010: 5dc7 62bd 277e 55bf 5660 89be e964 213e
00000020: 2e75 533e 0792 92bd 5fcb 23bc 4f48 cebd
00000030: 5fee a63d 7d0d e7be 31bf d43d dc43 6d3e
00000040: 5ced 15bf cc2d 573e c06f 5fbd 5cb1 56bf
00000050: ce31 16bf 37dc 053f 5aca 36bf 6710 ccbe
00000060: 2538 593d ef4f a83e e847 723d 0abd fb3d
00000070: 934e 5abe b9ab 36be b28b 0c3e 4f43 36bf
00000080: cb78 dfbe b680 903e 9dd4 1b3e dd79 a83e
00000090: 20d0 bfbe 7c9d 1c3f bf23 15be eddb cd3e
000000a0: a5a4 6bbf 2519 753e e85c 92be 6f42 c3bd
000000b0: c55e 50be 2234 8a3e 6c3a 263d 80b4 5dbe
000000c0: 5da2 423e 120b 143e 3643 46bf 2c24 053f
000000d0: 7ec0 ee3d d9cc cbbc 9a34 20bf 242d 193e
000000e0: 5fd1 f9be 338f bebd 9007 c5bf e16c e43d
000000f0: 5425 313d 99d0 83bd 1826 6bbc e5b9 b3bd
00000100: 9c50 6fbe d2d7 aa3e 157f a8be 17da e23d
00000110: 96a3 733f b62c 6ebe b823 9fbc fe6d 90be
00000120: 5626 ca3e 2c07 0340 b626 b43e 1395 55be
00000130: f427 60be c2be e53e 2da3 58bf 3e3e fd3e
00000140: 0407 03bd be71 773d 549c b6be 4a04 193d
00000150: abe8 013f 43b4 b33e 2fee 203f 2c41 3ebe
00000160: 51fa 67be 7bfa a4be 0365 0dbe 356e a43e
00000170: b77f 3cbd 2e46 5a3c c954 98bd 9197 93be
00000180: dab2 7f3d d52e 1e3f 13c8 d33e 5a79 e93d
00000190: 5b9b 9fbd d334 af3d f20e 8c3e 595c 1c3d
000001a0: 1437 943e 6ef5 2b3d 87e2 abbe bb84 28be
000001b0: e4a9 1a3d 6240 b13e b8f1 51be 81df 5cbe
000001c0: 2a78 623f ae9b dfbd 3f83 293d 35c3 9fbe
000001d0: 1d52 0fbe 9031 83bf dbbe c53e 6315 553e
000001e0: 43f6 acbd 0e85 2cbd 2e80 89bd cc75 1fbe
000001f0: c185 943e 141b 1bbe 706e 81be 67f8 da3e
00000200: d853 9cbe c116 033f ecc1 2bbf d9ea 2cbe
00000210: 336f b1bd 6f03 24bf f3e7 a5bd 91ae 05bc
00000220: 019b d8be da22 c53b 2095 663d 1682 f43e
00000230: 1c7d 76bf 08b7 45bd b80c 173f daf6 6a3e
00000240: dbed 7a3d 54fb 5b3e a424 c53f 00e4 a1bc
00000250: d79a efbe 37d6 2e3e 98a4 623f c5e7 a83e
00000260: 21f1 7ebd eed5 2b3e 827f e33e 3ec7 543d
00000270: 4136 4f3d a5dc 90be 021f 453e 4aea e13e
00000280: c065 0f3e 347a 773e 5592 e43d 6774 ce3e
00000290: f5a2 dabc 809e 9b3e 84c2 da3e 802d 083f
000002a0: 46f2 c9be d8a0 e9bd 8cc7 623f bb75 bebe
000002b0: cb54 76be a6c5 bebe ad25 86bd 040b c53d
000002c0: 0d4e df3e b0d7 b1be 3775 893c 7152 db3e
000002d0: 49dc a53e 6735 013f 7dd9 dbbe e5c9 9a3e
000002e0: ea27 02be be5e a63e c9ab 7bbd c755 eabd
000002f0: 6c8c f33e 9686 f73e 4ae1 3a3e d01f eabe
00000300: 64ce 983e 98a7 86bf c17b 22bf d5db 1abe
00000310: d9f3 b33e d1c8 6f3e a4f3 3fbe c5d6 aa3e
00000320: 4526 133d ba3a 20bf d6c8 133e 455b 0fbe
00000330: e4a0 cc3e be30 aa3d 7aa5 01bf 5767 56bd
00000340: 5793 07be 9848 8e3e df45 0c3e 4b90 92bd
00000350: 8736 a83e 48b4 cc3d bf16 5e3f 9cd4 34bf
00000360: baef 133e f455 da3c ad33 aabd 884f ab3f
00000370: e1c4 f93d 5c52 f63e bad7 3cbe e02c 693e
00000380: c19d 343f 0849 aa3e 32b4 733d 85f0 243f
00000390: 232e 8abe a50a 66bd 5f0b 3dbf 3b89 123f
000003a0: 16b7 1b3e 7cda e3be b48c f03e 5615 00be
000003b0: eb8d 983e 0cc7 643f 2ade a93e 962d cdbe
000003c0: d023 3abe ead5 823e 2037 f7bc 0e0a 203f
000003d0: 68be 3e3f 157f 2dbf 7b49 e2be 54d2 1f3f
000003e0: cf87 2bbe f421 8c3e 8eac 62be 5800 07bf
000003f0: 1324 5e3c bf3f ba3d 68ab 84be 1aff 19bf

transformer.proj.bias f4 [72]
-0.6972858 -0.100110985 -0.06496216 -1.0455271 -0.67368084 -0.021927767 -0.24575901 0.053314824
-0.0108141815 0.8246179 -0.064890236 -0.46118677 0.027387949 1.0757917 -0.6444971 0.22771408
-0.46294 -0.23720792 0.11484598 -0.6446245 -0.105667256 0.3519854 -1.3384942 -0.87104964
-0.639741 -0.34127343 -0.70678407 -0.12990187 -0.7198347 0.98266006 -0.41185787 0.0447974
0.100627914 -0.5128922 -0.10190332 -0.44340944 2.0507052 0.16996069 0.5624442 -0.3748793
-0.16660078 -1.1898769 0.51673377 -0.75120145 0.004157638 -0.27071786 0.788423 1.1201975
0.5767026 -0.098221436 -1.1918108 0.4800729 1.2011155 0.8320977 0.01507924 0.5509488
1.0137378 0.58944285 0.3983909 0.19925149 0.4926292 -1.1426054 -0.8544185 0.90350384
1.4815437 -1.0193007 0.7302991 1.969121 -0.15505697 -0.4927028 0.40328342 -0.8246833
00000000: 5281 32bf fd06 cdbd e20a 85bd d5d3 85bf
00000010: 5976 2cbf dca1 b3bc 40a8 7bbe a560 5a3d
00000020: f72d 31bc 291a 533f 2ce5 84bd ac20 ecbe
00000030: b15c e03c 8bb3 893f c3fd 24bf e12d 693e
00000040: 7906 edbe a2e6 72be 5f34 eb3d 1c06 25bf
00000050: 1368 d8bd 6e37 b43e c753 abbf 1cfd 5ebf
00000060: 11c6 23bf 64bb aebe cdef 34bf ff04 05be
00000070: 1647 38bf 9c8f 7b3f 09df d2be 7a7d 373d
00000080: 0216 ce3d e74c 03bf b0b2 d0bd 9006 e3be
00000090: c13e 0340 2d0a 2e3e 58fc 0f3f 2ef0 bfbe
000000a0: 6599 2abe e34d 98bf aa48 043f bd4e 40bf
000000b0: cc3c 883b 889b 8abe 17d6 493f a262 8f3f
000000c0: c8a2 133f 5228 c9bd 428d 98bf 1dcc f53e
000000d0: 27be 993f 5b04 553f eb0e 773c fb0a 0d3f
000000e0: 29c2 813f bae5 163f e4f9 cb3e 9508 4c3e
000000f0: e539 fc3e e540 92bf 2cbb 5abf 074c 673f
00000100: 39a3 bd3f 7278 82bf e2f4 3a3f 280c fc3f
00000110: 41c7 1ebe 8b43 fcbe 2a7b ce3e 721e 53bf
