Src/extractor/limu_bert_motion.pt (torch, 259166 bytes, 29 tensors)

transformer.embed.lin.weight f4 [72, 6]
000000 72 f5 33 be ce 66 c4 3d 36 c0 e6 3d ca d0 d2 bd
       -0.17574099 0.09589921 0.1126713 -0.102937296
000010 c8 f7 7c be 1a 83 11 be bc fa ea 3b d9 bd 12 be
       -0.24703896 -0.14210168 0.007171003 -0.14330234
000020 5c 7f 19 be 53 66 43 be b8 a1 1a bc 71 cc dd 3e
       -0.1498999 -0.19082002 -0.009437971 0.4332004
000030 f8 54 73 3e d7 b0 fb 3e c7 84 71 bb 23 29 42 bd
       0.23762882 0.49158356 -0.0036852823 -0.047402512
000040 2d b2 2a be 98 4a 7e 3e 63 bc 6a 3e 13 cb 05 3f
       -0.16669531 0.24833143 0.22923426 0.5226299
000050 e4 89 ae 3e e7 de 4c bd 05 f8 12 bb 8b 0b 5b 3e
       0.34089577 -0.050017264 -0.0022425663 0.21391122
000060 05 66 db bd 90 8d 98 3d a8 78 04 3f e8 1c c2 3e
       -0.10712818 0.07448876 0.51746607 0.3791268
000070 d8 0e 3b 3e ff 3d b8 3e de 88 36 be 6e cf 7e 3e
       0.18267381 0.359848 -0.17825648 0.24883816
000080 7c 06 22 bd cb c2 cf 3d c0 d8 0c be af 68 47 be
       -0.039556965 0.10144576 -0.13754559 -0.19473527
000090 cc 5f be be 61 17 6d 3e 05 2e cb be 30 8e 80 3e
       -0.37182462 0.2315345 -0.39683548 0.2510848
0000a0 45 a5 2c 3e 90 02 ad 3d e6 b0 ae 3e ae 4a 8f 3e
       0.1685992 0.084477544 0.34119338 0.27986664
0000b0 04 38 12 be f0 fc 45 bc da 06 80 3d 8b e3 84 bd
       -0.14279181 -0.012084231 0.06251307 -0.06488713
0000c0 ed c4 b9 3d ed 81 df bd f5 20 60 3d 39 a1 77 3e
       0.09070764 -0.10913453 0.05471893 0.24182595
0000d0 26 15 c0 3d ae e1 fd be 35 d0 65 3e b1 d2 fd 3c
       0.09379034 -0.49586242 0.22442706 0.030984255
0000e0 8e 2c 1a 3e 5b c1 08 3c 13 f9 72 be a0 d1 78 3e
       0.15056059 0.008346881 -0.23727827 0.24298716
0000f0 ed e4 c7 3d 31 65 a8 be 95 8e 61 be a7 6a 92 bc
       0.09760461 -0.32889703 -0.22027047 -0.017873121
000100 73 0c 34 3c b1 1f d7 bc 3a c4 04 bf 97 8c 1a be
       0.010989296 -0.026260229 -0.5186192 -0.15092693
000110 e6 ec 2f bf b8 61 5c 3c a8 27 d2 bd 15 62 1c bd
       -0.68720853 0.013451032 -0.1026147 -0.038179476
000120 fe 83 f7 bd 7d bc ca be 3c c1 99 be 89 e1 1b 3f
       -0.120857224 -0.3959693 -0.3003024 0.60891014
000130 7e 2c 4c be 77 ff 6e 3c 01 34 c0 3d c3 4b b7 3c
       -0.19938847 0.014587275 0.09384919 0.022374993
000140 dc 38 e9 3d 03 5b ae be 9c 47 5e 3d 4f a3 e4 bd
       0.11387798 -0.3405381 0.05426751 -0.11163961
000150 66 3a cb 3e b5 8e 34 3e 71 ed 2a 3e af e1 ea 3e
       0.39692992 0.17632563 0.16692139 0.45875308
000160 57 a0 6a bd e6 e0 85 bd 46 68 a2 be ce ec 9f be
       -0.05728182 -0.065370366 -0.3172018 -0.31235355
000170 d9 9d 36 bd a0 11 88 bd f9 a0 99 3b 89 4e 94 3d
       -0.04458413 -0.06643987 0.004688379 0.07241542
000180 f0 d5 23 be a5 ec 4d 3e d4 4a ee be 86 02 38 bf
       -0.1599958 0.20109804 -0.46541464 -0.7187885
000190 38 5a 11 3e c6 8f 0b bf d4 df a4 3d 86 ec b1 be
       0.14194572 -0.54516256 0.08050504 -0.34750766
0001a0 b7 df 4a be 33 e3 77 3e fd 5d 08 be 00 e9 8b be
       -0.19811903 0.24207763 -0.13317104 -0.27326202
0001b0 bc ba 22 be 09 da fb 3d 3c c6 21 3d fe 14 50 bf
       -0.15891546 0.12297446 0.03949569 -0.8128203
0001c0 fb c1 34 3e b1 91 47 bf 88 ae 26 3d 12 7e f7 bd
       0.17652123 -0.7795668 0.04069379 -0.12084593
0001d0 5c c3 b3 3e 05 a3 27 3d fa 75 09 be 52 7d b9 bb
       0.35109985 0.040926952 -0.1342391 -0.0056606913
0001e0 06 37 24 3e ae d9 1a 3e 4c 41 3e be c1 48 7f be
       0.16036615 0.151221 -0.18579596 -0.24930097
0001f0 89 eb 9f bd da 5b 26 be d2 e4 03 3e c8 a3 8f be
       -0.07808597 -0.16245976 0.12880257 -0.28054643
000200 ea 61 bf be 4e 74 65 3e 38 3a 17 3c ad 12 c9 be
       -0.3737939 0.22407648 0.009230189 -0.3927206
000210 42 9d b0 bd 95 7b d7 be 19 77 29 bd 9c 49 59 be
       -0.086237445 -0.42086473 -0.041373346 -0.21219486
000220 90 31 44 bd e6 8a 69 be db 3d 85 be c7 cd 23 ba
       -0.04789883 -0.22806892 -0.26023754 -0.000624862
000230 95 da 19 3d b5 95 26 be d4 72 17 3d 05 d2 a9 3e
       0.03756197 -0.16268046 0.036974743 0.33168045
000240 c8 d7 2f 3e e9 ae 18 3f 20 1e e4 be 24 1b f9 3d
       0.17172158 0.5964189 -0.44554234 0.1216338
000250 c0 1f 32 be c3 55 23 bd c8 42 be be 07 b1 97 be
       -0.17394924 -0.03987671 -0.37160325 -0.2962725
000260 09 da 94 3d df f4 0a be b4 7e 23 bd 46 9a 72 3d
       0.072681494 -0.13569973 -0.039915755 0.059229158
000270 8b f3 66 bd 83 4b 90 3e 9f d3 37 3e a8 c5 ad bd
       -0.056384604 0.2818261 0.17951821 -0.084849656
000280 11 d1 35 be 12 a8 94 3e be 8c 7a 3c 45 58 b1 3b
       -0.17755534 0.29034477 0.015292345 0.005412134
000290 31 7d 19 be a7 ff d4 be 8c db 2f be 03 01 85 3a
       -0.14989163 -0.41601297 -0.17173594 0.0010147396
0002a0 43 83 49 bc d7 37 09 3c 6b be 7b 3e 51 4f 95 3c
       -0.012299362 0.00837513 0.24584357 0.018226298
0002b0 21 86 82 bc 6f c9 e0 be 6d 7f dd be fa fb 8f bd
       -0.015933098 -0.43903682 -0.4326128 -0.070304826
0002c0 38 63 ce 3e cd 25 c8 3d 91 d7 c9 3c 3d 76 3a 3d
       0.40310073 0.09772835 0.024638923 0.045522917
0002d0 ef 81 d3 be 82 76 09 3e eb ff f6 bd 4b 46 2f be
       -0.4131007 0.13424113 -0.12060531 -0.17116658
0002e0 8a dd f3 3b fe df 10 3e c5 50 cf be ac e1 b6 bb
       0.007442181 0.14147946 -0.4049131 -0.0055811014
0002f0 d1 ad c2 3e f5 24 bd bc c7 c3 5c be b9 bd 69 3e
       0.38023236 -0.023088912 -0.21559058 0.2282628
000300 13 24 53 3d 15 26 29 bd 71 02 fe be a8 90 b0 bd
       0.051548075 -0.041296083 -0.49611238 -0.08621341
000310 eb 4a 72 3d 29 a3 cb 3d 0c 24 07 3f 2d 66 2f 3e
       0.05915348 0.0994323 0.5278938 0.1712882
000320 e7 ca 42 3e 77 2e 70 3e 43 a5 86 3d 2c 9d aa be
       0.19022714 0.23455225 0.0657449 -0.33323038
000330 75 98 85 3e 5d 5d cc bd 40 89 cd 3c 5f ea 38 be
       0.26092878 -0.09978745 0.02508986 -0.18058155
000340 6e d3 c5 3d c2 c2 09 3e eb a0 88 3e e0 46 8c be
       0.09659468 0.134532 0.2668527 -0.27397823
000350 1c 99 da 3e 4e 1a 86 3d c4 6e c2 be 8d cb 6e be
       0.42694938 0.06547986 -0.37975132 -0.23319836
000360 78 b6 f5 3d bb cc a0 be 6a 32 01 be 7f d8 28 3f
       0.11997694 -0.31406197 -0.12616888 0.65955347
000370 4c 4f 09 3d 41 bd cc 3e 9d c4 a9 3d eb 03 b1 bc
       0.03352289 0.3998814 0.08289454 -0.021608314
000380 6e cb 33 3d 35 18 cf 3c d1 ff 0a 3d dd a3 36 3e
       0.043895178 0.025280097 0.03393537 0.17835946
000390 53 41 0c 3c 69 67 a8 3e 3d f6 1b 3f b2 df c4 be
       0.008560496 0.32891396 0.60922605 -0.38451916
0003a0 34 0b 88 3b cd f6 b2 3d 65 6b 2b be 1c f8 4e be
       0.004151726 0.0873848 -0.16740187 -0.20211834
0003b0 9e 39 b1 be 00 f0 87 3e eb 1b 22 bb 50 e7 df 3e
       -0.3461427 0.26550293 -0.0024735879 0.43731165
0003c0 05 ad f6 3d 90 76 53 bc a7 ff 27 bd b4 27 0d bf
       0.120447196 -0.0129066855 -0.041015293 -0.5513871
0003d0 39 e1 c0 ba 90 e8 8c bd 02 d3 38 bd 6f 89 c4 3e
       -0.0014715559 -0.06880295 -0.045123108 0.38386104
0003e0 45 15 e5 3e 13 4a ac 3d c2 7e 24 3d fe 46 b8 bd
       0.4474279 0.08412566 0.04015995 -0.08997916
0003f0 25 90 90 be e7 b9 22 3e 2e 28 c3 3e d6 37 5b 3e
       -0.28234974 0.15891229 0.38116592 0.21408018

transformer.embed.lin.bias f4 [72]
000000 ea 82 3b bf d1 ca 3e 3f c3 43 3e 3e ed 3c b1 bd
       -0.73246634 0.74528223 0.18580537 -0.08654199
000010 db 54 a4 be 19 58 e6 3d 7a 06 46 bf 16 e6 38 bf
       -0.3209599 0.11247272 -0.7735363 -0.72226083
000020 ec c7 f8 3d 94 71 2a bf f6 8f 42 3f 46 59 57 3f
       0.12147507 -0.66579556 0.76000917 0.84120595
000030 53 6a 32 3f 71 68 43 3f d2 45 2a 3f 46 8c e1 3e
       0.6969349 0.7633124 0.6651279 0.44052333
000040 8f 49 9c be dc 35 3c bf e3 9c 80 bd db 74 a8 3e
       -0.3052487 -0.7351968 -0.06279924 0.32901654
000050 d2 ad 58 3f 49 73 a5 3e 31 02 3b 3f a1 e1 1e 3f
       0.8464023 0.32314518 0.7305022 0.6206303
000060 bd 5e 65 bf e8 4c 5a bf 1b 88 09 3e e5 8d f7 3c
       -0.89597684 -0.852736 0.13430826 0.030219028
000070 47 e8 22 3e b6 7a 28 3f 4a d1 be 3e 3b 52 90 bf
       0.1590892 0.6581224 0.3726905 -1.1275095
000080 85 75 5d bf 80 ac 70 3f 7e 31 78 bf a1 64 60 bc
       -0.86507446 0.94013214 -0.9695052 -0.013695867
000090 38 f7 20 3f 91 d2 1a bf 4a de ad be 22 32 24 bf
       0.62877226 -0.6047755 -0.33958656 -0.64138997
0000a0 7c d4 aa bd 60 77 e3 3e 8c 66 17 3e 60 80 3f 3d
       -0.083413094 0.44427013 0.14785212 0.046753287
0000b0 43 a5 92 be ab 77 70 be 88 77 8f 3e c6 09 55 bf
       -0.2864171 -0.2348315 0.28020883 -0.8321804
0000c0 22 22 83 3f 47 6a e0 3e b4 c1 90 bf e2 ee 8e 3e
       1.0244792 0.43831083 -1.1309114 0.27916628
0000d0 35 fb 7c bf 82 e8 4e 3f cc 91 b0 3f f8 3a 00 3e
       -0.9882081 0.8082353 1.3794494 0.12522495
0000e0 31 6b f2 3d 4f 87 b6 bd 10 48 28 3f a8 51 6e 3f
       0.118368514 -0.08912527 0.6573496 0.9309335
0000f0 ae 08 12 3e 00 84 2f be ed c1 24 bf 73 55 06 bf
       0.14261124 -0.17140198 -0.6435841 -0.52474135
000100 2d dd 2c 3f b1 63 9c be 98 30 0c 3f e1 b8 61 3f
       0.6752499 -0.30544809 0.5476165 0.8817273
000110 52 f3 aa 3e 1f 3f 99 bf 7b fe 4c 3f 8a 8e 5b bf
       0.33388764 -1.1972388 0.80075806 -0.8576437

transformer.embed.pos_embed.weight f4 [120, 72]
000000 88 a9 b5 be f8 a5 3a c0 24 97 da 3e c3 5e 04 3f
       -0.35480905 -2.91638 0.42693436 0.51707095
000010 7e fb 3c be 03 13 a4 3f 64 4d 49 3d 57 eb e5 3f
       -0.18455312 1.2818302 0.04914607 1.7962445
000020 e3 24 de be 93 3b 47 bf e8 dd 8f be 33 c5 c3 3f
       -0.43387517 -0.7782528 -0.2809899 1.5294555
000030 9a 7c 89 3f b4 41 82 3f 49 4f 29 bb 36 fb ba bf
       1.074115 1.0176301 -0.002583461 -1.4607913
000040 94 66 7d 3e cb 28 33 bf 6e be 2b 3f d2 07 92 3f
       0.24746162 -0.6998412 0.6708745 1.1408637
000050 c2 f9 28 3f 6a 2c 2c be 83 78 2e c0 b9 be 02 40
       0.660061 -0.16813818 -2.7261055 2.0428908
000060 75 ae ad bf 46 cd 68 3f 80 c8 11 bf 45 68 6b 3e
       -1.3568865 0.9093822 -0.56946564 0.22988994
000070 6a fb f6 be ef 38 11 c0 84 78 39 3c a1 40 37 3f
       -0.4823869 -2.2691 0.011320237 0.7158299
000080 2b 10 bd be 5e 18 c3 3e ce e3 e4 be 3e cf 24 be
       -0.36926398 0.38104528 -0.4470505 -0.16094682
000090 96 85 c1 bb 0c 07 0d 40 8c 03 0e bf e0 60 8a 3e
       -0.0059058173 2.203555 -0.5547416 0.27027035
0000a0 c4 85 82 3f 91 a0 aa 3f b1 0b 20 3f 50 17 40 bf
       1.0197072 1.3330251 0.6251784 -0.7503557
0000b0 bf ff 04 bf 33 a1 01 3f fd c5 95 3e c8 f8 72 3f
       -0.5195274 0.50636595 0.29252616 0.9491086
0000c0 92 c2 57 3f 5e 73 a2 3f 7c ba 96 3f cf 66 b7 3b
       0.84281266 1.2691457 1.177566 0.0055969725
0000d0 bf 90 ba bf dd 23 1b bf fb b2 e9 3e ab 98 a2 bf
       -1.4575423 -0.606016 0.45644364 -1.270284
0000e0 69 38 f1 3d 0e 38 d1 3e 68 94 26 3d 1b a6 81 3f
       0.117783375 0.4086308 0.040668875 1.0128816
0000f0 f1 43 fd bf 7f 55 5e 3e b7 fc 15 bf 97 c0 d0 3f
       -1.9786359 0.21712302 -0.5858874 1.6308774
000100 c6 60 7c bf 36 c3 30 be c5 da cd 3f 10 bc c7 3f
       -0.98585165 -0.17261967 1.6082388 1.5604267
000110 68 02 ce 3e 4c 69 cb 3e d8 6a b9 bf e3 9c db 3e
       0.4023621 0.39728773 -1.4485731 0.42893133
000120 5c 94 b7 bf bc 21 6c bf 4f 60 83 be 0b 96 ea 3e
       -1.4342151 -0.92238975 -0.25659415 0.458176
000130 f4 c1 04 3f 17 bd 22 3f 2f e9 65 3f 94 b8 e9 3f
       0.5185845 0.6356978 0.89808935 1.8259454
000140 9d d4 8f bf 61 96 a6 bf 14 39 bc be a1 12 6a 3f
       -1.123676 -1.3014642 -0.36762297 0.91434675
000150 dc fa 33 3e b6 e1 96 3e 85 f4 88 3f 2d b6 e3 bf
       0.17576164 0.2946908 1.0699621 -1.7789971
000160 2b d5 5b 3e 9d 1b bb 3e 27 7a d6 3f 5b 07 1a 3e
       0.21468036 0.36544505 1.6756028 0.15041868
000170 7b c4 b1 bf e2 af 55 3f 6d 27 18 3f e7 98 d7 3f
       -1.3888086 0.834715 0.5943516 1.6843537
000180 5d 7f 09 3f b3 62 03 40 be 19 e1 be 1b 18 c1 3f
       0.53709966 2.0528991 -0.43964952 1.5085481
000190 b9 0e 73 bd 25 c8 ac bf c1 25 e0 3f 0c b1 71 3f
       -0.059340212 -1.3498579 1.7511522 0.9441078
0001a0 3c 60 e2 3e 23 ad 4b 3f 14 f9 c6 bf 3d 6a d4 be
       0.44214046 0.7956106 -1.5544763 -0.41487303
0001b0 06 9b 86 be 32 4b c8 3e fa 0c 50 3e 21 c4 e1 3f
       -0.26290148 0.3911987 0.2031745 1.7637979
0001c0 42 f3 ec 3f 9b 57 d1 3c c5 3b 57 bf f1 6f 32 bf
       1.8511736 0.025554469 -0.84075576 -0.6970206
0001d0 cc 24 7f be c5 a6 39 3f 91 17 77 3e 8b ed 70 3f
       -0.2491638 0.72520095 0.24130084 0.9411246
0001e0 99 4c d4 3e 21 16 1c 40 99 8b 0b be ea 89 7f bf
       0.4146469 2.4388506 -0.13627471 -0.99819815
0001f0 c3 47 39 3f c1 5b 26 40 75 2b d1 be dc ff e6 be
       0.72375125 2.5993502 -0.40853468 -0.4511708
000200 ab 10 a5 3d 25 1d 98 3e 37 fc 1d 3f 4b 9b 3c 3f
       0.0805982 0.29709736 0.61712974 0.7367446
000210 60 7b ad bf c4 23 24 40 5a c1 de bf c8 29 57 be
       -1.3553276 2.564683 -1.7402756 -0.21012032
000220 cb 65 8c be 9f 05 4c 3e ca e5 2a 3f 50 e5 25 3e
       -0.27421412 0.1992402 0.6675688 0.16200757
000230 39 a7 ba 3f 0d 8c 6f bf 4e 98 55 bf 78 02 99 3f
       1.4582282 -0.93573076 -0.83435524 1.1953878
000240 e2 05 4b 3f 46 26 76 bf 25 3c e4 bf b9 23 25 3f
       0.7930585 -0.9615215 -1.7830855 0.64507633
000250 5b 83 be 3f 70 fc f7 3f 37 c2 aa 3f 20 37 83 3f
       1.4883837 1.9373913 1.334052 1.0251198
000260 46 15 81 bf 41 04 56 c0 b8 53 6b 3f 1a 5d 3c 3f
       -1.0084617 -3.3440096 0.9192462 0.7357956
000270 14 08 7c bf 77 7f b8 be 16 b7 2c 3f 13 25 25 3e
       -0.98449826 -0.36034748 0.67466867 0.16127424
000280 d3 84 e0 3f 3e 8d 03 3f f7 a4 a2 bf 5f ec ba 3f
       1.7540535 0.51387393 -1.2706593 1.4603385
000290 98 84 8c bf 2e a8 8c 3e c1 c0 d8 be 79 7a ab 3f
       -1.0977964 0.2747206 -0.4233456 1.3396751
0002a0 33 d6 83 bf c5 51 fc 3f bb d5 3c 3f fb e5 0c bf
       -1.0299743 1.9712454 0.73763627 -0.5503842
0002b0 73 73 b2 be 46 21 ae bf 64 d6 98 3f 8e 04 7e bf
       -0.34853706 -1.3603904 1.1940427 -0.992257
0002c0 ac dc 7a bf 88 6d 9d 3d 24 80 af bf 27 57 d3 3e
       -0.9799297 0.07686907 -1.371098 0.4127743
0002d0 8a ab 1a 3f bf a3 a2 3e 80 a6 0e 3f 1f bf 8f 3f
       0.60418 0.31765553 0.5572281 1.12302
0002e0 1a 14 8a 3f 65 bb c1 3e c4 06 83 bf 50 62 1b 3f
       1.0787385 0.37838283 -1.023644 0.6069689
0002f0 eb c8 30 bf e8 2d ac be 1e ea 95 3e ce 2b 04 40
       -0.69056576 -0.33628774 0.2928018 2.0651736
000300 11 1c 93 3f 8c 0e 87 3f 5d 3a 66 bf 28 3f 34 bf
       1.149294 1.0551314 -0.89932805 -0.7040887
000310 b1 5b 0c 3f dd a0 a4 bf 83 73 0b bf 76 89 c6 be
       0.5482741 -1.2861592 -0.5447313 -0.3877675
000320 a0 ec 8d 3f 0e ec 8a bf 49 ff 12 3e 80 ea 5a 3d
       1.1087837 -1.0853288 0.14355196 0.053446293
000330 89 9a 89 be 6b 4a 90 3f 32 5c 30 bf 91 47 9c bf
       -0.26875713 1.127271 -0.6889068 -1.220934
000340 5e f1 f9 be 9f 1d 00 3f 58 be e3 3f 7b 9e 17 3d
       -0.4881696 0.500452 1.7792463 0.037016373
000350 b3 59 69 3f db f0 a6 bd af d8 e0 bf d3 49 7d 3f
       0.91152495 -0.08151408 -1.7566127 0.9894077
000360 ec 4b b3 bf b6 b5 d3 3e fa b3 c9 3e b1 59 5d bf
       -1.4007545 0.41349572 0.39395124 -0.86464983
000370 8e 21 83 3f a5 fa 08 bf 1e 4a 35 3e 61 75 e2 be
       1.0244615 -0.53507453 0.17704055 -0.44230178
000380 8e d9 66 bf 8c a1 f2 bf 08 d9 52 be 63 f7 a8 bf
       -0.9017571 -1.895555 -0.20590603 -1.3200496
000390 a8 db 60 bf 5a dc a1 be a6 98 bb 3f 10 ea 1c bf
       -0.8783517 -0.31613427 1.465596 -0.6129465
0003a0 b5 4e 5c be f1 4c 99 3f 72 10 71 3e 52 fa 0a 40
       -0.215144 1.1976606 0.2354143 2.1715283
0003b0 71 2e b9 3f 32 21 c1 be 3d 9c 7a bf df 3a 29 40
       1.4467298 -0.3772064 -0.9789465 2.6442182
0003c0 97 37 97 bf 88 89 f0 bc c0 9a 8b bf 32 7e 6c 3f
       -1.181384 -0.029362455 -1.0906601 0.9238006
0003d0 0f 23 1f be cd 72 b2 bf 11 71 65 be 76 bb e4 3f
       -0.15540718 -1.3941284 -0.22406413 1.7869709
0003e0 48 0b e6 3d f0 40 92 3f 30 83 c6 bf 31 0b 7e 3e
       0.112326205 1.1426067 -1.5508785 0.24808957
0003f0 6a a4 91 bf dd 08 75 3f e2 cb 82 3f 37 45 8b 3f
       -1.13783 0.9571665 1.021847 1.0880498

transformer.embed.norm.gamma f4 [72]
000000 eb 2f 27 3f 8c f8 fe 3e 2c b2 17 3f 49 3b f9 3e
       0.6530749 0.49799 0.59256244 0.48678043
000010 60 ac 28 3f 3a ae 6b 3f 8b cb 11 3f 2a 31 49 3f
       0.65888023 0.92062724 0.56951207 0.78590643
000020 99 88 0d 3f 57 bd 2a 3f 7a 36 08 3f a8 cf 28 3f
       0.55286556 0.6669516 0.53208125 0.6594186
000030 88 be 25 3f 29 58 06 3f 90 6b 19 3f de 1d 10 3f
       0.6474385 0.5247827 0.5992975 0.56295574
000040 15 0d 0b 3f 82 c0 51 3f 06 1d 3e 3f 64 d1 bf 3e
       0.54316837 0.8193437 0.74263036 0.3746444
000050 b6 17 1c 3f d8 c2 05 3f 59 a3 c9 3e 45 d6 0e 3f
       0.6097368 0.5225043 0.39382437 0.557957
000060 56 3a 32 3f 4f fb 1f 3f 0a b5 da 3e d5 a3 ad 3e
       0.69620264 0.6249284 0.42716247 0.33914056
000070 ee a5 f3 3e ae 36 14 3f e4 c0 0c 3f c7 73 4e 3f
       0.47587532 0.57895935 0.5498183 0.8064541
000080 9d b3 2c 3f f2 30 47 3f 09 3c 42 3f d2 b9 38 3f
       0.6746157 0.7780906 0.75872856 0.7215854
000090 cb af 01 3f 42 6d 13 3f a9 c2 23 3f 4b 33 06 3f
       0.50658864 0.5758859 0.639689 0.52422017
0000a0 74 e4 15 3f b0 e8 10 3f 5f e6 ee 3e d3 65 27 3f
       0.58551717 0.5660505 0.46660134 0.65389746
0000b0 6f 32 0c 3f 5f 16 2a 3f b9 d2 1c 3f db aa 1a 3f
       0.54764456 0.66440386 0.6125904 0.60416955
0000c0 8e ff 1e 3f 1f 2e 2f 3f 65 a3 12 3f 46 a1 3d 3f
       0.62108696 0.6842975 0.5728057 0.7407421
0000d0 40 3f 01 3f c7 09 d9 3e 1c 36 f2 3e 37 16 31 3f
       0.50487137 0.42390272 0.47306907 0.6917452
0000e0 be ed f7 3e 4c 7b fe 3e f5 b5 14 3f 58 81 23 3f
       0.4842357 0.49703443 0.58090144 0.6386924
0000f0 2a 84 16 3f 0b 0e 86 3e 26 41 ee 3e 7a 6b 1e 3f
       0.58795416 0.2618259 0.4653408 0.61882746
000100 72 78 2d 3f e9 bc 27 3f 32 19 00 3f 7c 03 1b 3f
       0.6776191 0.6552263 0.50038445 0.6055219
000110 2f b3 a1 3e c9 6d 3f 3f 7f c8 19 3f 29 41 28 3f
       0.3158202 0.74776894 0.6007156 0.65724427

transformer.embed.norm.beta f4 [72]
000000 8a 00 0e 3e a3 89 55 bd 6a 44 d5 bd 9d fe 80 bd
       0.13867393 -0.052133214 -0.104134396 -0.06298564
000010 76 34 d3 3d 72 6f 88 bd 79 a4 0d 3e c8 71 48 3e
       0.103127405 -0.066618815 0.13832273 0.19574654
000020 db a5 be bc 2c 67 5c 3e 4c d3 4d bd e4 d8 47 be
       -0.023272445 0.21523732 -0.050250337 -0.19516331
000030 c2 3a 9a bd 5c e7 29 be 75 b6 26 be 11 fa 67 3c
       -0.075307384 -0.16592163 -0.1628054 0.014158742
000040 47 bf 97 bb 7a 2e ac 3e 66 92 c4 bc 76 63 bb bc
       -0.0046309563 0.3362921 -0.02399559 -0.022874575
000050 c7 72 62 be cf 13 a0 bc 70 ba ea bd 06 d5 1e be
       -0.22114097 -0.019540695 -0.114613414 -0.1551095
000060 76 fc 29 3e 08 bc 93 3e 3b 74 85 bb 6f 6f 78 bc
       0.16600212 0.28854394 -0.0040726936 -0.015163287
000070 42 8d 8b bd a7 56 f2 bd 93 0b ec bd 40 42 c1 3e
       -0.06814052 -0.11832934 -0.11525645 0.37745857
000080 ef bc 7a 3e 62 97 bc be 9c 42 a8 3e 07 3e a8 3d
       0.24486135 -0.36834246 0.3286332 0.08214956
000090 8a 58 e0 bd 3b 6b f7 3d 74 9d 86 3c 4c 38 43 3e
       -0.109543875 0.120809995 0.016432501 0.19064444
0000a0 e2 b9 ee 3c e8 1a a6 bd 56 a6 70 bc 6a 67 06 3c
       0.02914137 -0.08110601 -0.014688095 0.008203367
0000b0 f9 d1 56 3c a6 92 9f 3d 02 38 91 bd 5f 20 61 3e
       0.013111585 0.07791643 -0.07090761 0.21985005
0000c0 e1 c9 56 be b1 59 ac bd 1d 20 80 3e 1c 3a e3 bc
       -0.20975448 -0.08415545 0.250245 -0.02773767
0000d0 7b 81 46 3e 79 b8 c2 bd a5 88 22 be 30 78 61 bc
       0.1938533 -0.095078416 -0.15872438 -0.013761565
0000e0 5e d7 0d bd f2 71 09 3d 5f 37 3a be 02 f7 81 be
       -0.03462922 0.033555932 -0.18185185 -0.25383765
0000f0 cd e5 e9 bd 33 9d ae bc 86 3d ce 3d 43 72 79 3e
       -0.11420784 -0.021315193 0.100703284 0.24359994
000100 ae 8d f6 bd 81 14 f8 3d 9a bc a8 bd ac 8d 0f be
       -0.12038742 0.12113286 -0.08239098 -0.14018887
000110 89 14 e5 3a 8d 01 c6 3e eb ab 30 be af 0c 83 3e
       0.0017477433 0.38673058 -0.17253082 0.25595614

transformer.attn.proj_q.weight f4 [72, 72]
000000 99 b3 71 bd 31 8a ab bc f0 73 1a bd 8d 53 3e bd
       -0.05900917 -0.020939918 -0.037708223 -0.0464664
000010 9c fb 23 bd 3c 96 35 be 8a 4e 9a 3d 3c 45 c4 bd
       -0.040034875 -0.17733091 0.075345114 -0.09583518
000020 20 07 97 bd 1e 5b 2e bd 0e cd 94 3e 21 6f a4 bd
       -0.07374406 -0.042567365 0.29062694 -0.08029009
000030 ab 08 96 bd 20 74 8e be 9f c3 7f be 61 65 68 bd
       -0.07325872 -0.2782297 -0.24976967 -0.056737307
000040 e4 17 bb 3d e7 70 ad be f8 b2 ab bd e6 c8 26 be
       0.09135416 -0.338752 -0.08383745 -0.16287574
000050 2e a6 a7 bd 9e 1d 9e be c3 c7 e5 3c 21 03 19 bd
       -0.08185993 -0.3088197 0.028049355 -0.0373565
000060 ba 87 72 3d 7a c4 31 3e cc 91 0c 3e 2f 99 e4 3e
       0.05921147 0.17360106 0.13727492 0.4464812
000070 e6 bf f0 3c 76 c8 96 3c bc a2 26 3d e8 d4 3d 3e
       0.02938838 0.018406134 0.04068254 0.18538249
000080 48 fb ab 3e 7e f2 13 be 52 f0 43 3e 53 be 3c 3d
       0.3359015 -0.14447972 0.19134644 0.046079945
000090 6d dc 1f be b9 78 ac 3e 84 38 74 3e 81 be 93 3e
       -0.1561143 0.33685854 0.23849684 0.2885628
0000a0 ad 5a 65 3e 63 11 37 bc e1 bc 82 be 85 bc 0f 3d
       0.22397871 -0.011173579 -0.25534728 0.035091896
0000b0 e1 9a a8 bd fa d8 2d 3f 85 0d 0b bd 6a b0 cf 3e
       -0.08232666 0.67909205 -0.03394844 0.4056428
0000c0 fd 0f c0 3d 17 79 be be 11 b8 06 3e 6b 7c 60 3e
       0.093780495 -0.3720176 0.13156153 0.21922462
0000d0 2d 6f 87 bd e0 4a 41 3d f8 b3 61 be 93 3a c1 bd
       -0.06613002 0.047190547 -0.22041309 -0.09435
0000e0 7c 70 32 3e 4e 53 d6 bd 76 0b 7b 3e e7 bd 05 be
       0.17425722 -0.10465108 0.24516091 -0.13060723
0000f0 51 a1 90 bd 30 05 66 be 00 83 64 3d 57 2a 3a bc
       -0.07062019 -0.22462916 0.055788994 -0.011362634
000100 1e 61 56 3e d0 df 4e be 72 e1 ec bd 44 ad c2 3e
       0.20935485 -0.20202565 -0.11566438 0.38022816
000110 37 18 c4 bc c9 6b 04 3e 2d 00 00 bc 75 85 2a be
       -0.023937328 0.12931742 -0.007812542 -0.16652472
000120 80 fa cd 3c 4b b5 e7 bd ff 1d 6c 3d 79 95 5f be
       0.025143862 -0.11313876 0.057645794 -0.21834363
000130 19 d8 b9 be 0b 25 09 be 89 4e d7 bd 46 47 ed ba
       -0.36297682 -0.13393037 -0.10513026 -0.0018102906
000140 34 28 93 3d 0b 22 38 be a5 f3 d6 3d 42 a6 52 bd
       0.071854025 -0.17981736 0.1049569 -0.051428087
000150 bb 26 72 3e a0 49 cb be 50 b2 c7 3d 19 1f ca bd
       0.23647587 -0.3970461 0.09750807 -0.09869213
000160 d9 23 88 3d d0 66 38 be f2 ad 74 3e ec e0 85 be
       0.066474624 -0.1800797 0.2389448 -0.26148164
000170 40 7a bb 3d 08 f1 4f 3e 64 34 e1 bd 58 a0 8b be
       0.09154177 0.2030679 -0.10996321 -0.2727077
000180 53 0e ce bd be 64 35 3e 9d b3 c2 bd 67 33 6f bd
       -0.10061326 0.17714211 -0.09506915 -0.05839863
000190 bc bc b4 3e c6 2a 76 3c f2 d9 27 bd 0e 15 ba be
       0.35300243 0.015024846 -0.040979333 -0.36344188
0001a0 ac 6d 07 be 02 75 d0 3c 54 83 04 3e 62 fc cf 3d
       -0.1322543 0.025446419 0.12940723 0.1015556
0001b0 a9 d0 b6 be b7 b6 31 be 2a af 7e 3d 54 3e aa bd
       -0.3570607 -0.17354856 0.06217877 -0.083126694
0001c0 c3 cc 99 3e ee ac b8 be 76 3f 8d bd fd f8 2f 3e
       0.30039033 -0.36069435 -0.0689687 0.17184825
0001d0 79 27 aa bd 50 fe 5a 3e c8 02 8b 3e 59 5a b1 bd
       -0.0830831 0.21386075 0.2715056 -0.086598106
0001e0 93 d9 4f be 35 9d df be 4f 3f 2a be b5 6a 71 3e
       -0.20297842 -0.43674627 -0.16625713 0.23575862
0001f0 56 aa 4a 3e 75 8a 39 b8 1c 26 97 3e 01 08 9c bb
       0.1979154 -4.4236385e-05 0.29521263 -0.0047616963
000200 12 71 63 be 1f 6e 1d 3d 60 bf 29 3e cb da ec 3c
       -0.22211102 0.038435098 0.1657691 0.028912922
000210 da db bf 3e 6a a4 cf bc f3 52 cb bc 7e 3e 73 3e
       0.3747242 -0.025346953 -0.024819827 0.23754308
000220 8f 41 8a 3e 2a 52 96 be 00 c7 63 3e 17 91 a1 3d
       0.27003142 -0.2935956 0.22243881 0.07889002
000230 7d 8a 80 3e 55 85 6b 3e 9a 58 07 bc 8d 2c 2d be
       0.25105658 0.23000081 -0.00826087 -0.16911526
000240 ce 93 f4 bd a2 a8 eb bd 4c ba 21 3d 5b bd 03 3d
       -0.11942254 -0.115067735 0.039484307 0.032163005
000250 b7 77 c9 bd 03 c7 8f bd 6b 4f 72 be a6 eb b8 bc
       -0.09837287 -0.0702038 -0.23663108 -0.022573303
000260 ce 33 bc 3d 47 f1 06 3d 6f 84 9b bc 64 7e 11 be
       0.091895685 0.032944944 -0.018984048 -0.1420837
000270 7e 5b 9c be 00 83 b1 3d 3f da 2d be 8b 2b 8f 3e
       -0.30538553 0.086675644 -0.16977786 0.27962908
000280 2a 18 91 3d 8c 63 0f bd e2 0c b6 3e 6a 3e 39 bd
       0.07084687 -0.035007045 0.35556704 -0.04522554
000290 00 71 82 3e 39 f4 c0 be 39 60 92 3e 5b ef cd 3d
       0.25476837 -0.37686327 0.28589037 0.10055419
0002a0 18 69 51 bd f9 d3 1d be b5 96 07 be b5 40 00 3e
       -0.051125616 -0.15412892 -0.13241084 0.12524684
0002b0 02 63 88 3e 41 fa fd 3d f9 d3 92 be 05 d6 86 be
       0.26638037 0.12401248 -0.28677347 -0.2633516
0002c0 57 10 4e bd 3e 0e 48 3e 99 21 6d be 5e 91 c1 bd
       -0.05030855 0.19536683 -0.23157348 -0.09451555
0002d0 08 11 fc bd 1c 8b b5 be 4d 4a 04 3e 13 ac bc bd
       -0.12307936 -0.35457695 0.12918968 -0.09212508
0002e0 f5 03 2b 3e 9a cf 40 3e 9d b9 1b be e0 38 95 bc
       0.16700728 0.18829194 -0.15207525 -0.018215597
0002f0 50 c0 40 be 5b b2 57 be a9 68 81 be db 8d c4 bd
       -0.18823361 -0.21064131 -0.25275162 -0.09597369
000300 6e 49 13 3f d4 93 99 be 63 72 10 bd d9 3f 19 be
       0.5753392 -0.29995596 -0.035265338 -0.14965762
000310 f3 3d 5a 3d 5c fb a6 3d a5 88 99 bd 9d 09 ca bc
       0.053281736 0.08153412 -0.07496766 -0.024662787
000320 f8 b4 88 bc 83 cb e2 3c 7f 0f 8c bd 5d 1b ab 3d
       -0.016687855 0.027684933 -0.06838893 0.083548285
000330 02 80 d3 3e dd 19 e1 bc ac 9b 3b 3e 72 47 25 3c
       0.413086 -0.027478153 0.18321103 0.010087835
000340 d7 fa e1 3e 4d 6f 56 3d 77 4a 5e 3e da 3e ed 3c
       0.44136688 0.05235224 0.21708094 0.028960634
000350 ea 2a 27 bd 88 ee 5c be ae 57 12 be 11 77 c3 3d
       -0.04081241 -0.21575367 -0.1429126 0.095441945
000360 c7 d7 68 bd 6a 72 02 be b8 4a b1 3c 7d 75 d9 bd
       -0.056846406 -0.12738958 0.021642074 -0.10618112
000370 8b 7e 8b 3e 73 d7 bb 3d 3c 5d f6 3d 47 52 8f 3c
       0.27244982 0.09171953 0.12029502 0.017495288
000380 79 55 1a 3e 3e 51 f9 bc ea 90 6b 3e 53 32 ca be
       0.15071668 -0.030434247 0.23004499 -0.3949152
000390 bb 4f 46 3d 31 f5 a0 be 13 14 81 3d 67 0c c2 be
       0.04841588 -0.31437066 0.06302657 -0.37900087
0003a0 7b ba d3 be a2 7a 20 3e 8e 59 33 be 12 51 91 be
       -0.4135321 0.1567178 -0.17514631 -0.28382164
0003b0 af 56 bb be 67 4c ce bc 8f 81 4e be 2e b6 5a 3d
       -0.36589572 -0.025182916 -0.2016661 0.053396396
0003c0 0b 98 6e 3e 34 3b d6 3d c6 23 03 be e0 5f 25 be
       0.23300187 0.10460511 -0.12806615 -0.16149855
0003d0 ed 19 be bd 2a 3a a3 be d4 d2 d9 be a9 5f 00 be
       -0.09282289 -0.31880313 -0.42543662 -0.12536491
0003e0 98 2a ad 3e 16 30 8b 3c aa c8 9d bd 9a d6 9b 3e
       0.3382156 0.016990703 -0.07704289 0.30437165
0003f0 b7 f6 56 3e 5a 0c 88 3e 84 79 e0 bd d0 41 2e 3f
       0.20992552 0.26571923 -0.10960677 0.6806917

transformer.attn.proj_q.bias f4 [72]
000000 62 72 88 bd 10 79 9d bc ab c5 be be ff 46 1a 3e
       -0.06662442 -0.019222766 -0.37260184 0.15066145
000010 a8 24 9d bd 1e e8 94 be 50 53 43 3e c1 a4 17 be
       -0.07673007 -0.2908334 0.1907475 -0.14808942
000020 84 eb d8 3d 77 e4 9f 3d c4 ef b4 bd 9f 9a 1d be
       0.10591796 0.07807248 -0.08834794 -0.15391015
000030 c5 96 f4 3d a9 55 ac bd 19 95 a1 bc cb da bf 3e
       0.119428195 -0.08414776 -0.019724416 0.37471613
000040 80 59 8b bd d1 df 75 3e f8 d0 fe 3d f7 6c ac 3e
       -0.0680418 0.2401116 0.124422014 0.33676884
000050 e5 ba d9 bb a2 b4 19 be d6 2a de 3e 56 49 42 be
       -0.006644594 -0.15010312 0.43392056 -0.18973288
000060 a1 13 72 3e 97 00 d1 bd eb f1 17 be 29 1e 18 be
       0.236403 -0.10205191 -0.14838378 -0.14855255
000070 7b 00 88 bd fc 45 8d 3e c8 18 24 3c 06 9c 5f 3d
       -0.06640717 0.27592456 0.010015674 0.054592155
000080 0b 63 dc bd 75 82 66 3c ab a2 ba bb a5 3a 12 bf
       -0.107610784 0.014069189 -0.005695661 -0.57120734
000090 9e b8 d6 bd 10 8f b9 3d 44 13 eb bd 73 64 53 be
       -0.10484432 0.0906049 -0.11478284 -0.20643787
0000a0 c4 58 18 bf 84 24 5a 3e ba e6 23 3d 2c 65 e9 3e
       -0.59510446 0.21302992 0.04001496 0.45585
0000b0 22 87 8d bd 12 58 75 be bd 5b f9 3e b1 80 84 3d
       -0.0691054 -0.23959377 0.48702803 0.064698584
0000c0 73 05 11 be f3 e4 ac be 6d 4f 9d bd 6d ac b7 be
       -0.14162235 -0.33768424 -0.07681165 -0.35873738
0000d0 7e c1 3f 3e 39 26 66 3e 95 99 b9 3c 91 6a 01 3e
       0.18726155 0.22475518 0.022656241 0.12638308
0000e0 79 23 84 bd 24 42 03 3e 01 f9 fd bd 19 07 22 3d
       -0.06452078 0.128182 -0.12401009 0.03955755
0000f0 ee 53 c5 3d 1d 12 af be 9c 34 d7 bc 0e 47 45 be
       0.09635149 -0.34193507 -0.026270203 -0.19265386
000100 61 ca b8 bd b2 1d 0d 3e 43 d0 20 bc 70 5c 35 bb
       -0.09022976 0.13780859 -0.009815278 -0.0027673505
000110 82 d9 09 be 7b ac fa 3d 5f 7b 42 3c c7 b4 0d bf
       -0.13461879 0.12239929 0.011870234 -0.5535397

transformer.attn.proj_k.weight f4 [72, 72]
000000 de 6b 7c be 7c 2d 95 3e ef 0d bb bd bf 15 b2 bd
       -0.24650523 0.29136264 -0.09133517 -0.08695554
000010 ad 6b f3 3b ee 3d f6 bd 11 4a d1 bd e7 81 11 be
       0.0074286074 -0.12023531 -0.10219205 -0.1420971
000020 6b 90 8b 3d 63 90 8f be ba 6a d6 bd 51 11 75 be
       0.06814655 -0.28039846 -0.10469575 -0.23932387
000030 84 1c 5d 3d 21 9a 30 3e 54 78 b8 3d f3 7d be bc
       0.053982273 0.17246296 0.09007326 -0.023253417
000040 99 0e 02 bd 2f 66 ab be 8b 9e a9 be 0a 47 e8 3e
       -0.031752203 -0.33476397 -0.3312877 0.45366699
000050 cc 44 f1 3d f5 60 92 bd d7 a0 73 3e d7 0f 79 3d
       0.117807 -0.07147399 0.23791824 0.06080612
000060 87 10 e0 be 3d 27 66 3e 36 e0 10 3e 66 b2 34 be
       -0.4376261 0.22475906 0.1414803 -0.17646179
000070 56 8b 76 3d 00 dd 28 3c f1 d4 e6 3e 32 0d 74 bd
       0.060191475 0.010306597 0.45084336 -0.059582897
000080 ce 6d f4 bd 4d 32 03 3e 6e 9e 5e 39 75 56 45 be
       -0.11935006 0.12812157 0.0002123059 -0.19271262
000090 dd 54 22 3d a0 d4 45 be 65 71 05 3e 24 f9 92 3d
       0.039631713 -0.19319391 0.13031538 0.07176426
0000a0 73 65 61 3e 36 f0 3f bc bc d3 e1 3d 80 36 02 3d
       0.22011356 -0.011714986 0.11026713 0.031790257
0000b0 db 10 b9 3c 0c 62 91 bd 50 3d c4 bd 29 bd 28 be
       0.022591045 -0.07098779 -0.09582007 -0.16478409
0000c0 cc ab 7a 3e 14 16 4b 3d 54 8c 84 be 6e 7b 01 3e
       0.24479598 0.049581602 -0.25888312 0.12644741
0000d0 9b 27 b7 bd db f6 06 bd 08 f2 0a 3e 10 86 c5 be
       -0.08943101 -0.032950263 0.1356889 -0.38578844
0000e0 ae 9a 6b 3e b1 b4 a3 bd b3 4d bc 3c 20 48 d3 3c
       0.23008224 -0.079934485 0.022986269 0.025791228
0000f0 e4 dd 61 be 7c c3 24 be d4 1c 1e be 16 42 2f be
       -0.22057301 -0.16090196 -0.15440685 -0.17115054
000100 8b ed 0b 3e 48 65 9c be 2c 45 d4 3d 6c 6e 37 3e
       0.13664834 -0.3054602 0.10364756 0.17913216
000110 48 bc 21 be 5a fd 86 be 01 22 54 3d 22 54 97 3e
       -0.1579448 -0.26365167 0.05179024 0.29556376
000120 b4 35 40 be b5 fc 73 bd 86 20 48 3e 99 99 13 3e
       -0.18770486 -0.059567172 0.19543657 0.14414062
000130 25 66 3c be f0 65 32 be 03 6c d2 be 3b 6c 03 be
       -0.1839834 -0.17421699 -0.4109803 -0.12834255
000140 83 c4 8a 3e f8 01 43 3e 9d 23 28 be ed 14 2e 3e
       0.27103052 0.1904372 -0.16419835 0.1700017
000150 29 56 9e be 11 ae 4b be f5 30 05 be 05 d0 0c 3e
       -0.3092511 -0.1989062 -0.13006957 0.13751228
000160 f4 15 02 3e 73 37 d8 3c 40 64 8b 3e 5d 29 43 be
       0.12703687 0.026393628 0.27224922 -0.19058748
000170 f7 ea 76 bb c1 d4 c0 3d 89 a2 f7 3d 8f 4c 86 bb
       -0.003767667 0.094155796 0.12091548 -0.004098482
000180 4a f1 e0 bc 97 21 de bd 60 f9 fb 3c b4 88 85 3d
       -0.027458806 -0.108462505 0.03075856 0.06520215
000190 c4 cf 02 be 7a fa c8 3d b9 11 40 be 2b 77 6a be
       -0.12774569 0.098133996 -0.1875676 -0.22897021
0001a0 c6 1d a7 be c2 4b 09 be 71 5b 80 bd 90 db 93 3d
       -0.32639903 -0.13407806 -0.06267441 0.072196126
0001b0 6b 0a 0f 3e 61 9c 2a bd 29 d1 1f 3e e9 44 00 bf
       0.13968818 -0.04165304 0.15607132 -0.5010515
0001c0 22 64 43 bd af 10 00 bd 17 7f 8a 3d 46 56 52 be
       -0.047702916 -0.03126591 0.06762522 -0.20540723
0001d0 7e d0 62 3e 8a a4 7f 3d 1c eb e0 bc a6 9f 01 3e
       0.22149846 0.062412776 -0.027455859 0.12658557
0001e0 8e f7 64 3e e3 db 11 3e 7a bc 3b 3d ad d5 3f bc
       0.2236006 0.14244036 0.045834042 -0.011708659
0001f0 81 29 10 bd 69 24 85 bd f2 4c 2a be 5d 3b cb ba
       -0.03519583 -0.06501085 -0.16630915 -0.0015505363
000200 5e 36 67 3d 18 d7 9e 3e 1b 8c 9b bd ff 02 0a 3e
       0.056448333 0.31023479 -0.07595082 0.13477705
000210 47 1c 11 be 0a 26 80 bd b7 e6 bc bd 99 26 60 bd
       -0.14170943 -0.062572554 -0.09223693 -0.05472431
000220 77 ec 8e be 07 3d 04 3e 7d b6 b1 be 01 6e 28 bd
       -0.27914783 0.12913905 -0.3470954 -0.041120533
000230 0d 0a 35 bc 73 69 8c bc 59 3a 7b bd 4b 89 7f 3e
       -0.01104976 -0.017140126 -0.06133494 0.24954717
000240 bd 3e 6c 3e be a4 13 3d 48 ab 43 bd cd a5 bc 3d
       0.23070808 0.036045782 -0.04777077 0.092113115
000250 86 96 cc be 1c 41 c8 be 89 b3 75 be 4f 1d 9d 3d
       -0.3995859 -0.39112175 -0.23994268 0.07671606
000260 a1 4b 7e 3d 6a ab 74 3d 95 4a 6b be 4b 22 90 3e
       0.062083844 0.059733786 -0.2297767 0.28151163
000270 a1 3c b7 bd 99 a2 43 be fe 86 3a 3d 90 d1 16 3e
       -0.08947111 -0.19104995 0.045538895 0.14728379
000280 3e da 9e 3d 4f 5d 71 be 80 a4 6c bd ce 7d 14 3e
       0.0775647 -0.2357075 -0.057774067 0.14501116
000290 01 79 c0 3e ff 5d 9f bd 18 72 23 bd 8a fb 09 3e
       0.3759232 -0.077816 -0.03990373 0.13474861
0002a0 6d f2 34 be b1 5d 8d bc 67 db 2f 3e 36 3b 06 3e
       -0.17670603 -0.01725659 0.17173539 0.13108525
0002b0 f3 3e c5 3e ac dc 78 bd e5 0d 95 3e 1f 1e 6d bd
       0.3852459 -0.060757324 0.29112163 -0.057890054
0002c0 25 3f 48 3e 23 0e 7e 3e ee 44 6d bd 54 bc 87 3d
       0.19555338 0.2481008 -0.057927065 0.066277176
0002d0 8f a1 49 be e8 bb 99 3e d9 26 61 3e af 4a 85 bd
       -0.19690536 0.30026174 0.21987475 -0.065083854
0002e0 24 ff 1a be ab a7 4c be 49 ab c7 bc 6c ef 6e be
       -0.15136391 -0.19985835 -0.024373667 -0.2333352
0002f0 31 5c 17 be 22 36 69 be 4b 55 af 3d aa 49 4b bc
       -0.14781262 -0.22774556 0.0856119 -0.0124077
000300 3c 6d 90 3d 14 6a ad bc 35 34 0e be 28 67 72 3e
       0.07052085 -0.021168746 -0.13887103 0.23672163
000310 cb 47 a5 be e0 f9 80 3e bb 08 9b 3e 83 b6 85 3e
       -0.32281336 0.2519064 0.30280098 0.26115808
000320 07 60 3b 3d bb dc c9 bd 7c 90 eb 3d 30 e6 9b 3e
       0.045745876 -0.09856554 0.115021676 0.30449057
000330 9d 76 a7 3e f6 d6 70 be 10 bc 35 bd dd c9 fd 3d
       0.32707682 -0.23519501 -0.044368804 0.12392018
000340 47 6f 53 bd 00 33 86 3e 08 08 f1 bd c1 81 ef 3d
       -0.051619794 0.26210785 -0.1176911 0.116946705
000350 98 c6 93 3b 5f 10 2a be 4a 9b 17 3e c6 6d 2a 3e
       0.004509758 -0.16607808 0.14805332 0.16643438
000360 eb d5 00 3d 31 65 e3 be 3a c0 f8 bd f6 31 04 b9
       0.031454008 -0.4441314 -0.12146039 -0.00012607113
000370 80 c8 65 3e a6 23 16 3e 61 5c 21 3d 0e de 21 3a
       0.22439766 0.14662036 0.03939474 0.00061747513
000380 7d bd a8 3d 14 4a ed bc a0 ab 73 be 6e 42 b5 3c
       0.08239267 -0.028965987 -0.23795938 0.022126403
000390 59 21 7b be 3b e9 76 be c5 93 a4 3e a3 dd 84 be
       -0.2452444 -0.24112408 0.3214399 -0.25950345
0003a0 11 c2 a9 be 98 42 32 3e d7 f4 27 3a ba 98 fe 3d
       -0.33155873 0.17408216 0.00064070284 0.12431474
0003b0 e2 00 10 be 65 a6 4b 3e 49 39 80 be 8e 90 d7 3c
       -0.14062837 0.19887693 -0.25043705 0.026314046
0003c0 33 ee 65 3d 99 fd 46 be 23 95 dc 3b 5a 1d 18 bd
       0.056135368 -0.19432677 0.0067316457 -0.037137367
0003d0 50 cc 96 bd c8 99 14 3c 08 7e 9a 3e 09 f4 77 3e
       -0.07363188 0.009069867 0.3017428 0.24214186
0003e0 f5 a8 69 3d c8 2a e6 3d 49 d5 01 be 03 be a4 3d
       0.057045896 0.112386286 -0.12679018 0.08044054
0003f0 c2 ee 93 bd 86 be ed 3e 83 97 aa bd 48 c6 2f bd
       -0.07223274 0.4643442 -0.0832968 -0.042913705

transformer.attn.proj_k.bias f4 [72]
000000 52 63 4d bd ac 55 0d bd 11 83 9a 3d 38 d5 8f 3d
       -0.050143547 -0.03450553 0.0754453 0.0702309
000010 12 73 cc bc 26 fb 51 3d f9 ab e8 bc bd 64 46 3d
       -0.024957214 0.051264904 -0.028402315 0.048435915
000020 3c 9e 3f 3d 48 45 2a 3d 73 4a a5 bc 9a 72 48 3d
       0.046781763 0.041569978 -0.020177102 0.048937418
000030 de 8c 71 3c 11 b0 8c 3d 4a c6 a8 3c bc 47 0b bb
       0.014743058 0.068695195 0.020602364 -0.0021252474
000040 da 7d 93 3d c8 4a 15 3e 86 7a 8b bd 55 9c 1e 3d
       0.07201739 0.14579308 -0.06810479 0.03872331
000050 7c f5 75 3d d9 0d f5 bc 26 28 be bc eb a2 a0 bd
       0.060048565 -0.02991383 -0.023212504 -0.07843574
000060 8f 66 a6 bd 33 93 ea bd 5f d9 b0 bd 99 cf d1 bd
       -0.0812503 -0.11453857 -0.0863521 -0.10244674
000070 ce a0 c4 3d b5 12 41 3d ad a4 f5 3d b5 80 b5 bc
       0.096009836 0.04713698 0.119943 -0.022156099
000080 e7 32 8b 3c 61 93 2d 3d 55 a4 f9 bd e1 e1 24 bd
       0.016992046 0.04237688 -0.12189547 -0.040254477
000090 59 a8 5e 3d 12 fd c5 3d c9 2d 48 3d 71 35 b9 3c
       0.054359768 0.0966741 0.04887179 0.02260849
0000a0 89 c2 67 3c 04 ad b2 bc d9 a6 71 3d ba 85 84 3b
       0.014145502 -0.021811016 0.05899701 0.0040442618
0000b0 eb 21 3c 3d 52 ae 0a bb 30 72 94 3c 50 7f e1 bd
       0.045930784 -0.0021161032 0.018120855 -0.11010611
0000c0 82 ac 6a bc 5a d8 9f 3d 80 ca ee 3c 71 61 de 3d
       -0.014323356 0.07804938 0.029149294 0.10858429
0000d0 a7 cc a4 bd 3c bd 8f bd 21 e6 d6 bd f7 e0 7f 3d
       -0.08046847 -0.070185155 -0.10493112 0.062470403
0000e0 6a 0e a8 bd fa 1b b3 bb 23 4c 9f 3d cf 30 46 bc
       -0.08205874 -0.0054659816 0.07778194 -0.012096598
0000f0 0f 77 0f 3c fe 81 7e bd 98 0a 97 bb 22 3e 37 bd
       0.008756413 -0.06213569 -0.004609417 -0.04473699
000100 c4 1a 54 bd c7 e9 55 bc f8 84 ae 3d e3 7c 81 3d
       -0.05178334 -0.013056225 0.085214555 0.063226484
000110 74 ff 58 bd 81 b6 55 3d 99 1f ca 3d 07 56 1f bd
       -0.052977994 0.052176002 0.09869308 -0.0389004

transformer.attn.proj_v.weight f4 [72, 72]
000000 2d 06 18 bf b1 be d2 3d 00 45 c3 be 57 23 57 3e
       -0.59384423 0.10290278 -0.3813858 0.21009575
000010 be 8c 3f 3d 0d 42 46 be a1 d0 39 3e 4a 01 5b bd
       0.04676508 -0.19361134 0.18145992 -0.053468026
000020 df 49 8e 3e 1b 3e c5 be 77 20 dd 3e 70 13 a9 3e
       0.27790734 -0.38523945 0.4318883 0.33022642
000030 0a 71 f1 bc ab 40 4a 3e 3b 20 ac 3d ba be 4c 3f
       -0.029472847 0.19751231 0.08404585 0.79978526
000040 51 ca eb bd 3e 2c 32 be 67 8e 9d 3c b1 38 0a bd
       -0.11513198 -0.1739969 0.019232942 -0.03374547
000050 f7 90 15 3e 58 41 db bd d1 53 af 3e 7f b5 52 bd
       0.14606081 -0.10705823 0.34243634 -0.05144262
000060 4e 96 d3 be 1e f6 4a be 05 9b 24 be 9b 73 86 bd
       -0.4132561 -0.19820449 -0.1607476 -0.06565019
000070 7d 8d cb 3e 33 81 ba be c8 06 54 be be 1d ba be
       0.39756384 -0.36426696 -0.20705712 -0.36350816
000080 78 a2 0f bd a6 fc cc 3e c6 60 86 be 70 36 87 be
       -0.03506705 0.40036505 -0.26245707 -0.2640872
000090 8d 08 d2 3e 30 07 79 be 50 af 6f be 14 03 6e 3d
       0.4102215 -0.24319148 -0.2340672 0.058108404
0000a0 85 27 fd 3d af f5 42 be a0 8f 26 3e 40 ab de bd
       0.123610534 -0.19039033 0.16265726 -0.10872507
0000b0 92 93 6f be 89 90 19 3e 9a 19 9f be 4c fc 0a 3d
       -0.23396137 0.14996542 -0.3107422 0.033932015
0000c0 93 73 e9 bc d2 ad db 3e 43 91 d4 3d 35 76 8a 3e
       -0.028497493 0.42906052 0.10379269 0.2704331
0000d0 17 c7 3c be 0b 5f be 3e b9 9b 78 3d 37 84 04 3d
       -0.18435322 0.37181887 0.060695384 0.032352652
0000e0 88 4c 79 3d 19 b8 87 3e 00 fa c0 3d 89 63 9d 3c
       0.060864 0.26507643 0.09422684 0.019212501
0000f0 7e a7 81 3d d2 66 36 bd df de 8d 3e 9b b6 37 3d
       0.06330775 -0.04453165 0.277091 0.04485188
000100 4d 3a 12 3d 68 cc 3c bf 15 14 ec ba cc 1a 33 be
       0.03570013 -0.737494 -0.0018011356 -0.17490691
000110 b9 1e a7 3d ae 47 8f be 54 41 f4 bc 4a 5d 9b be
       0.08160157 -0.27984375 -0.029816307 -0.3034461
000120 0d 8e 8c be 43 c1 0b bf 62 53 09 3e 03 7e e1 3d
       -0.27452126 -0.5459177 0.13410714 0.11010363
000130 4b 15 6d 3e 38 be 8d 3e d2 4c 79 3e 73 37 48 be
       0.23152654 0.27684188 0.24345711 -0.19552402
000140 78 81 dc 3e 3c a2 96 be fd f0 86 bd d0 3a 86 3e
       0.43067527 -0.2942065 -0.065889336 0.26216745
000150 32 c3 6c 3d 56 53 55 be 6d 84 2f 3f 29 df 8d 3e
       0.05780334 -0.20832571 0.6856144 0.2770932
000160 06 33 83 bc 57 b7 b8 be af d6 8d 3c 75 91 b9 bd
       -0.01601554 -0.36077377 0.017314283 -0.09060947
000170 24 b5 d7 bd a4 91 fa 3d 04 0f da be aa c1 17 3e
       -0.10532597 0.1223481 -0.4258958 0.1481997
000180 5d eb c4 3d 25 3c c6 be 84 1b 8f be a3 07 b6 be
       0.096152045 -0.38717762 -0.2795068 -0.355527
000190 d4 d7 8b 3e 22 d4 77 3e cc 1c 60 3e 57 70 b9 be
       0.273131 0.24202016 0.21885985 -0.3621852
0001a0 25 3e 84 be 61 f3 ac 3e 24 85 a0 be 07 a6 5c be
       -0.25828663 0.33779433 -0.31351578 -0.2154771
0001b0 e2 bb 81 bd 8b d4 07 3e 19 12 6e be a9 48 97 3d
       -0.06334664 0.13264672 -0.23249091 0.07386906
0001c0 b9 31 02 be aa 36 e3 3e cc bc 40 3d 6c 3d 99 be
       -0.1271428 0.44377643 0.04705505 -0.29929674
0001d0 bf 33 b6 3e 26 fb 90 be 36 4d f2 3e 25 15 9e be
       0.35586354 -0.2831661 0.47324532 -0.30875507
0001e0 a1 da 3c bd 87 62 88 be 29 e0 93 3d 90 10 f9 bd
       -0.04610694 -0.2663767 0.072204895 -0.12161362
0001f0 fc d9 8b 3d ce bd 17 3e e8 93 47 be a9 5e d6 3e
       0.068286866 0.14818498 -0.19490016 0.41869095
000200 b4 d1 25 3e 17 ca 18 3e b9 dc 0e 3f b8 74 d5 3e
       0.16193277 0.14920841 0.55805546 0.41690612
000210 c9 4f e7 3e 04 8f d1 3d ff fd 78 bd 7e 2c ad 3d
       0.4517806 0.10232356 -0.060789105 0.08455752
000220 da e7 8d be f7 05 7c be 81 b8 62 3e 28 96 0b bf
       -0.2771595 -0.2461165 0.22140695 -0.54525995
000230 5b 11 75 be 23 ed 2b 3d a3 22 13 3e ef 7b 48 bf
       -0.23932402 0.041974198 0.14368682 -0.7831411
000240 8f 8c d6 bc 83 4a 39 be e2 6f f5 be 39 05 b1 be
       -0.02619007 -0.1809483 -0.47936922 -0.34574297
000250 7d 59 b6 bd c1 1f c6 3d 3d 6e 99 be d3 e6 24 be
       -0.08903787 0.09674025 -0.29966918 -0.16103677
000260 08 90 85 3e e6 25 24 3e ad 12 9a be 09 c0 43 be
       0.2608645 0.16030082 -0.30092373 -0.19116224
000270 92 7d bb 3e 00 b0 e4 bd ea 9e c5 bd 38 91 d0 3d
       0.3661924 -0.11166382 -0.09649451 0.10183948
000280 e5 49 df be 19 c1 2c 3e cf d6 8d bc 72 9f cd 3e
       -0.43611065 0.16870536 -0.017314343 0.4016071
000290 3a 98 d3 be f5 53 8c 3d d9 71 19 be f6 fa 77 3e
       -0.41327077 0.06851951 -0.14984836 0.24216828
0002a0 d5 06 2f be 27 f6 de 3e 75 e1 83 3d 6f 48 cb 3e
       -0.1709245 0.43547174 0.06439487 0.397037
0002b0 63 0e 1e 3e f6 ec a9 3e 58 fd aa be c2 d3 05 3f
       0.15435176 0.331886 -0.3339641 0.5227624
0002c0 48 69 3d 3e be 30 26 be b9 13 67 3e 90 10 39 3f
       0.18497193 -0.16229531 0.22566117 0.722909
0002d0 c6 46 b4 3d c6 d7 4d 3e 67 b3 b2 bd 47 3b 55 3d
       0.088025615 0.20101842 -0.087256245 0.052058484
0002e0 74 6e c3 3e ab 30 60 bd 43 f0 e5 3d f9 53 00 3e
       0.38170207 -0.054733913 0.11227467 0.12532033
0002f0 67 c3 c1 3e 0c 0b ad be 2d 66 af be a6 0e 9c 3e
       0.37844393 -0.3379749 -0.3425764 0.30479926
000300 bc 54 d6 be ca c3 b9 3e ac 5e 6b 3e 83 c7 1e 3e
       -0.41861522 0.36282188 0.22985333 0.15505795
000310 27 3e 99 bd b7 cf d3 3c ab a7 60 3d 6e 74 48 be
       -0.07482558 0.025855882 0.0548474 -0.19575664
000320 79 0d 6b bd 70 47 4b 3e 16 9a ce be 24 8f 13 bf
       -0.057385895 0.1985147 -0.40351933 -0.5764029
000330 60 9b c1 3d 42 be c1 3e 10 90 93 3e 08 db 18 3f
       0.094534636 0.37840468 0.28820848 0.59709215
000340 ad 60 c6 be ab 03 b3 3e 3a 2d 37 3e 33 e5 04 bf
       -0.38745633 0.34963736 0.17888346 -0.5191223
000350 d6 17 3b bd 84 ce 3a 3e 0f 5b 04 bf da 26 bd bc
       -0.04567703 0.18242842 -0.51701444 -0.023089815
000360 bd 8d b5 3d fb 86 b0 3e 07 55 20 3e cb b7 cc be
       0.08864925 0.34477982 0.15657435 -0.39983973
000370 7f c8 ce 3d 51 20 83 3d 4e 95 23 3e eb 39 dc 3c
       0.10096835 0.06402648 0.15974924 0.026883086
000380 aa ef 93 be 15 44 60 3d eb f7 a1 be 48 e0 90 3e
       -0.28893787 0.054752428 -0.3163446 0.28296113
000390 10 cd eb be 0b 56 93 3e 8c 22 55 bd c9 db 84 3e
       -0.46054888 0.28776583 -0.0520349 0.25948933
0003a0 6f cc a9 bd 28 e4 64 be cd 78 8d 3d 0f a0 86 3e
       -0.08290946 -0.2235266 0.069078065 0.2629399
0003b0 55 12 69 3e f8 05 02 bf 19 b4 9e be 24 b3 ed 3d
       0.227609 -0.5079036 -0.3099678 0.11606434
0003c0 29 bb 90 3d 28 f2 ee 3e 7c 24 5e 3d 14 50 09 3e
       0.07066948 0.46669126 0.054234013 0.13409454
0003d0 01 5e d9 3e 5a 6e 89 3e e7 d8 cd bc 20 00 21 be
       0.42454532 0.26842004 -0.025127841 -0.15722704
0003e0 87 89 0b bf af 74 8d be 74 f7 cf be c4 fc ff ba
       -0.54506725 -0.27628085 -0.4061848 -0.0019530286
0003f0 49 09 29 bd 22 8e 34 3e 15 69 d9 3e cb a0 28 be
       -0.04126862 0.17632344 0.42462984 -0.16467588

transformer.attn.proj_v.bias f4 [72]
000000 a6 78 13 bc f1 4a cc 3b 79 99 6c 3e a7 73 5a be
       -0.009000933 0.0062345196 0.2310542 -0.2133318
000010 e8 cd ec bc b4 d8 b0 3c fc ab 25 3e 90 67 d8 3d
       -0.028906778 0.021587707 0.16178888 0.10566628
000020 87 43 93 3e c8 a1 81 3e 4e 33 22 3e 7c c0 7d be
       0.28762457 0.25318742 0.15839884 -0.24780458
000030 39 6a d3 bd a4 e3 2c 3e fb 7f 9b 3d ca e4 22 3e
       -0.10322995 0.16883713 0.0759277 0.15907589
000040 42 28 28 bd e1 94 ed bd 87 c8 a1 3d 37 67 8b be
       -0.041054018 -0.11600662 0.07899576 -0.27227184
000050 ac 50 03 be 29 e9 1e 3d 4a 21 d9 3d ca 76 ff bb
       -0.12823743 0.038796578 0.106020525 -0.007796143
000060 b7 07 0a be a8 1a 2d bd 26 ba 3f be ab 6e 08 be
       -0.13479505 -0.04226175 -0.18723354 -0.13323466
000070 61 a8 88 3d 0c 53 6c 3b 7c 6d c2 3d 70 a9 4b bd
       0.06672741 0.0036060242 0.09493539 -0.049722135
000080 9b ff 84 3e 1c 69 66 bc 01 4c ec bc 9a 90 82 3d
       0.25976261 -0.014063146 -0.028844835 0.06375237
000090 98 89 ce 3b e3 23 71 3c 89 c6 f6 bd 56 c5 30 be
       0.0063030235 0.014718029 -0.12049586 -0.17262778
0000a0 68 cf 2b 3d 6a cd 3d 3c 4a b9 21 bd 35 44 f4 bd
       0.041945845 0.011584619 -0.039483346 -0.11927072
0000b0 4a b0 de bd e5 84 18 3c 21 6c 9e 3c 48 9a d7 3c
       -0.10873468 0.009309028 0.01933867 0.026318684
0000c0 35 d4 18 3d 98 ed 9f 3d 64 61 86 3d 11 38 4e 3e
       0.03731175 0.07808989 0.065615445 0.20138575
0000d0 85 3f 35 3d 5a 4d 78 bc c7 85 e5 bc 72 18 bc bc
       0.04425003 -0.015155161 -0.028017892 -0.022960875
0000e0 b2 5b 4a bd b7 f4 44 3e 0a 92 34 bd b3 63 05 bc
       -0.049403854 0.19233976 -0.044084586 -0.008141446
0000f0 37 d4 b4 3d 5f 71 90 bd 4f 9d 5e bd 71 4d de bd
       0.08829539 -0.07052874 -0.05434924 -0.108546145
000100 4d 14 47 bd b5 c0 35 be ef c6 10 be 83 e8 26 3d
       -0.048603345 -0.17749293 -0.14138387 0.040749084
000110 f3 ea bf bc 4b 45 32 be d1 4a 65 3d e5 f2 a1 3d
       -0.023427462 -0.17409246 0.055979554 0.079076566
