Src/extractor/limu_bert_shoaib.pt (torch, 259166 bytes, 29 tensors)

transformer.embed.lin.weight f4 [72, 6]
000000 13 e0 b5 be 6f c4 ae 3e 42 d3 be be 28 33 c1 bd
       -0.35522518 0.34134242 -0.37270552 -0.094335854
000010 5a f2 69 be 22 20 dc bd 86 d4 18 bf 0b 91 74 bd
       -0.22846356 -0.10748316 -0.59699285 -0.059708636
000020 de 86 0f be f2 1b 81 be a6 e5 88 3e 45 c9 0e 3f
       -0.14016291 -0.25216633 0.26737708 0.5577586
000030 80 a6 e1 3e 16 ca 97 3f 01 2b 06 bf 2e fa 4a 3d
       0.44072342 1.1858547 -0.5240937 0.049554996
000040 ee 64 1c bf 2c e6 28 3f 7d cd 20 3d 7f 76 bc 3d
       -0.61091506 0.65976214 0.03925847 0.09202289
000050 c6 a3 72 3f 56 0b 1c bc 62 e3 26 3e 15 6c 70 3f
       0.9478115 -0.009524187 0.16297677 0.9391492
000060 66 c4 10 bf dd 56 99 3e 87 ef b3 3f bb 5a 27 3f
       -0.5654968 0.29949084 1.4057473 0.6537282
000070 ad 19 41 3f ee 6a aa 3d 52 d1 31 bf e0 8f 75 3d
       0.75429803 0.083211765 -0.6946002 0.059951663
000080 ee 0a 24 be 5d 9d f0 3e df 60 c5 be c4 38 b2 be
       -0.16019794 0.4699506 -0.3855047 -0.34808934
000090 a7 0e 30 bf 5c 41 40 3f 63 32 49 bf 6a e2 42 3e
       -0.6877236 0.7509973 -0.7859251 0.19031683
0000a0 91 b5 84 3e 39 e6 59 3e c0 e7 b1 3f 02 3c b3 3e
       0.25919774 0.21279229 1.389885 0.3500672
0000b0 ac 43 bf 3e 84 da 8e bd db 02 90 3d 7b df 1e be
       0.37356317 -0.06975272 0.07031795 -0.15514939
0000c0 5a d0 a7 be ef aa a5 be fb fd dc 3d 48 3b af 3e
       -0.32776147 -0.32356974 0.107906304 0.34224916
0000d0 7a 38 18 3f 0f da 10 bf ff 17 a5 3f 1e 72 4a bf
       0.59461176 -0.5658273 1.2897948 -0.7908038
0000e0 4e 29 be 3d d8 96 61 3d c3 20 9b be d5 ce 18 3f
       0.09285222 0.055075496 -0.30298433 0.596906
0000f0 ca 95 0e 3f 4a c0 18 be 8c d2 75 be ef 00 19 be
       0.5569731 -0.14917102 -0.24006099 -0.14941762
000100 e7 2d 04 3e b7 89 80 3d b4 d4 4b bf 3e 48 e2 be
       0.12908135 0.06276267 -0.79621434 -0.4419574
000110 79 a2 fc be 33 77 c4 bd 54 72 cd bd e8 b2 fe bd
       -0.49342707 -0.09593048 -0.10031572 -0.124364674
000120 81 37 0a 3f 33 15 1b bf 2b 6c bf 3c 3b c5 1c 3f
       0.5399094 -0.6057922 0.023367008 0.6123845
000130 ae fa 80 be 5e 18 80 bc 94 b8 05 3e 56 9a 86 bd
       -0.25191253 -0.01563662 0.13058692 -0.06572406
000140 b8 c0 73 be d5 0f 2e bf 3e 75 8b bd f7 62 fe be
       -0.23803985 -0.6799291 -0.068094715 -0.4968488
000150 58 4b 94 3f 7a 3f 4d 3f a5 3c b3 be b3 2d 8b 3f
       1.1585493 0.8017498 -0.35007206 1.0873321
000160 67 89 8b be e6 f6 78 be 03 0d 1d bf b2 0e 75 bf
       -0.27253267 -0.24312934 -0.6134798 -0.9572555
000170 bc 1b 94 3e f0 71 83 bd 68 9e 65 3c d8 fc 33 3a
       0.2892741 -0.06418216 0.014014818 0.0006865985
000180 a0 41 6e be e2 fc d7 bd c8 6f b8 bd 62 4b 84 bf
       -0.23267221 -0.105462804 -0.090056956 -1.0335505
000190 8c 95 be 3e 9a 44 c2 bd 1c 4b a6 bd d5 5e 34 bf
       0.3722347 -0.09485741 -0.08119795 -0.704572
0001a0 77 a5 11 c0 7f 50 0c 3e ec 5e 3b be 3e e5 5e be
       -2.2757242 0.13702582 -0.18297929 -0.21767136
0001b0 32 c4 31 bf a0 e2 b6 3d 9f d2 00 3f 43 5c 07 bf
       -0.69439995 0.08929944 0.5032138 -0.52875155
0001c0 a5 e8 1f 3c 15 48 22 bf 91 77 2f 3f 45 c5 28 bf
       0.009760057 -0.6339124 0.6854182 -0.6592601
0001d0 30 cd 74 3f 50 c6 36 bc 0e 3f e5 be 48 93 61 be
       0.9562559 -0.01115568 -0.4477467 -0.2202884
0001e0 79 6d 8b 3e cb cc 77 3e f9 ee cf be 0f ba 5a be
       0.27231959 0.24199216 -0.4061201 -0.21360038
0001f0 36 dd 0b 3d 63 86 6f be 8b 52 1a 3f 05 4c 06 bf
       0.03414651 -0.23391108 0.602822 -0.52459747
000200 ca d2 97 3e 33 db 2c bd fb c8 0f 3e f6 8a 1b bf
       0.29653007 -0.042201232 0.14041512 -0.6075891
000210 f5 40 ec bd 44 b5 3c be 74 03 d4 3d 3c ec 9c be
       -0.11535827 -0.18428522 0.10352221 -0.30648983
000220 5f d0 97 bd 12 f9 59 3c af c9 e4 bd ac 72 42 be
       -0.074127905 0.013304012 -0.111712806 -0.18989056
000230 d4 34 a1 bc 8e f7 08 bf 57 f7 1f 3e 5d db 24 3f
       -0.01967851 -0.5350274 0.15621696 0.6439722
000240 18 6f 9a 3e e7 b5 6f 3f 0b 16 13 bf f0 bb 15 3e
       0.30162883 0.93636936 -0.5745551 0.14622474
000250 c4 2a 47 bd 45 e5 74 be 42 73 a0 bf ac c8 12 bf
       -0.04862477 -0.23915584 -1.2535174 -0.5733745
000260 5b 7b f4 3e 1d 5c 96 be bd 31 8b 3d ca 9d 13 3f
       0.47750363 -0.29367152 0.06796596 0.5766264
000270 4c 4e 11 be 08 8b 89 3f dd 45 64 3f 9f 29 8d be
       -0.14190024 1.0745554 0.891691 -0.27570817
000280 06 24 b0 be 4d 8f ac 3e e7 77 9c 3d 7e 51 1f be
       -0.34402484 0.3370308 0.07640057 -0.1555843
000290 5a 57 3d be 07 14 07 bf e1 17 33 be d8 87 ff be
       -0.18490353 -0.52764934 -0.17489578 -0.49908328
0002a0 b1 68 24 bd a8 98 19 3c d1 e3 07 bf c9 0a 21 bd
       -0.040138904 0.009374775 -0.53081995 -0.039316926
0002b0 70 37 3a bd 44 4c 38 bf db 5b a4 bf 73 c4 26 bf
       -0.045463026 -0.7199137 -1.2840532 -0.6514351
0002c0 b6 7b 44 3f 53 05 ca bd ac 99 d0 ba 08 a2 82 3e
       0.7675127 -0.09864297 -0.0015914938 0.25514245
0002d0 3c 78 70 3e ea 20 6c 3e 9c 62 7e 3f e1 72 ce be
       0.23483366 0.2305943 0.99369216 -0.4032202
0002e0 e0 9b 0e 3e 27 4c 7e 3e 22 eb 2c bf 81 6e 11 3c
       0.13926649 0.24833737 -0.67546284 0.008876444
0002f0 59 09 ee 3f a0 87 a8 bd d0 de 0a bf 21 b4 5e 3e
       1.8596603 -0.082289934 -0.54246235 0.21748401
000300 f6 6f ad 3d 98 87 d1 3c 81 73 3c 3f 5f 2c 38 be
       0.084686205 0.025577351 0.73613745 -0.17985676
000310 d5 c9 36 bd 15 31 c2 3e 3a 1b 57 3f c2 99 a1 3e
       -0.044626076 0.37928072 0.8402592 0.3156262
000320 4f 28 e0 be 91 8d 94 3e 5c 19 aa bc e3 13 0f bf
       -0.43780753 0.29014257 -0.020764045 -0.5588972
000330 7a 19 06 3f 31 a2 c9 bc 9c 5a fa 3e f3 29 d2 be
       0.52382624 -0.024613472 0.48897254 -0.4104763
000340 fe 83 7e 3e c6 58 fa 3e 3b ba d5 bd 75 12 d1 be
       0.24855039 0.48895854 -0.10435911 -0.40834394
000350 51 44 8e 3f 8c 4e 26 be 61 b2 06 bf 53 43 bc be
       1.1114599 -0.16240901 -0.52615935 -0.36770114
000360 6a 84 59 3f 05 2e 3e bd c4 1e 83 bf 75 48 52 3f
       0.8496767 -0.046430606 -1.0243764 0.8214181
000370 4b d3 5f 3e b4 38 23 3f 64 d0 6f be 8e a4 1b 3d
       0.21857946 0.637584 -0.23419338 0.03799873
000380 74 2b 9d 3e ae 16 1a 3e 34 ee a9 bb b9 6b 04 3f
       0.30697215 0.15047714 -0.0051858667 0.5172687
000390 7c 48 d8 3e 6a 19 34 3f c7 9c 60 3f b8 75 a0 be
       0.422428 0.7035128 0.87739223 -0.31339812
0003a0 5d c1 5d 3e 20 82 7f 3e c5 80 4c bf b4 f6 5f bd
       0.21655793 0.24951982 -0.79883987 -0.054678634
0003b0 c6 98 7c 3b 4f 71 29 3f 2d 9e 6e 3e dd 69 36 3f
       0.0038543209 0.6618852 0.23302527 0.71255285
0003c0 d5 92 25 3f 34 84 90 3e 09 e6 c2 bd fd cb 93 bf
       0.6467717 0.28225863 -0.09516532 -1.1546627
0003d0 27 9f 58 3d f8 55 70 be f5 08 60 bf 4b f8 06 3e
       0.052886155 -0.23470294 -0.8751367 0.13180654
0003e0 13 8d 05 3f 9b ca 11 be 7c 0d 40 be cd 79 35 bd
       0.5216839 -0.14237444 -0.18755144 -0.04430561
0003f0 a4 55 19 bf ad 4c 35 bd 01 09 13 3e b1 e7 6f 3f
       -0.598963 -0.044262577 0.14358903 0.9371291

transformer.embed.lin.bias f4 [72]
000000 b1 69 43 bf 92 2b ae 3e 10 bc 29 3d f8 77 68 be
       -0.7633315 0.34017617 0.041439116 -0.22702014
000010 4f c0 a8 be fa bb c1 bd 3c 4f 1f bf 28 de 15 bf
       -0.3295922 -0.09459682 -0.6223028 -0.5854211
000020 5a 01 04 3e 2e ac 87 be 98 3e a3 3e c2 66 03 3f
       0.1289114 -0.2649855 0.31883693 0.5132867
000030 3d df ad 3e 39 77 c2 3e f2 ab 00 3e 73 b7 10 3f
       0.3395938 0.37981585 0.12565592 0.5652992
000040 cf 0d 99 3d b1 e9 19 bf 97 a0 a0 3d be 40 d1 3e
       0.07473337 -0.6012221 0.0784313 0.40869707
000050 e8 b3 9f 3e d7 bd aa 3e 01 a5 05 3e ef 99 81 3e
       0.31191945 0.3334796 0.13051225 0.25312755
000060 ea 2f 10 bf 65 cc e9 be 03 49 34 3e d2 04 c5 3e
       -0.5632311 -0.45663753 0.17605977 0.3848024
000070 72 07 80 3e 0f 5b cb 3e df 94 5f 3e 28 04 5f bf
       0.2500568 0.3971791 0.21834134 -0.87115717
000080 8e 13 63 be 3d dc 11 3f 57 ca bd bd a7 5f a7 3d
       -0.22175428 0.5697668 -0.09267109 0.08172541
000090 15 fa f7 3b 85 b7 ea be 22 1f 57 be 37 7a b1 be
       0.007567654 -0.4584314 -0.2100797 -0.34663555
0000a0 be f4 94 bd c9 51 cd 3d f9 b5 9e 3d b6 c3 a2 3d
       -0.07273243 0.10025365 0.07749552 0.07947485
0000b0 b3 25 4a be 7a 75 d0 3d 0f 98 e7 3d d0 36 27 bf
       -0.19740944 0.10178657 0.113083 -0.6531801
0000c0 fd 69 07 3f 25 06 50 3e 75 b7 d2 be ec 54 1a 3f
       0.528961 0.20314844 -0.41155592 0.6028583
0000d0 3c 88 8b 3d 22 dc 0c 3f 01 f1 e4 3e 9e ce e4 3d
       0.06813094 0.55023396 0.4471512 0.111722216
0000e0 30 f3 5f 3d c5 d0 91 bd fd ad ae 3e b6 67 e1 3e
       0.05467528 -0.07119898 0.34117118 0.44024438
0000f0 0b e0 b3 3d d8 0e 18 bd f4 bd 2d be 58 0c 97 be
       0.08782967 -0.03712353 -0.16966993 -0.29501605
000100 42 ae ea 3e 5b 43 a4 3d 4f dd 58 3e c4 0b 21 3f
       0.45836073 0.080206595 0.21178173 0.6290858
000110 19 8c 8f 3e 4b 35 a9 be 4a 18 11 3e 86 3a 8e be
       0.28036574 -0.33048472 0.14169422 -0.27779025

transformer.embed.pos_embed.weight f4 [120, 72]
000000 fa 62 2d bf cb ae bd bf f5 65 1e bf fe c4 88 3d
       -0.6772915 -1.4818968 -0.61874324 0.06678198
000010 6d b7 ef 3d 18 1e 6a 3e 3e 5c 59 3f cb e3 b2 3f
       0.117049076 0.22863042 0.84906375 1.3975767
000020 25 61 d0 bf 52 73 eb bf f4 ae af be 48 fb 14 40
       -1.6279646 -1.8394568 -0.34313166 2.327837
000030 5e 61 2f 3f ef 56 11 3f 0c dd 1b bf 10 b9 c6 bf
       0.68507946 0.56773275 -0.60884166 -1.5525227
000040 80 ef 32 bf 46 30 81 be 81 c0 28 bf 10 dc 58 3f
       -0.698967 -0.25232142 -0.6591874 0.8471079
000050 1b 48 8b 3f 8b fd 11 be d3 41 2e c0 72 eb 32 3f
       1.088138 -0.14256875 -2.7227676 0.6989051
000060 b9 9f 32 bf 4c 18 98 3f 76 90 97 be 41 28 f4 3d
       -0.6977497 1.1882415 -0.29602402 0.1192174
000070 4b bc d5 be e4 3c 2e c0 56 ab e0 3d 55 41 87 3f
       -0.4174522 -2.7224665 0.1097018 1.0566813
000080 27 f4 d8 3d 47 d8 52 3f 53 83 2b 3f a6 72 0a 3e
       0.10593443 0.82361263 0.6699726 0.13520297
000090 6f 97 a7 3f 47 ee a1 3f ec 41 5e 3e 17 38 c9 3f
       1.3093089 1.2650841 0.21704835 1.5720242
0000a0 95 59 a0 3f e3 b8 88 3f d9 ee 7f be a1 bf 1d bf
       1.2527338 1.0681423 -0.24993457 -0.6162053
0000b0 5b 81 19 3f 38 46 d1 bd 30 b7 0c be de 4a 90 be
       0.59963006 -0.10218471 -0.13741755 -0.2818212
0000c0 fa a7 6f 3f d3 f6 cd 3e ad df f7 3f fa 84 42 be
       0.93615687 0.40227374 1.9365135 -0.18996039
0000d0 f9 ed c3 3e fd ac 13 be 0a 2b 20 3f e2 7d e0 3e
       0.38267496 -0.14421459 0.6256567 0.4384604
0000e0 3a 55 d0 3e 8a 10 4f bf 48 ca 2a bf 35 95 94 3d
       0.40690023 -0.8088461 -0.66714907 0.072550215
0000f0 e4 3f 15 c0 22 89 ac 3f a6 89 74 be 71 2e 9a 3e
       -2.3320246 1.347935 -0.23880634 0.30113557
000100 e2 e4 49 bf cb 29 cc 3e d0 be 73 3f e8 ac 29 3f
       -0.7886487 0.39875636 0.9521303 0.6627946
000110 9c be 08 bf 89 42 0e be 54 04 31 3e a6 b5 98 3f
       -0.53415847 -0.13892569 0.17286807 1.1930435
000120 1f 8a 0f bf 44 85 97 3f 70 76 50 bf f8 09 a5 3e
       -0.5607013 1.1837544 -0.8143072 0.32234168
000130 2c 23 33 3f 9e fb dc 3e 1f df 2c bd 7f 41 cf 3f
       0.69975543 0.4316072 -0.042204972 1.6191863
000140 f5 17 46 be 1c 64 be bf 15 f4 a4 3f 09 17 91 3f
       -0.19345076 -1.4874301 1.2886988 1.1335155
000150 c1 74 e5 3e 0b 8c f3 bf 27 f2 93 3f 1c a1 f0 bf
       0.4481564 -1.9027113 1.1558274 -1.8799167
000160 24 ce 55 3f 9b a6 d5 3e b6 48 7c 3f 7e 55 89 3f
       0.8351767 0.41728672 0.9854845 1.0729215
000170 74 b6 89 bd 6f e8 b1 bf 81 b0 d3 3f 46 bd e9 3f
       -0.06724253 -1.3899058 1.653824 1.8260887
000180 3c 1c 84 3f 9a 62 c8 3f 4e 73 f4 bf 1c 1a 26 3f
       1.0321116 1.5655091 -1.9097688 0.6488359
000190 fe a7 31 bf db 6d 1f c0 85 a7 cd 3f 99 5f 05 40
       -0.6939696 -2.49108 1.6066748 2.0839598
0001a0 a6 31 4a be 8a fe 92 bd 4c 36 36 bf 73 90 17 bf
       -0.19745502 -0.07177456 -0.711766 -0.59204787
0001b0 a0 9c 92 3b 04 8d 8c 3e f7 fd 4c 3f e9 6a 05 40
       0.0044742376 0.27451336 0.8007502 2.0846503
0001c0 5a ef 65 3f 2b 47 44 3f 31 2f 4c bf 21 1c 6f be
       0.89818347 0.76671094 -0.7975951 -0.23350574
0001d0 11 61 ca 3f ae 31 0e 3f ba 09 5f bf f4 f0 be 3f
       1.5810872 0.55544555 -0.87124217 1.4917283
0001e0 ef 6d 9c 3e 7c 78 0a 40 6a 57 60 bf 82 b0 10 bf
       0.30552623 2.1636038 -0.87633383 -0.5651933
0001f0 a7 66 6a 3e 3d 60 9a 3f df 6e 15 bf 16 84 1f 3f
       0.22890721 1.206062 -0.583723 0.6231092
000200 c0 de 05 bd c0 1a 10 3f fa 2b 8c 3f 80 47 82 3f
       -0.032683134 0.5629082 1.095092 1.017807
000210 57 00 86 bf 6b 44 24 40 6a 45 df bf 0a 4c 6a bf
       -1.0468854 2.566676 -1.7443058 -0.91522276
000220 15 8c b1 3d ea 12 7e 3e 84 c9 3f 3e 44 a0 fe 3f
       0.08669297 0.24811903 0.18729216 1.9892659
000230 95 96 b7 3f 65 13 f1 be 23 fe db 3e f6 78 93 3f
       1.4342829 -0.4708511 0.42967328 1.1521289
000240 e5 0d a6 be 2a 3e c2 bf 9a fb c5 bf 32 d2 6b be
       -0.32432476 -1.5175221 -1.5467408 -0.23029402
000250 41 33 a2 3f 72 4a 86 3f 7e 12 76 3f 28 f4 e8 3f
       1.2671891 1.0491469 0.96121967 1.819951
000260 a5 63 49 bf ff bc fe bf c6 92 7a 3f 0f db 49 3f
       -0.7866767 -1.9901427 0.9788021 0.7884988
000270 7c 7c a0 3e c8 91 80 bf 22 a8 ee be 2e 85 d3 be
       0.31344974 -1.0044489 -0.4661265 -0.41312546
000280 b7 a5 2f bc 93 53 92 3f 7e d9 a2 bf 6d ef ef 3f
       -0.010720662 1.1431755 -1.2722623 1.8744942
000290 1e c7 0a 3e a4 b4 da 3d 98 a8 09 bd 71 5f 05 40
       0.1355252 0.10678986 -0.03360805 2.0839503
0002a0 bb 81 47 be 54 ef 5d 3f 06 af 4a 3f ab e7 3c 3e
       -0.19483082 0.8669331 0.79173315 0.1844775
0002b0 f7 63 37 be 2f 76 cb bf 87 44 70 bf fb 49 a6 be
       -0.17909227 -1.5895442 -0.93854564 -0.32478318
0002c0 5b e3 01 c0 44 31 af be bd c6 1a bf fc 81 2b 3f
       -2.0295017 -0.34217274 -0.604595 0.66995215
0002d0 4e 53 49 3f c7 1a e6 3e b1 8e 0b 3f 9e c8 c3 3f
       0.7864274 0.44942304 0.54514605 1.5295599
0002e0 c1 5c 93 3f 92 bf 0a 40 08 03 7f bf 65 ed 9d be
       1.1512681 2.1679425 -0.99614 -0.3084518
0002f0 d1 95 2b bf bb 33 0e 3f 1b 1b 04 3e 92 72 41 3f
       -0.67025477 0.55547684 0.12900965 0.75565445
000300 76 97 8c 3f 38 37 a9 3f ac e2 84 bf 42 5c e9 be
       1.0983722 1.3219976 -1.0381675 -0.455782
000310 1a 50 11 40 b9 27 b9 bf 0a 0d fa be 6e 0c 20 3d
       2.270514 -1.4465247 -0.48838073 0.039074354
000320 54 42 75 3f 76 16 87 be ef 93 3f be 54 78 16 3f
       0.95804334 -0.26384324 -0.18708776 0.58777356
000330 ee e3 9f bd 75 1a 7f 3f a1 6a 3b bf f6 8a c2 bf
       -0.07807146 0.99649745 -0.7320958 -1.5198658
000340 b4 50 ac bd 9b 30 2d bd b5 9b 3f 3f 6f b4 05 3f
       -0.084138304 -0.042282682 0.74846965 0.52228445
000350 a9 4d a9 3d f0 b9 a1 bf 3e 48 d0 b9 88 3e 1f 3f
       0.082667656 -1.2634869 -0.00039726676 0.6220479
000360 44 74 fa be 26 1b f8 bb 2a ce d7 3c a4 6b 07 bf
       -0.4891683 -0.0075715957 0.026343424 -0.5289862
000370 1b 27 c4 3e b7 a2 b7 be 2f 70 40 3d 39 f3 28 3f
       0.38311085 -0.3586633 0.046981987 0.6599613
000380 01 56 a0 bf c0 5e 8d bf c4 32 ea 3f 9b c1 08 bf
       -1.2526246 -1.104454 1.8296742 -0.5342042
000390 34 9f e6 be 44 68 90 bf e0 a5 a8 3e 8c 2a aa bf
       -0.45043337 -1.1281819 0.32939053 -1.3294234
0003a0 42 b5 c7 be 8d 26 42 3f 1f 5b d9 3f a8 f5 bf 3f
       -0.39005476 0.75840074 1.6980933 1.4996843
0003b0 44 dc 09 40 29 b9 e7 bf 88 39 93 be 2f 95 ea 3f
       2.154069 -1.8103381 -0.2875483 1.8326777
0003c0 e9 53 7c bf f2 c1 8c be 40 55 2b bf 8c 37 98 3e
       -0.98565537 -0.2749172 -0.66926956 0.2972988
0003d0 49 8b be 3e 30 95 c7 bf 7f 05 8c bc 91 2f 9c 3f
       0.3721564 -1.5592403 -0.017092464 1.2202016
0003e0 a7 b8 5c 3f a6 a2 f7 3d 8b 68 3f bf 43 c3 d0 be
       0.8621926 0.120915696 -0.74768895 -0.40773973
0003f0 bf 71 49 be f9 53 b2 3f 43 5d 3e 3f 38 0b 6f 3f
       -0.19672297 1.3931876 0.74361056 0.93376493

transformer.embed.norm.gamma f4 [72]
000000 96 a6 23 3f 99 f3 cc 3e f2 92 25 3f 27 13 01 3e
       0.63926065 0.400296 0.64677346 0.12604962
000010 d5 78 38 3f f6 22 bb 3e 23 9c 27 3f 94 cd 1f 3f
       0.72059375 0.3655011 0.6547262 0.6242306
000020 e1 8b 06 3f b9 04 34 3f e1 31 65 3e f0 cd a4 3e
       0.5255719 0.70319706 0.22382309 0.32188368
000030 36 ac 1c 3f c7 5c 82 3e 64 ab 19 3f b2 2a 14 3f
       0.61200273 0.25461408 0.60027146 0.5787765
000040 ec ea bd 3e a2 a7 67 3f bc 97 94 3e 2e 3d 21 3f
       0.37093294 0.9049016 0.29022014 0.6298398
000050 ad 1d 72 3e 5a 69 e3 3e b4 d5 0e 3e cb 39 8d 3e
       0.23644133 0.44416314 0.13948709 0.27583155
000060 c7 68 2a 3f f3 13 c0 3e dc 08 26 3f 50 53 50 3e
       0.6656613 0.3751522 0.6485727 0.20344281
000070 99 04 4e 3e 10 06 05 3f dc 74 a1 3e fe e3 40 3f
       0.20118941 0.51962376 0.3153447 0.7534789
000080 34 bd 81 3e 89 91 e3 3e 0a bb a7 3e 34 8d f6 3e
       0.25339663 0.44446972 0.32759887 0.48154604
000090 77 12 d9 3e 59 0c a2 3e cf 34 bc 3e a8 e1 ae 3e
       0.423969 0.31650046 0.3675904 0.34156537
0000a0 12 86 02 3f 8e 22 64 3e 40 b3 fa 3e a3 6d b7 3e
       0.50985825 0.22278807 0.48964882 0.35825834
0000b0 e1 47 44 3e 40 d5 ab 3e 94 2e 08 3f 50 45 f7 3e
       0.19168045 0.33561134 0.5319607 0.4829507
0000c0 59 63 06 3f d4 8b 1e 3f 06 72 f0 3e 7a ee 4e 3f
       0.5249534 0.6193211 0.46961993 0.80832636
0000d0 34 0d 5e 3e 5f a5 47 3f 30 de 04 3f 5c e5 86 3e
       0.21684724 0.7798671 0.5190153 0.26346862
0000e0 be a5 a0 3e 30 da 9b 3e f8 06 f4 3e b1 39 76 3e
       0.3137645 0.304399 0.47661567 0.24045445
0000f0 80 13 02 3f 9a 33 6e 3e 33 80 7c 3e a4 fa 03 3f
       0.50811005 0.23261872 0.24658279 0.5155432
000100 eb 53 01 3f d2 cd af 3e 9a 61 16 3f 42 70 df 3e
       0.50518674 0.34336716 0.5874268 0.43640333
000110 5a 56 04 3f 3f 6c 10 3f b3 2d c4 3e ca c2 03 3f
       0.5169426 0.5641517 0.38316116 0.514691

transformer.embed.norm.beta f4 [72]
000000 e4 d4 4c 3e c6 a2 6b 3c f4 88 fa 3d 43 ea 8a 3c
       0.20003086 0.01438207 0.12233153 0.016957408
000010 60 04 68 3e 66 0c 48 3c a1 2c 7d 3e 34 0c 2c 3e
       0.22657919 0.012209987 0.24724056 0.1680153
000020 f3 fd 9a 3b 6c 61 62 bd 42 d6 b0 bc 6b 04 10 bd
       0.00472998 -0.05526869 -0.021586541 -0.035160463
000030 00 80 77 bd 03 f2 10 bd c4 58 cf 3d 22 61 04 be
       -0.060424805 -0.03538705 0.101243526 -0.12927678
000040 62 74 3d bc ef 8d d7 3d a3 38 2b bc 20 d0 e9 bd
       -0.011563392 0.105251186 -0.010450515 -0.1141665
000050 27 77 ed 3d 4b 34 06 bd 46 f9 16 bc 1f dc 8e bd
       0.11594992 -0.032764714 -0.009214705 -0.069755785
000060 92 fc 60 3e 88 40 45 3d a7 2a 88 3d 36 30 25 bb
       0.21971348 0.048157245 0.0664876 -0.0025205738
000070 cc 7e 48 bd 24 ee 78 bd 8f 6c ac bc 61 b0 9f 3e
       -0.048949048 -0.060773984 -0.021047859 0.31189254
000080 0b d4 e6 bc 17 15 33 bd 38 9f e6 bc 7b a8 88 bc
       -0.028177282 -0.043721285 -0.028152093 -0.0166819
000090 da 1a 47 bd 00 95 49 3c 8a 0b 4d 3c 7a 59 b4 3d
       -0.048609592 0.012303591 0.012514958 0.08806129
0000a0 c0 2d 28 bc 3e 53 10 3c 71 e5 fa bc 19 5a 7f 3d
       -0.010264814 0.008808909 -0.030626984 0.062341783
0000b0 33 6f 84 bc b2 8e 74 3d 2f 30 07 bd ef f4 4b 3e
       -0.016166305 0.059706397 -0.033004936 0.19917654
0000c0 f3 70 c8 bd 46 a1 7a bd ca 3e 07 3e 2d 29 cd be
       -0.09787168 -0.06118896 0.13207546 -0.40070477
0000d0 cc c2 80 3c 40 28 69 be 69 87 3b bd e1 ef 4b 3b
       0.015717886 -0.2276926 -0.045783434 0.003111832
0000e0 f1 43 e2 3c 00 04 50 3d 91 fb bc bc f5 62 38 3c
       0.027620288 0.050785065 -0.023069175 0.011254062
0000f0 4f 47 45 3d 17 d2 23 ba ce c3 2a 3d c2 e8 31 3d
       0.04816371 -0.00062492624 0.04169064 0.043434866
000100 15 67 72 3c 24 8a b2 bc 62 c8 c4 3d dd df 09 be
       0.0147950845 -0.021794386 0.096085325 -0.13464303
000110 8a 4a a5 bd 9a 8f ae 3d 77 99 2f 3d 99 e5 53 3d
       -0.08070858 0.085234836 0.042870965 0.051732633

transformer.attn.proj_q.weight f4 [72, 72]
000000 65 24 b4 bd 28 d0 41 3e 2f e2 03 be 12 16 2b 3d
       -0.08796004 0.18927062 -0.12879251 0.041769095
000010 8a 74 e9 3c 55 fc a0 bd 13 a9 09 3e db 3d a4 3d
       0.028497953 -0.078606285 0.13443403 0.080196105
000020 3c 5a ea bd f4 0d 66 be 46 77 e2 3d 7c 93 83 be
       -0.11442992 -0.2246626 0.11057906 -0.2569846
000030 36 ed 89 3d 65 17 f9 be ac 11 b3 bb db 42 2d be
       0.067346975 -0.4865066 -0.005464753 -0.16920035
000040 2c f2 3c be 05 b0 f5 3d 0d 9e 03 bf 73 be 1b 3e
       -0.18451756 0.11996464 -0.5141304 0.1520937
000050 87 21 17 3e 5c 8c 03 bf 99 47 01 3f c7 4a cd 3e
       0.14758883 -0.51386046 0.50499874 0.40096113
000060 58 2b 24 bd 86 4c 96 3c e5 f6 da bd cf 93 53 3e
       -0.0400804 0.018347036 -0.10691623 0.20661853
000070 bc b1 43 3e 78 88 f8 3e 1a 73 cb bb ca be 9c 3d
       0.19110769 0.48541617 -0.0062087895 0.076535776
000080 1c dc f5 3e 82 b0 ac bd 9e 7f 3d 3e 65 04 60 bd
       0.48019493 -0.08432104 0.18505713 -0.05469169
000090 be e2 88 be 0c 2f 8c bd 81 03 cd bd 84 1a 21 be
       -0.2673549 -0.06844911 -0.10010434 -0.15732771
0000a0 b5 e6 fb bd 6e d9 5c 3e d6 46 21 bf 38 5d 81 3e
       -0.12299863 0.21567318 -0.6299871 0.25266433
0000b0 9b 60 25 3e 12 53 a0 3e 52 7d 9b 3e 6f a6 ef be
       0.16150133 0.31313378 0.3036905 -0.46806666
0000c0 6a 9d a8 be 94 cc 8b be 72 28 e5 3d 06 3a fc 3e
       -0.32932597 -0.27304518 0.11189355 0.49263018
0000d0 f5 41 40 3e e7 04 3e be ee eb c3 3d fb 34 07 3e
       0.1877516 -0.18556558 0.095664844 0.13203804
0000e0 1f 9f 80 3e 59 4f ac be da 33 1f be 1d 65 e1 3d
       0.251214 -0.33654287 -0.15547124 0.11005614
0000f0 aa b5 21 bd bc 11 cc bd 2e 03 92 3d 2c 83 a2 3c
       -0.03947989 -0.0996432 0.07129513 0.019837938
000100 5d f1 48 3e 72 bc 2b bf 8c 61 6f be da 9f 22 3e
       0.19623323 -0.6708442 -0.23377055 0.15881291
000110 5a ed d6 3d e0 ae 8a 3c 4c 63 ef 3e 88 fc 5d bd
       0.1049449 0.01692909 0.46755445 -0.05419591
000120 92 2b 0e 3e 44 af 86 3e d1 f4 2e be fd 08 be 3e
       0.13883808 0.26305592 -0.17085578 0.37116233
000130 ff 07 df bd 49 1e db 3e 0f 57 17 be a7 66 8a 3e
       -0.10890197 0.42796543 -0.14779304 0.27031443
000140 b9 f3 cb bd 0f 85 f8 3d f2 14 83 bc c4 fc 6b be
       -0.09958596 0.12134754 -0.016001198 -0.23045641
000150 b3 38 2d bd 65 05 9e be 58 d7 ce be 05 4b 62 3d
       -0.0422904 -0.3086349 -0.4039867 0.055247325
000160 aa e3 4d be 87 dd f7 bd 61 83 85 be b5 7f 3f bd
       -0.20106378 -0.121028 -0.26076797 -0.04675265
000170 19 42 e2 bd 2f 5c 55 3e f0 3c 56 be f6 6d 4e be
       -0.110477634 0.20835947 -0.20921683 -0.20159134
000180 63 68 ec 3e 9e 7b 3d 3d 48 6b 15 3f 56 b9 3a bd
       0.4617339 0.04626047 0.58366823 -0.045586906
000190 a5 ed 59 3e f3 c2 17 3e da f3 b7 be 7d fa 77 be
       0.2128206 0.14820461 -0.3592823 -0.24216647
0001a0 c2 a3 06 3e 53 9e 66 3e 19 2c c8 be 1c dd 88 be
       0.13148406 0.22521333 -0.39096144 -0.26731193
0001b0 36 0c b1 be 9a 84 bd 3d b3 10 65 3c 70 1b 0c bf
       -0.3457963 0.09253807 0.013981032 -0.54729366
0001c0 b9 29 09 bd 05 75 2e be 32 55 e0 3e fb 1b e9 3d
       -0.033487055 -0.17036827 0.43815 0.1138229
0001d0 7d 21 fa 3d c7 85 93 be 6f 9e d7 3e d6 9e 59 3e
       0.12213419 -0.28813002 0.42113063 0.21251997
0001e0 fb 3b bf be 76 f3 e2 be fe b6 3e 3d b6 92 59 bc
       -0.3735045 -0.4432637 0.046561234 -0.0132796075
0001f0 a8 a0 8e 3e f3 67 5a 3e fa f8 af bd 5b 03 07 3e
       0.27856946 0.21328716 -0.085924104 0.13184874
000200 d7 01 39 3c 83 09 8b bd 51 f6 cc 3e 2e f5 b3 be
       0.011291943 -0.067889236 0.40031675 -0.35147995
000210 2e 9c 5a 3e 49 7b 5f be 79 45 83 3d 23 b9 95 be
       0.2134864 -0.21824373 0.06409735 -0.2924281
000220 1e a2 b0 3d 6b 10 07 3d 25 04 90 be f2 fc 23 3f
       0.086246714 0.03297464 -0.28128162 0.6405784
000230 01 83 b0 3d b1 62 e0 3e d4 c9 fe 3d c1 e0 62 be
       0.08618737 0.43825296 0.124408394 -0.2215605
000240 76 3f b3 3e fb 9e 81 be e9 61 0d bf bf 5e 35 be
       0.35009354 -0.25316605 -0.55227524 -0.17711924
000250 b3 01 26 3e 4d df a3 3d 48 c2 26 bd 64 2a 97 3e
       0.16211586 0.080015756 -0.040712625 0.2952453
000260 60 99 5d 3e 08 b9 f5 be 70 fd a9 3e c3 1d 71 3e
       0.21640539 -0.4799273 0.3320117 0.2354651
000270 68 58 42 bf 77 59 a8 3e 6f 33 ac bd 1d 91 98 3b
       -0.7591615 0.32880756 -0.08408248 0.0046559707
000280 5e 7c 2f 3e 22 3f f7 bd 02 18 6f 3e 9e 96 64 3e
       0.17137286 -0.120725885 0.23349002 0.22323081
000290 d2 7b 5e 3e 72 f5 ec 3d 1b 8a 09 3d ad f5 40 be
       0.21726921 0.115702525 0.033578973 -0.18843718
0002a0 75 4c 63 3e 46 c4 f3 3d 94 6a d0 be 8f be 9f 3e
       0.22197135 0.119026706 -0.40706313 0.31200072
0002b0 f1 44 92 3e 3c d9 7f bc 9e bf 16 bf 1a 64 9d ba
       0.28568223 -0.015615758 -0.58886135 -0.0012007982
0002c0 12 17 63 be 70 56 23 be 6b 94 ae 3d c0 7d 96 be
       -0.2217677 -0.15950942 0.08524402 -0.29392815
0002d0 e8 28 1b bf 93 2b 27 be fe a7 27 3e 66 2e 96 be
       -0.60609293 -0.16325216 0.16372678 -0.29332274
0002e0 bd 67 18 3f 01 3d 47 be 07 f7 52 be 38 5e f9 bd
       0.5953329 -0.19456865 -0.20602046 -0.12176174
0002f0 16 e2 88 be 65 e7 66 3e c8 aa fb 3c 91 66 98 be
       -0.2673499 0.22549208 0.030721083 -0.29765752
000300 4f d7 5c 3e 16 5e ab bd f8 5e 77 3d 07 63 8b be
       0.21566509 -0.08367555 0.060393304 -0.2722399
000310 da 38 cb 3a 5d 5b af bd ce a1 40 3e ef 59 8e be
       0.0015504614 -0.08562348 0.18811724 -0.2780299
000320 52 24 96 be 98 27 e2 be 98 f7 c3 be 97 df ec 3c
       -0.29324585 -0.44170833 -0.38274837 0.02891521
000330 48 7e 95 3d c3 c8 d6 3d 7b 60 f7 3d f3 36 bf 3e
       0.07299477 0.10487511 0.12078949 0.3734661
000340 d8 93 e0 bc 53 0a 44 3d ef a3 b4 3d 4d 84 e9 bc
       -0.027414247 0.04786141 0.0882033 -0.028505469
000350 fc 10 69 3f 8b 4c 96 3d 5e ff cd bd 32 67 13 be
       0.9104154 0.07338818 -0.10058473 -0.14394835
000360 9b 1d b0 be 66 07 14 be 5f 30 9b bb e9 fc e2 3d
       -0.34397587 -0.14455947 -0.004735991 0.11083395
000370 71 73 35 3e 26 d0 23 be 46 6c 17 3e b4 21 2c 3e
       0.17719819 -0.15997371 0.14787397 0.16809732
000380 85 91 91 bd fe 42 9b 3d 95 11 b5 3e 67 3f 08 3e
       -0.07107834 0.07581137 0.35364977 0.13305436
000390 30 bb b3 be 07 9a 9d be c0 c9 df 3e bf ab 00 be
       -0.3510375 -0.30781576 0.4370861 -0.12565516
0003a0 94 bb 41 be 47 da cd bd 03 53 08 be c8 d3 eb 3e
       -0.18919212 -0.10051399 -0.13312916 0.46060014
0003b0 a9 7a fb bd 8e 65 e4 bd 7c e4 41 be 27 0e b4 3e
       -0.12279255 -0.111521825 -0.18934816 0.35167047
0003c0 92 5b 1c bf f0 0b 92 3e f3 39 ff 3d d2 b0 0f bf
       -0.61077225 0.28524733 0.12462225 -0.5612918
0003d0 64 76 b6 3c fa 6b 37 bf 27 32 18 bf 3c 9d 8a 3e
       0.02227325 -0.71649134 -0.59451526 0.27073085
0003e0 74 92 0c 3f e4 e1 4a bd df d9 29 be ca a8 9b bd
       0.5491097 -0.049531832 -0.16587017 -0.07600553
0003f0 33 4d 52 3d 70 de a5 3e 03 c6 69 3d d9 c4 ea bc
       0.051343154 0.3239627 0.057073604 -0.028658317

transformer.attn.proj_q.bias f4 [72]
000000 6e ef 6b be e2 57 86 bd a3 db ad 3d 1c d4 b7 3d
       -0.23040554 -0.06559731 0.08489158 0.089760035
000010 78 d6 6b be 7a 80 49 3e 47 d2 32 3e bc 78 20 3e
       -0.23031032 0.19677916 0.17463027 0.15671057
000020 39 68 07 bf cb b3 0a 3e 33 82 07 be 3b 26 ba be
       -0.52893406 0.13545148 -0.13233261 -0.36357293
000030 5a 96 0e bc b6 f9 3a be 6c 2c 84 3d de 58 7e bd
       -0.008702839 -0.1825932 0.06453785 -0.06209647
000040 bc ac 83 3c ae e7 83 3d f7 b8 bf bd d5 c0 34 3e
       0.016073577 0.06440674 -0.09361451 0.17651685
000050 4e 6f d1 3d 9e b3 11 be e8 9c 1c 3e 34 54 a4 be
       0.10226308 -0.14228675 0.1529423 -0.32095492
000060 b8 77 ae 3e 3c c9 db 3c 94 96 e5 3e 3e 11 d9 3a
       0.34075713 0.026829354 0.44841444 0.0016560925
000070 33 b6 33 be 8a e2 91 3d f5 b2 e5 bc d1 8d 90 be
       -0.17549972 0.07123287 -0.028039435 -0.28233197
000080 9e cc 8d be 1c 4b f8 be 24 74 31 be 25 9b 6c bd
       -0.27695173 -0.48494804 -0.1732946 -0.057765145
000090 8b fb 27 3e 65 ce f0 3e d9 12 77 be e9 ec 84 3e
       0.1640455 0.47032467 -0.24128284 0.25961998
0000a0 62 3b 12 3e 42 c9 8e bd 79 3f e0 be d0 e8 31 bd
       0.14280465 -0.06971981 -0.43798426 -0.043434918
0000b0 cb fd fb be f6 d7 2c bf d0 e9 17 3d 25 d5 9e bc
       -0.49217066 -0.6751703 0.037088215 -0.019388745
0000c0 3b 0f 4d be 95 f1 5e be 79 31 1c 3e af 43 a2 bc
       -0.20025341 -0.21771844 0.15253247 -0.019807665
0000d0 62 df 3b 3f 8f 20 2b bb 93 a7 e1 3c 49 ef 46 be
       0.7338773 -0.0026111936 0.027545726 -0.19427218
0000e0 c2 12 a9 3d 0a 45 37 bc fc 4c 1e 3e d9 bb 5b be
       0.08255531 -0.011185894 0.15459055 -0.21458377
0000f0 91 ef ba 3e b9 4b 9e bd 43 70 66 3e 76 cc 9d 3d
       0.365109 -0.07729287 0.22503762 0.077050135
000100 e1 06 27 be 86 c4 a2 be 0e ac ad be 09 1a b5 3d
       -0.16311218 -0.3179056 -0.3392033 0.088428564
000110 85 f9 9b bd 8f 7c 91 3d ef 63 47 be 2d 7d 98 be
       -0.076159514 0.07103836 -0.19471715 -0.29783002

transformer.attn.proj_k.weight f4 [72, 72]
000000 31 90 56 3e 4b 60 a7 3e 8a 9c b7 bd c8 f0 1d 3e
       0.20953442 0.32690653 -0.08965404 0.15423882
000010 3f 08 16 3e fb 97 9c be 35 84 4b 3e 6b ac d4 3d
       0.14651583 -0.30584702 0.19874652 0.103844486
000020 9f ad 71 bc ba 5d 9d 3d cb 42 e6 3d 3b 4c e6 3e
       -0.014750867 0.076838925 0.112432085 0.44980034
000030 f5 29 ed bd c4 2e 27 3e 3e ae 08 be d0 ce dd bc
       -0.11580268 0.16326433 -0.13347718 -0.027076155
000040 44 4f b5 3d 87 20 4a be 03 11 64 3e 6c 6d 1c 3e
       0.08853009 -0.1973897 0.22272114 0.15276116
000050 22 3d 15 be 7a a3 05 bf d8 fa c0 3e ea 10 58 3e
       -0.14574102 -0.5220257 0.3769138 0.21100202
000060 46 a6 2a be 8d 19 f3 be 89 57 38 be 91 30 60 bd
       -0.16664991 -0.4748043 -0.18002142 -0.054733817
000070 cb 7b aa be 15 49 0c 3f 78 44 0c 3e 26 d9 88 3c
       -0.33297572 0.54799014 0.13697994 0.016705107
000080 b6 c2 80 be f1 3d 81 3e 42 0b 8b be 5e 13 07 be
       -0.25148553 0.2524257 -0.27157027 -0.13190982
000090 39 72 f2 ba 7e e1 2d be cc 57 6e bf 56 c7 a1 3e
       -0.0018497176 -0.1698055 -0.9310272 0.31597394
0000a0 0d bb 97 bd e7 ed 12 be 18 ce 83 be 46 fa 2a be
       -0.07408724 -0.14348565 -0.25743175 -0.16697034
0000b0 36 ed 8a 3e 47 d8 6f 3e fe 5c dd 3d 99 10 db be
       0.27134103 0.23422347 0.108087525 -0.427861
0000c0 01 8e 03 3f 34 fb 08 3e d5 fe da bd b1 50 09 3e
       0.51388556 0.13377076 -0.106931366 0.13409688
0000d0 b7 42 62 be a7 54 0b 3d 90 ef ef be b3 29 64 3e
       -0.22095762 0.034016278 -0.4686246 0.22281532
0000e0 a3 1e a7 3d a8 c7 97 3c 4d 97 15 bf ed a0 01 3f
       0.0816014 0.01852782 -0.5843399 0.5063618
0000f0 4c 51 a2 3e 3d a1 ea be 08 6b b3 bc 33 2f ee b9
       0.3170265 -0.4582614 -0.021901622 -0.00045430064
000100 03 3a 7a be 19 b8 5c be 12 91 74 3e 55 49 ef 3e
       -0.24436192 -0.21554603 0.23883465 0.46735635
000110 4d 40 46 be 8a 6a fb be f8 b1 36 3e 91 8a 22 3e
       -0.19360466 -0.4910472 0.17841327 0.15873171
000120 fc ae 0e be 32 5b f7 3e 39 8a 56 be 9a 3d f3 bd
       -0.13933939 0.48311764 -0.20951165 -0.11876984
000130 a2 b5 9c be 8c d8 5a 3e c8 9b 83 be 5c 7e af bd
       -0.30607325 0.21371669 -0.2570479 -0.08569023
000140 1f fc 7f 3d b0 6e 2a 3f 86 6e 0a 3f ed f9 72 be
       0.0624963 0.66575146 0.54074895 -0.23728152
000150 18 0b c7 be 58 bb 85 be 4b ea b6 be 0b ce cd bc
       -0.3887565 -0.26119494 -0.35725626 -0.025122663
000160 f3 e7 c8 3c 83 2c 9f bd e4 f8 f9 bc 87 24 f4 be
       0.024524665 -0.07772162 -0.030514188 -0.47684118
000170 a3 51 2d bd 28 41 d6 bd e3 a6 5e be 56 62 3a bf
       -0.042314183 -0.10461646 -0.2174335 -0.728063
000180 7c 0c d4 3d 12 d5 d8 3d 42 22 be 3d 97 4c 1c 3d
       0.10353944 0.10587515 0.09283878 0.03815898
000190 c5 0c d9 3e 55 2b c9 3d 6a 8f 0c bf 8c 32 59 be
       0.42392555 0.09822718 -0.5490633 -0.21210688
0001a0 5a c9 87 be e7 cf de be f8 bd 09 bd b9 08 67 3d
       -0.26520807 -0.43517992 -0.033628434 0.056404803
0001b0 2e 50 3c be 1a 94 83 3e 5f c2 3e 3e 88 07 07 3d
       -0.18389961 0.2569893 0.18628834 0.032966167
0001c0 b4 5f ce 3e e6 9b c1 bd 37 67 0c 3f 3a ad 02 be
       0.4030739 -0.094535634 0.54844993 -0.12761393
0001d0 ea 33 2c bf 3a c1 4f bb 23 98 f9 3e 18 cb 1e 3e
       -0.67266715 -0.0031700865 0.48748884 0.15507162
0001e0 0b 40 76 bd 0e 4e ae 3c ba f1 9f 3d e9 c9 4f be
       -0.06011967 0.021277454 0.078097776 -0.20291866
0001f0 30 31 26 3e f1 ff 16 bd b4 d7 31 bd 0d 2f 8b 3e
       0.16229701 -0.03686518 -0.0434186 0.27184334
000200 0d 19 16 3e 6d 3f e0 3e d2 43 80 3e da a4 f3 3e
       0.14657994 0.4379839 0.25051743 0.4758671
000210 91 16 01 3e 5a 07 1d 3f 07 fd 16 3e e5 12 a7 3e
       0.12606265 0.6133934 0.1474496 0.32631603
000220 49 53 26 be 76 6f a5 3e 9b 8e 28 3e 2c 58 17 be
       -0.16242708 0.323116 0.1646065 -0.14779729
000230 f7 2b c7 bd 3a 5d e2 be 03 6b 3d bb 95 80 0b 3d
       -0.097251825 -0.4421175 -0.0028902895 0.034058172
000240 db 55 87 3e 55 a0 85 3e b3 81 d2 bd 42 94 79 3d
       0.2643269 0.26098886 -0.102786444 0.060932405
000250 06 49 5f 3c e0 ac e6 3e 69 ac 28 3e e7 65 b9 bd
       0.01362825 0.45053768 0.1647202 -0.090526395
000260 4b ac b4 3d b0 87 6b be 95 5e c3 3d 58 ac 46 be
       0.08821925 -0.2300098 0.095395245 -0.19401681
000270 7e a0 95 be 6b 0a 51 3e a7 fd d3 3e f6 d9 ce be
       -0.29224008 0.2041413 0.4140446 -0.40400666
000280 8b d5 93 3e e5 8c 2b bd 7a de f4 be 26 62 35 be
       0.28873858 -0.041882414 -0.47825986 -0.17713222
000290 ae 96 4f 3e a7 65 f7 be 31 a9 0c 3e a2 ea 20 be
       0.20272323 -0.48319742 0.13736416 -0.15714505
0002a0 4f 93 0d bf 7d 8b 42 be 60 0c c3 be 4a 2b 90 be
       -0.553029 -0.18998523 -0.3809538 -0.28158027
0002b0 64 e2 9a bc 0e 5d 85 be e4 a5 d9 3d aa d2 21 3e
       -0.01890678 -0.26047558 0.10627344 0.15803018
0002c0 d5 01 51 be 93 94 a3 3e c9 fa 47 be f2 a9 8e be
       -0.20410855 0.3194929 -0.1952926 -0.27864033
0002d0 79 61 a1 be e2 84 06 bc 3e 43 c8 be 34 22 32 3e
       -0.31519678 -0.008210393 -0.39113802 0.1739586
0002e0 bb 71 c7 3d 5c 63 56 3e 6d 0f af bd f5 86 b2 3e
       0.09738489 0.2093634 -0.08547864 0.3486859
0002f0 67 ed 64 3e ff 1a 9a 3e 18 93 a7 be 3c 03 c0 be
       0.22356187 0.3009872 -0.3272941 -0.37502468
000300 ea 33 ff 3a 54 c7 4e bd f3 b5 53 bd c3 b5 d2 3e
       0.0019470428 -0.050483063 -0.051687192 0.41154298
000310 18 c6 b7 bd 40 36 ac 3c 6f b3 fb 3c 02 ac ce 3e
       -0.0897333 0.021021962 0.030725209 0.40365607
000320 df 66 7d bd 5b e8 92 3e 87 82 af 3e a1 a1 68 be
       -0.061865684 0.28692898 0.34279272 -0.22717907
000330 61 11 f0 3e c8 43 4b 3f 4e e6 2e bf 57 35 87 be
       0.4688826 0.794003 -0.6832017 -0.26407883
000340 ac e7 63 3e 8e 4e 1a be 6f 9f 33 3e e4 ef 4d 3e
       0.22256345 -0.15069029 0.17541288 0.20111042
000350 9f 6f 96 3d 7d 8a 2f 3e d1 79 68 3d 34 ba 1e 3e
       0.07345509 0.17142673 0.0567568 0.15500718
000360 8e 96 c1 bd 62 df 05 3b 70 5c 8a be 0d ed fa bd
       -0.09452544 0.0020427336 -0.2702365 -0.12252245
000370 01 3e a4 3e 6d c5 85 3e a9 76 eb 3e 8a bd ac 3d
       0.32078555 0.26127186 0.45988968 0.08434589
000380 63 c3 92 be 70 95 9f 3d ca 1d 27 3f db 1e b7 bd
       -0.28664693 0.07792175 0.6527983 -0.08941432
000390 47 9c 03 bf 01 b3 5c be 8b 6c 85 3e 5f 12 81 bd
       -0.51410335 -0.2155266 0.26059374 -0.06302332
0003a0 d8 2f fc bc 42 27 66 3e cd 04 aa be 4c 39 9d 3e
       -0.030784532 0.22475913 -0.33206788 0.30707777
0003b0 36 6c c0 3b 64 58 55 3d f1 27 e1 3e 54 b8 f3 3e
       0.0058722747 0.05208625 0.43975785 0.4760157
0003c0 55 b3 02 be 12 f0 5f 3e 24 1d 39 be f5 a1 5e 3e
       -0.12763722 0.21868923 -0.18077523 0.21741469
0003d0 cf a3 3f 3e 78 94 b2 bd 97 0f b1 be 42 a4 8e 3e
       0.18714832 -0.087197244 -0.34582207 0.27859694
0003e0 76 b8 37 3f 70 20 08 bf 46 5d 50 3e 1b 97 13 3e
       0.7176584 -0.53174496 0.20348081 0.14413111
0003f0 e0 e7 92 3c d2 e6 c0 3e 9a 2c 74 be a7 ab c3 be
       0.017932832 0.37676102 -0.23845139 -0.38216898

transformer.attn.proj_k.bias f4 [72]
000000 47 37 39 bd 5d a0 2f bd 46 80 82 3d 52 fc 90 3d
       -0.045218732 -0.042877544 0.063721225 0.07079376
000010 dd c6 d4 bc e2 1f 3d 3d a6 58 07 bd 8d 22 3a 3d
       -0.025973732 0.046172984 -0.033043526 0.045443106
000020 c1 87 48 3d 5a a6 91 3d d0 8e 18 bd 16 ce e2 3c
       0.04895759 0.07111807 -0.03724557 0.02768616
000030 95 ff 95 3c 7a 10 8d 3d 2b 25 da 3c 68 36 8e bb
       0.018310348 0.06887908 0.026629051 -0.004339982
000040 71 ea 80 3d 91 32 ed 3d 5e 2c 6e bd 80 82 1e 3d
       0.06294716 0.115819104 -0.05814778 0.038698673
000050 ae 9e 46 3d 6d f7 89 bb 15 7c 16 bd 7e 49 b2 bd
       0.048491172 -0.0042104037 -0.036739428 -0.08705424
000060 a6 e7 42 bd bc fc c5 bd 60 00 ce bd 10 12 c7 bd
       -0.0475842 -0.09667346 -0.10058665 -0.09720242
000070 46 39 b9 3d 8c a8 71 3d 9a 2f d6 3d 36 0a 00 3b
       0.09044127 0.05899863 0.10458298 0.0019537336
000080 1f 4f 2a 3c 92 2b 87 3d ae bc a1 bd dc 56 d1 bc
       0.0103948405 0.06600107 -0.07897316 -0.025554113
000090 4e 03 82 3d ef 8e d4 3d ba 57 b1 3d c1 46 43 3d
       0.063482866 0.10378825 0.08659311 0.047674898
0000a0 5b ef fe 3b e3 c0 ea bc 57 85 98 3d 9d b4 38 3d
       0.0077799982 -0.028656429 0.074473076 0.04509412
0000b0 61 06 68 3d a9 99 43 bb 4f 25 7e 3c 4c 9f 12 be
       0.05664671 -0.0029846227 0.015511825 -0.1431858
0000c0 4d ce b8 bc dd 76 b6 3d 1a 10 9f 3b 56 62 d1 3d
       -0.02255931 0.0890939 0.0048542144 0.10223834
0000d0 9a ad e2 bd c4 5c 3b bd 68 43 c8 bd b8 6f 9b 3d
       -0.11068268 -0.045742765 -0.09778482 0.07589668
0000e0 56 3a c0 bd ee 20 cd bc 29 40 9a 3d a1 99 01 bd
       -0.09386127 -0.025040116 0.07531769 -0.031640653
0000f0 08 3c a2 3c 82 53 a8 bd 4d a5 50 3c 8c 42 3e bd
       0.019804016 -0.08219053 0.012734723 -0.046450183
000100 ff 1e 7f bd 76 78 ac bb dd 2d af 3d c7 71 a7 3d
       -0.06228542 -0.0052633835 0.085536696 0.08175998
000110 d9 21 90 bd d1 4a b3 3d 5a 81 c2 3d c7 33 01 bd
       -0.07037706 0.087545045 0.09497328 -0.03154352

transformer.attn.proj_v.weight f4 [72, 72]
000000 65 72 f0 be 52 1b 25 3f 4c af 30 3e b4 d6 0a 3d
       -0.46962276 0.6449481 0.1725437 0.033896163
000010 d1 d2 ce bd 04 f6 83 be 26 59 01 3e 19 a0 27 3e
       -0.10098804 -0.25773633 0.12631664 0.16369666
000020 4e f1 ad 3d 12 a4 8a be 45 71 04 3f 48 e8 ca 3e
       0.08493291 -0.270783 0.51735336 0.39630342
000030 ce 35 b5 bd 54 5d bd bd 71 22 f5 3d 78 c9 8a 3e
       -0.08848153 -0.092463166 0.1196946 0.27106833
000040 29 17 cc be bf df 08 3e 05 0a e2 be 5f ca 48 be
       -0.3986142 0.13366602 -0.4414827 -0.19608448
000050 ae 67 d7 be 17 c6 a4 be 77 b7 a1 3e 4b ce 91 be
       -0.4207129 -0.3218238 0.31585285 -0.28477702
000060 b0 f2 bf bd d1 94 43 bf c4 f8 d9 3e 6c 5c d6 3c
       -0.09372461 -0.7639895 0.42572606 0.026167117
000070 62 29 71 3f 5a fb 18 be 44 dd ea 3d 97 51 9f be
       0.9420377 -0.14939633 0.11467984 -0.31116936
000080 cb de 14 bf bd 3f 87 3e f5 53 fa be 3a d5 f1 be
       -0.58152455 0.26415816 -0.4889218 -0.4723299
000090 b1 64 62 3e ad 94 79 3e bc b5 95 be 78 b7 47 3f
       0.22108723 0.24373122 -0.29240215 0.78014326
0000a0 fa f8 ad be 35 93 dd 3d fa 12 28 3f aa 5c c6 be
       -0.33979017 0.10819093 0.65653956 -0.38742572
0000b0 df 1d 8b be 85 41 09 3f 34 28 07 3f f1 50 42 bf
       -0.27171227 0.536156 0.5279572 -0.75904757
0000c0 09 6f b9 bd 89 c5 bb 3e 08 1e 41 be 22 8e d7 bd
       -0.090543814 0.36674145 -0.18859112 -0.105251566
0000d0 d8 5d b0 be b1 2a d9 3e 74 ca f1 be f5 f5 5d 3d
       -0.34446597 0.42415383 -0.47224772 0.05418964
0000e0 73 54 6c 3f 29 45 e0 3e 5c 69 25 be 4f d8 ec be
       0.9231636 0.43802765 -0.16153473 -0.4625878
0000f0 0c 20 04 be e6 39 7b 3c 76 c7 64 3f 3b 35 24 3f
       -0.1290285 0.015333628 0.89366853 0.64143723
000100 60 1d 9a 3c a4 ce 65 3e 0f 61 0b 3f 23 24 0d bf
       0.018812835 0.22442108 0.54444975 -0.55133265
000110 fa dc 68 be 5f 5f f5 be 2c 8f 9e bc dd 5c e0 be
       -0.22740546 -0.47924325 -0.019355379 -0.4382085
000120 e2 c6 3c be 45 aa f0 be c2 ef f2 bc 18 dc a7 3e
       -0.18435243 -0.47004905 -0.029655341 0.32785106
000130 41 67 b8 3d af 05 79 3e 16 38 01 3f 56 8c ac bd
       0.09004069 0.24318574 0.50476205 -0.084252045
000140 dc aa 4b 3e d3 f9 6a bf a4 ef 19 bf 35 46 78 3e
       0.19889396 -0.9178745 -0.6013129 0.24245532
000150 45 57 c7 bd f4 ba ff 3e 2b b7 87 3e ea eb dd 3e
       -0.09733442 0.4994732 0.26506934 0.4334405
000160 76 3a f8 bd a6 9e 85 3e 3a ab bd be 30 fd 5b be
       -0.121205255 0.26097602 -0.37044698 -0.21483302
000170 32 2d 48 bf fd 78 73 3e 2d 5e 97 bc e6 aa 28 bf
       -0.7819396 0.23776622 -0.018477524 -0.6588577
000180 15 76 a8 3e b3 9a b9 3c 4b dd 30 3f ef 56 5b bb
       0.3290259 0.022656774 0.69087666 -0.0033468565
000190 f8 72 10 3d 59 8f 21 3f c1 29 05 be 99 8d 3f be
       0.035265893 0.63109356 -0.13004209 -0.18706359
0001a0 7f af ad be 3c 87 75 3f f2 a5 c1 3c c5 ef d6 3c
       -0.33922955 0.95909476 0.0236387 0.026237378
0001b0 37 c2 4a be 76 0e 93 bd 61 a7 08 bd 2b 6e ad 3e
       -0.1980065 -0.071804926 -0.03336275 0.33873114
0001c0 82 b1 7d bd c9 7e d4 3e c8 23 a3 be 45 04 cc be
       -0.061936863 0.4150298 -0.31863236 -0.39847007
0001d0 9c 5d 8e 3e 25 cb 12 3e 45 e9 9d 3e 27 23 8a bd
       0.27805793 0.14335306 0.30842033 -0.06744986
0001e0 4b 26 05 3e f0 cc bc 3d bb d1 0c 3e de b3 f3 be
       0.13002889 0.09218776 0.13751881 -0.47598165
0001f0 df 02 39 bd 29 83 d0 bd 39 86 1b 3f d2 20 81 be
       -0.045168754 -0.10181267 0.6075168 -0.25220352
000200 9b d3 3b bf 46 2a 1d be fe 1c 03 be 2a 07 1c bd
       -0.7336976 -0.15348157 -0.12804028 -0.03809277
000210 6e b3 1a 3e 07 81 8e 3e c4 97 e6 3e b9 2f 70 be
       0.1510751 0.27832815 0.45037663 -0.23455705
000220 43 5a 8e 3c 47 a8 1b 3f a2 77 ed 3e 48 07 58 3e
       0.017377025 0.60803646 0.46380335 0.21096528
000230 1e 76 c1 be 65 a4 8c be df 43 ae 3e 3c 29 88 bf
       -0.3778543 -0.27469173 0.34036157 -1.0637584
000240 07 b9 e0 be 31 04 86 bd 43 82 12 3e 13 bb aa 3e
       -0.43891165 -0.06543768 0.14307503 0.3334585
000250 8f a4 a4 3e 56 40 46 bf 08 b8 c9 bd 28 62 01 be
       0.32156798 -0.7744192 -0.09849554 -0.126351
000260 f9 b3 14 be c5 d2 73 3e 6f 85 07 be d3 dd cd bb
       -0.14521779 0.23810871 -0.13234495 -0.006282547
000270 32 91 d1 3e 36 d8 5d 3e 7f fa 0e 3e 69 0d ae bd
       0.40931088 0.21664509 0.13962744 -0.084986515
000280 71 d7 1b be 27 6c 22 be ae 93 a5 be 6a 41 9e 3e
       -0.15218903 -0.1586157 -0.32339233 0.30909282
000290 c7 5e 3a bf ca 2e a0 3e 69 eb 3a bd c3 d9 99 3e
       -0.7280087 0.31285697 -0.04563466 0.30048952
0002a0 9f f5 90 be a1 89 3d 3f a6 f9 76 3e 31 09 7c bc
       -0.28312394 0.7403813 0.24118671 -0.015383051
0002b0 99 26 85 3f ca 41 a8 3e 52 4b 01 bf df 6c 57 3f
       1.0402404 0.32862693 -0.50505555 0.841505
0002c0 29 e0 56 3e 62 f1 db 3e 8e e0 bb bc a1 b6 c3 3e
       0.20983948 0.42957598 -0.022934224 0.38225272
0002d0 a0 c6 2c bf 0e 77 8e 3d 45 3c 00 3f 62 94 e4 be
       -0.6749058 0.06956302 0.50091964 -0.44644457
0002e0 72 11 8b 3e 4f cb 5e 3e 61 8a 7e 3d 9a 37 17 3f
       0.27161747 0.21757244 0.062143687 0.59069216
0002f0 29 bc df 3e 0b fe 87 be f6 33 10 bf c1 da 0d 3f
       0.43698242 -0.26561007 -0.56329286 0.55411917
000300 12 80 13 be ca 36 66 be 95 6c f7 3d cd 3d 64 3e
       -0.14404324 -0.22481838 0.12081257 0.222892
000310 e5 e9 13 bf e3 44 b4 be f9 5c c5 3e ca 43 f7 3e
       -0.5777877 -0.35208806 0.38547495 0.48293906
000320 13 79 13 3e 36 90 cc 3e 01 3d 93 3c 87 15 e1 be
       0.14401655 0.39953774 0.017973425 -0.43961737
000330 5f 2c 0f bd d4 60 94 bd 2c 7c 3e be 4b 07 00 bf
       -0.034954425 -0.07245031 -0.18602055 -0.5001113
000340 b3 7e 70 bd ad fb c4 bd cc 87 cf 3e fc 9c 28 be
       -0.05871458 -0.09618316 0.40533292 -0.16466135
000350 a3 e5 03 3e 30 ce 82 3e 7f b4 f0 be a1 ff 10 3e
       0.12880568 0.25547934 -0.47012708 0.14160015
000360 e3 2e 29 3c e2 1a 9c 3f 47 4b 8a be 5f 80 62 bf
       0.01032612 1.2195704 -0.27010557 -0.8847713
000370 9b 83 55 3e 80 7a e1 3d 56 34 06 3d e9 4d 01 3f
       0.20850985 0.11009693 0.032764755 0.50509506
000380 10 27 08 bf 17 3b 6c 3e 08 30 5b be a0 a1 e1 3c
       -0.53184605 0.23069416 -0.21405041 0.02754289
000390 f1 9b be be b6 58 bb 3e 4b c3 41 bf dd a7 bf 3e
       -0.3722835 0.3659112 -0.7568862 0.37432757
0003a0 9c 12 c8 3e 19 c6 98 3d a4 5f 99 3e 02 04 b1 be
       0.39076698 0.07459659 0.2995578 -0.3457337
0003b0 05 ef b8 3e d9 6d 6b bc 69 7c 0b bf ea 63 e4 3e
       0.36119857 -0.014369451 -0.5448671 0.44607478
0003c0 1d 6e 8b be 94 19 cb 3e c8 06 12 bf 0e ec 7b 3c
       -0.27232447 0.39667952 -0.570416 0.015376104
0003d0 01 de ad 3e b6 7c 00 bd ea 39 77 3e 06 26 a5 3d
       0.33958438 -0.031368934 0.24143186 0.08063893
0003e0 63 70 4f be fa 28 13 be 01 a0 ef 3d 2f 94 c6 be
       -0.20257716 -0.143711 0.1170044 -0.3878493
0003f0 87 88 84 be 9d 8e b1 3e dc 71 09 be 42 88 28 be
       -0.25885412 0.34679118 -0.1342234 -0.16458228

transformer.attn.proj_v.bias f4 [72]
000000 b9 56 0b 3e 18 92 d0 3d e8 f7 26 3d 23 ce 9a bc
       0.13607301 0.10184115 0.040763766 -0.018897122
000010 f2 7b ee bd 10 fe 35 bd 48 91 d6 3d a7 0b c5 3d
       -0.116447344 -0.044431746 0.10476929 0.09621363
000020 4a 2c 5a bd 4a 2d 3c 3e f5 5b e4 3c f1 d4 b7 bc
       -0.053264894 0.18376651 0.02787588 -0.022440406
000030 dd 1b ca bd bc cd 6d 3e 56 f1 fd bd ad ea 91 3e
       -0.09868596 0.23223013 -0.12399547 0.28499356
000040 16 bc c1 bc ac 35 3a be ef 2f 47 3c 02 b1 93 3d
       -0.023649257 -0.18184537 0.012157424 0.07211496
000050 c9 bc 15 be 33 e3 a0 3e c6 fe 05 be 73 46 90 3d
       -0.14622797 0.3142334 -0.1308547 0.07044687
000060 69 11 0f be 96 f4 6e be 56 39 a1 be 7b 9c 55 bd
       -0.13971485 -0.2333549 -0.31489056 -0.052151185
000070 b0 55 bb be 20 22 b1 bd cf 1c 70 3d 23 4e 13 3c
       -0.36588812 -0.08649087 0.058621224 0.008990797
000080 b3 9c 9e bd 04 70 6e be 32 69 db 3d 1a a3 da 3d
       -0.07744732 -0.23284918 0.10713424 0.106756404
000090 65 a1 f0 3c 4d f5 7c 3d 0e 65 23 3e 34 7d 30 bd
       0.029373834 0.061757375 0.15956518 -0.043088153
0000a0 cc ea 79 bd 61 0d 9d bd 31 a8 f9 3d c5 34 26 3e
       -0.061014935 -0.076685674 0.12190283 0.16231067
0000b0 9b c2 ed 3d b8 a1 86 3d 6a 2d 32 3d 4c 51 93 3c
       0.11609384 0.06573814 0.04350034 0.017983101
0000c0 0a ca 3f 3d 35 c2 65 3b 48 f6 92 3d e9 1f 6e bd
       0.04682354 0.0035058383 0.07175881 -0.0581359
0000d0 79 ba cb 3c c0 c0 03 be e4 92 bd bc d0 d7 eb bd
       0.02486919 -0.12866497 -0.023141332 -0.11515772
0000e0 84 f0 19 bd 77 1d 5c bd 97 6e 13 3e 80 56 e8 bd
       -0.03758289 -0.053739037 0.14397655 -0.113446236
0000f0 a6 0a 83 bd 2b 76 48 bd c8 fe 71 bd 5e bc e2 bd
       -0.063985154 -0.04894082 -0.05908087 -0.110710844
000100 f8 d5 2d bc 7d e4 1d bb 44 f2 95 bd 2a 42 92 3d
       -0.010610096 -0.0024092488 -0.07321599 0.07141526
000110 bf 93 46 3e ba 0d 02 3c d7 57 85 bd b9 2c f8 bc
       0.19392298 0.007937843 -0.06510895 -0.030294763
