Src/extractor/limu_bert_hhar.pt (torch, 259100 bytes, 29 tensors)

transformer.embed.lin.weight f4 [72, 6]
0	0xbeabd2a7	-0.33559152
1	0xbd824d15	-0.063623585
2	0x3e33a3ec	0.17543
3	0xbd2e9405	-0.04262163
4	0xbe0b367e	-0.13595006
5	0xbd323116	-0.043503843
6	0xbd4d88f1	-0.050179426
7	0xbf121c50	-0.5707445
8	0xbefa0e07	-0.48838827
9	0xbe52cb90	-0.20585465
10	0x3dbeff5f	0.09326052
11	0x3e3ef1c9	0.18646921
12	0xbe915e17	-0.28392097
13	0x3fc07a21	1.5037271
14	0x3dcaef45	0.09908918
15	0x3e534932	0.2063339
16	0xbea98200	-0.33106995
17	0x3e853944	0.26020253
18	0xbe089164	-0.13336712
19	0x3f408fcb	0.7521941
20	0x3fa81e21	1.3134195
21	0xbe0c36f4	-0.13692838
22	0xbde00129	-0.10937721
23	0x3e1f181d	0.15536542
24	0xbed25f40	-0.41088295
25	0xbf0585e2	-0.52157414
26	0x3f7c85ae	0.9864148
27	0x3f0c2d37	0.5475649
28	0x3dc0d517	0.09415644
29	0x3e533d3f	0.20628832
30	0xbf4f910c	-0.810807
31	0x3d8b328a	0.06796749
32	0xbe76bfc7	-0.24096595
33	0x3ccb5d99	0.024824904
34	0xbe0caf10	-0.13738656
35	0xbdf31408	-0.11869055
36	0xbed260cd	-0.41089478
37	0x3f68a406	0.9087528
38	0xbf60ae9d	-0.8776644
39	0x3ea6aa36	0.32551736
40	0x3dd2e1a8	0.10296947
41	0x3d88763f	0.06663179
42	0x3f55dbbd	0.8353842
43	0x3dbee1b0	0.0932039
44	0xbf4f58ff	-0.8099517
45	0xbd0fa037	-0.035064902
46	0xbd2d004d	-0.042236615
47	0xbdf23a10	-0.11827481
48	0xbf166ce1	-0.58759886
49	0x3d635261	0.055498485
50	0x3e388020	0.18017626
51	0x3eb66ce5	0.35629955
52	0x3e2eaf89	0.17059149
53	0xbe1f53a6	-0.15559253
54	0x3f84e767	1.0383118
55	0x3ec3813f	0.38184544
56	0x3d9d69a5	0.07686166
57	0xbcee13b4	-0.02906213
58	0xbe4f3f56	-0.20239004
59	0xbc84afb8	-0.01619707
60	0x3f3b620b	0.73196477
61	0x3e222abb	0.15836613
62	0x3e8ae4f8	0.27127814
63	0x3dbe916d	0.093050815
64	0x3d814cc7	0.06313472
65	0x3e38f574	0.18062383
66	0xbf1aa525	-0.6040824
67	0xc002b674	-2.042386
68	0xbff42d90	-1.9076405
69	0x3d584408	0.052799255
70	0xbc5fb1a4	-0.013653193
71	0xbc545183	-0.012958887
72	0x3ec3a729	0.3821347
73	0x3e6e25e8	0.23256648
74	0xbc0b999f	-0.008520513
75	0x3e65c5c5	0.22438724
76	0xbc85b717	-0.016322656
77	0xbaa9039a	-0.001289475
78	0x3dc0f2c5	0.094213046
79	0x3f4c74e1	0.79865843
80	0xbe46ec52	-0.19426087
81	0xbe618ee6	-0.22027168
82	0x3d612324	0.054965153
83	0xbe40a6f0	-0.18813682
84	0x3ef1dce8	0.4723885
85	0x3f9bf9aa	1.2185566
86	0x3cd0aed7	0.025473995
87	0x3f2352e8	0.6379838
88	0xbde41108	-0.11136061
89	0xbdd87171	-0.10568512
90	0xbf2041eb	-0.6260058
91	0xbff46b11	-1.9095174
92	0x3eedf0fb	0.46472916
93	0xbea832fb	-0.32851395
94	0xbc6e0725	-0.014528071
95	0x3daedc41	0.08538104
96	0x3e3b2b80	0.18278313
97	0x3ee34edf	0.4439611
98	0xbf1ff614	-0.6248486
99	0xbe5cf764	-0.21578747
100	0x3df753e6	0.12076549
101	0xbe2a2295	-0.16614754
102	0x3eb75cd9	0.35813025
103	0xbee73368	-0.45156407
104	0xbf4708a4	-0.7774756
105	0x3e8f7ad3	0.28023395
106	0xbd45525d	-0.04817425
107	0xbd69dc44	-0.057094827
108	0xbcf96fea	-0.030448873
109	0x3e4d51e8	0.20050776
110	0x3e11f74b	0.14254491
111	0xbf44623d	-0.767124
112	0x3e919caa	0.28439838
113	0xbebb6f41	-0.36608317
114	0xbcc1f1bd	-0.02367484
115	0xbeec2089	-0.46118572
116	0x3f475cbe	0.7787589
117	0xbdf94f0c	-0.1217328
118	0xbde88568	-0.1135357
119	0xbd62640c	-0.055271193
120	0x3f1b91e5	0.6076949
121	0x3ef15098	0.471318
122	0xbf09577e	-0.5364913
123	0xbde7ec6a	-0.11324389
124	0x3df3cdea	0.11904509
125	0x3c97de55	0.018538633
126	0x3f259e31	0.64694506
127	0xbe8b6fe3	-0.272338
128	0x3ddaaeb6	0.10677855
129	0x3e1612e7	0.14655648
130	0x3e35e307	0.17762385
131	0xbec0fc27	-0.37692377
132	0xbe54f47c	-0.20796388
133	0xbf5273af	-0.8220777
134	0x3f515949	0.81776863
135	0xbe9d8928	-0.30768704
136	0xbdddfb8d	-0.10838995
137	0xbd8ec9b7	-0.06972068
138	0xbf5cff6d	-0.8632725
139	0xbe2135a9	-0.15743126
140	0xbe9aea8d	-0.30257073
141	0xbeb144bc	-0.34622753
142	0x3d36649d	0.044529546
143	0x3d21e77d	0.039527405
144	0x3e2c1a2d	0.1680686
145	0x3f6923a2	0.91069996
146	0xbf4f434a	-0.8096205
147	0x3e5fe0a3	0.21863036
148	0xbdfd69b6	-0.123736784
149	0xbd87a6a1	-0.06623579
150	0xbec061cc	-0.37574613
151	0x3ecaaec0	0.3958645
152	0x3e7f89cd	0.2495491
153	0xbdcf04f9	-0.1010837
154	0xbcd15b95	-0.025556365
155	0x3db7fa5c	0.08983299
156	0xbed7123a	-0.42006093
157	0x3f656920	0.89613533
158	0x3f3f46e1	0.7471753
159	0x3d6ad67a	0.057333447
160	0x3b43735f	0.0029823405
161	0x3e528f61	0.20562507
162	0xbe9dee8b	-0.30846056
163	0xbfcf1d06	-1.6180732
164	0x3eecfaf1	0.46285203
165	0xbefa18d0	-0.48847055
166	0xbda6b702	-0.08140375
167	0xbdfd25a5	-0.12360696
168	0x3bac0907	0.0052500996
169	0x3d0361d9	0.032075737
170	0x3e9c5014	0.30529845
171	0x3cac02c5	0.020997414
172	0xbdb2ffc1	-0.087401874
173	0xbdc0cbfe	-0.094139084
174	0xbecc009a	-0.3984421
175	0xbeecada5	-0.4622623
176	0x3f268ce9	0.6505876
177	0xbc693a67	-0.014235116
178	0x3c9f2bd0	0.019430071
179	0x3df828ae	0.12117134
180	0x3eb93e36	0.36180276
181	0x3e460d49	0.19341005
182	0x3ef8ade4	0.48570168
183	0xbddf566c	-0.109051555
184	0x3e3b2934	0.18277436
185	0x3e416b49	0.18888582
186	0xbf4ba485	-0.7954791
187	0xbf661b47	-0.8988537
188	0x3fac937c	1.3482509
189	0x3d8f2e73	0.06991281
190	0xbf015786	-0.50524175
191	0x3e3e9abe	0.18613717
192	0xbf35e3c6	-0.7105068
193	0xbf68eadd	-0.9098337
194	0x3f020cde	0.50800884
195	0xbd96a687	-0.07355981
196	0x3c15afcc	0.0091361515
197	0xbdc41154	-0.095736176
198	0x3f1fe7ec	0.6246326
199	0x3f027f6b	0.50975674
200	0xbe223d22	-0.15843633
201	0x3ed62ef8	0.4183271
202	0x3df049aa	0.117328
203	0xbe542602	-0.20717624
204	0x3f212fae	0.6296338
205	0xbddac69a	-0.106824115
206	0x3eda18a6	0.4259693
207	0xbcb691e2	-0.02228636
208	0x3d1791fd	0.03700446
209	0x3e73f809	0.23825087
210	0x3e91dd7f	0.284893
211	0xbe0419c8	-0.1290046
212	0x3f58b371	0.84648806
213	0xbe00690a	-0.12540069
214	0xbf1581a6	-0.5840095
215	0xbda9f9b7	-0.082995825
216	0x3e1fe725	0.15615518
217	0x3d8dd608	0.06925589
218	0xbe9d6652	-0.30742127
219	0x3ec549af	0.3853278
220	0x3e62a121	0.22131778
221	0x3e540b08	0.20707333
222	0x3d98eff7	0.07467645
223	0xbe515458	-0.20442331
224	0xbe935fb0	-0.2878394
225	0xbd6686b2	-0.0562808
226	0x3c7de242	0.015495839
227	0x3d14ea97	0.036356535
228	0xbee65152	-0.44983917
229	0x3f301f74	0.68797994
230	0x3f969a4f	1.1765841
231	0xbe581bdc	-0.21104378
232	0xbcaa71e9	-0.02080627
233	0x3daa5fd8	0.08319062
234	0xbf09583a	-0.5365025
235	0xbe51e13f	-0.20496081
236	0xbe2a8748	-0.16653168
237	0x3ebeda54	0.37275946
238	0xbe1d1aac	-0.15342206
239	0x3e2b660c	0.16738147
240	0xbcedec62	-0.02904338
241	0x3f5966cc	0.8492248
242	0xbea6f24d	-0.32606736
243	0xbee1ee02	-0.44126898
244	0xbcbf4f26	-0.02335317
245	0xbd36d59f	-0.04463732
246	0xbf3b0a6c	-0.7306278
247	0x3fa4f9f1	1.2888776
248	0x3f06da7d	0.52677137
249	0x3b4c0313	0.0031129762
250	0xbe0151d8	-0.12628877
251	0xbe5a9d25	-0.21349008
252	0xbefbabfb	-0.49154648
253	0xbe4f8be0	-0.20268202
254	0x3eeca278	0.46217704
255	0x3ee60c63	0.44931325

transformer.embed.lin.bias f4 [72]
0	0xbe1787b2	-0.14797857
1	0x3e9cb63e	0.3060779
2	0x3e43a9ba	0.19107714
3	0xbec99df6	-0.39378327
4	0xbe8af7c4	-0.27142155
5	0x3d85e134	0.06537095
6	0xbe9dec82	-0.30844504
7	0xbe3adb04	-0.1824761
8	0xbd7faf86	-0.06242325
9	0x3b3cc7c4	0.0028805593
10	0x3ea9eca3	0.33188352
11	0x3f65d5ba	0.89779246
12	0x3e404173	0.18774967
13	0x3eb3863f	0.3506336
14	0x3eb7de19	0.35911635
15	0x3e363315	0.17792924
16	0x3ddb1aff	0.106985085
17	0xbe992680	-0.29912186
18	0x3d2ee10d	0.042695094
19	0xbe6094aa	-0.21931711
20	0x3eb5e5a7	0.35526773
21	0xbd11a721	-0.035559777
22	0x3db425fa	0.08796306
23	0x3e041898	0.12900007
24	0xbe25a5df	-0.16176556
25	0xbdd71c08	-0.105033934
26	0xbd2b5bf4	-0.04183574
27	0xbe02314d	-0.1271412
28	0xbda61acc	-0.0811058
29	0xbd9341d9	-0.07190294
30	0x3e33fe33	0.17577438
31	0xbf8fa3ed	-1.1221901
32	0xbece02ff	-0.4023666
33	0x3f210341	0.6289559
34	0xbeeb035c	-0.45901
35	0xbdb1b0f8	-0.08676332
36	0x3ecb0077	0.39648792
37	0xbeac976b	-0.33709273
38	0xbed5151d	-0.4161767
39	0xbe07dc10	-0.13267541
40	0x3e5b147e	0.21394536
41	0x3e2b06b0	0.1670177
42	0x3c4a6723	0.012353691
43	0x3c93ae51	0.018027456
44	0xbdf7a3f8	-0.120918214
45	0x3e945018	0.28967357
46	0x3e350247	0.1767665
47	0xbf0486cc	-0.51768184
48	0x3f1b1126	0.6057304
49	0xbdb7d02f	-0.08975255
50	0xbed11da2	-0.4084292
51	0x3de91055	0.11380068
52	0xbeb65c42	-0.35617262
53	0x3f0bf007	0.5466313
54	0x3bba1b7e	0.005679547
55	0xbdc5dbdb	-0.09661075
56	0xbd576c82	-0.052593715
57	0xbd069c68	-0.032864004
58	0x3f191d9e	0.5981082
59	0x3f0a60e7	0.5405411
60	0xbe3636b7	-0.1779431
61	0xbe987e2a	-0.29783756
62	0xbe050ca6	-0.12993106
63	0xbe6722aa	-0.22571817
64	0x3f06ddef	0.52682394
65	0xbea264a2	-0.31717402
66	0x3e6b2c3c	0.22966093
67	0x3f8309c3	1.0237354
68	0x3e3d8763	0.18508677
69	0xbe8c7e6c	-0.27440202
70	0x3e4dd918	0.20102346
71	0x3dcf0992	0.10109247

transformer.embed.pos_embed.weight f4 [120, 72]
0	0xbe961e0c	-0.293198
1	0xbff7831a	-1.9336884
2	0xbf50c526	-0.81550825
3	0x3dd755a6	0.10514383
4	0xbd461c73	-0.048366975
5	0x3f8e4c94	1.111712
6	0x3ec4487d	0.38336554
7	0x3fe262f8	1.7686453
8	0xbf766a64	-0.9625609
9	0xbf9c70ca	-1.222192
10	0xbf0f5769	-0.5599275
11	0x3f10b75d	0.5652979
12	0x3e15d7a4	0.14633042
13	0x3fb72a90	1.4309864
14	0xbf45ed69	-0.77315384
15	0xbf8f63bf	-1.1202315
16	0xbf93884c	-1.152597
17	0xbedfc96b	-0.43708357
18	0x3eabc466	0.33548278
19	0x404c9a35	3.196912
20	0x3fb3d0ff	1.4048156
21	0xbf930640	-1.1486282
22	0xbfa66158	-1.2998457
23	0x3f832263	1.0244869
24	0xbedc2bf9	-0.43002298
25	0x3fb99020	1.4497108
26	0xbe9096ce	-0.28240055
27	0x3e902406	0.28152484
28	0xbf5ac3d8	-0.85455084
29	0xbf98b273	-1.1929458
30	0x3f92be75	1.1464373
31	0x3f097751	0.5369769
32	0x3fc9d72c	1.576879
33	0x3f7cc662	0.9874021
34	0x3f746e3e	0.95480716
35	0x3dc3832b	0.09546503
36	0xbf2d3fb9	-0.6767536
37	0x401206fe	2.2816768
38	0xbd2e891e	-0.042611234
39	0xbf7c594f	-0.98573774
40	0xbef4d7f9	-0.47821024
41	0x3ff74d70	1.9320507
42	0xbdc07c26	-0.093986794
43	0x3e9b3635	0.30314794
44	0x3f15b3e6	0.5847763
45	0x3ec12299	0.37721708
46	0xbf296e5a	-0.6618401
47	0x3f3352dd	0.70048314
48	0x3f822e18	1.0170317
49	0x3f515477	0.8176951
50	0x3f3df2ff	0.7419891
51	0x3e991176	0.29896134
52	0xbdae4bd5	-0.085105576
53	0xbf90f3af	-1.1324366
54	0x3f8922b8	1.071372
55	0xbedcea84	-0.4314767
56	0x3f2998e2	0.66248906
57	0x3d20343d	0.03911232
58	0x3faf66d2	1.3703253
59	0xbf1a15f3	-0.6018974
60	0xbf89b854	-1.0759377
61	0xbf53fb0b	-0.82804936
62	0xbfb043ca	-1.3770688
63	0x3c86430f	0.016389398
64	0xbfd0801d	-1.6289097
65	0xbf3ee24a	-0.7456404
66	0x3ff9cda8	1.9515886
67	0x3f2ea662	0.6822263
68	0xbf9b5b6d	-1.2137276
69	0x3e2becb9	0.16789521
70	0xbf8be1d1	-1.0928289
71	0xbf1c38bd	-0.61024076
72	0xbfad4ecb	-1.3539671
73	0xbeafd6c9	-0.34343556
74	0xbe658c9e	-0.22416922
75	0xbf718eb0	-0.9435835
76	0xbfba39d7	-1.4548901
77	0x3fc59cac	1.5438437
78	0x3ea668aa	0.32501727
79	0x4035567c	2.8334036
80	0xbee754d0	-0.45181894
81	0xbf971d9f	-1.1805915
82	0x3ea137a3	0.3148776
83	0x3ed52236	0.41627663
84	0x3f05ec3f	0.5231361
85	0xbdb166f9	-0.086622186
86	0x3f8265c6	1.0187309
87	0xbef9f022	-0.4881602
88	0xbf65746d	-0.89630777
89	0x3f15d706	0.58531225
90	0x3f8604a3	1.0470165
91	0x3ffcefa1	1.9760629
92	0xbf009854	-0.50232434
93	0x3e86f73b	0.26360497
94	0x3fad0be8	1.3519258
95	0x3fafa3fd	1.372192
96	0x3f031f81	0.51219946
97	0x40031529	2.0481665
98	0xbdabc093	-0.0838634
99	0x3f0a63b8	0.5405841
100	0xbfa24504	-1.2677312
101	0xbf26bcda	-0.65131915
102	0x3f68dbac	0.9096019
103	0x3f66b840	0.90124893
104	0x40063361	2.096886
105	0x3fa90e32	1.3207457
106	0x3e6bb23d	0.23017211
107	0xbe42008e	-0.18945524
108	0xbfb7389d	-1.4314152
109	0xbe847fa0	-0.2587862
110	0x3d836a77	0.06416791
111	0x3f6804ac	0.9063213
112	0x3e951cd8	0.2912357
113	0x3f8afa4d	1.0857636
114	0xbfa71d92	-1.3055899
115	0xbf924176	-1.1426227
116	0xbcf92f92	-0.030418191
117	0x3ee8cdfc	0.45469654
118	0x3ed6b868	0.41937566
119	0x3fd1d89d	1.639423
120	0xbef00ad9	-0.46883276
121	0x40185cd7	2.3806665
122	0x3d8209ec	0.06349549
123	0xbf2287eb	-0.63488644
124	0x3f2e29d8	0.680326
125	0x4007260c	2.1116972
126	0xbf0f2c5b	-0.55927056
127	0x3daeb4c6	0.085305735
128	0x3f5db11f	0.8659839
129	0x3f94330b	1.1578077
130	0x3fbd3e1f	1.4784583
131	0xbe91a3f3	-0.28445396
132	0x3dc6a8eb	0.09700187
133	0x3f6da6c0	0.92832565
134	0xbf88c710	-1.0685749
135	0xbeb2d1a8	-0.3492558
136	0xbf5fd06a	-0.8742739
137	0xbf0a7d78	-0.540977
138	0xbfab924a	-1.3404019
139	0x3f11d259	0.5696159
140	0x3f61c035	0.8818391
141	0xbf5b6d4e	-0.8571366
142	0xbf312640	-0.6919899
143	0x3e364ea0	0.1780343
144	0x3f343af6	0.7040247
145	0xbf5c174f	-0.85973066
146	0xbfd0fab8	-1.6326513
147	0xbda3327d	-0.07968614
148	0x3f20321d	0.62576467
149	0x3fa64aff	1.2991637
150	0x3f2cda23	0.6752035
151	0x3fc5a3af	1.5440577
152	0xbfb9b0cf	-1.4507083
153	0xbfa91264	-1.3208737
154	0x3e42117a	0.1895198
155	0x3e853250	0.26014948
156	0xbfdc43eb	-1.7208227
157	0x3de85ffb	0.11346432
158	0xbe9c815d	-0.30567446
159	0x3ed056a5	0.40691105
160	0x3efabc7a	0.4897192
161	0x3f9a3a94	1.2049127
162	0xbfb09198	-1.3794432
163	0x3fec808e	1.8476732
164	0xbe58e34d	-0.21180458
165	0xbe13c75c	-0.14431518
166	0xbee8ffbc	-0.4550761
167	0x4020a599	2.5101073
168	0xbdf724ac	-0.120675415
169	0x3f3c6607	0.7359318
170	0x3f069595	0.52571994
171	0x3db5678e	0.08857642
172	0xbfd73b23	-1.6814922
173	0xbf022419	-0.5083633
174	0x3f63eafd	0.8903044
175	0xbf29ad26	-0.6627983
176	0xbf668cb4	-0.90058446
177	0x3fa9a42c	1.3253226
178	0x3e802320	0.25026798
179	0x3f138b12	0.5763408
180	0xbf13f6ca	-0.57798445
181	0x3f9f7e9e	1.2460515
182	0x3f5149c8	0.81753206
183	0xbdba2a02	-0.090900436
184	0xbda10b57	-0.07863491
185	0x3fa58338	1.293067
186	0xbfeae1ec	-1.8350196
187	0xbdbc2121	-0.09186006
188	0xbf8df917	-1.1091641
189	0x3f4746b0	0.77842236
190	0xbf4ff9b7	-0.8124041
191	0x3fbfd83a	1.4987862
192	0x3ea19304	0.31557477
193	0x3f4a7735	0.79088145
194	0x3eed55b8	0.4635446
195	0x3d53aa41	0.05167604
196	0x3faa226e	1.3291757
197	0xbfdc80f7	-1.7226857
198	0xbf62906f	-0.8850164
199	0x3e3f4ffd	0.18682857
200	0x3fb74ec7	1.4320916
201	0xbf462811	-0.77404886
202	0x3f9acc73	1.2093643
203	0xbef389f1	-0.47566178
204	0xbd8c8e67	-0.068630986
205	0x3daa3c92	0.08312334
206	0xbf886e8b	-1.0658735
207	0xbf95c785	-1.1701514
208	0xbf6df61d	-0.92953664
209	0x3ed4e352	0.41579682
210	0x3fbb33ae	1.4625146
211	0xbbdf4021	-0.0068130647
212	0x3ea72ec0	0.32652855
213	0x3ead0c22	0.3379832
214	0xbfa43781	-1.2829438
215	0xbea1d3c9	-0.31606892
216	0x3c609597	0.01370754
217	0x3da0b365	0.07846717
218	0xbea89c33	-0.3293167
219	0xbe0fad51	-0.14030959
220	0xbe974371	-0.2954364
221	0x3f428f08	0.759995
222	0x3f593138	0.84840727
223	0x3f454505	0.7705844
224	0xbf82fc85	-1.0233313
225	0xc0146bb8	-2.3190746
226	0xbe6eac6a	-0.23307958
227	0xbea8e91e	-0.32990354
228	0xbf69bb13	-0.9130108
229	0xbd20d284	-0.039263263
230	0x3d85a91d	0.065263964
231	0xbeaca335	-0.33718267
232	0x3e0c2f80	0.13689995
233	0x3fa89410	1.3170185
234	0x3e954794	0.29156172
235	0x3fabb3c5	1.3414236
236	0x3fadc521	1.3575784
237	0xbf9c8ff2	-1.2231429
238	0xbf96d390	-1.1783314
239	0x401855f7	2.3802469
240	0xbf1a70cc	-0.60328364
241	0xbeb64417	-0.35598823
242	0x3e84cedf	0.2593908
243	0x3e1208a2	0.14261106
244	0xc0262ecf	-2.596607
245	0xbee7c22d	-0.45265332
246	0xbf39afab	-0.72533673
247	0x3efeabd6	0.49740475
248	0x3f6494f4	0.89289784
249	0x3f720bf9	0.9454952
250	0xbecfc90c	-0.40583074
251	0x3f2dbb28	0.678637
252	0xc0064f7c	-2.0986013
253	0x3fbc7b2b	1.4725088
254	0x3ea75e84	0.32689297
255	0x3e4987ed	0.19680758

transformer.embed.norm.gamma f4 [72]
0	0x3e95754d	0.29191056
1	0x3ec35b7e	0.3815574
2	0x3f29c7d3	0.6632053
3	0x3eb179e7	0.34663317
4	0x3f381207	0.7190251
5	0x3f02b353	0.5105488
6	0x3f4f986b	0.81091946
7	0x3f3adbec	0.72991824
8	0x3efcbd33	0.49363098
9	0x3eb5a12c	0.35474527
10	0x3f077708	0.52916
11	0x3f6544fb	0.8955838
12	0x3ec93a68	0.39302373
13	0x3ef2f58e	0.47452968
14	0x3f39f359	0.72636944
15	0x3f3cb3a6	0.7371162
16	0x3ef1d781	0.4723473
17	0x3f49ad46	0.7878002
18	0x3f43c7e2	0.7647687
19	0x3e9ebbbd	0.31002608
20	0x3ed07169	0.40711525
21	0x3eee9d71	0.46604493
22	0x3f07f4fa	0.5310818
23	0x3ef12ba7	0.47103617
24	0x3f35108a	0.7072836
25	0x3e2ef005	0.17083748
26	0x3ef3f098	0.47644496
27	0x3ee7d04b	0.45276102
28	0x3e6ef3d7	0.23335205
29	0x3ec570b0	0.38562536
30	0x3f15de75	0.5854257
31	0x3f7241cf	0.94631666
32	0x3efc7278	0.49306083
33	0x3f386b69	0.72038895
34	0x3f3fcd19	0.7492233
35	0x3f1eeba3	0.62078303
36	0x3f0a4df5	0.54025203
37	0x3f2d47a5	0.67687446
38	0x3ef469cb	0.47736964
39	0x3ec13224	0.37733567
40	0x3ec48f59	0.38390616
41	0x3f458ba9	0.7716623
42	0x3f0d73ae	0.5525464
43	0x3f47b410	0.7800913
44	0x3eae4b3d	0.34041777
45	0x3f00daa6	0.5033363
46	0x3f17be9e	0.59275234
47	0x3f2c3f86	0.6728443
48	0x3f18ee17	0.59738296
49	0x3f2d1b03	0.6761934
50	0x3ee5315b	0.44764218
51	0x3f2597c1	0.64684683
52	0x3f0ff5fb	0.5623471
53	0x3f09a0d4	0.5376103
54	0x3eb5f0c0	0.3553524
55	0x3ec65830	0.38739157
56	0x3f340876	0.7032541
57	0x3eeebd7c	0.4662894
58	0x3f600ffa	0.8752438
59	0x3f2322c8	0.63724947
60	0x3e9c528f	0.30531737
61	0x3f06382d	0.5242947
62	0x3ef443a9	0.4770787
63	0x3f0ff97f	0.56240076
64	0x3f3b7444	0.7322428
65	0x3f24e31f	0.6440906
66	0x3ec0ad61	0.37632278
67	0x3f56828e	0.8379296
68	0x3eb7b6bd	0.35881606
69	0x3f250b79	0.6447063
70	0x3ec94cc9	0.39316395
71	0x3eaecc22	0.34140116

transformer.embed.norm.beta f4 [72]
0	0x3ceadc58	0.028669521
1	0x3d9f52f9	0.07779498
2	0xbd990562	-0.0747173
3	0x3cea840e	0.028627422
4	0xbdcb531d	-0.09927962
5	0x3c023c57	0.007948956
6	0x3ee058e4	0.43817818
7	0x3ee6580b	0.44989046
8	0x3d02c68d	0.031927634
9	0x3de83d1d	0.113397814
10	0xbcf9fc87	-0.030515922
11	0x3e151157	0.14557396
12	0xbc07aa68	-0.008280374
13	0xbc96d537	-0.018412216
14	0xbd6473ae	-0.055774383
15	0xbe3deb90	-0.18546891
16	0x3db393c0	0.087684155
17	0x3eeb0db5	0.45908895
18	0xbd1db644	-0.0385039
19	0x3aa1e07e	0.0012350229
20	0x3d5135e2	0.051076777
21	0x3de11b4a	0.10991533
22	0xbe357e44	-0.17723948
23	0x3b3c2827	0.0028710456
24	0x3ec437a7	0.3832371
25	0x3bcdb5af	0.006277762
26	0xbd572304	-0.052523628
27	0xbd4ce4fc	-0.050023064
28	0xbd56b9d7	-0.052423324
29	0xbd87079a	-0.06593247
30	0xbd7551ce	-0.05989247
31	0x3e11ada0	0.14226389
32	0x3d81f7fe	0.06346129
33	0xbe072a8f	-0.13199829
34	0x3e6455c3	0.2229834
35	0xbd82b363	-0.063818716
36	0xbd90a5f5	-0.07062904
37	0x3e98700b	0.29772982
38	0xbcbb4dcc	-0.022864245
39	0x3d83b8c5	0.06431726
40	0x3c2b534f	0.010456874
41	0xbe516d5d	-0.20451875
42	0xbd4fe2b8	-0.050753325
43	0xbdc96bc9	-0.098350115
44	0xbbbadbb9	-0.0057024625
45	0x3e3f6264	0.18689877
46	0x3d909b82	0.07060911
47	0x3e993deb	0.29930052
48	0xbcadf3f8	-0.021234497
49	0xbe8073c3	-0.2508832
50	0x3d7f7126	0.062363766
51	0xbe36e371	-0.178602
52	0x3cd0897f	0.025456188
53	0x3d54d8e9	0.051964674
54	0xbcc8125b	-0.024422815
55	0x3cb7ae97	0.022422118
56	0x3dc2dc3c	0.095146626
57	0x3e12b087	0.14325152
58	0xbef8724f	-0.4852471
59	0xbdb77f38	-0.08959812
60	0xbd5f7856	-0.05455812
61	0xbdeec5f3	-0.116588496
62	0x3d5a3ac6	0.053278707
63	0x3e83ebe3	0.25765905
64	0x3da032b2	0.07822169
65	0x3d5da09f	0.05410826
66	0x3d2cfea7	0.042235043
67	0x3dc92c40	0.09822893
68	0x3ce2dd98	0.027693555
69	0x3e1dc44e	0.15406916
70	0xbd641beb	-0.055690687
71	0x3da86f9f	0.08224415

transformer.attn.proj_q.weight f4 [72, 72]
0	0x3df9b2be	0.121922955
1	0x3e27410f	0.16333412
2	0x3ed300bd	0.412115
3	0x3dc9e094	0.09857288
4	0x3e927171	0.28602174
5	0xbe9f437f	-0.31106183
6	0xbf297b12	-0.66203415
7	0x3e8b04c8	0.27152085
8	0x3ccaf743	0.024776107
9	0x3e527bbe	0.20555016
10	0xbe1c747b	-0.15278809
11	0x3e39e9cb	0.18155591
12	0x3e8e3826	0.27777213
13	0xbf53f66c	-0.82797885
14	0xbdf4a13e	-0.11944817
15	0xbe3e26ba	-0.1856946
16	0xbe9597f9	-0.29217508
17	0x3debb4dd	0.11509106
18	0xbeb8ad8b	-0.36069903
19	0xbefc660a	-0.492966
20	0x3ec2a002	0.380127
21	0xbd66e561	-0.056371097
22	0x3d734136	0.059388362
23	0xbe62906f	-0.2212541
24	0x3ed1b68d	0.40959588
25	0x3eb2f77e	0.34954447
26	0x3e21a7c1	0.1578665
27	0x3e16dfea	0.14733854
28	0x3f25e8c3	0.6480829
29	0x3df251d9	0.118320175
30	0xbf32750f	-0.6970987
31	0x3ddcd028	0.1078189
32	0x3ce2c596	0.027682107
33	0xbf031170	-0.5119848
34	0x3e953439	0.29141405
35	0x3d7a0faf	0.061050113
36	0x3c423c12	0.011855142
37	0xbc6fe9a4	-0.014643107
38	0xbe014c35	-0.12626727
39	0x3f313b6a	0.69231284
40	0xbe890219	-0.26759413
41	0xbe9616bc	-0.2931422
42	0xbd8dd3b2	-0.06925143
43	0xbcd06de9	-0.025443034
44	0xbd6e1980	-0.058129787
45	0x3e6bb770	0.23019195
46	0xbe2c1d9c	-0.1680817
47	0x3e86c14d	0.26319352
48	0x3f1e7fa5	0.6191352
49	0x3e2b2f50	0.16717267
50	0xbe900ebc	-0.2813624
51	0x3c0b105f	0.00848779
52	0x3d9c8911	0.07643331
53	0x3dbfcda3	0.09365394
54	0xbcd3f0fb	-0.025871744
55	0xbdbdfd6f	-0.09276854
56	0x3c0bed3b	0.008540447
57	0xbe23a57e	-0.15981099
58	0xbe29d962	-0.16586831
59	0xbe1f552a	-0.15559831
60	0x3e155232	0.14582136
61	0xbe5dfd76	-0.21678719
62	0xbe081fc4	-0.13293368
63	0x3f04b4eb	0.5183856
64	0xbea5bb29	-0.32369354
65	0x3d4b90b8	0.04969856
66	0xbe2eee30	-0.17083049
67	0x3e009d07	0.12559901
68	0xbe3d90da	-0.18512288
69	0xbd88a1c7	-0.066714816
70	0x3d19b53e	0.03752636
71	0xbef62b49	-0.480799
72	0xbcff44a6	-0.031160664
73	0x3dbf6f59	0.0934741
74	0x3d8c798a	0.06859119
75	0xbe5eda91	-0.21763064
76	0x3cfc21ce	0.030777838
77	0xbe67bc4c	-0.22630423
78	0xbddcaf67	-0.10775643
79	0x3e8caeab	0.2747701
80	0xbe9199ba	-0.28437597
81	0xbe8bfb5a	-0.27340204
82	0xbe0d228b	-0.13782708
83	0xbe70465e	-0.23464343
84	0xbf0d3e1a	-0.55172884
85	0xbe064e4c	-0.13115805
86	0x3dabb516	0.08384149
87	0xbd598ead	-0.05311458
88	0xbe79174e	-0.24325296
89	0x3c077bc8	0.008269258
90	0x3da34dc0	0.07973814
91	0x3e8aa715	0.27080598
92	0xbe86c730	-0.26323843
93	0x3e188334	0.148938
94	0xbf75c1a6	-0.9599861
95	0xbc83356d	-0.016016686
96	0x3ee9aee5	0.45641246
97	0xbd57583d	-0.052574385
98	0x3e80c283	0.251484
99	0xbe556104	-0.2083779
100	0x3e155530	0.14583278
101	0x3e05a3d0	0.13050771
102	0xbe1c7fd1	-0.15283133
103	0xbeb3681b	-0.35040364
104	0x3d66ab19	0.056315515
105	0x3d836a7b	0.06416794
106	0xbf073fb1	-0.5283156
107	0xbeaad829	-0.33368042
108	0x3e8e5eca	0.27806693
109	0xbdc4ac28	-0.09603149
110	0x3d927e38	0.071529806
111	0xbef3598a	-0.4752925
112	0xbe07fd59	-0.13280238
113	0x3ee6508a	0.4498332
114	0x3ef18a31	0.47175744
115	0xbee26772	-0.44219548
116	0xbe4ef3ff	-0.20210265
117	0xbe5afc09	-0.21385206
118	0xbed72204	-0.4201814
119	0x3e8fc349	0.28078678
120	0xbef724d4	-0.48270285
121	0x3e03e7a8	0.12881339
122	0x3eaa940c	0.33316076
123	0x3ddad65d	0.10685418
124	0x3e022f07	0.12713252
125	0xbd054520	-0.032536626
126	0xbec16873	-0.37775
127	0x3e90327e	0.28163522
128	0xbe1f4621	-0.15554096
129	0xbf06b9f3	-0.52627486
130	0xbcbdd8f4	-0.02317474
131	0x3e9f6bdb	0.31136975
132	0x3cfdf152	0.03099886
133	0x3e4bb38e	0.19892713
134	0xbb95aaa9	-0.0045674634
135	0x3da15400	0.0787735
136	0xbe8d3e76	-0.27586716
137	0xbd724613	-0.05914886
138	0xbeefb609	-0.4681857
139	0x3e07b2fa	0.13251868
140	0x3dade905	0.084917106
141	0x3e871b05	0.26387802
142	0xbe56c3e0	-0.20973158
143	0xbe4dac94	-0.20085365
144	0x3e960248	0.29298615
145	0x3e07f302	0.13276294
146	0x3e205d68	0.15660632
147	0x3dfd6899	0.12373466
148	0xbdafb4b5	-0.08579389
149	0xbe918aba	-0.28426152
150	0xbc277842	-0.010221543
151	0xbe5f7621	-0.21822406
152	0xbef79b11	-0.48360494
153	0xbd3c863c	-0.046026453
154	0xbec78d8b	-0.38975176
155	0xbe60ef35	-0.2196625
156	0x3f06f2ee	0.5271443
157	0x3d069e73	0.032865953
158	0xbe162838	-0.1466378
159	0x3dfea848	0.12434441
160	0x3e0fc86c	0.14041299
161	0x3d999693	0.07499423
162	0x3f5262bd	0.8218191
163	0xbed972f0	-0.42470503
164	0x3ae70279	0.0017624638
165	0xbd0441b1	-0.03228921
166	0x3ecc89a0	0.3994875
167	0x3f2fe5e8	0.68710184
168	0x3b707080	0.003668815
169	0x3e81376e	0.25237602
170	0xbe92a098	-0.28638148
171	0x3eda5769	0.42644814
172	0xbea1380e	-0.3148808
173	0x3e3d9d0e	0.18516943
174	0x3e3c0006	0.18359384
175	0xbd32bbd7	-0.04363617
176	0xbcbe03a3	-0.023195093
177	0xbee43352	-0.44570404
178	0xbdaf1c39	-0.08550305
179	0xbf023e54	-0.50876355
180	0xbe4ed452	-0.20198181
181	0xbcd3928c	-0.025826715
182	0x3e638712	0.22219494
183	0x3eb17143	0.34656724
184	0x3ec473b0	0.38369513
185	0xbe2d2eff	-0.16912459
186	0xbe430ad0	-0.19047093
187	0x3ee29903	0.44257364
188	0xbeceeec7	-0.40416548
189	0x3ea5146c	0.32242143
190	0xbc0053c2	-0.007832469
191	0x3da2e750	0.079542756
192	0xbe545c3c	-0.2073831
193	0xbed70927	-0.4199917
194	0xbea8e249	-0.32985142
195	0x3ebb7e18	0.3661964
196	0x3edfa2e5	0.43678966
197	0xbe772f79	-0.24139203
198	0xbe3bebc9	-0.18351664
199	0xbe6cfa8f	-0.23142456
200	0x3db9043c	0.09034011
201	0xbe8c67b9	-0.27422884
202	0xbf1d7bcd	-0.6151703
203	0x3e08cf36	0.13360295
204	0x3d10c2d6	0.03534206
205	0xbe95f600	-0.29289246
206	0x3e39600a	0.18103042
207	0xbe0d81d0	-0.13819051
208	0x3e7268b7	0.23672758
209	0xbf0d1072	-0.5510322
210	0x3e3a04d6	0.18165907
211	0x3d95c1c1	0.07312346
212	0x3f142093	0.57862204
213	0xbdae06ab	-0.084973656
214	0xbf0c3d72	-0.5478126
215	0x3ea48216	0.32130498
216	0x3c97ce8b	0.018531105
217	0x3de69c67	0.112603
218	0xbc6bff1e	-0.014404086
219	0xbd3770fb	-0.04478548
220	0x3f183fb6	0.59472215
221	0xb96750d9	-0.00022059995
222	0x3ece3400	0.40274048
223	0xbe0ae006	-0.1356202
224	0xbd10d15e	-0.035355918
225	0x3e1fe02e	0.15612862
226	0x3e79e576	0.24403939
227	0x3d81e66d	0.06342778
228	0x3e9468a9	0.289861
229	0xbe50111b	-0.20319025
230	0x3ec49c3e	0.38400453
231	0xbe04ccc2	-0.12968734
232	0xbede6724	-0.43438065
233	0x3ee61e22	0.44944865
234	0xbf54f119	-0.83180386
235	0x3d7a2e2f	0.0610792
236	0xbe7132f5	-0.23554595
237	0x3df9e219	0.12201328
238	0xbc22ddb3	-0.0099405525
239	0xbe59f7aa	-0.21285883
240	0xbd24b9fc	-0.04021643
241	0xbecfff80	-0.4062462
242	0x3d193d9d	0.037412275
243	0x3d9fec23	0.078087114
244	0x3d5c3bc7	0.053767946
245	0xbe4a4984	-0.19754606
246	0xbed502c8	-0.41603684
247	0x3ec7b13c	0.39002407
248	0x3d3d45f7	0.0462093
249	0x3ec728ce	0.3889832
250	0xbdb3a4da	-0.08771677
251	0x3e50015b	0.20313017
252	0x3f462bce	0.7741059
253	0xbd5efde0	-0.054441333
254	0xbe0be324	-0.13660866
255	0x3e8bb7ec	0.2728876

transformer.attn.proj_q.bias f4 [72]
0	0xbd6b2069	-0.057403956
1	0xbe9f68f1	-0.3113475
2	0xbe4043c5	-0.18775852
3	0x3ea598a4	0.32343018
4	0xbe676cb1	-0.22600056
5	0x3dc20faf	0.09475648
6	0x3e43c445	0.1911784
7	0xbc54db51	-0.012991742
8	0xbed29f78	-0.4113729
9	0xbe8f3625	-0.27970996
10	0x3deb6c6d	0.1149529
11	0x3ead5da7	0.33860514
12	0x3eb3950f	0.3507466
13	0xbef45ea0	-0.47728443
14	0x3eb6d1a2	0.35706812
15	0xbe11a573	-0.1422327
16	0x3da2e79c	0.07954332
17	0xbda9e0c9	-0.082948275
18	0xbe4ee99c	-0.20206302
19	0x3e590a58	0.21195352
20	0xbcf9c049	-0.030487197
21	0xbebdb578	-0.37052512
22	0xbd57ef72	-0.052718587
23	0xbe1a9b88	-0.15098393
24	0x3eb0b3b5	0.34512106
25	0x3d39131d	0.045184243
26	0x3ed4448c	0.41458547
27	0x3ed02a7b	0.4065741
28	0x3cdc2a8a	0.026875753
29	0xbdefc243	-0.11706974
30	0xbf901596	-1.1256588
31	0xbe962d21	-0.29331306
32	0xbf4a926d	-0.7912968
33	0xbf21fe22	-0.632784
34	0x3eda9c30	0.42697287
35	0xbdd7ed25	-0.105432786
36	0xbe83861e	-0.2568826
37	0x3dd76e55	0.10519091
38	0x3f00f2a3	0.50370234
39	0xbe539adb	-0.20664541
40	0x3e9d1540	0.30680275
41	0xbe445344	-0.19172388
42	0xbde14ec2	-0.1100135
43	0xbbe1aa37	-0.0068867463
44	0xbe232b59	-0.15934505
45	0xbefe25dd	-0.49638262
46	0x3eabd72c	0.335626
47	0x3e731f75	0.23742469
48	0xbe511fce	-0.20422289
49	0xbcc47a7f	-0.023984192
50	0x3e9dde29	0.30833557
51	0x3dfd0498	0.12354392
52	0x3d870ce8	0.065942585
53	0xbe58f9f4	-0.211891
54	0x3e16d93e	0.14731309
55	0xbe28ac5c	-0.16472
56	0x3e3f7aba	0.1869916
57	0xbe953bdb	-0.2914723
58	0xbdfe209c	-0.124085635
59	0x3d60070e	0.054694228
60	0x3e5a8f56	0.21343741
61	0xbdaf3d76	-0.085566446
62	0x3e5f0acc	0.21781462
63	0x3cb23417	0.021753354
64	0x3e023067	0.12713777
65	0xbb917b1c	-0.0044397246
66	0xbe28c3ab	-0.16480891
67	0x3eb22608	0.3479464
68	0xbd79b1cd	-0.06096058
69	0x3e391c6d	0.1807725
70	0xbe5c0e75	-0.2148989
71	0xbd150ac8	-0.036387235

transformer.attn.proj_k.weight f4 [72, 72]
0	0xbecd16f8	-0.40056586
1	0x3eb0293f	0.34406468
2	0x3e57e5a3	0.21083693
3	0x3e77f88c	0.24215907
4	0xbd860eca	-0.065457895
5	0xbe78afe1	-0.24285842
6	0x3d0aa5e7	0.033849623
7	0xbca1248e	-0.019670751
8	0x3e5d005d	0.2158217
9	0x3e541ac1	0.20713331
10	0xbe0e41e0	-0.13892317
11	0xbd705cf4	-0.058682397
12	0x3ef62b73	0.48080024
13	0xbe5e7250	-0.21723294
14	0xbebb1095	-0.3653609
15	0x3e133fe0	0.14379835
16	0x3d1931da	0.037401058
17	0xbea0b61b	-0.31388935
18	0xbaf2f8ab	-0.0018537244
19	0xbec03ad1	-0.37544873
20	0x3e7ecfbb	0.2488393
21	0xbcb9c800	-0.022678375
22	0x3d910266	0.070805356
23	0xbf0f7670	-0.56040096
24	0x3e0945d3	0.13405542
25	0xbf3e661d	-0.7437456
26	0x3d537ba8	0.0516316
27	0x3e400b42	0.18754295
28	0x3ef289ff	0.47370908
29	0x3d807993	0.062731884
30	0xbeddcc1e	-0.43319792
31	0xbe866e38	-0.26255965
32	0xbc8b9665	-0.017039487
33	0xbe6fa805	-0.23403938
34	0x3cc58bb1	0.024114462
35	0xbda6f83d	-0.081528164
36	0x3c24dfc6	0.010063117
37	0x3c5ed8a4	0.013601456
38	0xbee70f45	-0.45128837
39	0xbe87fa5e	-0.26558203
40	0x3de1e739	0.1103043
41	0x3e12e353	0.1434453
42	0x3e8a312e	0.26990646
43	0xbb5c4af5	-0.0033614014
44	0xbe770467	-0.24122773
45	0x3e1c8dd5	0.1528848
46	0xbe9855c6	-0.2975294
47	0x3ee5105a	0.44739038
48	0x3d96bfce	0.073608026
49	0xbd5debd1	-0.05417997
50	0xbd75441e	-0.059879415
51	0xbda678c1	-0.08128501
52	0xbe5745a3	-0.21022658
53	0xbebacf03	-0.36486062
54	0xbbfe6f71	-0.0077647497
55	0x3e3dd899	0.18539657
56	0x3da2e031	0.07952917
57	0x3ec08be8	0.3760674
58	0x3e99c8c9	0.30036
59	0xbe584871	-0.21121384
60	0xbd660b48	-0.056163102
61	0x3ee35a9f	0.44405076
62	0x3f153226	0.58279645
63	0x3eaade3e	0.33372682
64	0xbdd61c32	-0.104545966
65	0x3e9220e7	0.28540727
66	0xbec43810	-0.38324022
67	0xba841b0f	-0.0010078865
68	0xbe9cecf1	-0.30649522
69	0xbd91d9a0	-0.07121587
70	0x3f02291f	0.50843996
71	0x3e704b61	0.23466255
72	0x3e048107	0.12939845
73	0x3c953cbb	0.018217435
74	0x3e17476e	0.14773342
75	0x3dabf594	0.0839645
76	0xbe8dfc72	-0.27731663
77	0xbe534cef	-0.20634817
78	0xbcfc1240	-0.030770421
79	0xbe71fd88	-0.23631871
80	0xbe96130b	-0.29311404
81	0xb9b2468d	-0.0003400337
82	0xbeedbdcf	-0.46433875
83	0xbc942313	-0.018083131
84	0x3edf3c65	0.43600765
85	0x3d410b42	0.047129877
86	0xbe550084	-0.20800978
87	0x3da48300	0.08032799
88	0xbe1890f0	-0.1489904
89	0xbeda5e22	-0.42649943
90	0xbe234420	-0.15943956
91	0xbe9eee5b	-0.31041226
92	0x3def704a	0.11691339
93	0xbeb2cb14	-0.3492056
94	0xbd4dc277	-0.050234284
95	0x3f5632d0	0.83671284
96	0xbbca3594	-0.006170938
97	0xbe71abe2	-0.23600724
98	0x3bd8d35a	0.006616992
99	0x3c93cfa2	0.018043343
100	0xbd0cf5e0	-0.034414172
101	0x3d80de89	0.06292445
102	0x3b5723b8	0.0032827687
103	0xbda23c2c	-0.07921633
104	0x3e4a8a2c	0.19779271
105	0x3de0b86d	0.109726764
106	0x3bbe8332	0.0058139795
107	0x3e64f753	0.22359972
108	0x3e389fb6	0.18029675
109	0xbe9e1a0e	-0.30879253
110	0x3dd0a923	0.1018851
111	0xbf165901	-0.5872956
112	0xbf111912	-0.5667888
113	0x3d70bf6d	0.058776308
114	0x3eb3f297	0.3514602
115	0x3e064a1a	0.13114205
116	0x3ca26e4e	0.019827988
117	0x3ed47788	0.41497445
118	0x3d915d54	0.07097879
119	0x3ed15454	0.4088465
120	0x3d594e2b	0.053053062
121	0xbe7108ec	-0.2353856
122	0xbef21c21	-0.47287086
123	0x3e69f83a	0.22848597
124	0xbeabb14b	-0.335337
125	0xbe8cb62a	-0.2748273
126	0x3eb2a5ed	0.34892216
127	0xbc0482bd	-0.008087811
128	0x3cfc94ee	0.030832734
129	0x3c5e80ca	0.01358051
130	0x3e2cc3ec	0.16871613
131	0x3c97526b	0.018471917
132	0xbd2ccab1	-0.04218549
133	0x3d57c180	0.05267477
134	0x3e88cdae	0.2671942
135	0x3e8ec99d	0.27888194
136	0xbefec5fa	-0.4976042
137	0xbd493627	-0.04912391
138	0xbe1bea75	-0.15226157
139	0x3e455d31	0.19273831
140	0x3e9e6a9b	0.3094071
141	0xbe38c78d	-0.18044873
142	0xbf377827	-0.7166771
143	0x3dd80236	0.10547297
144	0xbe13c8f6	-0.1443213
145	0x3e128240	0.14307499
146	0xbdb2b9f1	-0.08726872
147	0x3e3e2296	0.18567881
148	0x3edfa1b0	0.43678045
149	0x3e2a1e05	0.16613014
150	0x3f1ca854	0.6119435
151	0xbe9867d8	-0.29766726
152	0xbbecd98f	-0.0072280834
153	0xbd0d98bd	-0.03456949
154	0x3eca8d17	0.39560768
155	0x3da83e11	0.08214963
156	0x3e872b0c	0.2640003
157	0x3d0ee9fc	0.034891114
158	0x3e9d703b	0.30749688
159	0x3d353c44	0.044246927
160	0x3e825664	0.25456536
161	0xbdb202f1	-0.08691967
162	0xbdc384a3	-0.09546783
163	0x3eda4718	0.42632365
164	0x3e199438	0.14997947
165	0xbcde8f8e	-0.027168062
166	0x3f2f62ea	0.68510306
167	0x3f1454d4	0.5794194
168	0x3df605b7	0.12012809
169	0xbe4412b0	-0.19147754
170	0xbf0bd522	-0.5462209
171	0xbcb17084	-0.021660097
172	0xbd1420c7	-0.03616407
173	0x3e225f16	0.15856585
174	0x3eb10fd3	0.34582385
175	0x3dd588be	0.10426472
176	0xbe448bb1	-0.19193913
177	0x3d691a37	0.056909766
178	0xbe4aa64d	-0.19790001
179	0x3e98ebf3	0.29867515
180	0xbea8812a	-0.32911044
181	0x3ddf1fb0	0.10894716
182	0xbdeaa897	-0.11457937
183	0x3e2797b3	0.16366462
184	0xbe62eb0f	-0.2215998
185	0xbd875033	-0.06607094
186	0xbe03c4c1	-0.12868024
187	0x3eb611f5	0.35560575
188	0xbf3023e1	-0.68804747
189	0x3d83cdb5	0.0643572
190	0x3dea97fb	0.11454769
191	0xbed7e330	-0.42165518
192	0xbf0e183b	-0.5550572
193	0xbe41b029	-0.18914856
194	0xbe5dcd25	-0.21660288
195	0x3f06e516	0.5269331
196	0x3d915bd8	0.07097596
197	0xbe0e78a7	-0.13913213
198	0x3d4d5ddf	0.05013835
199	0xbf0d08a4	-0.5509131
200	0xbc15e5b0	-0.009149
201	0xbf569b67	-0.83830875
202	0xbdf41e26	-0.11919813
203	0x3f020fbc	0.5080526
204	0xbd0d7a33	-0.034540366
205	0x3e0555c8	0.13021004
206	0x3cee5e19	0.029097604
207	0xbea5ccb7	-0.32382748
208	0xbe4c98ea	-0.19980207
209	0xbe819fc4	-0.25317204
210	0xbe3f11e0	-0.18659163
211	0x3e7535bf	0.23946284
212	0xbdf314fb	-0.11869236
213	0xbdf4858d	-0.11939535
214	0x3e846721	0.2585993
215	0x3ea273ef	0.31729075
216	0xbe79f878	-0.2441119
217	0x3f1d51dd	0.6145304
218	0x3c722b3f	0.0147808185
219	0xbecb1ed5	-0.3967196
220	0xbe09e83a	-0.13467494
221	0xbc974a04	-0.01846791
222	0xbdde7c2f	-0.1086353
223	0xbd96f180	-0.07370281
224	0xbe863c6f	-0.26217982
225	0xbea06a08	-0.31330895
226	0xbe8919ce	-0.267775
227	0xbdc50fd2	-0.09622158
228	0xbd09e5ac	-0.033666298
229	0xbf19c175	-0.60060817
230	0x3e729ee6	0.23693427
231	0x3e691e61	0.22765495
232	0x3db0bf1f	0.086302035
233	0xbd7f4b3a	-0.0623276
234	0x3e901adf	0.281455
235	0x3edec5d5	0.4351031
236	0x3d899862	0.06718518
237	0x3e01e1a7	0.12683736
238	0x3eb40191	0.35157445
239	0xbd5c91f6	-0.053850137
240	0x3d2614b3	0.040547084
241	0x3d8ade64	0.06780699
242	0x3d725886	0.059166454
243	0xbead0b43	-0.33797655
244	0x3e633868	0.22189486
245	0xbc830474	-0.015993334
246	0x3c0d013f	0.008606254
247	0x3dd5712b	0.10421976
248	0x3ea2ac76	0.31772202
249	0x3d8966d2	0.067090645
250	0xbeb4cc89	-0.35312298
251	0xbe315f4d	-0.1732151
252	0x3f218fd8	0.63110113
253	0x3e7c3d5a	0.24632779
254	0xbe4f1fff	-0.2022705
255	0x3f0b6751	0.54454523

transformer.attn.proj_k.bias f4 [72]
0	0xbd4bf845	-0.049797315
1	0xbd249ec9	-0.04019049
2	0x3d872cbe	0.06600331
3	0x3d833ddf	0.06408285
4	0xbc8ad038	-0.01694499
5	0x3d4479ba	0.04796765
6	0xbd0e7dbd	-0.034787882
7	0x3d566e07	0.052351024
8	0x3d43b90d	0.0477839
9	0x3d5b1fea	0.053497232
10	0xbd0260d9	-0.031830642
11	0x3d29bcc6	0.041439794
12	0x3cb49639	0.022044288
13	0x3da7104b	0.081574045
14	0x3cc4aa3a	0.024006952
15	0x3ba16f1b	0.004926575
16	0x3da34750	0.07972586
17	0x3df3b5ed	0.11899934
18	0xbda512c6	-0.080602214
19	0x3d37c59f	0.0448662
20	0x3d89962e	0.067180976
21	0xbc172635	-0.009225418
22	0xbd0388a8	-0.032112747
23	0xbd9ed7a3	-0.07755973
24	0xbd8c9764	-0.06864813
25	0xbdbf0231	-0.0932659
26	0xbdb39a2f	-0.087696426
27	0xbdc62499	-0.09674949
28	0x3dc3d846	0.09562735
29	0x3d04f991	0.032464568
30	0x3dda4cb7	0.106591634
31	0x3c30fa1c	0.010801818
32	0xbbcd52e4	-0.006265985
33	0x3d5d7cb1	0.054073993
34	0xbdd1b6d3	-0.10239949
35	0xbd1bcda2	-0.038037904
36	0x3d5f7411	0.05455405
37	0x3dd77dcc	0.10522041
38	0x3d95a3a3	0.07306602
39	0x3c9ddaf3	0.019269442
40	0x3cd384eb	0.025820216
41	0xbd198b6e	-0.037486486
42	0x3d9e4586	0.07728104
43	0xb93328b8	-0.00017085939
44	0x3d530726	0.05152049
45	0xbcc6862e	-0.024233904
46	0x3cb3fa65	0.021969983
47	0xbdec3ae8	-0.11534673
48	0xbc906ce0	-0.01763004
49	0x3da61055	0.08108584
50	0x3af212f8	0.0018468788
51	0x3df156f0	0.1178416
52	0xbdcd2c33	-0.10018196
53	0xbd3a6c35	-0.04551335
54	0xbdce1163	-0.1006191
55	0x3d86d3b7	0.0658335
56	0xbdbb88d1	-0.09156955
57	0xbc92fda9	-0.01794322
58	0x3d9562c4	0.07294229
59	0xbd083d56	-0.03326162
60	0x3cb610f3	0.022224879
61	0xbd86fc55	-0.06591097
62	0xbbb14074	-0.0054092947
63	0xbd44cfcc	-0.048049733
64	0xbd5c33fb	-0.05376051
65	0xbc877c25	-0.016538689
66	0x3da38edc	0.07986233
67	0x3d8ed770	0.06974685
68	0xbd6e6288	-0.058199435
69	0x3d92cacb	0.07167586
70	0x3dca0be8	0.09865552
71	0xbd0cfca4	-0.034420624

transformer.attn.proj_v.weight f4 [72, 72]
0	0xbf01953a	-0.50618327
1	0x3efdcc6d	0.49570027
2	0x3eba33f7	0.3636777
3	0x3e42ab79	0.19010724
4	0xbe533f0e	-0.20629522
5	0x3e670f2a	0.22564378
6	0x3d49f290	0.04930359
7	0x3e499f36	0.1968964
8	0x3f003be8	0.5009141
9	0xbe81ecb1	-0.25375894
10	0x3e071e0d	0.13195057
11	0x3e6229ab	0.22086208
12	0x3f212a38	0.62955046
13	0xbe7ae97b	-0.24503128
14	0x3f02de20	0.51120186
15	0xbe55548f	-0.20833038
16	0xbf04fb9c	-0.51946425
17	0x3da2a0c8	0.07940823
18	0xbe921e99	-0.2853897
19	0xbe124b98	-0.14286649
20	0xbf0453a6	-0.5169014
21	0xbf4b07a7	-0.7930855
22	0xbd8e2337	-0.069403104
23	0xbd85343c	-0.065041035
24	0x3e5a602c	0.21325749
25	0xbf6d16f0	-0.92613125
26	0x3e7060ec	0.23474473
27	0xbf0b9322	-0.5452138
28	0xbe65877b	-0.22414963
29	0xbec335f2	-0.38127095
30	0xbf024982	-0.50893414
31	0x3e4dd6be	0.20101449
32	0xbeb575bc	-0.35441387
33	0x3e844c4d	0.25839463
34	0xbe8dc6c5	-0.27690712
35	0x3ca62766	0.020282459
36	0x3ede5cbf	0.43430135
37	0xbdf5f58c	-0.12009725
38	0xbf290fef	-0.6603994
39	0x3ea63a1e	0.32466215
40	0xbee4dfdb	-0.44702038
41	0x3ec25d76	0.3796193
42	0x3f388258	0.7207389
43	0xbe4cfc0f	-0.20018028
44	0xbe6bbea1	-0.23021938
45	0x3c68369f	0.014173179
46	0x3e80fc1a	0.25192338
47	0x3d93532e	0.071936
48	0x3f19a1ae	0.6001233
49	0x3f1713f0	0.590148
50	0x3c438af5	0.011934985
51	0xbe8078a2	-0.25092036
52	0xbf18a81e	-0.59631526
53	0xbec3c762	-0.38238055
54	0xbdc16c45	-0.09444479
55	0x3e8cecf1	0.27524522
56	0x3e4f6f78	0.20257366
57	0x3eaa920a	0.33314544
58	0x3ddb9b62	0.10722996
59	0xbebefaaf	-0.3730063
60	0x3e7aaba6	0.24479541
61	0x3e70f878	0.23532283
62	0x3ec0df4b	0.3767036
63	0xbe96a7df	-0.2942495
64	0x3f07146f	0.52765554
65	0xbf64ec2b	-0.89422864
66	0x3d5d0916	0.053963743
67	0xbe4e84a4	-0.20167786
68	0xbe4a4e27	-0.19756375
69	0xbf762846	-0.961552
70	0xbeb98a47	-0.3623831
71	0xbdd51e01	-0.104061134
72	0xbef5c61c	-0.48002708
73	0x3e0a5cc5	0.13511951
74	0xbe58fdfd	-0.21190639
75	0x3dceaebf	0.10091924
76	0x3f2aed10	0.6676798
77	0x3eae0953	0.3399149
78	0x3f128e54	0.57248425
79	0x3f11e0ac	0.5698345
80	0x3f15e822	0.5855733
81	0x3ed37474	0.41299784
82	0xbe8a5d49	-0.27024296
83	0x3e0db006	0.13836679
84	0x3d39afc4	0.04533364
85	0xbe5f4965	-0.21805342
86	0x3e913214	0.2835852
87	0x3e209ab6	0.15684018
88	0x3dec41a2	0.11535956
89	0x3ed3048c	0.41214406
90	0xbde3a3c7	-0.111152224
91	0xbe7b6dd6	-0.24553618
92	0xbf415cea	-0.755324
93	0x3f88ab8b	1.0677351
94	0xbe28b78f	-0.16476272
95	0xbe295a7b	-0.16538422
96	0x3e939604	0.2882539
97	0x3e0ee2ae	0.13953659
98	0xbefee67f	-0.4978523
99	0xbef0ef2a	-0.47057468
100	0x3e1ea4aa	0.15492502
101	0xbf248193	-0.64260215
102	0xbeb55bd8	-0.35421634
103	0x3e967c50	0.29391718
104	0x3ef9f79d	0.48821726
105	0x3e66d779	0.22543134
106	0xbed67bee	-0.41891426
107	0xbe5d25f9	-0.21596517
108	0xbe012351	-0.12611128
109	0x3ebbce41	0.36680797
110	0xbf0ec977	-0.5577616
111	0x3f2c56ee	0.67320144
112	0xbee38175	-0.44434705
113	0x3e3d6d59	0.18498744
114	0x3f541aa8	0.82853174
115	0xbecafd26	-0.39646262
116	0x3f2899c6	0.6585964
117	0xbe325c2a	-0.1741797
118	0x3dc2be43	0.09508946
119	0x3e62f69c	0.22164387
120	0xbecad96a	-0.39619
121	0xbe9daca1	-0.30795768
122	0x3f15feb0	0.5859175
123	0xbead2c94	-0.33823073
124	0x3d3d5580	0.046224117
125	0xbe9fadda	-0.31187326
126	0xbe26857d	-0.16261859
127	0xbecb3e74	-0.39696085
128	0x3da00ab1	0.07814539
129	0xbbfc5bfd	-0.0077013955
130	0xbe4e2f63	-0.20135264
131	0xbd2de297	-0.04245242
132	0x3f43bc0d	0.7645882
133	0x3cd3f7b6	0.025874954
134	0x3da07b30	0.07835996
135	0x3f138391	0.5762263
136	0xbf5df598	-0.8670287
137	0x3f2c834b	0.6738784
138	0xbbdb890f	-0.0066996883
139	0xbeb3312a	-0.34998447
140	0xbe26a67f	-0.1627445
141	0x3f34f8a2	0.70691884
142	0x3e70f14c	0.23529547
143	0xbe94887b	-0.29010376
144	0xbd8f76eb	-0.07005104
145	0xbe061d63	-0.13097148
146	0x3e5a0dc3	0.21294312
147	0xbd8e9433	-0.069618605
148	0xbe831373	-0.25600776
149	0xbdf0c2a4	-0.11755875
150	0xbe351036	-0.17681965
151	0xbf373e4b	-0.71579427
152	0x3f0ae86b	0.5426089
153	0xbf3118a0	-0.691782
154	0xbd8648f9	-0.06556887
155	0xb9b9e924	-0.00035459653
156	0x3e667cea	0.22508588
157	0x3f83b298	1.0288877
158	0x3e5d20b6	0.2159451
159	0x3f4c53c6	0.7981533
160	0x3c9ba355	0.018998781
161	0x3e2d9750	0.16952252
162	0xbe6b2b1a	-0.2296566
163	0xbeb02249	-0.34401157
164	0xbe976427	-0.29568598
165	0xbea05ce4	-0.3132087
166	0x3ee29ae9	0.44258812
167	0x3ec53f0a	0.38524657
168	0xbf675b2f	-0.9037351
169	0x3c382b22	0.011240752
170	0x3dc2b18e	0.09506522
171	0x3e5fdc6d	0.2186143
172	0x3e09d614	0.1346057
173	0x3dedbf11	0.11608709
174	0x3e33e8fb	0.17569344
175	0xbee72c24	-0.45150864
176	0x3f0498f2	0.51795876
177	0x3f00a953	0.5025837
178	0xbdfd28d4	-0.12361303
179	0xbecb187f	-0.39667127
180	0x3f0520b3	0.5200302
181	0x3dc7b50d	0.097513296
182	0xbd258142	-0.040406473
183	0xbf412036	-0.75439775
184	0x3f8789ee	1.0588968
185	0x3d7ba3bd	0.06143545
186	0xbf04b7f7	-0.5184321
187	0x3d6f2c65	0.058391947
188	0x3ea69ea8	0.3254292
189	0x3efbd1d9	0.4918354
190	0xbf3d7a33	-0.74014586
191	0xbe79e207	-0.24402629
192	0x3da3e172	0.08001985
193	0x3ca1b269	0.019738393
194	0x3ea441ee	0.3208155
195	0x3ebe714b	0.3719581
196	0xbe7acda3	-0.24492507
197	0x3d288520	0.041142583
198	0x3ea14f93	0.31506023
199	0x3e890a13	0.267655
200	0xbe9032cc	-0.28163755
201	0xbda9b8f1	-0.08287228
202	0x3f05e134	0.5229676
203	0xbd9b24ee	-0.07575403
204	0x3f1320d0	0.5747194
205	0x3e32efb7	0.17474256
206	0xbe741d9a	-0.23839417
207	0x3f2c706b	0.67359036
208	0xbe143952	-0.14474991
209	0xbed5e9d5	-0.41779962
210	0xbe8aef23	-0.27135572
211	0xbf0d6c74	-0.5524361
212	0x3db2ca3a	0.08729978
213	0x3ea64dc1	0.32481197
214	0xbef9858b	-0.48734698
215	0x3dfbe010	0.12298596
216	0xbd54768b	-0.051870864
217	0x3f049097	0.51783127
218	0xbd7ee059	-0.062225673
219	0xbe325b96	-0.1741775
220	0x3eae5bdd	0.3405446
221	0x3f03b862	0.5145322
222	0xbc47e182	-0.012199761
223	0xbf174c66	-0.5910095
224	0xbe386321	-0.18006565
225	0xbe66f13e	-0.22552964
226	0xbb9cf6eb	-0.004790177
227	0x3f5aadeb	0.8542163
228	0x3c231f4c	0.009956192
229	0x3e9a0ae1	0.30086425
230	0x3e8245f2	0.2544399
231	0x3ea84243	0.32863054
232	0xbef38f34	-0.47570193
233	0xbe9a5103	-0.30139932
234	0xbf88582d	-1.0651909
235	0x3e71c602	0.2361069
236	0x3e820e44	0.2540151
237	0xbee8e4b5	-0.4548699
238	0xbe50ed8e	-0.2040312
239	0xbe983c83	-0.29733667
240	0xbd3637c0	-0.04448676
241	0xbe8bac53	-0.2727991
242	0xbd034b0d	-0.032053996
243	0xbde4cbec	-0.111717075
244	0x3e476151	0.19470717
245	0x3ef03279	0.46913508
246	0x3e383288	0.17988026
247	0xbe264f72	-0.16241243
248	0xbd849aec	-0.064748615
249	0x3e2f78a4	0.17135864
250	0xbf1cf47f	-0.6131057
251	0x3e87ef51	0.2654977
252	0x3f0b0e0d	0.54318315
253	0xbde46900	-0.1115284
254	0x3c86b269	0.016442494
255	0xbea61a3e	-0.32441896

transformer.attn.proj_v.bias f4 [72]
0	0x3e040ac9	0.12894739
1	0xbe0291dd	-0.12750955
2	0x3d54e4b1	0.05197591
3	0xbe527a7b	-0.20554535
4	0xbe1645f9	-0.1467513
5	0xbc840b1b	-0.016118577
6	0x3dd490c5	0.10379175
7	0x3e5a113a	0.21295634
8	0xbd76b3e5	-0.060230155
9	0x3e1cfc0b	0.15330522
10	0xba172f53	-0.0005767245
11	0xbdc3b204	-0.09555438
12	0xbe203726	-0.15646037
13	0x3e976dbd	0.2957591
14	0xbd0a84df	-0.033818122
15	0x3ec80587	0.39066717
16	0x3e33da3c	0.17563719
17	0xbe210ecc	-0.15728301
18	0x3c806d85	0.015677223
19	0xbd9d35bf	-0.07676267
20	0xbe31500e	-0.17315695
21	0x3e16132c	0.14655751
22	0x3ead3639	0.3383043
23	0xbe1caad4	-0.15299541
24	0xbe367767	-0.17818986
25	0xbe3fe27c	-0.1873874
26	0x3be1ee37	0.0068948525
27	0xbe2c63a1	-0.1683488
28	0xbdb997ec	-0.0906218
29	0x3e1b01ee	0.15137455
30	0xbc8afdd8	-0.016966745
31	0x3e0fa3e7	0.14027368
32	0xbcac3fa3	-0.021026438
33	0xbcdeb973	-0.027188038
34	0xbe7efb26	-0.24900493
35	0x3da935d9	0.08262224
36	0xbe06ae1b	-0.13152353
37	0x3dcac5ff	0.09901046
38	0x3d546320	0.051852345
39	0xbd51b17d	-0.051194657
40	0xbd03499a	-0.032052614
41	0x3e55f353	0.20893602
42	0xbe8a751f	-0.2704248
43	0xbdc2e849	-0.09516961
44	0xbcdd6eaa	-0.027030308
45	0x3ce97f58	0.028503105
46	0xbe972bb2	-0.29525524
47	0xbcc751f7	-0.024331076
48	0x3d2d2b5e	0.042277686
49	0xbc5098c1	-0.012731732
50	0x3d21a96b	0.03946821
51	0x3992f119	0.00028026922
52	0x3e43745c	0.19087356
53	0xbe03691b	-0.12833063
54	0xbe5d7840	-0.21627903
55	0x3d80f113	0.06295981
56	0xbe18f72b	-0.14938037
57	0xbe79e445	-0.24403484
58	0xbea27092	-0.3172651
59	0xbe4dfdc0	-0.20116329
60	0x3d88b442	0.066750064
61	0x3d858da3	0.06521156
62	0xbc07f2b9	-0.008297616
63	0x3e7893c6	0.24275121
64	0x3dd9cd92	0.106349126
65	0xbea046b5	-0.31303945
66	0xbe2a8a61	-0.1665435
67	0x3e56bc67	0.20970307
68	0xbda67dbd	-0.081294514
69	0xbc450c1f	-0.012026816
70	0x3dc0547d	0.09391115
71	0x3e3441e5	0.17603262
