Src/extractor/limu_bert_uci.pt (torch, 259067 bytes, 29 tensors)

transformer.embed.lin.weight f4 [72, 6]
0	0xbe90c4f3	-0.2827526
1	0x3e2b419a	0.16724244
2	0xbe7c507e	-0.2464008
3	0xbdebd509	-0.115152426
4	0xbe823dd7	-0.25437805
5	0xbbec6662	-0.0072143534
6	0xbedd3b4c	-0.43209302
7	0x3e244686	0.16042528
8	0xbe4ec2e9	-0.2019154
9	0xbea3f82b	-0.32025275
10	0x3d922dda	0.07137652
11	0x3f5dc964	0.8663542
12	0xbe812985	-0.2522699
13	0x3f3cce72	0.7375251
14	0x3e10d197	0.14142452
15	0x3d5cc378	0.05389735
16	0xbf12a7a7	-0.5728707
17	0x3eef6e90	0.4676404
18	0xbe02c494	-0.12770301
19	0x3e299b11	0.1656306
20	0x3ef6b9d6	0.48188657
21	0x3dbe1347	0.092810206
22	0xbeae3ff6	-0.34033173
23	0x3ea9c02b	0.33154425
24	0xbd1af3e6	-0.037830256
25	0x3d6f97d2	0.058494397
26	0x3f2d206e	0.6762761
27	0x3ea693a6	0.32534522
28	0x3eeb8644	0.46000874
29	0xbe25ac77	-0.16179071
30	0xbed2b15f	-0.41150948
31	0x3e99a947	0.3001196
32	0xbdf80ce6	-0.12111835
33	0x3eb557ac	0.3541845
34	0xbe86b43e	-0.2630939
35	0xbea5f919	-0.3241661
36	0xbe55f3c6	-0.20893773
37	0x3f0799a0	0.5296879
38	0xbf0f685a	-0.560186
39	0x3e4cdf4d	0.20007057
40	0x3ecfb0a1	0.40564445
41	0x3e52cf06	0.20586786
42	0x3f5f69a4	0.8727057
43	0x3e9a6f53	0.3016306
44	0xbeb80ab3	-0.35945663
45	0x3bc2d665	0.005945968
46	0xbd0aa503	-0.033848774
47	0x3e17c337	0.14820562
48	0xbe049af2	-0.12949732
49	0xbd6e6777	-0.05820414
50	0x3e1d1a2e	0.15342018
51	0x3ed232b2	0.41054302
52	0x3f16ded9	0.5893379
53	0xbeef7947	-0.46772215
54	0x3f419b40	0.7562752
55	0xbf23f3b3	-0.6404373
56	0x3e074918	0.13211477
57	0xbdbd5982	-0.09245588
58	0xbecbe36a	-0.3982194
59	0x3e806018	0.25073314
60	0x3e674dce	0.22588274
61	0x3dabd880	0.083909035
62	0xbd80463b	-0.062633954
63	0x3c72cf4e	0.014819933
64	0xbe12bf71	-0.14330842
65	0x3d74b815	0.059745867
66	0xbf1365b7	-0.5757708
67	0xbecaeca8	-0.3963368
68	0xbf1aa8cf	-0.6041383
69	0x3d0cae42	0.034345873
70	0xbcef0029	-0.029174881
71	0xbc724d03	-0.014788869
72	0x3ecae8e9	0.3963082
73	0xbee1dea7	-0.44115183
74	0xbe6935f0	-0.22774482
75	0x3f141fea	0.57861197
76	0x3db86885	0.090043105
77	0x3d9d66c5	0.07685617
78	0x3e0abf0d	0.13549443
79	0x3f086e3e	0.53293216
80	0xbdb5da52	-0.08879532
81	0xbea82c5d	-0.32846346
82	0xbe0f9c59	-0.14024486
83	0xbe879cb7	-0.2648675
84	0x3ee9977a	0.4562338
85	0x3ec1cda2	0.37852198
86	0x3eda5f32	0.42650753
87	0x3eecd6de	0.4625768
88	0x3d5ab0f5	0.053391416
89	0xbe349e1a	-0.17638436
90	0xbeb54e26	-0.35411185
91	0xbeee583f	-0.465517
92	0x3ec3eeba	0.3826807
93	0xbdd1f992	-0.1025268
94	0xbdba3dab	-0.090937935
95	0x3dbf7b23	0.09349658
96	0xbe6e9e36	-0.2330254
97	0x3ea87132	0.3289886
98	0xbea00501	-0.31253818
99	0xbe464417	-0.19361912
100	0xbd702eab	-0.058638256
101	0xbf29e5cf	-0.66366285
102	0x3e04350b	0.1291086
103	0xbec80042	-0.39062697
104	0xbed2d561	-0.4117842
105	0x3ebd9deb	0.37034544
106	0xbe855ff7	-0.26049778
107	0xbdac1634	-0.084026724
108	0xbe681cd7	-0.22667252
109	0x3eca27e6	0.39483565
110	0x3ce54eea	0.02799173
111	0xbe67142e	-0.22566292
112	0x3e651b99	0.22373809
113	0xbf45f337	-0.7732424
114	0x3d80c4fa	0.0628757
115	0xbf01cba3	-0.5070135
116	0x3ec330ac	0.3812307
117	0xbdcc278c	-0.099684805
118	0xbe8f8a12	-0.28035027
119	0xbe84fd0b	-0.25974306
120	0xbceca5ec	-0.028887711
121	0x3e31b234	0.17353135
122	0xbf67c893	-0.90540427
123	0xbdf9f782	-0.122054115
124	0x3e20376c	0.15646142
125	0xbe1e171d	-0.15438505
126	0x3ebe9456	0.37222546
127	0xbe90ef63	-0.28307638
128	0x3e30fb83	0.17283444
129	0xbd603cc1	-0.05474544
130	0x3df95d1a	0.12175961
131	0xbef21e17	-0.47288582
132	0xbe12fe0f	-0.14354728
133	0xbf03e91f	-0.5152759
134	0x3e034557	0.1281942
135	0xbe688bdc	-0.22709602
136	0x3d98a4d2	0.07453312
137	0xbde76184	-0.112978965
138	0xbea4eeb1	-0.32213357
139	0xbe50a494	-0.20375282
140	0x3d4b1008	0.049575835
141	0xbe28dfe1	-0.16491653
142	0xbc8e54c7	-0.01737441
143	0x3ef5e9f2	0.4803005
144	0xbd9681cf	-0.07348978
145	0x3f5080ae	0.8144635
146	0xbf2657c1	-0.6497765
147	0x3cf6b0ab	0.030113539
148	0xbe1d642d	-0.15370245
149	0xbdad2faf	-0.084563605
150	0xbeb9de4f	-0.3630242
151	0xbf39abbc	-0.7252767
152	0x3d8108d6	0.063005134
153	0xbdba6937	-0.091020994
154	0xbe58a413	-0.2115634
155	0x3dfbeb09	0.12300689
156	0xbec787e7	-0.38970873
157	0x3f2f7709	0.6854101
158	0x3ee2d5cd	0.44303742
159	0xbe860820	-0.26178074
160	0xbefe4750	-0.49663782
161	0xbd602b5a	-0.054728843
162	0x3e0f37fd	0.13986202
163	0xbe31e63b	-0.17372982
164	0x3bb3340b	0.0054688505
165	0xbf4dce98	-0.8039336
166	0xbeccb9d9	-0.3998554
167	0x3d2572d6	0.04039272
168	0x3e478361	0.19483711
169	0x3e48f905	0.19626243
170	0x3f076e0c	0.52902293
171	0xbcca4a8e	-0.024693754
172	0xbf111aef	-0.5668172
173	0xbf2eb6bf	-0.682476
174	0xbec45be4	-0.38351357
175	0xbe671f5d	-0.22570558
176	0x3e54c04e	0.20776483
177	0x3e23a5d4	0.15981227
178	0x3df80a23	0.121113084
179	0x3ebb770c	0.36614263
180	0x3e03f70c	0.1288721
181	0x3e34f432	0.17671278
182	0x3f0e19d0	0.55508137
183	0xbe5b71be	-0.21430108
184	0x3f033c63	0.5126402
185	0x3efadcbd	0.48996535
186	0xbee63eb7	-0.44969723
187	0x3d3be90c	0.045876548
188	0x3f4fec18	0.81219625
189	0xbd9fa121	-0.07794405
190	0xbe8c62cd	-0.2741913
191	0x3e96ea06	0.2947542
192	0x3dbd8711	0.092542775
193	0xbea75e90	-0.32689333
194	0x3e66d402	0.22541812
195	0xbe42f657	-0.19039284
196	0x3e0c73a0	0.13715982
197	0x3daca529	0.08429939
198	0x3ed56fa0	0.41686726
199	0x3e18227c	0.14856905
200	0xbdc2b7fd	-0.09507749
201	0x3f03d367	0.5149445
202	0x3da33cc7	0.07970577
203	0xbe41ab10	-0.18912911
204	0x3f000036	0.5000032
205	0xbe58a463	-0.21156459
206	0x3efb82bc	0.4912318
207	0xbe5275e7	-0.20552789
208	0x3cae8793	0.021304881
209	0x3e2d4336	0.1692017
210	0x3d439514	0.047749594
211	0xbe85fb85	-0.26168457
212	0x3eae28d2	0.34015518
213	0x3e82bfe7	0.25537035
214	0xbf301af5	-0.68791133
215	0xbf1b29bd	-0.6061056
216	0xbd007fc8	-0.03137186
217	0xbebed3ca	-0.37270957
218	0xbd9534cf	-0.07285463
219	0x3e8e864e	0.2783684
220	0x3e03b1f9	0.1286086
221	0x3ee9a666	0.45634764
222	0x3e2443a1	0.16041423
223	0xbe35d1ab	-0.17755763
224	0x3e297ce1	0.16551544
225	0xbd393aa6	-0.045221947
226	0xbcf32157	-0.029678984
227	0x3dd8a00a	0.105774
228	0xbd5a7f3a	-0.05334399
229	0x3ea12873	0.31476173
230	0x3f24e029	0.6440454
231	0xbea43be8	-0.32076955
232	0xbdebd3ab	-0.11514982
233	0x3e1f1d68	0.15538561
234	0xbec81356	-0.39077252
235	0xbf29bcbe	-0.6630362
236	0xbdba8e64	-0.0910919
237	0x3e94c651	0.29057553
238	0xbd8ea9d6	-0.069659874
239	0x3e9bffde	0.3046865
240	0xbe1bdd16	-0.15221056
241	0x3e917fff	0.28417966
242	0xbd079c73	-0.033108186
243	0xbe9ad0e5	-0.302375
244	0x3e33ee79	0.17571439
245	0xbe97d0a1	-0.2965136
246	0xbf02b1c8	-0.5105252
247	0x3f31acf4	0.6940453
248	0x3e916e5c	0.2840451
249	0x3d2f1f95	0.04275473
250	0xbe024daf	-0.12724946
251	0xbe9913d0	-0.29897928
252	0xbea4364a	-0.3207267
253	0x3dcf541d	0.10123465
254	0x3da83af0	0.082143664
255	0x3ef5dbaf	0.48019168

transformer.embed.lin.bias f4 [72]
0	0xbea9a03d	-0.33130065
1	0x3ea96254	0.3308283
2	0x3e8da92d	0.27668133
3	0x3daf44d5	0.085580505
4	0xbddd4c4b	-0.10805567
5	0x3dc4c4bd	0.09607837
6	0xbe87f783	-0.26556024
7	0xbefe251f	-0.49637696
8	0x3d7dfa23	0.062006127
9	0xbefcbe41	-0.49363902
10	0x3e4b4048	0.1984874
11	0x3ec63b9e	0.3871736
12	0x3e569553	0.209554
13	0x3e7d54e4	0.24739414
14	0x3eb70d31	0.35752252
15	0x3e775f6c	0.24157494
16	0xbdbf16af	-0.093304984
17	0xbe8f1bd8	-0.2795093
18	0x3c7df1e7	0.015499569
19	0x3d3026c1	0.04300571
20	0x3e8d0548	0.27543092
21	0x3d797c14	0.060909346
22	0x3e3994a2	0.18123105
23	0x3e615b48	0.22007477
24	0xbeb8f989	-0.3612788
25	0xbe8532c1	-0.26015285
26	0x3e8291c2	0.2550183
27	0x3cbda70f	0.023150949
28	0x3d071af5	0.032984693
29	0x3e83e8e9	0.25763634
30	0x3e2dbe56	0.16967139
31	0xbea6acd9	-0.32553747
32	0xbeade3ab	-0.3396276
33	0x3e95360d	0.291428
34	0xbeb525a4	-0.3538028
35	0x3cf9a7b0	0.030475467
36	0x3e94397f	0.28950116
37	0xbe3a510d	-0.18194981
38	0xbdd8662b	-0.10566362
39	0xbdbdd929	-0.09269936
40	0x3d997262	0.0749252
41	0x3d93c574	0.072153956
42	0x3dc3bd8f	0.0955764
43	0x3d0f5ff2	0.03500361
44	0xbdbfacca	-0.09359129
45	0xbd7a770a	-0.06114868
46	0x3de34bc3	0.11098435
47	0xbe644c50	-0.22294736
48	0x3ea911ad	0.33021298
49	0x3e7ee73c	0.24892896
50	0xbe951da2	-0.2912417
51	0x3e3f5e40	0.18688297
52	0xbe642f41	-0.22283651
53	0x3e73b947	0.23801146
54	0x3ee45d91	0.44602636
55	0x3c565994	0.0130828805
56	0x3e371f24	0.17882973
57	0xbdd964db	-0.1061494
58	0x3ed16bb3	0.4090248
59	0x3e8b2168	0.27173924
60	0x3e232af9	0.15934362
61	0xbce9d737	-0.028545005
62	0xbe32797f	-0.1742916
63	0xbe9350aa	-0.2877248
64	0x3eeb44f2	0.4595104
65	0xbe50b189	-0.20380224
66	0x3e3cb21c	0.18427318
67	0x3e8bae10	0.27281237
68	0x3db10dcf	0.08645212
69	0xbeb6f891	-0.35736516
70	0x3ea9b3ff	0.3314514
71	0xbe8305a5	-0.25590244

transformer.embed.pos_embed.weight f4 [120, 72]
0	0xbe8b12e5	-0.27162853
1	0xbf3ae2bc	-0.7300222
2	0x3e7c3fba	0.24633685
3	0x3f1c40d8	0.61036444
4	0xbf11e0d8	-0.5698371
5	0x3f0f478c	0.55968547
6	0xbe38cd7c	-0.18047136
7	0x3f84c700	1.037323
8	0xbf6dffe8	-0.92968607
9	0xbfe02902	-1.7512515
10	0xbe572fe4	-0.21014363
11	0x3f90ca22	1.1311686
12	0x3f057ee3	0.5214674
13	0x3f80a01e	1.0048864
14	0xbf6aaa94	-0.9166653
15	0xbf84f528	-1.0387316
16	0x3d902af0	0.0703944
17	0xbddb098b	-0.106951796
18	0x3fb9e0aa	1.4521687
19	0x3f9d6f78	1.2299643
20	0x3fab927b	1.3404077
21	0xbffd8b17	-1.9808072
22	0xbfd4adc4	-1.6615529
23	0x3fa11d73	1.2587112
24	0xbff26d7e	-1.8939664
25	0x3ef1ce79	0.4722784
26	0x3e82fce2	0.2558356
27	0xbb175c9e	-0.0023095976
28	0xbed6582d	-0.41864148
29	0xbf52fa03	-0.8241274
30	0x3c00ffb0	0.007873461
31	0x3ed19f16	0.40941685
32	0x3faf05ec	1.3673682
33	0x3faed34f	1.3658236
34	0x3f0131a8	0.50466394
35	0x3d5dce84	0.054152027
36	0xbde2f821	-0.11082483
37	0x4021d64c	2.5287046
38	0xbf80146f	-1.0006236
39	0x3bf04515	0.007332454
40	0x3f6b5f95	0.9194272
41	0x3fa52498	1.2901793
42	0x3df89abb	0.121388875
43	0xbf302e52	-0.6882068
44	0x3f705f3a	0.93895304
45	0x3e8251ad	0.2545294
46	0x3c6f09aa	0.014589706
47	0xbde92cf5	-0.11385528
48	0x3f057d73	0.52144545
49	0x3fe6a16b	1.8018011
50	0x3fb74aa7	1.4319657
51	0x3f1bc508	0.6084752
52	0xbfa091ee	-1.2544534
53	0xbf63aac4	-0.8893244
54	0x3ebb684c	0.3660301
55	0xbc982c79	-0.018575894
56	0x3f92f4e4	1.1480985
57	0xbf78e653	-0.97226447
58	0x3e6918f5	0.22763427
59	0xbe39abaf	-0.18131898
60	0xbf3fb982	-0.7489244
61	0xbf822c48	-1.0169764
62	0xbef12af1	-0.47103074
63	0x3f46ed8c	0.7770622
64	0xbfa535f1	-1.2907087
65	0x3ea5a05c	0.32348907
66	0x3fbebaff	1.4900817
67	0x3ee2248d	0.4416851
68	0xbf046f67	-0.51732486
69	0x3f18635c	0.5952661
70	0xbf85714d	-1.0425202
71	0x3f3babdb	0.73309106
72	0xbfa0d627	-1.2565354
73	0x3f1ea9bd	0.6197775
74	0xbe2880a2	-0.1645532
75	0x3f7d5be9	0.9896837
76	0xbf31528e	-0.69266593
77	0x3f02feb7	0.51169914
78	0x3fc72ba9	1.5560199
79	0x402f64b7	2.7405221
80	0xbf3df2cf	-0.7419862
81	0xbff24125	-1.892613
82	0xbef8a4e2	-0.48563296
83	0x3df72bb7	0.12068885
84	0x3f918c37	1.1370915
85	0xbee3a454	-0.4446131
86	0x3fec65c2	1.8468554
87	0xbf1f468c	-0.6221702
88	0xbe72ed5f	-0.23723362
89	0x3f3bcd7d	0.73360425
90	0x3fc00a12	1.5003073
91	0x3fbeb0f7	1.4897755
92	0xbf5f3aa2	-0.8719884
93	0xbe6bb4c0	-0.2301817
94	0x3fc350c5	1.5259024
95	0x3f577f20	0.8417835
96	0x3f9ef4f8	1.2418509
97	0x3fb4abd7	1.4114941
98	0x3dc78f55	0.09744135
99	0x3ed5ca19	0.4175575
100	0xbf347fe3	-0.7050764
101	0xbfe28286	-1.7696083
102	0x401026de	2.2523723
103	0x3fab3cc3	1.3377918
104	0x3f4d0c68	0.80097055
105	0x3f8d08cf	1.1018313
106	0xbf9cc244	-1.2246785
107	0x3e2b55fe	0.16732022
108	0xbf760e81	-0.9611588
109	0xbf2c7bf1	-0.6737662
110	0xbe3b42a5	-0.18287142
111	0x3fad77a3	1.3552135
112	0x3fb12c10	1.3841572
113	0x3c92467e	0.017855879
114	0xbfbeeb48	-1.4915552
115	0xbf3c5d35	-0.7357972
116	0xbf3e1d2a	-0.7426325
117	0x3ee0410f	0.43799636
118	0xbe034631	-0.12819745
119	0x3f99e494	1.2022882
120	0xbe67c871	-0.22635056
121	0x402bf64f	2.6869085
122	0x3f3ae10b	0.7299964
123	0xbf106aa5	-0.56412727
124	0xbf931ca9	-1.1493121
125	0x401b38e5	2.4253476
126	0xbeec0e28	-0.4610455
127	0x3eaa4f3f	0.33263585
128	0x400c1011	2.1884806
129	0x3e6a6931	0.2289169
130	0x3fd1874a	1.6369412
131	0xbef43829	-0.47699097
132	0xbf3d4d4b	-0.73946065
133	0x3f3d0954	0.7384236
134	0xbff7fc6b	-1.9373907
135	0x3d25c8fc	0.040474877
136	0xbf78ec9f	-0.97236055
137	0x3f1e8b28	0.61931086
138	0x3e100913	0.14065962
139	0xbdeccd70	-0.115626216
140	0x3f9e5437	1.236945
141	0xbfb327e0	-1.3996544
142	0xbfdf708a	-1.7456219
143	0x3fe9426a	1.8223393
144	0x3e25d7c3	0.16195588
145	0xbf7a5c11	-0.9779673
146	0xc018230c	-2.377139
147	0x3f892a3f	1.0716017
148	0x3fc065b0	1.5031033
149	0x3f23f0fa	0.64039576
150	0x3f89132e	1.0708978
151	0x3fa4c0c1	1.2871324
152	0xbe89dbbe	-0.26925462
153	0xc0333602	-2.8001714
154	0x3facd463	1.3502315
155	0x3f4c7193	0.798608
156	0xc0068c1e	-2.102302
157	0xbf736721	-0.9507924
158	0x3f0c783a	0.5487095
159	0x3f75d47e	0.9602736
160	0x3f291b1c	0.6605699
161	0x3f86f745	1.0544211
162	0xc00b6dfc	-2.178588
163	0x402bb8ed	2.683162
164	0xbe5e9fd3	-0.21740656
165	0x3f2631d2	0.6491977
166	0xbf5f1681	-0.87143713
167	0x3fba636e	1.4561594
168	0xbf79df09	-0.9760595
169	0x3fb30d51	1.3988439
170	0x3f826f28	1.0190172
171	0xbf80421c	-1.0020175
172	0xbf821296	-1.0161922
173	0xbee02076	-0.43774766
174	0x3f6d2afd	0.9264372
175	0xbfa4d4d6	-1.2877452
176	0xbf461f63	-0.7739164
177	0x3e9587b3	0.29205093
178	0xbf906c60	-1.1283073
179	0x3f309296	0.6897367
180	0x3db5c46d	0.08875356
181	0x3ef5be00	0.4799652
182	0xbd92d5ad	-0.07169662
183	0x3f86b869	1.0525028
184	0x3f96c73c	1.1779552
185	0x3f81c2c2	1.013756
186	0xbfa0ff7d	-1.2577969
187	0x3f0f5a23	0.5599691
188	0x3eafa084	0.3430215
189	0x3f585c54	0.8451588
190	0xbe145bb9	-0.14488114
191	0x3fda5e75	1.7060076
192	0x3e79f466	0.24409637
193	0x3fb331ca	1.399957
194	0xbf82713f	-1.019081
195	0xbf14e197	-0.5815672
196	0x3f38e198	0.7221923
197	0xc0085ae8	-2.1305485
198	0xbe2c4abe	-0.16825387
199	0x3eeaec71	0.45883515
200	0x401de68b	2.4671962
201	0xbfa0b74f	-1.2555941
202	0x3fc8f9bb	1.5701212
203	0xbe2e289c	-0.17007679
204	0x3ee6de3b	0.45091423
205	0xbebd8f33	-0.37023315
206	0xbeb21062	-0.34778124
207	0xc0096714	-2.1469164
208	0xbf6535d9	-0.8953529
209	0xbdc6ce06	-0.097072646
210	0x40228abf	2.5397184
211	0x3df41764	0.11918524
212	0xbe2eeda0	-0.17082834
213	0xbef5521e	-0.47914213
214	0xbff1ca55	-1.8889872
215	0x3ef1e9f2	0.472488
216	0xbfe5c572	-1.795088
217	0x3f44d753	0.7689106
218	0xbeb9cb93	-0.36288127
219	0xbf7c6b37	-0.98601097
220	0xbeb88d44	-0.36045277
221	0xbf11eca8	-0.57001734
222	0x3f83b1cb	1.0288633
223	0xbea78c2f	-0.3272414
224	0xbf840385	-1.0313574
225	0xbfb3d97e	-1.4050748
226	0xbf8cf693	-1.1012748
227	0xbf979417	-1.1842068
228	0xbebf30c3	-0.3734189
229	0xbf915c99	-1.1356384
230	0x3fc6334a	1.5484402
231	0x3f14ea37	0.58169883
232	0xbe7b8ace	-0.24564669
233	0x3ebd962a	0.3702863
234	0x3f7582a3	0.9590246
235	0x3ffd47d9	1.9787551
236	0x3fdace23	1.7094158
237	0xbe94fec5	-0.29100624
238	0xbfbc91b8	-1.473197
239	0x40047fc3	2.070298
240	0xbf6cd0ce	-0.9250611
241	0xbee1b1c1	-0.44080928
242	0xbf36b21f	-0.7136554
243	0x3f6fcb07	0.9366917
244	0xbf8de645	-1.1085898
245	0xbf931994	-1.1492181
246	0xbf3a54f4	-0.7278588
247	0x3f9b69f6	1.2141712
248	0x3f426310	0.7593241
249	0x3fcaf96f	1.5857371
250	0xbf991da7	-1.1962174
251	0x3ef1c95b	0.47223935
252	0xbfcaaaec	-1.5833411
253	0x3fdef7fa	1.7419426
254	0x3ece97db	0.40350232
255	0x3f587b0d	0.8456276

transformer.embed.norm.gamma f4 [72]
0	0x3f5307d0	0.82433796
1	0x3f46e641	0.7769509
2	0x3f70c932	0.94057
3	0x3f557bbf	0.83391947
4	0x3f3fdf96	0.7495054
5	0x3f40afcc	0.75268245
6	0x3f4e99d8	0.80703497
7	0x3fadcb35	1.3577639
8	0x3f80443b	1.0020822
9	0x3f9fc78a	1.248277
10	0x3f450894	0.76966214
11	0x3f88c8fa	1.0686333
12	0x3f394219	0.7236648
13	0x3f49a230	0.78763103
14	0x3f4ff3fe	0.8123168
15	0x3f9661eb	1.1748632
16	0x3f463d08	0.77436876
17	0x3f62ba00	0.88565063
18	0x3f5a273b	0.8521611
19	0x3f6a2dc4	0.9147608
20	0x3f41b097	0.7566008
21	0x3f6da49e	0.9282931
22	0x3f4753ff	0.7786254
23	0x3f4af0d5	0.7927373
24	0x3f7d8b76	0.99040926
25	0x3f60aab8	0.87760496
26	0x3f554443	0.83307284
27	0x3f32970c	0.6976173
28	0x3f2eaaea	0.68229544
29	0x3f5905cf	0.8477449
30	0x3f1904e2	0.59773076
31	0x3f5b2707	0.85606426
32	0x3f593005	0.84838897
33	0x3f4203ad	0.7578686
34	0x3f808b10	1.0042439
35	0x3f11fac0	0.5702324
36	0x3f356bcb	0.70867604
37	0x3f52fa4d	0.8241318
38	0x3f4af190	0.79274845
39	0x3f551aaa	0.8324381
40	0x3f45b4a1	0.7722874
41	0x3f472683	0.7779314
42	0x3f3eb7bc	0.74499106
43	0x3f4fffb7	0.81249565
44	0x3f2d59b5	0.6771501
45	0x3f784cd8	0.96992254
46	0x3f5bce3f	0.8586158
47	0x3f4919a2	0.7855474
48	0x3f6fce26	0.9367393
49	0x3f46dac7	0.7767758
50	0x3f4d4784	0.8018725
51	0x3f525123	0.82155055
52	0x3f3d7c1a	0.7401749
53	0x3f2dcebe	0.6789359
54	0x3f5d17f8	0.863647
55	0x3f2fe594	0.68709683
56	0x3f6ccb4f	0.92497724
57	0x3f5a4479	0.8526073
58	0x3f78e22e	0.9722012
59	0x3f5309c8	0.824368
60	0x3f4caa43	0.799473
61	0x3f5616ca	0.83628523
62	0x3f6229d7	0.8834509
63	0x3f6a1de2	0.9145185
64	0x3f8c7219	1.097232
65	0x3f4b3fe7	0.7939438
66	0x3f6ef6c3	0.9334528
67	0x3f3f2ddc	0.7467935
68	0x3f74346d	0.95392495
69	0x3f7cff5f	0.98827165
70	0x3f5aa8cb	0.8541381
71	0x3f6bc45f	0.92096514

transformer.embed.norm.beta f4 [72]
0	0x3e722717	0.23647724
1	0x3d333611	0.043752734
2	0x3c76a588	0.015054114
3	0x3b181ae4	0.0023209387
4	0x3e0f1367	0.13972245
5	0x3e07e7cc	0.13272017
6	0x3e9255ae	0.28580993
7	0xbd071845	-0.03298213
8	0x3d2d1bba	0.04226277
9	0xbdb007de	-0.085952505
10	0xbe17427b	-0.14771454
11	0xbd7637ec	-0.060111925
12	0xbe80479c	-0.25054634
13	0xbe4b18d0	-0.19833684
14	0xbea0ae0e	-0.31382793
15	0xba7c769a	-0.000963071
16	0x3d7be4ae	0.061497383
17	0x3ce8d2ff	0.028420923
18	0x3d8fb1a0	0.07016301
19	0xbe1f5966	-0.15561447
20	0xbde83d64	-0.11339834
21	0xbe38f707	-0.18062983
22	0xbe030b7f	-0.12797354
23	0xbdb895ca	-0.09012945
24	0x3ecd21ad	0.40064755
25	0x3e94e3d1	0.2908006
26	0x3d1d86a9	0.0384585
27	0xbd7f52c6	-0.0623348
28	0xbdaf666a	-0.08564456
29	0x3c53bc6d	0.012923342
30	0xbda5db82	-0.080985084
31	0x3ebc4507	0.36771414
32	0x3e3c661e	0.1839833
33	0xbea6f6d6	-0.32610196
34	0x3c847b67	0.016172124
35	0xbc7a9c1d	-0.015296009
36	0xbe579bbf	-0.21055506
37	0x3d06b80f	0.032890376
38	0x3d94b750	0.072615266
39	0x3e4ace85	0.19805343
40	0x3c8aeea0	0.016959488
41	0x3e562a5b	0.20914595
42	0x3e12392a	0.14279619
43	0x3cf51f55	0.029922167
44	0x3e1805c4	0.1484595
45	0x3cab2827	0.02089317
46	0xbd487c42	-0.048946626
47	0x3e1b2b1d	0.15153165
48	0xbe8e271a	-0.27764207
49	0xbe2bbb96	-0.16770777
50	0x3f047d65	0.51753837
51	0xbe1d8b88	-0.15385258
52	0x3d97e782	0.074172035
53	0xbd28eeca	-0.041243352
54	0x3c6bbc07	0.014388091
55	0x3e15ce2c	0.1462943
56	0x3cc12090	0.023575097
57	0x3de13733	0.109968565
58	0xbe4b9d09	-0.19884123
59	0xbe283bc2	-0.16429046
60	0x3d91b5a3	0.071147226
61	0x3e56cc11	0.20976283
62	0x3d8e1e68	0.06939393
63	0x3d77dcfb	0.060513478
64	0xbe05530f	-0.13019966
65	0x3e50930a	0.20368591
66	0xbe0d4a0e	-0.13797781
67	0xbeae0621	-0.3398905
68	0xbd608d7b	-0.054822426
69	0x3ddce8a3	0.107865594
70	0xbe40d601	-0.18831636
71	0x3d860542	0.065439716

transformer.attn.proj_q.weight f4 [72, 72]
0	0x3dce0cdf	0.10061049
1	0x3d0317da	0.03200517
2	0x3d15f28e	0.03660827
3	0xbd2f9f1a	-0.04287634
4	0xbdd62de6	-0.10457973
5	0x3e471df3	0.19445018
6	0x3c8ad6be	0.0169481
7	0xbd666772	-0.056250997
8	0xbd6ca245	-0.05777194
9	0xbd924f2c	-0.07144007
10	0xbe6b3f09	-0.22973265
11	0xbe1265b4	-0.14296609
12	0xbe5539b0	-0.20822787
13	0xbdb7f133	-0.08981552
14	0xbe90b46b	-0.28262648
15	0xbe4b0a36	-0.19828114
16	0x3e069e8e	0.13146421
17	0x3e977de5	0.29588237
18	0xbe1c4a4b	-0.15262716
19	0x3d811115	0.06302086
20	0xbe336048	-0.17517197
21	0xbd79185b	-0.060814243
22	0xbdd20f6c	-0.10256848
23	0x3c080f4c	0.008304428
24	0xbe31afa1	-0.17352153
25	0x3e6f2db6	0.23357281
26	0x3e394416	0.18092379
27	0x3e2ed5ad	0.17073698
28	0x3d0d6458	0.034519523
29	0xbaae6976	-0.0013306576
30	0xbe9e1901	-0.3087845
31	0x3e4e7950	0.20163465
32	0x3e063662	0.13106683
33	0xbe539320	-0.20661592
34	0xbca9e56f	-0.020739285
35	0x3ec01f6d	0.37523976
36	0xbd1d1edc	-0.038359508
37	0xbce93cf9	-0.028471457
38	0x3d84668d	0.064648725
39	0x3e66da53	0.22544222
40	0xbc1f59aa	-0.009725967
41	0x3e4ac601	0.19802095
42	0x3e55793e	0.20847031
43	0x3e8115d2	0.2521196
44	0x3d64d0ec	0.055863306
45	0x3d395a03	0.045251857
46	0x3d093c75	0.033504922
47	0x3dffa56d	0.12482724
48	0xbe8151b6	-0.25257653
49	0x3e721890	0.23642182
50	0x3dc43200	0.09579849
51	0xbde92c17	-0.113853626
52	0x3d11029a	0.03540287
53	0x3d254a70	0.040354192
54	0xbe35e105	-0.1776162
55	0xbe0899f3	-0.13339977
56	0x3e8f322d	0.2796797
57	0xbdb30b8c	-0.08742437
58	0x3c8f977c	0.017528288
59	0xbcf30385	-0.029664764
60	0x3d3e0c34	0.046398357
61	0xbdbe8160	-0.0930202
62	0xbd3587ca	-0.04431895
63	0x3e0007c5	0.12502964
64	0x3d673608	0.056448013
65	0x3dd5a935	0.10432664
66	0xbe115f83	-0.14196591
67	0xbd95a623	-0.07307079
68	0xbd0f2cb7	-0.034954753
69	0xbdab4090	-0.08361924
70	0xbe49a465	-0.19691618
71	0x3d758e49	0.059950147
72	0xbd99ef0b	-0.07516297
73	0xbe26c2af	-0.16285203
74	0xbdb30f62	-0.087431684
75	0x3d949e99	0.072568126
76	0x3d0c981e	0.034324758
77	0xbe1270f6	-0.14300904
78	0xbe685991	-0.22690417
79	0x3cdff925	0.027340481
80	0x3e17579a	0.14779511
81	0xbc1fd8f3	-0.009756315
82	0xbecfbef2	-0.40575367
83	0xbcd27451	-0.02569023
84	0x3ed1fcb5	0.41013113
85	0xbdf1e3a7	-0.11810999
86	0x3de090de	0.10965131
87	0xbe0a0b8e	-0.1348097
88	0x3e514eff	0.20440291
89	0xbe4ead6d	-0.20183344
90	0x3da58858	0.08082646
91	0xbe0e20b0	-0.13879657
92	0xbd610124	-0.05493273
93	0x3a3c3e0c	0.00071808766
94	0x3d8e518e	0.06949149
95	0xbe1162dc	-0.14197868
96	0xbd1185ca	-0.03552798
97	0xbe0b6694	-0.13613349
98	0x3d11851f	0.035527345
99	0x3dc0c994	0.09413448
100	0x3c72370a	0.01478363
101	0x3d9be7eb	0.07612594
102	0x3e11be83	0.1423283
103	0xbeb7d1ce	-0.35902256
104	0xbe3e052d	-0.18556662
105	0x3e11813a	0.14209452
106	0x3d8d5de8	0.06902677
107	0xbdcd9671	-0.1003846
108	0xbda6cf11	-0.081449635
109	0xbdb6ec07	-0.089317374
110	0xbc295c70	-0.01033698
111	0xbe843c53	-0.25827274
112	0xbd77d3c3	-0.060504686
113	0xbc47194b	-0.012152026
114	0x3e8cc967	0.27497408
115	0xbdc52042	-0.09625293
116	0x3df078dc	0.11741802
117	0x3e173b33	0.14768676
118	0x3e9b61b9	0.30347994
119	0x3e21db2b	0.15806262
120	0xbe7dd10d	-0.24786778
121	0x3e16624f	0.14685939
122	0xbde268c1	-0.110551365
123	0xbd6d4088	-0.05792287
124	0xbd8d5cac	-0.069024414
125	0xbe47339f	-0.19453286
126	0x3adf1dc7	0.0017022424
127	0x3c83e13d	0.016098613
128	0x3de603f4	0.11231223
129	0x3e1c281c	0.15249676
130	0x3e32f9ce	0.17478105
131	0x3e07068c	0.13186091
132	0x3d057f43	0.03259207
133	0xbe93183d	-0.2872943
134	0xbd8dae76	-0.069180414
135	0x3d8370c2	0.06417991
136	0x3dea5a6d	0.114430286
137	0xbd9f4143	-0.077761196
138	0x3c185958	0.009298645
139	0xbd628000	-0.05529785
140	0x3e912f3f	0.28356358
141	0x3ca9074a	0.020633359
142	0x3e23ed68	0.16008532
143	0xbcfeb837	-0.0310937
144	0xbd2058cf	-0.039147194
145	0xbd13a8f8	-0.036049813
146	0xbe9a47eb	-0.30132994
147	0x3e3613ec	0.17781037
148	0xbd20f88b	-0.03929953
149	0xbd7adfef	-0.061248716
150	0x3e51e687	0.20498095
151	0x3e4614e1	0.19343902
152	0x3d8ad660	0.0677917
153	0xbd115edd	-0.03549086
154	0x3e027059	0.1273817
155	0x3e5b61b7	0.21423994
156	0xbe25b77c	-0.16183275
157	0x3db2cf34	0.08730927
158	0xbc955ff2	-0.018234227
159	0x3e45adfb	0.1930465
160	0xbdb1763f	-0.08665132
161	0x3e9a719a	0.30164796
162	0x3ea2dcdf	0.31809136
163	0x3e01c46d	0.12672587
164	0x3dd04a21	0.10170389
165	0xbea8d42d	-0.32974377
166	0xbe15c76d	-0.14626856
167	0xbe8e14e4	-0.27750313
168	0xbd53895c	-0.051644668
169	0xbeb72980	-0.3577385
170	0xbc775417	-0.015095732
171	0xbe4601de	-0.1933665
172	0xbd93f1b6	-0.07223837
173	0xbe142aa5	-0.14469393
174	0xbdc4459e	-0.09583591
175	0x3bb9a51d	0.005665435
176	0xbc12c0fb	-0.008957143
177	0xbea0cee8	-0.31407857
178	0x3ded874d	0.11598072
179	0x3d966d2d	0.073450424
180	0xbdbb1d7d	-0.09136484
181	0x3dd17ed0	0.10229266
182	0xbdee2645	-0.11628393
183	0x3cd83cec	0.026396237
184	0x3d9c3aac	0.07628378
185	0xbd5e3602	-0.054250725
186	0xbb054631	-0.0020336027
187	0x3e2b9ce5	0.1675907
188	0x3c9ce7a9	0.019153433
189	0xbdd3c1fd	-0.10339735
190	0xbd1cd374	-0.038287595
191	0xbc5409c1	-0.012941779
192	0xbe860159	-0.26172903
193	0x3e883eec	0.26610506
194	0x3e678c50	0.22612119
195	0xbe112f40	-0.1417818
196	0xbdf5d43d	-0.12003372
197	0xbd004918	-0.031319708
198	0x3d953d24	0.07287052
199	0x3e41b637	0.18917166
200	0x3e1454dd	0.14485498
201	0xbe27c9a0	-0.16385508
202	0xbe3fa757	-0.18716179
203	0x3d8b79a3	0.0681031
204	0xbe975a76	-0.29561204
205	0xbd4931bb	-0.049119692
206	0xbdf22c64	-0.11824873
207	0xbdf0f3fa	-0.11765285
208	0x3dd84c08	0.10561377
209	0x3e2585fa	0.16164389
210	0x3e173f44	0.14770228
211	0xbdfac8bc	-0.12245318
212	0x3e22d428	0.15901244
213	0xbdaecbdb	-0.08534976
214	0xbddaccf7	-0.10683625
215	0x3da46d73	0.08028688
216	0x3e73e333	0.23817138
217	0x3e06c04e	0.13159296
218	0x3d8c8724	0.068617135
219	0xbe46d07b	-0.19415466
220	0xbcd7e75e	-0.026355442
221	0xbdb93b69	-0.09044535
222	0x3e33e8c1	0.17569257
223	0xbe725c3f	-0.23668002
224	0xbe04e50a	-0.12977996
225	0x3df56162	0.11981465
226	0x3e4619c3	0.19345765
227	0xbeb69500	-0.35660553
228	0x3e4ece32	0.20195845
229	0xbe65942e	-0.22419807
230	0xbdf0baba	-0.11754365
231	0x3d82d8b2	0.063889876
232	0x3e441216	0.19147524
233	0xbde78d0b	-0.11306199
234	0xbce97765	-0.028499315
235	0xbddbc7d5	-0.10731474
236	0xbe90a002	-0.28247076
237	0x3e3bbe87	0.18334399
238	0x3e9c6886	0.30548495
239	0x3cec6933	0.028858757
240	0xbc3d4189	-0.011551269
241	0x3d0b045d	0.033939708
242	0x3d173824	0.036918774
243	0x3e5b32a5	0.21406038
244	0xbdf513b3	-0.11966648
245	0x3e1653c0	0.14680386
246	0xbe19d618	-0.15023077
247	0x3d1f6965	0.03891887
248	0x3e88bd99	0.26707152
249	0x3de5deca	0.11224134
250	0xbe3488e5	-0.17630346
251	0xbdc7caea	-0.097555
252	0xbe30802d	-0.17236395
253	0xbde0eea5	-0.10983018
254	0xbe46311b	-0.1935467
255	0x3ded1441	0.11576129

transformer.attn.proj_q.bias f4 [72]
0	0xbe9d5c9b	-0.30734715
1	0x3d229b0b	0.03969864
2	0xbeb5da7f	-0.35518262
3	0xbee2855f	-0.4424238
4	0xbe8e9682	-0.27849203
5	0x3e5dd4a7	0.21663152
6	0x3c7d45d1	0.01545854
7	0x3ea40b3e	0.32039827
8	0x3e8afd5b	0.2714642
9	0x3d9cca73	0.076558016
10	0x3e272fad	0.1632678
11	0xbe4f4663	-0.20241694
12	0xbe19d25f	-0.15021656
13	0x3d3566e5	0.04428758
14	0x3dbe500f	0.09292614
15	0xbd986229	-0.074405976
16	0x3e3721b4	0.1788395
17	0xbc9b3609	-0.018946664
18	0x3d72ff65	0.059325594
19	0x3d804d23	0.06264713
20	0xbde96bdb	-0.11397525
21	0xbe4ff2ca	-0.2030746
22	0x3e5099e7	0.20371209
23	0xbe0d49cb	-0.13797681
24	0x3ece5638	0.40300155
25	0xbd83ee0b	-0.064418875
26	0x3cd46b71	0.025930138
27	0xbe748d59	-0.23882045
28	0xbafa9eb5	-0.0019120785
29	0x3d29ee6f	0.041487154
30	0xbd58c1bb	-0.05291913
31	0xbea23fb8	-0.3168924
32	0x3dfb9aa0	0.12285352
33	0x3e82f00f	0.25573775
34	0xbd6a8bce	-0.057262234
35	0xbe398723	-0.18117957
36	0xbc53b953	-0.012922603
37	0xbe8bceec	-0.27306306
38	0xbe820605	-0.25395218
39	0x3e545869	0.20736851
40	0xbdfced3f	-0.123499386
41	0x3d15fd94	0.036618784
42	0x3dee0cd6	0.11623542
43	0x3e66f0db	0.22552817
44	0xbe9ec16d	-0.31006947
45	0xbe8dbcf4	-0.27683222
46	0xbd41411a	-0.047181226
47	0x3df7e7fc	0.121047944
48	0xbe13173c	-0.14364332
49	0xbd64b837	-0.055839743
50	0xbdc82a63	-0.097737096
51	0x3ec681a9	0.38770798
52	0x3e85bec8	0.26122117
53	0x3e26f242	0.16303352
54	0x3e938dff	0.28819272
55	0xbb53314c	-0.0032225428
56	0x3e00c146	0.12573728
57	0x3c078917	0.008272431
58	0x3d5911c0	0.052995443
59	0xbd0a74e5	-0.033802886
60	0x3c10fe3b	0.008849676
61	0xbdfb123d	-0.12259338
62	0xbc47ec72	-0.012202369
63	0x3e0c2e7f	0.13689612
64	0xbe194047	-0.14965926
65	0xbd0f1d72	-0.03494019
66	0x3d14bf1a	0.03631506
67	0x3e702366	0.23451003
68	0xbd13ff6f	-0.036132272
69	0xbc05389a	-0.008131171
70	0xbcffc58c	-0.031222127
71	0xbd1a2a79	-0.03763816

transformer.attn.proj_k.weight f4 [72, 72]
0	0xbc0fff34	-0.0087888725
1	0x3d64e21d	0.0558797
2	0xbdf92921	-0.12166048
3	0x3d2febaf	0.042949375
4	0x3e10ba52	0.14133576
5	0x3e15f77c	0.14645189
6	0x3d1c505d	0.038162578
7	0xbe19a3f2	-0.15003946
8	0x3c198731	0.009370611
9	0xbd283711	-0.04106814
10	0x3d89bdad	0.06725631
11	0x3df108ff	0.11769294
12	0xbd2e274f	-0.042517956
13	0x3bb85ff5	0.0056266733
14	0x3e88dd6e	0.26731437
15	0x3e720e73	0.23638324
16	0x3e59415f	0.21216343
17	0xbdf94794	-0.121718556
18	0x3c0689ea	0.008211592
19	0x3dc245e6	0.09485988
20	0xbd570b74	-0.052501157
21	0xbcaf114a	-0.021370549
22	0x3e0b5395	0.13606103
23	0x3e5a909b	0.21344225
24	0xbea2b0ad	-0.31775418
25	0xbe08ea59	-0.13370647
26	0x3d097e1a	0.033567525
27	0xbd2cc7dc	-0.04218279
28	0x3af6fb09	0.0018843125
29	0xbd3976da	-0.04527936
30	0x3c6a2adc	0.014292445
31	0xbe78d022	-0.24298146
32	0x3d322c82	0.043499477
33	0x3e6fe250	0.23426175
34	0xbbaffb4f	-0.0053705345
35	0xbc9ce0f6	-0.019150238
36	0x3e30f36a	0.17280355
37	0x3baaf98a	0.0052177357
38	0xbed1cca2	-0.40976435
39	0xbe1ca96d	-0.15299006
40	0x3d68a539	0.056798194
41	0xbcf99d14	-0.030470408
42	0xbe4e1f55	-0.2012914
43	0x3e2674a3	0.16255431
44	0xbe8c63de	-0.27419943
45	0x3ca6f770	0.02038166
46	0x3ea1f540	0.31632423
47	0xbefbd0f5	-0.4918286
48	0x3e88d33d	0.26723662
49	0x3d5af934	0.053460315
50	0xbe0b9ff5	-0.13635238
51	0x3decbe25	0.11559705
52	0xbda89938	-0.08232349
53	0xbb157d72	-0.0022810367
54	0xbe0c02c2	-0.13672927
55	0xbd8c188e	-0.06840621
56	0x3e14f9f9	0.14548482
57	0xbce9daca	-0.02854671
58	0x3c5f564a	0.013631413
59	0x3d130314	0.035891607
60	0x3d53c1a5	0.051698346
61	0xbd756f09	-0.059920345
62	0xbe4f9b59	-0.20274104
63	0xbe6c0e79	-0.23052396
64	0xbc3cbb90	-0.011519328
65	0xbde275c6	-0.1105762
66	0x3d2b5823	0.0418321
67	0x3c7ab25f	0.015301316
68	0xbe603cdd	-0.21898217
69	0xbe3f43b1	-0.18678166
70	0xbdc9bf13	-0.09850898
71	0x3ddf565b	0.10905143
72	0xbc5f2237	-0.013618997
73	0x3d2313ac	0.039813682
74	0x3d198d23	0.037488114
75	0xbe4807ea	-0.19534269
76	0xbe6112e3	-0.21979861
77	0xbd85d8ac	-0.065354675
78	0x3e5bf242	0.21479133
79	0xbd47f373	-0.048816156
80	0xbb7d879e	-0.003868557
81	0x3e5723e5	0.21009786
82	0x3e2e22f7	0.17005526
83	0x3c634e1b	0.013873602
84	0xbe67f7ce	-0.22653124
85	0xbe171095	-0.1475242
86	0x3eb5a63c	0.3547839
87	0x3e42ca36	0.1902245
88	0x3df73bf4	0.12071982
89	0xbcac16fa	-0.02100705
90	0xbdc0ce0b	-0.094142996
91	0xbe3ed943	-0.18637566
92	0x3e213940	0.15744495
93	0xbd06edbc	-0.032941565
94	0x3bf24ea0	0.0073946267
95	0xbde53a0b	-0.111927114
96	0xbc804a26	-0.015660357
97	0xbe5ced26	-0.2157484
98	0xbe177525	-0.14790781
99	0xbd506839	-0.050880644
100	0x3d9ee7e8	0.07759076
101	0x3c916146	0.017746579
102	0xbdd4c705	-0.103895225
103	0x3dd1692e	0.102251396
104	0x3e0c3cbc	0.13695043
105	0x3d05adc0	0.032636404
106	0xbe886df1	-0.2664638
107	0xbdf843ef	-0.12122332
108	0xbec57796	-0.385678
109	0x3e4fd3e4	0.20295674
110	0xbd359589	-0.04433206
111	0xbe3c85aa	-0.18410364
112	0x3e23c2fe	0.15992352
113	0x3ddf5b36	0.10906069
114	0xbdebdd55	-0.11516825
115	0xbe30a9ea	-0.17252317
116	0x3e00098d	0.12503643
117	0x3d8b36b3	0.067975424
118	0x3e239b21	0.15977146
119	0xbe36544f	-0.17805599
120	0x3eb3ef01	0.35143283
121	0xbe8d2206	-0.2756502
122	0xbb9b349e	-0.004736497
123	0xbcc4087b	-0.023929825
124	0x3e8b78ba	0.27240545
125	0x3d59bae5	0.053156752
126	0x3e0213ac	0.12702817
127	0x3dc960bf	0.09832906
128	0x3c31ede6	0.010859942
129	0x3ecd1ec6	0.4006254
130	0x3d5ed8ac	0.054405853
131	0x3da4aa79	0.080403276
132	0xbc807fee	-0.015686002
133	0x3e2ef1b3	0.17084388
134	0x3cede6de	0.02904075
135	0x3c3e88ad	0.011629266
136	0x3d986e00	0.07442856
137	0x3df7e24a	0.12103708
138	0xbe61c12b	-0.22046344
139	0xbdfdafa2	-0.12387015
140	0x3c4cf14d	0.012508702
141	0xbda64f4f	-0.08120596
142	0x3dcaffae	0.09912048
143	0x3e2905d3	0.16506128
144	0x3e828196	0.2548949
145	0xbd230620	-0.039800763
146	0x3e076956	0.13223776
147	0xbed2de2c	-0.4118513
148	0xbe08feb4	-0.13378412
149	0x3d75889f	0.059944745
150	0xbe29885c	-0.16555923
151	0xbee067d4	-0.43829215
152	0xbd88aba3	-0.06673362
153	0xbe34e295	-0.17664559
154	0xbe8fbed0	-0.28075266
155	0x3e6d6bc2	0.23185638
156	0x3df20dfc	0.118190736
157	0x3e140ae7	0.14457284
158	0x3dc6fee7	0.097165875
159	0xbdaa6d7c	-0.08321664
160	0x3c3b8daa	0.01144735
161	0xbeca92e4	-0.39565194
162	0xbe379ab5	-0.1793011
163	0xbca2015e	-0.019776043
164	0x3db197de	0.086715445
165	0x3e8627c3	0.2620221
166	0x3e104a62	0.14090875
167	0x3e5d52f5	0.21613677
168	0x3ce60996	0.028080743
169	0x3f01d64d	0.5071762
170	0xbd54c42c	-0.051944897
171	0x3d2099d9	0.03920922
172	0x3e73bbe6	0.23802146
173	0x3dd00b81	0.10158444
174	0x3a5b05df	0.0008355062
175	0xbcc79d46	-0.024366986
176	0xbdd177c6	-0.10227923
177	0x3ebcad78	0.36851096
178	0xbe80c25e	-0.2514829
179	0x3d2c6093	0.042084288
180	0xbcae3b59	-0.021268534
181	0xbd699884	-0.057030216
182	0x3e3a0146	0.18164548
183	0x3dc9e03f	0.09857225
184	0xbd95cab3	-0.073140524
185	0xbdabf3a1	-0.08396078
186	0x3d3852af	0.04500073
187	0xbceb487a	-0.028721083
188	0xbe837c58	-0.25680804
189	0x3ccaa79c	0.024738126
190	0xbdd13912	-0.102159634
191	0xbbb24402	-0.005440236
192	0x3f00033a	0.50004923
193	0xbb5d8f7f	-0.0033807454
194	0xbe706991	-0.2347777
195	0xbdf188d8	-0.11793679
196	0xbe25648f	-0.16151641
197	0x3e189f40	0.14904499
198	0xbdbea8a7	-0.09309512
199	0xbd93c261	-0.07214809
200	0xbd60391d	-0.054741967
201	0x3e8bc42e	0.2729811
202	0x3d8bffac	0.06835875
203	0x3dd0330b	0.10165986
204	0x3e0692b7	0.13141905
205	0x3bb5838f	0.0055393646
206	0x3d15ed8b	0.03660349
207	0x3db091a6	0.0862153
208	0x3d6a109e	0.057144754
209	0xbdce127b	-0.100621186
210	0x3df5f2b1	0.1200918
211	0x3d1ca4d9	0.03824315
212	0xbdd0bd21	-0.101923235
213	0x3d528cf4	0.051403955
214	0x3e96c76c	0.29449022
215	0x3d3ec6f4	0.046576455
216	0xbe8a6797	-0.27032158
217	0x3e615718	0.2200588
218	0xbe78eb8b	-0.24308603
219	0xbccb543f	-0.024820445
220	0xbe248fbd	-0.16070457
221	0xbe049e26	-0.12950954
222	0x3ea7b445	0.32754722
223	0xbdb5a85e	-0.08870004
224	0xbd28ae2b	-0.041181725
225	0xbd0ae5f1	-0.033910695
226	0x3dae084b	0.084976755
227	0x3e25ba26	0.16184291
228	0xbdfab2cc	-0.12241134
229	0xbe771a04	-0.24131018
230	0x3ea847a3	0.32867154
231	0x3eb40768	0.351619
232	0xbde0bd3f	-0.10973596
233	0xbdba6137	-0.091005735
234	0xbd035e1e	-0.03207218
235	0x3db827a5	0.089919366
236	0xbd511f51	-0.051055256
237	0xbe4fdd50	-0.20299268
238	0xbeb5803d	-0.354494
239	0x3d64359c	0.05571519
240	0xbe8e09c3	-0.27741823
241	0xbe9d7d0f	-0.30759475
242	0x3d6c8548	0.057744294
243	0xbd85e97f	-0.065386765
244	0xbc8ebe7f	-0.01742482
245	0xbd8bc194	-0.068240315
246	0x3ca5d3a4	0.02024252
247	0x3d59f32f	0.053210434
248	0xbe77be79	-0.24193753
249	0xbdca4ce8	-0.0987795
250	0xbd4f3bc6	-0.050594114
251	0xbe0381e7	-0.12842523
252	0x3e25340e	0.16133139
253	0xbd1e96a6	-0.03871789
254	0x3e70b54a	0.23506656
255	0xbe427210	-0.18988824

transformer.attn.proj_k.bias f4 [72]
0	0xbd42e11d	-0.047577966
1	0xbd1f82f4	-0.038943246
2	0x3d8f8ae6	0.07008915
3	0x3d83489b	0.06410333
4	0xbc8eea43	-0.017445689
5	0x3d406e91	0.046980444
6	0xbd105df6	-0.035245858
7	0x3d38c838	0.04511282
8	0x3d41f0b2	0.047348686
9	0x3d4e6c2a	0.050396122
10	0xbd24b109	-0.040207896
11	0x3d2a742d	0.0416147
12	0x3cbef933	0.023312187
13	0x3daaf707	0.08347898
14	0x3cbfa7ae	0.023395386
15	0x3bc6c2f1	0.0060657193
16	0x3da5478e	0.080702886
17	0x3decf55c	0.11570236
18	0xbd8d0fdc	-0.068877906
19	0x3d2d38a6	0.042290352
20	0x3d977c3f	0.07396745
21	0x3a2207b8	0.000618096
22	0xbcdfd1ab	-0.027321657
23	0xbda93a66	-0.08263092
24	0xbd76d369	-0.06026021
25	0xbdd2188b	-0.102585874
26	0xbdadfc3e	-0.08495377
27	0xbdc5ac8b	-0.096520506
28	0x3db95a0f	0.090503804
29	0x3d250707	0.040289905
30	0x3def259b	0.116770945
31	0x3b5ed2bf	0.0034000126
32	0x39adc67b	0.0003314501
33	0x3d60a83e	0.05484795
34	0xbdb85f44	-0.090025455
35	0xbcee6479	-0.029100643
36	0x3d6b5d58	0.057462066
37	0x3dcf5ac8	0.10124737
38	0x3da0397e	0.07823466
39	0x3cdc2a53	0.02687565
40	0x3cf2f9c6	0.029660117
41	0xbd22f9ce	-0.039789014
42	0x3da3e845	0.08003286
43	0xbb64480c	-0.0034832982
44	0x3d2fe379	0.042941544
45	0xbcc2d495	-0.023783008
46	0x3cb041f8	0.021515831
47	0xbdf1664f	-0.11787092
48	0xbc9c7554	-0.019098915
49	0x3dadeb07	0.084920935
50	0x3c4192c2	0.011814775
51	0x3de51231	0.1118511
52	0xbdc9c8fb	-0.09852787
53	0xbd5b464e	-0.053533845
54	0xbdcb5f2b	-0.09930261
55	0x3d84498a	0.06459339
56	0xbdbc1c47	-0.09185081
57	0xbc9c393f	-0.019070266
58	0x3d95b623	0.073101304
59	0xbd0b8d88	-0.03407052
60	0x3caf1cf5	0.021376112
61	0xbd8514fd	-0.06498144
62	0xbb86f353	-0.004118362
63	0xbd3fa704	-0.046790138
64	0xbd612ba2	-0.054973252
65	0xbc96fed2	-0.018432055
66	0x3da4fcd4	0.08056036
67	0x3d8feebd	0.070279576
68	0xbd6e6f9b	-0.058211904
69	0x3d928be4	0.07155588
70	0x3dcbde5b	0.0995452
71	0xbd053248	-0.032518655

transformer.attn.proj_v.weight f4 [72, 72]
0	0xbe9f74b8	-0.31143737
1	0x3c5721d7	0.013130627
2	0x3ccabc63	0.024748033
3	0x3d8a5d63	0.06756093
4	0x3cce99d3	0.025219833
5	0x3dec2194	0.11529842
6	0xbd0dced5	-0.03462108
7	0xbe135b13	-0.14390211
8	0x3e807a24	0.25093186
9	0xbe80ba44	-0.2514211
10	0x3e8172bf	0.25282857
11	0x3e2819e6	0.1641613
12	0x3cc6b67d	0.024256939
13	0x3eaaea39	0.33381823
14	0x3e140229	0.14453949
15	0x3dbe2817	0.0928499
16	0xbe29df0a	-0.16588989
17	0x3da219d6	0.07915084
18	0xbc095401	-0.0083818445
19	0xbc24d297	-0.010059974
20	0xbda69498	-0.08133811
21	0x3e37ed02	0.17961505
22	0x3dce0f49	0.10061509
23	0x3e1a9bd2	0.15098503
24	0xbf026231	-0.5093108
25	0xbe1e2d53	-0.15446977
26	0x3e61364f	0.21993373
27	0xbd051edb	-0.03250013
28	0x3e366ef2	0.1781576
29	0x3d61aceb	0.055096548
30	0xbc296e5a	-0.010341251
31	0xbd5a60d4	-0.053315
32	0xbea3d60a	-0.31999236
33	0x3e392995	0.18082269
34	0xbe486a1d	-0.19571729
35	0x3e656a1e	0.22403762
36	0x3e9427ce	0.2893662
37	0xbd857f6c	-0.065184444
38	0xbe60568e	-0.21908018
39	0x3deaa33e	0.11456917
40	0x3dae4c83	0.08510687
41	0xbe0816d0	-0.13289952
42	0x3e7dba08	0.24777997
43	0xbe82bc40	-0.25534248
44	0xbe249cf3	-0.16075496
45	0xbd9f2241	-0.07770205
46	0x3dc21f33	0.09478607
47	0xbef51c23	-0.4787303
48	0x3e1e76dc	0.15475029
49	0x3e20927a	0.15680876
50	0xbe26d7c4	-0.16293246
51	0x3e2fa508	0.17152798
52	0xbebdfeea	-0.37108546
53	0xbe0ff978	-0.14060009
54	0x3df7da18	0.12102145
55	0x3e27d7b7	0.16390882
56	0x3d963f1d	0.07336257
57	0x3df00ba2	0.11720969
58	0x3dc58623	0.09644725
59	0xbbf280c1	-0.0074006026
60	0x3e80de10	0.2516942
61	0xbd9c28ed	-0.076249935
62	0xbd7e3dbd	-0.062070597
63	0xbe331230	-0.17487407
64	0x3d31012d	0.043214012
65	0xbe78b5fe	-0.24288175
66	0x3e5d25d2	0.21596459
67	0x3dab9023	0.08377101
68	0xbdefc5e5	-0.11707667
69	0xbe6ba733	-0.23013
70	0x3e3aa1a4	0.18225724
71	0xbeeda847	-0.46417448
72	0xbe918e4e	-0.28428882
73	0xbd1f235f	-0.038852092
74	0xbd9b2614	-0.07575622
75	0x3e5ec920	0.2175641
76	0x3e2c568c	0.1682989
77	0x3de30b77	0.11086171
78	0x3bf637aa	0.00751396
79	0x3e5d006a	0.21582189
80	0xbe2acb8c	-0.1667921
81	0x3e01f526	0.12691173
82	0xbce282f6	-0.027650338
83	0x3e47c658	0.19509256
84	0x3e0770d2	0.13226631
85	0x3e14e011	0.145386
86	0x3eb50bad	0.3536047
87	0xbd2744c1	-0.040837053
88	0xbe454326	-0.19263896
89	0xbdc06fe6	-0.09396343
90	0xbd69b629	-0.057058487
91	0xbe8b2d7c	-0.2718314
92	0x3b026270	0.00198951
93	0x3b3cf2c2	0.0028831218
94	0xbdc61035	-0.0967106
95	0xbe6b02ff	-0.22950362
96	0x3e18a1de	0.14905497
97	0x3c894fa9	0.016761618
98	0x3d44c5c0	0.04804015
99	0xbe6fd63b	-0.23421566
100	0x3ddeadf0	0.1087302
101	0x3e14bf68	0.1452614
102	0x3d95976c	0.07304272
103	0xbceb1db3	-0.028700685
104	0xbe1fc609	-0.15602888
105	0x3e92ff5b	0.28710446
106	0xbe3a5db7	-0.18199812
107	0x3e34cc65	0.17656095
108	0xbdd6cb78	-0.10488027
109	0xbd0631d9	-0.032762382
110	0xbe420ef0	-0.1895101
111	0x3d91c62e	0.07117878
112	0xbe0ff7c0	-0.14059353
113	0xbe0f928b	-0.14020745
114	0x3bd44623	0.0064780875
115	0x3db3d72a	0.08781274
116	0x3e6299ac	0.22128934
117	0xbd1e0199	-0.038575742
118	0x3cd86236	0.026414018
119	0x3e7d8380	0.24757195
120	0xbb707db2	-0.0036696014
121	0x3e33c904	0.1755715
122	0xbde51489	-0.111855574
123	0xbd0a12ba	-0.033709265
124	0x3e392c66	0.18083343
125	0xbcdb7206	-0.026787769
126	0x3d863815	0.065536655
127	0xbe2eb99f	-0.17062996
128	0xbd0dfbc4	-0.03466393
129	0xbdd0280b	-0.101638876
130	0x3d8a3442	0.06748249
131	0xbda0c3b3	-0.07849827
132	0xbe19c1ac	-0.15015286
133	0xbe6531e1	-0.22382309
134	0x3e147552	0.14497879
135	0x3d88271c	0.066480845
136	0x3c6c7c24	0.014433894
137	0x3d26f83a	0.04076407
138	0x3e417c36	0.18895039
139	0xbe44deb5	-0.19225581
140	0xbe980a08	-0.29695153
141	0xbb81657b	-0.003948865
142	0x3d296ab7	0.041361537
143	0xbecd5c72	-0.40109593
144	0xbe7d2e02	-0.24724582
145	0x3d2d16bc	0.04225801
146	0x3d0323be	0.03201651
147	0x3c8f60de	0.017502245
148	0x3e40abd1	0.18815543
149	0xbde968b5	-0.113969244
150	0xbdd861a5	-0.10565499
151	0xbe9e2659	-0.30888632
152	0x3e7c1faa	0.24621454
153	0xbe3e93c4	-0.18611056
154	0xbd82e2b7	-0.06390899
155	0x3de031a8	0.10946971
156	0xbcaf2fd1	-0.021385105
157	0x3dde2e60	0.10848689
158	0x3db5320a	0.08847435
159	0x3eba285e	0.36358923
160	0xbdcb5e9e	-0.09930156
161	0x3d58223f	0.052767035
162	0xbdcb8b02	-0.09938623
163	0x3d51f008	0.051254302
164	0xbe7740b2	-0.24145773
165	0x3e175236	0.14777455
166	0x3d353b20	0.04424584
167	0x3e21c729	0.1579863
168	0xbea1b5df	-0.3158407
169	0x3e012747	0.1261264
170	0xbd41826a	-0.047243513
171	0x3e189b1c	0.1490292
172	0x3d7f90a4	0.0623938
173	0x3e8745f0	0.26420546
174	0x3e2267bc	0.15859884
175	0x3ec62082	0.38696676
176	0x3e86ebf4	0.26351893
177	0x3d722665	0.059118647
178	0x3e18a8e3	0.14908175
179	0x3cb8b7cb	0.022548577
180	0x3d60c3f6	0.054874383
181	0x3e9595e6	0.29215926
182	0x3e4a0276	0.19727501
183	0x3d3a916b	0.045548838
184	0x3ede30f3	0.4339672
185	0x3cd04e6b	0.025428018
186	0xbdf7a6b7	-0.12092345
187	0xbdbf8cee	-0.09353052
188	0x3e68dc28	0.22740233
189	0xbe676147	-0.22595702
190	0xbe4c5a81	-0.199564
191	0xbe259b70	-0.16172576
192	0xbe0e8d7b	-0.13921158
193	0x3e727f17	0.23681293
194	0x3dccd207	0.10000997
195	0x3e29c6a5	0.16579683
196	0x3de8f1a2	0.11374213
197	0xbe98cf42	-0.29845625
198	0x3e6a685b	0.22891371
199	0x3e4008d5	0.18753369
200	0xbe5f13ad	-0.2178485
201	0xbe5d7aae	-0.2162883
202	0xbc722ffb	-0.014781947
203	0xbc365c0d	-0.011130345
204	0x3d13f258	0.03611979
205	0xbd2cb145	-0.042161245
206	0x3d6c9d8b	0.057767432
207	0x3e87c091	0.26514104
208	0xbea1906a	-0.31555492
209	0x3dd2bae6	0.10289554
210	0xbe641218	-0.22272527
211	0xbe36065e	-0.17775866
212	0x3e64175b	0.22274534
213	0x3c1614c5	0.009160225
214	0xbdff7ffd	-0.12475584
215	0xbd8847e2	-0.066543356
216	0xbef2c26f	-0.47413966
217	0x3ebc5591	0.36784032
218	0x3e6faa25	0.23404749
219	0xbd9680cb	-0.07348784
220	0xbe292b1f	-0.16520356
221	0xbe0477a5	-0.12936266
222	0xbeb53619	-0.35392836
223	0xbe45f37d	-0.19331165
224	0xbddf3c29	-0.109001465
225	0xbdb547a4	-0.08851555
226	0x3e16684b	0.14688222
227	0x3d529727	0.05141368
228	0xbcb1dc3e	-0.021711465
229	0x3dc3341e	0.09531425
230	0x3d1539fb	0.036432248
231	0x3e1a63cf	0.15077136
232	0xbd41c4fb	-0.047306996
233	0xbea95b9e	-0.3307771
234	0x3e493cc1	0.19652082
235	0xbd4fdfc7	-0.05075052
236	0x3d89967d	0.067181565
237	0xbe1a3a19	-0.15061225
238	0x3d855f2f	0.065122955
239	0x3ca3b05a	0.019981552
240	0xbead9890	-0.33905458
241	0xbe57c968	-0.21072924
242	0xbe415107	-0.18878566
243	0x3d84ed37	0.06490558
244	0x3d703342	0.058642633
245	0x3e7fd2d5	0.2498277
246	0x3e21d30b	0.15803163
247	0xbe8afb84	-0.27145016
248	0xbe22e6c9	-0.1590835
249	0x3d88f6c7	0.06687694
250	0xbe7645e9	-0.24050106
251	0x3d00de75	0.03146215
252	0x3e397b28	0.18113387
253	0xbec19c30	-0.37814474
254	0x3db7ef9b	0.08981248
255	0xbe10acd9	-0.14128436

transformer.attn.proj_v.bias f4 [72]
0	0x3e60cec2	0.21953872
1	0xbe503a6b	-0.20334785
2	0x3dd2b289	0.10287959
3	0x3c82ab1c	0.015950732
4	0xbe12860d	-0.14308949
5	0xbd804351	-0.062628396
6	0x3e27ffc4	0.1640616
7	0xbd91b21d	-0.071140505
8	0x3d29d816	0.04146584
9	0x3e06571c	0.13119167
10	0xbd56f590	-0.05248028
11	0x3c3fc054	0.011703569
12	0xbe4f9624	-0.20272118
13	0x3e4bcd1b	0.1990246
14	0xbdd36442	-0.10321857
15	0x3e498dd6	0.19683012
16	0xbd670a42	-0.056406267
17	0xbce2e8e4	-0.027698942
18	0xbd9ac954	-0.075579315
19	0xbe0b1ee7	-0.13586007
20	0xbe1577dc	-0.14596504
21	0xbd073d44	-0.03301741
22	0x3e2e7c1b	0.1703953
23	0xbe870608	-0.2637179
24	0xbdce3767	-0.10069161
25	0xbdcca115	-0.099916615
26	0x39faaf3d	0.00047814279
27	0xbcabd9e8	-0.02097793
28	0xbc12e0e6	-0.008964753
29	0xbdc9ee5e	-0.09859918
30	0x3d88ee00	0.0668602
31	0xbd943cfe	-0.07238196
32	0xbc5d6955	-0.013513883
33	0xbd9ac421	-0.0755694
34	0xbdd74b9c	-0.10512468
35	0x3dbf5c28	0.09343749
36	0x3d10b231	0.035326187
37	0x3d30bf68	0.04315129
38	0xbd14dc00	-0.03634262
39	0xbd425695	-0.047445852
40	0x3d53f6f2	0.051749177
41	0xbdb938e3	-0.090440534
42	0x3d015d27	0.031582978
43	0xbe085fde	-0.1331782
44	0x3bcf8cc8	0.006333921
45	0x3d9c742a	0.07639344
46	0xbd84db75	-0.064871706
47	0x3d09153c	0.033467516
48	0x3e25eafb	0.16202919
49	0xbc757cf0	-0.014983401
50	0xbcab4905	-0.020908842
51	0x3da2fce5	0.07958392
52	0x3db230e6	0.08700733
53	0xbe18656c	-0.1488244
54	0xbdb03eb5	-0.086057104
55	0x3d90b1e0	0.07065177
56	0xbd0bad91	-0.034101073
57	0x3c576a2f	0.013147875
58	0x3d88a9da	0.066730216
59	0xbdec9ad5	-0.11552969
60	0x3deb3fb6	0.11486761
61	0x3d900701	0.07032586
62	0x399eb0d4	0.00030267856
63	0xbdfd09b5	-0.12355367
64	0x3c896ed0	0.016776472
65	0xbdb522d6	-0.08844535
66	0xbd1a8e17	-0.037733164
67	0x3d8133f3	0.06308737
68	0xbd66f873	-0.056389283
69	0xbe1c22d1	-0.15247656
70	0xbd4d063c	-0.050054774
71	0x3d1457ac	0.036216423
