Src/extractor/limu_bert_td3.pt (torch, 259067 bytes, 29 tensors)

transformer.embed.lin.weight f4 [72, 6]
000000 a5 ef b2 be 0a e1 f0 3e 21 1a 59 bf 45 c8 31 bd
       -0.3494846 0.4704669 -0.84805495 -0.043403883
000010 87 9f 44 be a5 46 17 be 9c d5 a5 bf 4b 70 92 bd
       -0.1920148 -0.14773043 -1.2955813 -0.071503244
000020 1a 7e a8 be ae bf 47 bf bf b6 06 3f 52 16 89 3f
       -0.32908708 -0.78026855 0.526226 1.0709937
000030 79 a1 dc bd 64 d0 f1 3f 69 22 ae be 49 4e 12 3e
       -0.10772986 1.8891721 -0.34010628 0.14287676
000040 3c f1 17 bf d1 d3 68 3f e9 a7 8d 3e b4 d0 f6 3e
       -0.5935247 0.90948206 0.27667168 0.48206103
000050 fb 03 db 3e 02 34 ae 3e b1 7e 9c 3d 24 1a fe 3e
       0.42776474 0.34024054 0.07641352 0.4962932
000060 ca f5 c1 bf 4b 44 58 3f f5 85 11 40 e5 7d 02 3f
       -1.5153134 0.84479207 2.273801 0.5097335
000070 80 3d 6e 3d 55 ca 94 3d 16 34 5c bf 29 2b 4f 3f
       0.05816412 0.07265154 -0.86016977 0.8092523
000080 b2 d6 48 bf 25 ca b9 3f 23 13 e1 be 59 e8 5d be
       -0.784526 1.4514815 -0.43959913 -0.21670665
000090 69 e3 5f bf 58 fb 1b 3f 4f c1 d0 bf 95 2e 39 3d
       -0.87456375 0.60930395 -1.6308993 0.04521044
0000a0 1a b3 c1 3e 2a 5f cd 3e e6 92 0a 40 32 5f a0 3e
       0.37831956 0.40111667 2.165216 0.31322628
0000b0 81 95 8c 3d 3f 3f 48 3e 91 14 84 3e 97 d3 6b be
       0.06864453 0.19555376 0.2579694 -0.23029934
0000c0 73 d6 97 bf 98 bf fa be 11 ee 59 3f 64 51 b2 3e
       -1.186232 -0.489743 0.85128886 0.3482772
0000d0 4a 4f f9 3e 5f c1 19 bf e0 fd ef 3f 05 20 8c bf
       0.48693305 -0.60060686 1.8749352 -1.0947272
0000e0 44 d5 98 3f 15 96 1e 3e 8b 41 04 bf d7 4d 2f 3f
       1.1940084 0.15486939 -0.5166251 0.6847815
0000f0 9c f7 e7 3e 47 4b f0 bd 5e 3b c4 3e de 45 b2 be
       0.45306098 -0.11733108 0.38326544 -0.3481893
000100 37 5b 81 3c bc 7c c8 3d a3 98 8f bf 24 e1 75 bf
       0.015790565 0.09789416 -1.1218456 -0.9604666
000110 1d 00 81 bf 70 a8 c1 3e aa 08 85 be 7e c6 0d be
       -1.007816 0.3782382 -0.25983173 -0.1384525
000120 74 8e 96 3f bb d2 c7 be 9f 64 12 bf 22 e8 74 3f
       1.1762223 -0.39027962 -0.57184786 0.95666707
000130 c6 a9 1b bf 6f 0d 91 be 76 7f 91 3f 31 10 9c 3f
       -0.6080593 -0.28330562 1.1367023 1.2192441
000140 da ee 3c 3f 9a 5e 62 bf 24 e7 65 bd 48 64 45 bf
       0.7380196 -0.884256 -0.056128636 -0.7710614
000150 c8 46 cc 3f 4e 62 bd 3f cd 6a 2e be d7 9f 5f 3f
       1.5959101 1.4795625 -0.17032929 0.8735327
000160 b2 69 2b 3d 83 20 8a be 77 18 69 bf 56 9c 0b c0
       0.041848846 -0.2697793 -0.91052955 -2.181417
000170 21 e6 88 bf d8 a2 92 be 7e 0e 54 bd 7a 2f a4 bd
       -1.069523 -0.28639865 -0.051771633 -0.08016868
000180 7c 28 77 3f 73 c5 af 3f 40 cc 31 bf e6 c3 28 bf
       0.9654615 1.3732132 -0.69452286 -0.6592392
000190 f2 4f 32 3e 88 27 b1 be b9 98 06 3f 1b f0 8d bf
       0.17413309 -0.34600472 0.52576786 -1.1088899
0001a0 63 d6 c0 bf 7d 69 94 3f 63 bb 72 be da 8f 15 bf
       -1.5065426 1.1594692 -0.23704295 -0.58422625
0001b0 6d 2c b1 bf 14 3e b2 3d 6f d2 06 3f 54 51 e0 be
       -1.3841683 0.08703247 0.52664846 -0.43812048
0001c0 68 d7 27 bd c5 a6 fc be a1 08 12 bf b6 42 aa bf
       -0.04097691 -0.49345985 -0.57044417 -1.3301609
0001d0 e8 5b 44 bf c5 97 8e bd 26 e8 08 bf 0d 5a 1c bf
       -0.7670274 -0.069625415 -0.5347923 -0.61074907
0001e0 eb 81 5c bb 80 33 db 3e ed 47 ae bf b3 8e eb bc
       -0.0033646773 0.4281273 -1.36157 -0.028754568
0001f0 64 f6 80 bd 25 94 47 be 24 8c 68 3e 2f 86 40 bf
       -0.06296995 -0.19490106 0.2270971 -0.7520475
000200 84 d3 32 bf 01 3b c3 3e a0 88 e0 3d 17 d8 61 bf
       -0.69854 0.38130954 0.10963559 -0.8822035
000210 19 66 56 3d 90 2c 9e be ce da 0e bf 32 4d 61 3d
       0.05234346 -0.30893373 -0.5580262 0.05500526
000220 f0 b0 3b be 69 c1 83 be ed 1f 9b bf 67 c4 1c bf
       -0.18329215 -0.25733498 -1.2119118 -0.61237186
000230 18 bf a0 bf 26 1e 12 bf 4e d2 22 3e 80 91 c5 3e
       -1.2558317 -0.5707725 0.15900537 0.3858757
000240 72 1b ae 3d 2e 73 01 40 83 df 35 bf a9 06 c9 3e
       0.085013285 2.022655 -0.71044177 0.39262894
000250 8a cc 22 be ef 10 a0 3e 39 1f 34 bf 38 2a ab bf
       -0.15898338 0.3126292 -0.7036014 -1.3372259
000260 ab f6 a4 bf c1 9d a5 be 19 4f 39 3e 81 ce 39 3f
       -1.2887777 -0.3234692 0.1809658 0.72580725
000270 30 77 c9 3e a0 68 e4 3f 36 30 b0 3f 7f 14 0d bf
       0.39348745 1.7844429 1.3764713 -0.551094
000280 b5 fd 03 bf 54 8a 3c 3d 96 5c 53 be 39 a7 45 bf
       -0.51559 0.046030357 -0.20640787 -0.77208287
000290 62 5a 81 3f 17 ec 03 c0 48 16 0a bf eb 98 54 bf
       1.0105708 -2.0612848 -0.5394025 -0.83045834
0002a0 5e 12 16 bf 6a 5e db 3d bf 86 96 be fe 5b c3 3d
       -0.58621776 0.107113674 -0.29399678 0.095390305
0002b0 8d 54 c1 bd 44 87 74 be fc 14 b6 bf 67 97 75 bf
       -0.09439955 -0.23879725 -1.4225154 -0.95934147
0002c0 a4 57 d1 3f 51 ee b5 bd 9a 95 25 bd d5 7e 61 3f
       1.6354871 -0.08883346 -0.040425874 0.88084155
0002d0 a4 bd 8e 3e 83 d2 4d 3e 51 26 0a 40 21 88 c9 be
       0.2787906 0.20099835 2.1585886 -0.3936167
0002e0 35 21 df 3d 20 99 4f 3f a3 7f a7 be 77 69 42 bf
       0.108950056 0.81093025 -0.32714567 -0.75942177
0002f0 79 5f b0 3f 56 ac fe bb 4c e7 a2 be b9 d6 29 3e
       1.3779136 -0.007772009 -0.3181709 0.16585816
000300 f6 ea 6c bf 1f be 43 be 89 aa 30 3e fb f3 a2 be
       -0.9254602 -0.19115494 0.17252554 -0.31826767
000310 d9 f6 f1 3c d3 8a 3c bf f9 85 ea 3f d2 16 c7 3e
       0.029536651 -0.7364933 1.8322135 0.38884598
000320 e4 51 51 bf 52 3b 81 3f d6 64 23 be 6b f1 76 bd
       -0.8176558 1.0096228 -0.15956435 -0.060288828
000330 53 98 ae 3f a9 97 35 3e f3 65 b1 3e b1 96 c7 bd
       1.3640236 0.17733635 0.34648094 -0.09745539
000340 4d 16 66 3e cb 9b 3a 3f 29 a6 34 3f 72 f4 13 bb
       0.22469445 0.7289397 0.7056604 -0.002257612
000350 61 33 5f 3d e8 ec 09 bd 4d cc 27 be 6c 13 18 bf
       0.054492358 -0.033673197 -0.16386528 -0.59404635
000360 eb d7 e2 3e 33 01 63 bf 98 30 06 bf 15 61 13 3f
       0.44305357 -0.88673705 -0.524179 0.5757001
000370 4f a9 86 3e c3 13 46 3f 85 81 0b 3f 4b d3 d1 be
       0.26301047 0.77373904 0.54494506 -0.40981516
000380 07 00 c0 3e fd f0 0f 3c 56 35 2b 3f 53 8d ac 3e
       0.3750002 0.008785483 0.6687826 0.33701572
000390 90 a2 05 3f f9 bf 9d 3f 8d dc 92 3f cb 40 22 bf
       0.52201176 1.232421 1.1473557 -0.63380116
0003a0 42 33 90 3e e0 f9 58 3f f5 6e ce be 00 dd 23 be
       0.28164107 0.8475628 -0.40319028 -0.16002274
0003b0 2d 75 27 bf 09 b6 85 3f 5b 5f 8c 3e 41 54 38 3f
       -0.6541317 1.0446178 0.274165 0.7200356
0003c0 ac d0 6e 3e 90 82 a4 3e b2 68 0e bf 20 46 68 bf
       0.2332179 0.3213086 -0.556285 -0.90732
0003d0 8c a1 ae bd 18 2c db be 39 96 1c c0 06 4b 77 3f
       -0.08526906 -0.42807078 -2.4466689 0.9659885
0003e0 70 be 08 40 cc e1 02 3e 05 0e 0e bd 70 b4 5f be
       2.1366234 0.12781447 -0.03468134 -0.21846175
0003f0 13 54 68 bf 30 f1 64 3e 73 09 87 3e 3e 25 0d 3e
       -0.9075329 0.2235763 0.26374397 0.13783738

transformer.embed.lin.bias f4 [72]
000000 fb c7 6e bf a4 0b 54 3e d8 3a 1e 3e e2 5b 83 3d
       -0.93273896 0.20707566 0.15452135 0.0641401
000010 7f 4d 7b 3d d4 9b 0d 3e 00 09 92 be 0a c1 9b be
       0.061353203 0.13828975 -0.2852249 -0.30420715
000020 83 86 70 3e ea 2a 5e 3b 5b 1a 0e 3e a5 2b 4a 3d
       0.23488812 0.003390009 0.13877241 0.04935803
000030 90 45 89 3e 34 32 5c 3e 3d 33 5c 3e 8e db 99 3e
       0.26810884 0.21503526 0.21503921 0.3005032
000040 04 aa 81 3d 3b 3c 62 3d 51 fd c1 3d 9e 16 7d 3d
       0.06331256 0.05523322 0.094721444 0.061789148
000050 b4 5a 26 3e 98 3d 6b 3e 33 80 93 3d 74 fb 24 3e
       0.16245538 0.22972715 0.072021864 0.16111547
000060 78 e0 40 bd 19 37 4b bd 9b b0 fa 3d b6 65 dc 3d
       -0.04708907 -0.049613092 0.12240716 0.10761587
000070 8f 0b 1a 3e 93 dd a0 3d fa 8a bf 3d bf c4 75 bf
       0.15043472 0.07854762 0.093526796 -0.96003336
000080 1b 55 1b 3e 1b e2 5b 3e df 06 73 3d 3f 1e af 3d
       0.15169184 0.21472971 0.059332725 0.08550691
000090 22 35 aa 3c c3 c2 e3 be 1e c2 fa bd d9 f5 5e 3d
       0.020777289 -0.4448453 -0.12244056 0.054433677
0000a0 e4 01 bb 3d 84 3e cd 3d 5a de f8 3d 9e 13 2e 3e
       0.0913122 0.100216895 0.12151785 0.16999671
0000b0 6c 5e 47 3d ae 95 a4 3d a1 cd cc 3d 83 ab e7 3d
       0.048674032 0.08036362 0.10000158 0.1131201
0000c0 5e 10 08 3f e1 8b ec 3d ee 46 4b bd 3f 80 55 3e
       0.53149974 0.11550117 -0.04962819 0.20849703
0000d0 d7 84 f4 3d 9f 34 f2 3e c6 bb 12 3e bc b2 f2 3d
       0.119394 0.47305772 0.14329442 0.11850497
0000e0 83 39 1f 3e c5 7d 1c 3e 29 6b 23 3e d5 e9 2a 3e
       0.15549283 0.15282352 0.15958847 0.16690762
0000f0 61 1e 91 3c c3 f4 08 3d 1a 8e d1 bd db 8a 5b 3e
       0.017714681 0.033436548 -0.10232182 0.21439688
000100 26 94 9e 3e 61 6d 10 3d c8 57 5b 3e 50 1d 78 3e
       0.30972403 0.03526056 0.21420205 0.24229932
000110 bf 5f e1 3d 8b a0 63 be f4 8e ee 3d 0c 36 fc 3c
       0.1100459 -0.22229211 0.1164836 0.03078749

transformer.embed.pos_embed.weight f4 [120, 72]
000000 de 70 4d bf 6c 53 eb bf bc e0 d7 be 84 e5 29 40
       -0.80250347 -1.8384833 -0.42163646 2.6546335
000010 45 b6 f6 3d 16 20 0e 3f d4 18 54 3f 4d 2b c8 3f
       0.12046484 0.5551771 0.82850385 1.5638214
000020 a8 68 10 c0 b2 7a b9 bf 54 ce df bf a8 1a 45 3f
       -2.2563877 -1.4490569 -1.7484841 0.769938
000030 0a 69 56 3f 4f fa ea 3e ae db 84 bf 31 a5 dc bf
       0.83754027 0.45894095 -1.0379541 -1.7237912
000040 82 81 f0 bf dc 71 9d be 90 f8 f4 3f d4 6e b2 3f
       -1.8789523 -0.3075093 1.9138355 1.3940072
000050 9d 37 f2 3f 15 6b f9 be c4 43 b4 bf 30 89 06 40
       1.8923222 -0.4871451 -1.408318 2.1021233
000060 bb dd 5a 3d 75 d5 0d 3f 46 34 38 3e 63 43 08 bf
       0.053434115 0.55403835 0.1798869 -0.53227824
000070 e2 b6 b9 be f3 97 b9 bf 76 cb 70 3f f0 ab a1 3f
       -0.3627234 -1.4499496 0.94060457 1.2630596
000080 57 5c 15 bf 42 64 8e bf 0e 80 05 bd 71 f5 f5 be
       -0.58344024 -1.1124346 -0.032592826 -0.4803882
000090 d8 98 a5 3f b0 d4 dd 3e 6f fb a4 3d c9 a6 04 40
       1.2937269 0.4332633 0.0805577 2.0726798
0000a0 00 f8 01 40 03 0b 40 3f 2a 84 98 bf bf 5f 5e 3e
       2.0307617 0.750168 -1.1915333 0.21716212
0000b0 45 54 35 3f ef 5d 71 3e 6f f3 bd 3e 38 88 b7 3f
       0.7083171 0.23570989 0.37099788 1.4338446
0000c0 51 ec cd bc 3a c0 8a bc 9a fb 19 3f 73 14 a2 3e
       -0.025137099 -0.016937364 0.6014954 0.31656227
0000d0 bd 45 7e bf 84 2e 13 bf 86 af ba be de cf 17 c0
       -0.9932516 -0.5749285 -0.3646204 -2.3720622
0000e0 2a 23 0c 3f e4 35 82 bc c0 2b bb be e2 0b 8d 3f
       0.54741156 -0.015894838 -0.36556816 1.1019251
0000f0 df 10 1a c0 31 d8 2e 3f 41 bf a0 3e 42 a5 a4 bd
       -2.4072797 0.6829863 0.31395915 -0.08039333
000100 31 e1 4a bf 1e cc 96 be 41 a3 aa 3f bf 1d 01 40
       -0.79249865 -0.29452604 1.3331071 2.0174406
000110 07 41 b5 be 92 3b c5 3e 84 38 80 bf 9c 27 b4 3e
       -0.35401174 0.3852201 -1.0017247 0.3518647
000120 9e b0 1a bf aa d6 ff be 6b 07 cf 3e 2d 58 ec 3e
       -0.60425746 -0.49968463 0.40435347 0.46161023
000130 ec 2a 6e 3e 3e 74 77 3f 94 cf 1b 3f 26 d9 54 40
       0.23258561 0.96661747 0.60863614 3.3257537
000140 06 cb a8 bf 75 0e ed bf be 9a 0b be 69 6c 97 3f
       -1.3186958 -1.8520037 -0.13633248 1.1829959
000150 ff 49 1d 3e 98 b9 df be a2 94 89 3f cc 7a 80 bf
       0.15360259 -0.43696284 1.0748484 -1.0037475
000160 c7 48 8c bf 36 34 be be a2 86 db 3f 1e 78 8e 3f
       -1.095971 -0.3714921 1.7150462 1.1130407
000170 3d d5 04 bf 49 19 da bf 6a 69 1c 40 df 5a e6 3f
       -0.51887876 -1.7038966 2.443934 1.7996482
000180 fc c8 35 3f 8d 2f 83 3f 5c fa 62 3f a0 5b 95 3f
       0.710098 1.0248886 0.8866327 1.1668587
000190 ca df 12 bf 61 11 97 3f a2 72 80 bf 27 bf b8 3f
       -0.57372725 1.1802179 -1.0034983 1.4433335
0001a0 dc 5d 4a bf cf 89 4e 3f 55 a2 49 bf e6 e2 ec be
       -0.7904947 0.8067903 -0.78763324 -0.4626686
0001b0 f7 d0 02 3f 11 c3 5c 3f d8 4e 7b 3f 92 b5 c5 3f
       0.51100105 0.8623515 0.9816718 1.5446036
0001c0 05 cd 01 40 c2 e0 9a be 58 2a ce bf 5c 7d a2 bf
       2.0281384 -0.30249602 -1.6106672 -1.2694507
0001d0 ff 8a 79 3f 2c c7 06 3e 2c a1 45 3f 7c 6c 1b bf
       0.97477716 0.13161916 0.77199054 -0.6071241
0001e0 cc 87 8c be 00 0c c8 3f 74 3f 8d bf ca 03 69 bf
       -0.27447355 1.5628662 -1.1034989 -0.91021407
0001f0 5f 46 c5 3f 9c 6e cd 3f 59 be d9 bf fa 73 4e bf
       1.54121 1.604938 -1.7011214 -0.80645716
000200 ec c9 b4 bd d3 80 a9 3f 43 af cc 3e 7a 26 2f 3e
       -0.08827576 1.3242439 0.39977464 0.17104521
000210 4c 90 d2 bf 58 b5 af 3f a5 69 20 bf fe 2e f8 bd
       -1.6450286 1.3727217 -0.626612 -0.12118338
000220 c2 b1 56 bf 53 dc 32 bf 94 94 54 3d d6 32 02 40
       -0.83864987 -0.6986744 0.051899508 2.0343528
000230 3d 9b 10 be 75 31 10 bd de b1 9a bf 3b 2f 96 3f
       -0.14121719 -0.035203416 -1.2085531 1.1733164
000240 e7 a8 e1 bc 0c a1 4c bf 30 f8 ab bf b2 32 c7 3f
       -0.02754636 -0.7993324 -1.3435116 1.5562346
000250 84 0a de 3f 8f 8a c8 3e 07 1f 58 3f 93 91 fa 3f
       1.7346959 0.39168212 0.84422344 1.9575676
000260 73 f2 a2 bf a8 05 1e c0 56 46 02 3e f0 94 a3 3f
       -1.273024 -2.4690952 0.12722144 1.2779827
000270 09 f6 81 bf e4 d5 c7 bf cb 9a 51 3e 8b 98 3a bf
       -1.0153209 -1.5612149 0.20469205 -0.7288901
000280 05 45 9c be 27 a2 d8 3e 7c 05 44 bf 6d 69 e2 3f
       -0.30521408 0.42311212 -0.7657087 1.7688423
000290 38 df cd be db 50 9a bf 0c 88 86 be a8 94 c2 3f
       -0.40209365 -1.2055925 -0.2627567 1.5201616
0002a0 9c 48 38 bf 07 f5 d6 3e 24 34 89 3f e9 6d 2c bc
       -0.71985793 0.41983816 1.0719037 -0.0105242515
0002b0 2b b9 b7 bf 02 8b 80 be 8e 7a 58 bf 10 1d 4f 3d
       -1.4353384 -0.25106055 -0.84562004 0.050564826
0002c0 ba 71 55 bf 2a fd 5a bf 5f 01 04 3f b9 f7 3a 3f
       -0.8337666 -0.8554255 0.5156459 0.73034245
0002d0 ca 51 1d 3f 0b e6 cf 3e bf f0 cc 3f ab f5 a5 3f
       0.61452925 0.40605196 1.601097 1.2965597
0002e0 b7 d2 86 3f a0 14 be 3e a1 8d 78 bf 48 a7 93 bc
       1.0533055 0.3712511 -0.9709111 -0.018024102
0002f0 c2 cf b2 bd ce 6e 8b 3e 1a 37 43 3f 76 14 0f 40
       -0.08731033 0.27232975 0.76255953 2.2356238
000300 b9 36 47 3f a0 37 35 3f 9a 3e 00 bf f5 d1 01 bf
       0.77817875 0.70788 -0.5009552 -0.50710994
000310 59 ae f3 3f c1 a5 14 c0 1d 3e 0e 3e 1d 6e 9f be
       1.9037582 -2.3226168 0.13890882 -0.31138697
000320 b4 a6 d1 3f bd dc b9 be aa b3 e6 be bd 23 01 3e
       1.6378999 -0.36301222 -0.45058948 0.1261129
000330 e6 86 6a bf be ea 2b bf bd b7 d4 3e f2 0b 32 bf
       -0.9161209 -0.67155063 0.4154643 -0.6954948
000340 05 2f 9b bf 2f 3a 74 3f e9 96 00 be 4e e2 91 3f
       -1.2123724 0.9540128 -0.12557568 1.1397188
000350 12 c1 14 bf 2c d5 8b 3e 83 ad ad bf 60 ed 3f 3f
       -0.581071 0.27311075 -1.3568577 0.7497158
000360 90 1d 8e bf 88 f8 ea be 5f b5 07 3f f6 d9 c0 be
       -1.1102772 -0.4589274 0.53011125 -0.3766629
000370 c4 27 f6 3c 1e 06 16 bc ee 44 66 3f 45 98 06 40
       0.030048259 -0.009156732 0.8994893 2.1030438
000380 d1 28 03 c0 9e bf af bf a1 20 9a be a3 74 91 3e
       -2.0493662 -1.3730352 -0.3010302 0.284093
000390 63 41 94 be 9d 0a 83 bf 60 18 8c 3f f2 98 2a bf
       -0.28956136 -1.0237614 1.0944939 -0.66639626
0003a0 3a 86 f3 be 02 02 f8 3e a9 d0 90 3f 29 d5 c2 3f
       -0.47563344 0.48439032 1.1313678 1.5221301
0003b0 74 b7 d1 3e 0a 0c 25 c0 34 4b 27 3e 9a fe 00 40
       0.40960276 -2.5788598 0.16337281 2.0155396
0003c0 15 c8 da be be 09 62 3e 44 60 06 3f 61 bc 50 3f
       -0.42730775 0.22074029 0.5249064 0.81537443
0003d0 0e 6e 1e bf 63 4c 92 3e 27 cf 10 c0 7c e8 b2 3f
       -0.6188668 0.28573903 -2.2626436 1.3977199
0003e0 03 9b 5b 3e 03 c0 66 3f cc ae 6e bf 7d ce 75 3f
       0.21445851 0.90136737 -0.9323547 0.960182
0003f0 8e c4 b8 bf 46 a9 91 3f cb 4e 04 3f 87 39 8e 3c
       -1.4434984 1.1379783 0.5168273 0.017361416

transformer.embed.norm.gamma f4 [72]
000000 96 2b 80 3f 57 d2 eb 3e 37 0e 03 3f 89 e1 d1 3d
       1.0013301 0.46058914 0.51193565 0.102480955
000010 b4 92 85 3e 3d f9 cc 3e db e5 1b 3f cd 4c 0a 3f
       0.26088488 0.40033904 0.60897607 0.5402344
000020 40 22 de 3e 0d 68 00 3f e5 bc 4d 3e 94 b3 b7 3e
       0.43385506 0.5015877 0.20091589 0.35879195
000030 05 91 c2 3e a8 9d df 3e 79 29 e9 3e ba 2e e4 3e
       0.38001266 0.4367497 0.45539454 0.445669
000040 2e e6 d0 3e d0 3c db 3e 80 98 2c 3e 04 5b b6 3e
       0.40800613 0.42819834 0.16855049 0.35616314
000050 f6 2d 2d 3e 59 05 7b 3e 05 0f 2e 3e 94 57 b6 3e
       0.16912064 0.24513759 0.16997917 0.35613692
000060 94 92 e0 3e 51 93 ad 3e f4 16 c2 3e fc 61 f8 3e
       0.4386183 0.33901456 0.37908137 0.48512256
000070 74 82 f8 3d fd 16 af 3e 65 69 9e 3d 2a 79 5c 3f
       0.12134257 0.34197226 0.07734946 0.8612238
000080 4f aa 1f 3e b5 69 bb 3e 3d b0 1a 3e 99 90 f4 3d
       0.15592311 0.36604086 0.15106292 0.11941642
000090 87 78 88 3e 9a a4 10 3f 90 f8 d7 3e 9a ff 93 3e
       0.26654455 0.5650116 0.42181826 0.28905946
0000a0 8d 1b 85 3e 44 95 a7 3e 38 2b b5 3d 2a f2 76 3e
       0.25997582 0.32731068 0.08846134 0.24115816
0000b0 e0 3f e5 3d 6a ee 06 3f f0 ed 12 3e fe 30 0e 3e
       0.11193824 0.5270754 0.14348578 0.13885877
0000c0 32 8a 22 3f d6 4f d4 3e ba 82 dc 3e 32 36 20 3f
       0.6349212 0.4146716 0.43068486 0.62582695
0000d0 f9 65 1a 3e d2 c2 14 3f ae 34 8d 3e 43 87 bf 3d
       0.15077962 0.5810977 0.27579254 0.09351971
0000e0 fe ab a7 3e 6d a7 6f 3e fb db 87 3e 23 b7 b9 3e
       0.32748407 0.23403712 0.2653502 0.36272535
0000f0 e4 5b 4b 3e 3d 17 91 3e 6b 41 87 3e 1f 0f ff 3e
       0.19859272 0.28338042 0.26417097 0.49816224
000100 ee 34 17 3f 56 0c 1f 3e 11 9e b4 3e a6 f4 8a 3e
       0.5906514 0.1553205 0.35276845 0.27139777
000110 20 c1 ec 3e f8 5d ea 3e 74 57 3c 3e 7a bb ed 3e
       0.46241093 0.45774817 0.18392736 0.46432096

transformer.embed.norm.beta f4 [72]
000000 3e be b9 3e d5 76 32 3d 78 c0 8a 3d ec 11 0d bd
       0.36277956 0.04357036 0.06774992 -0.03444092
000010 fd ae 9d 3a 7e b7 d9 bc 7c d6 26 3d c0 b4 72 3c
       0.00120303 -0.026576754 0.040731892 0.014813602
000020 d9 c8 6e bc 9d e0 bb bd 05 6a 14 3c c3 f4 6d bd
       -0.014574253 -0.09173701 0.00905848 -0.05809475
000030 21 3d a7 bd 66 1c f7 bb 1a a9 4b 3d 04 2e f3 bd
       -0.08165956 -0.007541227 0.049721815 -0.11874011
000040 d3 fb 1d bc 5e 7d 97 bd ef f2 7c bd ba 8b 99 bd
       -0.009642559 -0.07396959 -0.061755117 -0.07497354
000050 f9 ee 22 ba 43 a2 45 bd 33 44 2a bd 13 6e 84 bd
       -0.0006215419 -0.048250448 -0.041568946 -0.064663075
000060 e0 9a 6a 3d 64 a3 8a bd 96 c5 c9 3c af a8 e9 bd
       0.057276607 -0.067694455 0.02463035 -0.11409127
000070 29 a2 f6 3b d7 42 91 bd 3e 31 73 bc 23 8e d8 3c
       0.007526655 -0.07092827 -0.014843283 0.026434964
000080 b2 7e 1e bd b1 e6 40 bd 85 5f 0e bd ad 4c 0f bd
       -0.038695045 -0.047095004 -0.034759063 -0.034985233
000090 94 13 c6 bd d1 cf c2 bc 06 ae 2d bb 9a 5e 6c bc
       -0.09671703 -0.023780735 -0.002650143 -0.014426852
0000a0 b9 8c 41 bd 8f 09 86 3d 40 fa e5 bc f6 32 b7 3b
       -0.047253344 0.06544792 -0.02807343 0.005590792
0000b0 3f 28 fd bc d2 b8 34 3d 24 31 76 bc 30 46 39 bc
       -0.03090298 0.04412157 -0.0150263645 -0.011308238
0000c0 ff fa 39 be cc 37 12 bd ab b1 57 3d 6e 97 41 be
       -0.18162154 -0.035697743 0.05265967 -0.18905422
0000d0 42 12 ba ba 98 56 c5 bd 3a 76 0e bd 72 6e ee bc
       -0.0014196115 -0.09635657 -0.03478072 -0.029105399
0000e0 18 f1 63 3b 2e b5 54 3d 2c 96 36 bd 97 67 2a bc
       0.0034781154 0.0519306 -0.04457681 -0.010400674
0000f0 a0 fa 50 bc 5a c9 5d bc 89 85 aa bc e9 40 1e be
       -0.012755066 -0.0135367755 -0.020815628 -0.15454449
000100 86 19 45 3d c6 21 34 bd b9 6a fc 3c 3b 5e 0f bd
       0.048120044 -0.04397752 0.030812608 -0.035001975
000110 8a f6 d1 bd d6 31 02 bd ec 13 0c bd 29 4e 1e bd
       -0.10252102 -0.03178581 -0.034198686 -0.038648758

transformer.attn.proj_q.weight f4 [72, 72]
000000 12 c8 50 bd 97 5d a0 3e 0f c3 32 3e bb 6e f7 3e
       -0.050972052 0.31321403 0.17457221 0.48326668
000010 80 dc 23 be 1f 4b 64 3d 46 bc 93 bc e2 35 32 3d
       -0.16002083 0.055735704 -0.018034112 0.043508418
000020 2b 5f 8b bd 5b 6d 66 3e 7b 31 a7 be ca 0c a0 3e
       -0.06805261 0.22502653 -0.32654938 0.31259757
000030 e8 db c6 be 48 2e 9a be b9 8d 4e be ce 5a 4c 3e
       -0.3883965 -0.30113435 -0.2017125 0.19956514
000040 be d9 7d 3e c4 d0 bc 3c 33 fa 1c be ba 56 8f 3d
       0.24790093 0.023048766 -0.15329818 0.06998964
000050 6e d0 55 be 26 44 1f bf fc 50 91 be 30 11 fe 3d
       -0.20880291 -0.6221336 -0.283821 0.12405622
000060 13 57 4e be 97 e4 87 3e 73 40 a4 be 88 d9 14 be
       -0.20150404 0.26541588 -0.3208042 -0.14536107
000070 28 35 98 be f6 6c 1a 3f 9a c3 7f be 82 37 85 3e
       -0.29728055 0.6032251 -0.2497696 0.26018912
000080 82 fc 1a 3f 6b aa d3 3c 4c d7 21 3e 72 0e 44 bf
       0.60541546 0.025838098 0.15804785 -0.7658454
000090 a5 e0 e0 bd 79 2a 01 be 09 69 95 3d 86 e9 71 3e
       -0.109803475 -0.12613858 0.072954245 0.23624238
0000a0 cd 05 c5 3e a8 f6 8a 3d fb 35 20 bf a3 47 21 3e
       0.38480988 0.06785327 -0.6258237 0.15749983
0000b0 03 75 60 bf 08 74 98 3e 92 b2 fc 3d b8 42 05 bf
       -0.87678546 0.29776025 0.12338747 -0.5205493
0000c0 40 92 4a bd 2f e0 5c bf 7e 78 8a be 60 f9 82 3e
       -0.04945588 -0.86279577 -0.27045053 0.25580883
0000d0 b4 80 0a 3f 8c f2 2c be d2 3d d0 3d 86 e4 73 bc
       0.54102635 -0.168894 0.10168041 -0.014886027
0000e0 f9 09 28 bf 9d 1c d0 be 1c fc 31 be 28 48 19 3e
       -0.6564022 -0.4064683 -0.17381328 0.14968932
0000f0 98 5b f8 be 61 cf ef bd 63 78 8c be b0 5c 9c bc
       -0.4850738 -0.11709476 -0.27435598 -0.019087166
000100 76 d6 55 3e 5b f5 0f bf a4 ac a4 be 23 48 b1 be
       0.20882592 -0.5623376 -0.32162964 -0.34625348
000110 ad 9a 68 3e a3 e9 89 3e f6 d9 fd be 43 b8 8b 3e
       0.22715254 0.26936063 -0.49580353 0.27289018
000120 7b 62 36 3e 46 6a a6 be 47 cb 57 3e 0d 0a 38 be
       0.17811005 -0.32502955 0.21073638 -0.17972584
000130 61 db 4a 3d 5e cb a9 3e 72 7f 8d 3e 2c 62 c8 3e
       0.049525622 0.3316297 0.27636296 0.391374
000140 eb d1 a3 bd 59 63 fd 3d 11 30 f0 bd 83 1b 27 bd
       -0.07999023 0.12372465 -0.11727918 -0.04079772
000150 e9 8b c8 3e 2c 66 82 be d1 4c 9b be ec 51 1e be
       0.39169243 -0.25468576 -0.30332044 -0.15460938
000160 41 9f 2e 3f a9 c0 45 3f 0c df f0 be b2 2b 9d be
       0.6821175 0.772471 -0.4704517 -0.306974
000170 96 6b 4e be 59 c8 68 3e 95 cf 05 be c6 b4 dd 3d
       -0.20158228 0.22732677 -0.13067468 0.108254954
000180 41 ad 0b 3f c4 a9 84 3e e6 09 02 3e ca 0a d3 3e
       0.5456124 0.2591077 0.12699088 0.4121917
000190 ba fe 89 bd 6c 8d c9 3e e5 b1 91 3e 4c e0 c2 bd
       -0.06738038 0.3936571 0.28456035 -0.095154375
0001a0 01 71 82 3e 55 fb 17 bf 69 91 1e 3f 2c fb 34 bf
       0.2547684 -0.5936788 0.6194063 -0.7069576
0001b0 1c 6c e8 3e ea 37 c0 bd 01 66 5b bf 7e 8e 9a be
       0.4539498 -0.09385665 -0.8570252 -0.30186838
0001c0 fb 10 a4 bd 87 40 9a 3d 44 e5 81 3e d9 55 0a bf
       -0.08011051 0.07531839 0.25370228 -0.54037243
0001d0 f8 3f 14 bf 51 42 e1 3e 39 7d 30 be 8a 57 bd bd
       -0.5791011 0.43995908 -0.17235269 -0.092452124
0001e0 fd 01 64 be b5 bf ac 3e 63 d5 60 3f bc 38 10 3f
       -0.22266383 0.3374001 0.878256 0.5633657
0001f0 53 3f ac be 25 3d d2 3d fa fd 03 be c2 5a 9e be
       -0.33642063 0.10265569 -0.12889853 -0.30928618
000200 dd f7 ce be 8b cb 4b bf 15 72 48 bd 47 35 36 3f
       -0.4042348 -0.79607457 -0.048936922 0.71175045
000210 c6 d4 fd 3e ad 38 7c be f0 41 47 be 0b 3b dd bd
       0.49576396 -0.24630995 -0.19458747 -0.10802277
000220 e3 1a 81 3e bd 08 69 3d 7b fa 2f 3d a7 7d bf bb
       0.25215825 0.0568931 0.042963486 -0.0058438363
000230 75 84 7b 3d d2 91 ce be 9b 8b cb 3d 04 c0 3d 3e
       0.061405618 -0.40345627 0.09938737 0.1853028
000240 48 6f ae 3d 8c b8 6c 3e 97 85 b4 be ff 2a 9e bd
       0.08517319 0.23117274 -0.3525817 -0.077230446
000250 57 e4 9d 3e b8 f9 e0 3e f4 eb bb 3e d9 b4 77 3e
       0.30838272 0.4394052 0.36703455 0.24190082
000260 d6 a6 3b 3f 30 35 b6 be 96 d9 d2 3e 4e 46 ce 3e
       0.73301446 -0.35587454 0.4118163 0.40288013
000270 0f 53 f5 be fc 30 49 ba d1 e2 df bd e1 2d b4 be
       -0.4791493 -0.0007674841 -0.10931934 -0.35191253
000280 d7 07 f0 3e b7 54 c4 3e 55 ce d5 bb 6b a8 08 3e
       0.4688098 0.38345882 -0.006524841 0.13345496
000290 5d b0 cc 3e 5c f3 e8 3c f1 26 63 be b2 e4 26 3f
       0.39978305 0.028436355 -0.22182824 0.6519271
0002a0 42 b0 b6 3e eb 5c 2e be fd 7e ee be 32 25 23 3e
       0.3568135 -0.17027633 -0.4658126 0.15932158
0002b0 0d 39 2e bf 31 78 ad be 23 ba a9 be 5b 5d 93 bd
       -0.680558 -0.3388076 -0.33149824 -0.071955405
0002c0 ea 27 43 3f 7c 17 d7 bd ec 6d e4 be 7a 59 da 3d
       0.7623278 -0.10502526 -0.44615114 0.106615975
0002d0 d5 64 3f bd 4a 82 13 3f 61 c0 e1 3e a8 b8 fc 3e
       -0.04672702 0.5762068 0.44092086 0.49359632
0002e0 a6 23 5d 3d d8 9f 1d be be 6a e4 be 9b 84 92 be
       0.053989075 -0.15393007 -0.44612688 -0.28616795
0002f0 dc 71 22 bf b3 00 83 be bb df 64 be 1c 1a f1 be
       -0.63454986 -0.2558647 -0.22350971 -0.47090232
000300 5d 8d 0d bf 68 81 0f bf 88 08 6a 3e 75 8b 38 bd
       -0.5529383 -0.56056833 0.22854817 -0.04505487
000310 62 b7 64 be 61 dc 9d 3e 2d 9c 9d be 58 fa c2 bc
       -0.2233558 0.30832198 -0.30783215 -0.023801014
000320 b6 c4 a7 3e e2 00 9b 3d 99 78 6e be 2b b8 45 3e
       0.32767266 0.07568528 -0.23288192 0.19308536
000330 a4 38 12 be 57 e6 85 be df 33 c1 be f7 e0 12 3f
       -0.14279419 -0.26152298 -0.37734887 0.5737452
000340 ff 5c 3a bf d1 b0 a3 3e 78 db 96 3d 2d 9f cf bd
       -0.7279815 0.31970838 0.07366079 -0.10137782
000350 88 af 07 3f 71 44 13 3f 1e c6 3f be 13 db a0 bd
       0.53002214 0.5752631 -0.1872792 -0.07854285
000360 10 8f 81 bd 42 05 a3 3e f0 29 27 3f bb a0 63 3e
       -0.06326115 0.3183995 0.65298367 0.22229283
000370 76 da 2c 3f eb 66 67 3e 4f 1f 5b be b3 c5 d5 be
       0.67520845 0.22597854 -0.21398662 -0.41752395
000380 66 bc 21 3e e3 59 f6 3e c6 9c 1d 3f 53 37 8a be
       0.15794525 0.48115453 0.6156734 -0.26995334
000390 12 a4 e5 bd 68 12 09 bd 88 5c 6f 3d 10 ae 44 3f
       -0.112129346 -0.03346482 0.058437854 0.768281
0003a0 52 4d b3 bb 33 8f f6 3d 15 0e 46 be cb 12 94 3e
       -0.005471864 0.12039032 -0.1934131 0.28920588
0003b0 23 c8 88 3e 7e 5b 9c 3e 5a 04 68 be 6d dd 14 be
       0.26715192 0.30538553 -0.2265791 -0.14537592
0003c0 fc dd e5 be 0d 40 a9 be 48 7c 78 be 1e 74 22 3e
       -0.44895923 -0.3305668 -0.2426616 0.15864608
0003d0 8a cd c1 be 1a 9d ca be 8c 30 8b be 77 c6 66 3e
       -0.37852126 -0.39572984 -0.27185476 0.22536646
0003e0 ce 58 07 be 76 5f b1 bd 78 1b f2 bc 1b cf 2b be
       -0.1321747 -0.08660786 -0.029554114 -0.16778223
0003f0 a2 68 96 3d 88 ad a3 be c7 b5 e1 3e 7f cb bb 3e
       0.07344176 -0.3196833 0.44083998 0.36678693

transformer.attn.proj_q.bias f4 [72]
000000 12 a0 cd 3e bf c3 a7 3d 3d f5 91 be 93 68 a8 bd
       0.40161186 0.081916325 -0.28507414 -0.08223071
000010 78 dc 99 3c 86 91 51 3d 27 17 5e 3d 1a 3c 8e 3e
       0.018781886 0.051164173 0.0542213 0.2778023
000020 f9 23 88 3d 48 4d 1e be 3a 2e 36 be f8 be d0 3d
       0.06647486 -0.15459168 -0.17791072 0.101926744
000030 cf f0 1e bd 1c 30 9f be 34 55 bf be 0b 98 14 3e
       -0.03880387 -0.31091392 -0.37369692 0.14511125
000040 2f d9 2b be 95 ce 11 3d 33 fa e8 bd 48 79 1d 3f
       -0.16782068 0.035597403 -0.11375847 0.61513186
000050 9c 3d 25 3e 44 fc 28 bf 08 8b 8f be be 6d 71 bf
       0.16136783 -0.66009927 -0.2803576 -0.9430808
000060 11 b7 be be 96 b2 f6 3e 65 eb f2 bd 6b 1f 11 bd
       -0.37249044 0.48183125 -0.11861304 -0.035430353
000070 a1 4e 91 3e 13 e5 37 3d 47 95 cf 3d a9 45 bd 3d
       0.28380302 0.044896197 0.10135894 0.09241802
000080 7b 3c af be 0e 30 1f 3e c5 4a 6f 3d ab bc 0f bf
       -0.3422583 0.15545675 0.058420915 -0.5614726
000090 4d 76 6a 3e 79 d2 2d 3f bc 98 ba be 1e 17 95 3e
       0.2289669 0.6789928 -0.36444652 0.291192
0000a0 70 5a 80 be 60 bc cb bd 13 9e 00 3e 12 53 fc 3e
       -0.25068998 -0.09948039 0.125603 0.49282128
0000b0 eb 97 4d bf 66 68 fb be 11 50 13 be 52 fb ca 3e
       -0.80309933 -0.49103087 -0.14386012 0.39644867
0000c0 8c 35 1b 3e 0c ea 62 be d2 66 be 3e a2 24 b9 3d
       0.15157145 -0.22159594 0.3718782 0.0904019
0000d0 2e 06 0c 3f 30 a9 0b 3f b6 12 2a be a2 3d 9c 3e
       0.5469693 0.54555035 -0.166087 0.30515772
0000e0 62 33 f2 3e 0e cf 54 3e 12 69 08 3d 6d 0b fb 3c
       0.47304827 0.2078211 0.033303328 0.030645097
0000f0 02 bf 3b 3d 9f b7 f4 be 9d 8d 19 3e 29 bf 14 be
       0.045836456 -0.47796342 0.14995427 -0.14526047
000100 2e 61 a1 bd 2b a9 bf bd 90 04 9d be 8f 1c 07 3f
       -0.07879864 -0.09358438 -0.30667543 0.5277795
000110 82 2d e3 3d 15 16 97 bd a8 bb 01 3f 9e b5 83 3d
       0.11092664 -0.07377259 0.50676966 0.06431125

transformer.attn.proj_k.weight f4 [72, 72]
000000 82 ad 42 3d 79 5e 70 3e 48 7b c9 be e0 be 21 3e
       0.04752875 0.23473538 -0.3935187 0.1579547
000010 61 f9 66 3f b8 af 64 bd 99 5d 87 be 4e 9c 71 be
       0.9022427 -0.05583164 -0.26438597 -0.23594782
000020 de 65 05 be c6 4b 94 3e 98 50 67 be fe ce f3 3e
       -0.1302714 0.2896406 -0.22589338 0.4761886
000030 67 8a 8f be e2 72 64 be 84 c1 d6 3d e1 34 05 bf
       -0.2803528 -0.2230945 0.10486129 -0.5203381
000040 2a db eb 3e 03 62 2f bd 91 99 1c 3e 91 53 e5 3e
       0.46065646 -0.04281808 0.15292956 0.4479032
000050 33 c8 0d be 34 2b 93 3e 06 2d 7c bd ca d3 2f 3e
       -0.13845901 0.287439 -0.061566375 0.17170635
000060 ce 2a 00 be 67 9f b7 3d 78 9d 80 3d b1 91 a4 3c
       -0.12516329 0.089659505 0.06280035 0.020089002
000070 a2 0b 15 bd ce 99 0f 3e 59 cb ca bd e3 b6 18 bf
       -0.036388047 0.14023516 -0.09902067 -0.59654063
000080 43 98 e3 3e 11 c7 7f 3d a7 75 49 3e f7 34 a0 3e
       0.44452104 0.062445704 0.19673787 0.3129041
000090 a9 c0 aa 3e 8e 4f 9e be 42 f5 87 be 32 ba 7d bc
       0.33350113 -0.3092007 -0.26554304 -0.015486287
0000a0 05 e6 b0 3e e5 60 89 3d 62 9d 54 3e 7f c7 d5 be
       0.3455049 0.06707934 0.20763162 -0.41753766
0000b0 66 1d a0 3e 39 e6 40 be 35 02 36 3e db 00 66 bf
       0.3127243 -0.18837823 0.1777428 -0.89845055
0000c0 75 c5 b7 be 53 7e a1 3e cf 35 c5 bd d1 d5 2a 3f
       -0.35892835 0.3154169 -0.09629404 0.6673251
0000d0 36 16 66 be 80 35 f5 bc b7 4e 8a 3e 30 44 5f bc
       -0.2246941 -0.029932737 0.2701318 -0.013627097
0000e0 a7 62 3e be 96 e8 4a be 75 51 bd 3d ef cc b1 be
       -0.1859232 -0.19815287 0.09244052 -0.34726664
0000f0 5a c8 fd be 52 05 ef 3e db 16 78 bf 6f 32 b1 bd
       -0.4956692 0.46683747 -0.96909875 -0.086521976
000100 3d 9d 7a 3e ea cd f0 3e 97 9d 98 bd ef 35 a4 be
       0.24474044 0.470321 -0.07451933 -0.32072398
000110 53 d1 83 be a8 bc a2 3e 3c 77 92 3e e7 41 fb be
       -0.2574564 0.31784558 0.28606594 -0.49073717
000120 7d 1b 0f 3d 6c 5f f7 3d a0 eb 8f be 1f d3 6b bd
       0.034938324 0.12078747 -0.28109455 -0.057574388
000130 6e 26 17 3f 7a 3b 12 3e bf 63 e1 3c a7 62 65 bc
       0.59043014 0.14280501 0.027513383 -0.014000571
000140 7a 74 2c 3d 39 bb 46 3e 50 e1 33 3e 20 8d eb 3d
       0.04210327 0.19407357 0.17566419 0.11501527
000150 1b 79 88 bd 10 97 f9 3e 70 e2 9c 3e 30 36 01 be
       -0.06663724 0.48748064 0.30641508 -0.12618327
000160 ae ef 22 3e 6b 4c db 3d ff 07 e9 3e cd 7a 00 3e
       0.15911743 0.10707935 0.45513913 0.12546845
000170 b8 1b 8a bf 51 98 01 3e ba d1 43 bf 1a 49 9c 3e
       -1.0789709 0.1265576 -0.7649189 0.30524522
000180 ef 73 7a be 6d 58 45 be e6 fd a0 3d ed d5 8c 3d
       -0.24458288 -0.19272013 0.07860927 0.068767406
000190 08 ae 0a 3f a9 d3 82 3e 04 8b 61 bd 80 61 44 be
       0.541718 0.2555211 -0.055064216 -0.19177818
0001a0 db 42 c4 bd f5 9c d9 3e 5b bf 44 3f 4e 6c 26 be
       -0.09583064 0.4250256 0.76854485 -0.16252252
0001b0 47 fd 82 be cd d8 8b 3e ee b1 de bb fa 9f a0 be
       -0.2558386 0.27313843 -0.006796113 -0.31372052
0001c0 fd 69 a9 be 9f 1a 8a be cf 2e 7a 3d f9 9c 03 3f
       -0.33088675 -0.26973435 0.061079796 0.51411396
0001d0 f5 e2 1b 3e 2c 7c 27 bf 50 4b 7e bd 32 88 85 3c
       0.15223296 -0.65423846 -0.062083542 0.016300295
0001e0 33 e2 8d 3c ab d4 7a be f8 ec 16 bf cf 3d 48 3c
       0.017319774 -0.24495189 -0.58955336 0.012221768
0001f0 7c 8c ea bd e9 88 2c bd 9b b5 cf 3c 94 e3 86 3e
       -0.114525765 -0.042122755 0.02535515 0.26345503
000200 0c a3 95 3e 64 91 92 be 11 bb 4b bc ce 64 1d 3f
       0.29225957 -0.2862655 -0.012434737 0.6148194
000210 41 8e 10 3f d2 23 c5 be 7f 2e 5d 3f e0 0b 45 bf
       0.5646706 -0.3850389 0.8639907 -0.76971245
000220 af 7b 48 be 65 74 be 3e c9 f4 20 bf c5 08 11 3e
       -0.19578432 0.37198177 -0.6287351 0.14163502
000230 04 15 45 be fb 95 60 bd 8b 93 39 be 2e 0d 4a 3d
       -0.19246298 -0.054830533 -0.1812269 0.049328975
000240 73 ff eb 3d 41 a4 03 3e 48 4d 4d bc 1c 91 95 ba
       0.115233324 0.12855627 -0.012530632 -0.0011411044
000250 a5 a5 03 3e 21 5c 81 3e 8a 01 08 3d a4 65 0b 3e
       0.12856157 0.252656 0.033204593 0.13612992
000260 cc 18 1c 3e b5 11 8c be f1 4a 8e bf 05 2a 03 3f
       0.15243834 -0.2735726 -1.111662 0.5123599
000270 b6 38 ce bd 4d 11 b3 3e ec 79 0b 3f 04 98 f6 bd
       -0.100694105 0.34974137 0.54482913 -0.120407134
000280 3f 43 bc be c4 1a 16 3b fd 16 45 be af 99 83 3e
       -0.36770055 0.0022904137 -0.1924705 0.2570319
000290 a7 80 8c be 68 38 16 bf 2e 13 df 3b 1f 49 d5 3e
       -0.27441904 -0.5867982 0.0068077063 0.4165735
0002a0 98 56 80 bd 23 f8 55 3e b0 88 ff be 31 49 82 3e
       -0.062665164 0.20895438 -0.49908972 0.25446466
0002b0 ce 84 f5 bd 1f 39 05 3f 5b cf aa bd 61 eb cb 3d
       -0.11988221 0.52040285 -0.08340331 0.09957004
0002c0 b1 b6 91 be 58 dd 87 3e a1 e3 9f be a3 ec 38 be
       -0.28459695 0.2653606 -0.31228355 -0.1805902
0002d0 ab aa 83 be da e4 ba 3e 0f dd 0e bd a4 c5 11 bf
       -0.25716147 0.36502725 -0.034878787 -0.569422
0002e0 f5 b7 76 bd 55 c3 c4 3e 04 93 ce be 52 6b 69 3e
       -0.06023403 0.38430277 -0.4034654 0.22794846
0002f0 36 7e 75 bf ff e3 7d 3e a0 9c 5e 3e ee 13 8a 3e
       -0.9589571 0.24794005 0.21739435 0.2696833
000300 cf 6e 4d 3e e7 7c c4 3e 82 92 03 be 46 4c 39 bd
       0.20061801 0.38376543 -0.12848857 -0.045238756
000310 76 da f0 bb 16 93 c5 3d 1f 22 9a bf f3 e9 c0 3e
       -0.0073502613 0.09647195 -1.2041663 0.3767849
000320 9e bd 23 be fc d8 9c 3d 24 c8 4e bf 68 1b 84 bc
       -0.15990302 0.07658574 -0.8077414 -0.01612635
000330 1d c5 35 bf 10 66 88 3e d8 d2 a3 bd e5 59 90 be
       -0.71003896 0.26640368 -0.079992 -0.28193584
000340 97 33 9a 3d df 6b 92 bf 31 d6 31 bd 3d 16 11 3e
       0.07529371 -1.143917 -0.04341716 0.1416864
000350 ae 3b 7d 3e 1e e8 19 be 01 72 71 bc 53 6a 0d 3d
       0.24729797 -0.15029952 -0.014736653 0.034525227
000360 f7 47 fa 3c f6 2f 4a 3e ca cc 02 3f f7 44 19 3f
       0.030551894 0.19744858 0.51093733 0.59870857
000370 13 4f 3e 3f ca 72 9f bd e5 43 a6 3e 1a eb 82 be
       0.7433941 -0.07785566 0.32473674 -0.25569993
000380 8d 88 eb 3e 91 01 6d be c3 9f fb be d5 15 86 bd
       0.46002617 -0.23145129 -0.49145326 -0.06547133
000390 2c e2 20 3e 2b 1b 89 3e ea 5d 38 3e 56 1e 50 3f
       0.15711278 0.2677854 0.18004575 0.8129629
0003a0 13 2f 93 3e 80 4b 89 bc 34 94 c2 be 84 df 88 3e
       0.28746852 -0.016759634 -0.38003695 0.2673303
0003b0 90 82 4b 3d 8f aa 3e be b6 1d 2b be 21 f4 a2 bb
       0.04968506 -0.1861975 -0.16710553 -0.00497295
0003c0 cb f1 16 bf d3 86 bc 3e c5 3a 81 3f 99 01 00 3d
       -0.58962697 0.36821613 1.009606 0.031251524
0003d0 2d 70 10 be 14 1b af 3d dc 80 df 3c ce ef 55 3e
       -0.14105292 0.085500866 0.027283125 0.2089226
0003e0 54 f7 bc 3e 16 0a c7 3e 0c 61 82 bf bf 8f 1b bf
       0.36907446 0.38874882 -1.0185866 -0.60766214
0003f0 92 a1 c9 be ff e7 db 3e ba 61 a2 3e 87 53 c9 3e
       -0.3938108 0.42950436 0.31715184 0.3932154

transformer.attn.proj_k.bias f4 [72]
000000 67 c6 57 bd 91 8a 29 bd d5 a7 68 3d 5a d9 82 3d
       -0.052679446 -0.041391913 0.056800682 0.06389113
000010 76 df 10 bc 59 50 3d 3d 4e 2c e7 bc 35 c1 49 3d
       -0.00884234 0.046219204 -0.028219368 0.049256522
000020 1a 64 42 3d 93 df 72 3d be 51 69 bd 8d d5 19 3d
       0.047458746 0.05929525 -0.05696272 0.037557174
000030 e6 9e a0 3c e4 da a6 3d 34 19 de 3c 59 a0 1c 3c
       0.019607019 0.08147219 0.027111627 0.009559714
000040 92 c8 a2 3d 8e e1 f2 3d fb f8 9f bd de df 43 3d
       0.07948412 0.118594274 -0.07811161 0.04782092
000050 1c 54 86 3d 67 83 47 bc 15 69 bf bc f0 a6 b6 bd
       0.06559011 -0.012177325 -0.023365537 -0.089185596
000060 5d f5 92 bd c3 11 b2 bd 11 27 a5 bd 0a 2f ba bd
       -0.071757056 -0.08694794 -0.08064092 -0.09091003
000070 67 86 b0 3d b7 ae 16 3d e7 02 fd 3d 33 7e 74 bc
       0.08619385 0.036787715 0.12354069 -0.014922666
000080 d6 b6 b7 bb 79 36 83 3d 6d 3d b6 bd 66 82 8a bc
       -0.0056065125 0.06406874 -0.08898435 -0.016907882
000090 95 2d 18 3d b4 7f b6 3d 39 fd 89 3d b0 95 f3 3c
       0.037152845 0.08911076 0.067377515 0.029734462
0000a0 27 fd f7 3a 39 a1 25 bd 1d 07 c7 3d 29 22 49 bc
       0.001892005 -0.040436957 0.097181536 -0.012276211
0000b0 25 9c 42 3d 8c e5 32 bc 94 8e c8 3c 52 f9 06 be
       0.047512192 -0.010918986 0.024482049 -0.13181046
0000c0 04 44 53 bc 53 fb d4 3d 33 34 81 3c 42 9c d7 3d
       -0.012894634 0.10399499 0.01577196 0.10527851
0000d0 91 1b f1 bd 51 93 4c bd a4 4f da bd b7 b5 43 3d
       -0.11772836 -0.04994518 -0.106597215 0.04778072
0000e0 0c ec a9 bd e2 c8 4c bb 6a 72 a7 3d eb 61 1d bd
       -0.082969755 -0.0031247665 0.081761196 -0.03842346
0000f0 1c 67 9a 3c 57 da 40 bd e5 c1 ac 3c 41 a8 46 bd
       0.018847995 -0.047083225 0.02108855 -0.048500303
000100 20 91 7d bd e8 87 c3 bc 6b bc af 3d 3d 83 08 3e
       -0.06190598 -0.023868516 0.0858086 0.13331313
000110 65 de 4f bd d9 37 a2 3d ae 6d c5 3d a1 c1 b2 bb
       -0.0507492 0.07920808 0.0964006 -0.0054552113

transformer.attn.proj_v.weight f4 [72, 72]
000000 e2 f8 a7 bf d9 96 99 3f 2a 60 1a 3f 2d 1c 7f be
       -1.3122828 1.199916 0.60302985 -0.24913092
000010 45 22 0b bf fa 30 f5 bd 5a bb b1 be 60 45 80 3f
       -0.54349166 -0.11972232 -0.3471325 1.0021172
000020 fd fe de 3e 91 1d 1e 3f 38 57 3e bf 7f ff b7 3f
       0.43553916 0.61763865 -0.74351835 1.4374846
000030 ed 56 85 3d 72 5e 45 3e 21 3c b6 3d 93 d5 e5 3e
       0.065107204 0.1927431 0.088981874 0.44889507
000040 38 7a f0 be fd 04 60 3e 94 fa 7d 3b c9 1d ee bd
       -0.46968246 0.21876903 0.0038754093 -0.11626775
000050 dc 0f a2 bf 6b b8 71 3f e8 35 39 3f da 17 e3 3e
       -1.266109 0.94422024 0.7234788 0.44354135
000060 f7 81 2f bf ec 59 fc bd 26 4b 08 be cd 9d a1 be
       -0.68557686 -0.12321839 -0.13309917 -0.31565705
000070 fb 9f 76 3e 5c 06 f3 3f a2 d1 31 3f 2e b4 44 3d
       0.24084465 1.8986316 0.694605 0.048023395
000080 9b b5 68 bf 45 8d 8b 3d d4 87 ae bd f2 f2 cf 3e
       -0.9090211 0.068140544 -0.08522001 0.4061504
000090 8d 95 42 3f 9f c1 1e 3f fb b8 9f 3e 60 b1 69 3f
       0.76009446 0.6201419 0.31195816 0.9128628
0000a0 6e c0 26 bf c5 17 31 bf 85 66 0b 3f 6e 1a 20 be
       -0.65137374 -0.69176894 0.5445331 -0.15635082
0000b0 a6 f0 c2 3e e0 43 d5 3e ae e3 8c 3f 5a bb b8 3e
       0.38074225 0.41653347 1.1006982 0.36080438
0000c0 2a bd ef be fa 4b 95 3e 3b a0 eb be 1d 8e 2c 3f
       -0.46824008 0.29159528 -0.46020684 0.6740435
0000d0 48 02 cc be 33 70 58 3f 74 51 e6 bd 3f 83 61 3e
       -0.3984549 0.845462 -0.11246005 0.22022723
0000e0 59 8b 9f be 76 7b 4a bc 86 e7 3a 3b 6a ad bd bf
       -0.31161 -0.012358537 0.0028519346 -1.4818547
0000f0 1e ca 0c 3f 6c 53 df 3e a9 0c 40 3f 5d 83 17 3e
       0.54995906 0.43618333 0.7501932 0.14796205
000100 88 c3 6f be d3 1f 8b bd 63 c5 fa 3e 72 da cc 3e
       -0.23414433 -0.06793179 0.4897872 0.4001041
000110 35 4d d6 bd 36 1b 46 be 33 96 27 3e d6 14 a9 be
       -0.10463945 -0.19346318 0.1636589 -0.3302371
000120 12 43 10 bf cc 63 f7 be a2 8e 63 3d e1 7f 6e 3f
       -0.5635234 -0.48318326 0.055555947 0.9316388
000130 7c bf f3 3e 58 1b 03 40 65 af 23 3f 97 ec 79 be
       0.47607028 2.048544 0.63939506 -0.24406658
000140 20 1c 5d bf 8d 20 e2 3e d2 b3 a6 be 16 cc 94 be
       -0.8637104 0.4416546 -0.32559067 -0.29061955
000150 ed 59 aa 3e 83 e0 14 3f b0 14 9d 3f 2e 6c c9 bc
       0.33271733 0.5815508 1.2271938 -0.024587717
000160 06 f6 37 bf 56 70 ab bd 84 4f 97 be a7 31 1d 3d
       -0.71859777 -0.08371036 -0.29552853 0.03837743
000170 88 ae 4e be 86 dd a6 be 04 ed ee bd 37 b4 54 bf
       -0.20183766 -0.32590884 -0.11666301 -0.83087486
000180 be be 87 3e 2b ac ec be 6d c3 aa be 61 ee 22 bf
       0.26512712 -0.46225104 -0.33352223 -0.6364499
000190 37 e5 7f 3e 1e 81 3c bf 12 f5 e9 bd c6 3a 99 be
       0.24989782 -0.7363452 -0.114236966 -0.29927653
0001a0 8f 87 04 bf 7a ab 8a 3f 94 c7 2e be 16 1b 9f 3e
       -0.51769346 1.083358 -0.1706832 0.31075352
0001b0 41 96 e0 be 4d e2 0e be f0 0c f1 be 66 46 05 3f
       -0.43864635 -0.13953514 -0.47080183 0.52060544
0001c0 ff d3 98 3e fd cb 3f 3e ae bf ae bd 54 fc 13 bf
       0.2984924 0.18730159 -0.08532654 -0.578069
0001d0 b7 90 2b 3f e7 ba ba bf 91 6d 9a 3e 26 6a 62 bb
       0.6701769 -1.4588288 0.30161718 -0.0034548133
0001e0 d8 38 09 3f 3b 7b 88 bf 75 6c 80 bf f7 56 20 bf
       0.5360236 -1.0662607 -1.0033098 -0.626327
0001f0 91 52 15 3e a6 45 24 bf 27 00 8d 3d 72 57 0e 3e
       0.14582278 -0.64168775 0.06884795 0.13900545
000200 d6 fd f5 3d 24 00 bb be 43 28 27 3f 65 29 1e 3f
       0.12011306 -0.36523545 0.6529581 0.61781913
000210 17 03 6c 3f 01 60 03 bd 9c 50 b1 3e dd 04 8c 3e
       0.92192215 -0.03207398 0.34631813 0.2734746
000220 2c 5d 0d 3d 78 aa 50 3f 24 9e bf 3e f3 5b c5 be
       0.034512684 0.81510115 0.3742534 -0.38546714
000230 7b b0 d8 be 33 e7 2d 3f b8 c6 a5 3e 2f 60 36 bf
       -0.42322144 0.67930907 0.32378173 -0.71240515
000240 3c 86 04 3f 72 3c b1 bf 3e e6 28 3e 4e e7 26 bf
       0.51767325 -1.3846571 0.1649408 -0.6519669
000250 09 67 93 be 7d 4f b0 bd 4e 4f b5 bd b8 4d bd be
       -0.28789547 -0.08608911 -0.08853017 -0.36973357
000260 47 ba 3e 3f 53 3a e7 3e d9 25 89 bf 1e 9f 94 3e
       0.74502987 0.45161685 -1.0714675 0.29027647
000270 60 4a 03 3f 4d bf c8 be 27 fc 35 bf 8e cf 4d 3e
       0.5128536 -0.3920845 -0.7108788 0.20098707
000280 a1 7d 7c 3e bb 44 3d 3f ab 81 8a bd c5 58 b8 be
       0.24657299 0.73933 -0.067630135 -0.36005226
000290 86 63 62 bf ee 03 84 be be c7 a8 bd 4d 4e b0 3f
       -0.8843311 -0.25784248 -0.08241223 1.3773896
0002a0 ac 04 81 bf 0f 04 a2 3d 1d e0 68 bf 2d 31 3c 3e
       -1.0079551 0.0791093 -0.9096697 0.18378134
0002b0 d0 e3 06 3f 47 76 6b 3d ed 3f 21 bf 48 2a dc 3e
       0.52691364 0.057485845 -0.6298817 0.43001008
0002c0 db 0a ad bd aa 36 91 3f 0d a3 25 3e eb a6 9d be
       -0.08449336 1.1344807 0.1617548 -0.3079141
0002d0 67 af f7 3e 79 37 d2 3e 7b 17 14 3f 55 10 4d bf
       0.4837601 0.41057947 0.5784833 -0.80103046
0002e0 e3 44 8d 3e 9d 06 5c bf 97 fc 46 3d 58 1a fb bc
       0.2759162 -0.8594759 0.048580732 -0.03065221
0002f0 e5 a4 08 3f b5 a6 f8 3d 8f 9b 4f 3d 47 2f c5 be
       0.5337661 0.12141172 0.05068546 -0.38512632
000300 8f f4 8e bf ac 91 eb 3e 06 fb 84 bf e3 d9 c7 be
       -1.1168383 0.46009576 -1.0389106 -0.39033422
000310 b2 fc 30 bf 64 5b cc be 19 30 a9 3f c9 f8 61 be
       -0.6913558 -0.39913476 1.3217803 -0.2206756
000320 3d bb b6 bd f7 d9 72 bf 40 30 5d 3e ba 98 07 bf
       -0.089224316 -0.9486384 0.21600437 -0.5296742
000330 38 89 f8 3e dc f3 c5 be 1c 93 3b bf 03 1d 8b 3e
       0.4854219 -0.38662612 -0.73271346 0.27170572
000340 22 d9 13 3f 3b a3 22 3f 06 06 85 bc 9e ce 97 3e
       0.57753193 0.6353032 -0.016238224 0.29649824
000350 4e 69 de 3c 1a bf a7 be 6c c5 41 bf 1f 71 67 3f
       0.027149823 -0.32762986 -0.75691867 0.90406984
000360 be d4 b1 bf 7e 96 31 3f 19 55 46 3f 80 68 08 bf
       -1.3893049 0.6937026 0.774736 -0.53284454
000370 23 7d 5f 3f 75 66 15 bf 4f a0 8b 3e e0 bc 9a bd
       0.8730032 -0.5835946 0.27270743 -0.07555556
000380 4c b9 8a bf b7 1f a3 be a4 0d 6b 3f 67 1d 86 3c
       -1.0837798 -0.31860134 0.9181769 0.016371442
000390 25 ca ef 3d 86 94 13 3e dd 8d 8a be 05 57 a6 3f
       0.11708478 0.14412126 -0.27061358 1.2995306
0003a0 9e c7 45 be 8c bf 54 be 5f 88 bc 3f 3d 71 13 3f
       -0.19314429 -0.20776194 1.4729117 0.5759466
0003b0 c0 fb 48 3f da 0b a1 3d be 5f 09 3e 21 e8 ee 3f
       0.7850914 0.07863589 0.13415429 1.866459
0003c0 9b fb 22 bd 2d 75 f6 3e 00 d2 0b 3f 8d ff 3f 3f
       -0.03979073 0.48136273 0.5461731 0.74999315
0003d0 0d 6e 39 3f c5 b0 b0 3c 86 b3 c0 be 63 37 65 bf
       0.7243355 0.021568665 -0.37636966 -0.8953764
0003e0 3d da da be 53 54 e5 3e de db 12 be 10 1a 4e be
       -0.42744628 0.44790897 -0.14341685 -0.2012713
0003f0 06 10 0f 3f d9 c7 74 be 51 1c 61 bf a5 fa 56 bf
       0.55883825 -0.23904361 -0.8793383 -0.83976203

transformer.attn.proj_v.bias f4 [72]
000000 90 38 55 3b e3 f4 b5 3d 8a 79 e4 3d 05 ea a0 be
       0.0032534935 0.08884599 0.11155994 -0.31428543
000010 83 51 6b bd c4 1d 69 bd 8d e1 0c 3e 20 08 8c 3d
       -0.057450783 -0.056913152 0.13757916 0.06837487
000020 f8 90 09 be 4c 2b 08 3e 1d ce 94 bc cf 54 b2 bd
       -0.13434207 0.13297766 -0.018164689 -0.08707582
000030 c1 c1 6f 3d 3d 72 5b 3e 4a 74 11 3d c7 9e f7 3d
       0.058534387 0.21430297 0.035511293 0.12090831
000040 22 d3 c4 bc 21 21 95 bd 44 46 4e be b5 c5 74 3d
       -0.024026457 -0.072817095 -0.20143992 0.05975886
000050 7f 3c 34 bd c5 f8 2d 3c 11 55 bb bd 61 b5 7e be
       -0.044003006 0.010618393 -0.091470845 -0.24873878
000060 34 1c 3e be cf 04 46 be c9 ad f1 bd 3e cf 1d 3c
       -0.18565446 -0.19337772 -0.11800725 0.00963193
000070 30 b2 3b bd ae 38 1b be 92 72 24 be 8e 5e 11 3e
       -0.04582423 -0.1515834 -0.1605933 0.14196226
000080 89 6a 9f be 1c dc af bd 87 20 f2 bb 50 2f 47 be
       -0.31135967 -0.085869044 -0.0073891315 -0.19451642
000090 96 c0 9d 3e ac d0 9d 3e 58 14 71 3e c3 25 2f 3e
       0.30810994 0.30823267 0.23542917 0.17104249
0000a0 be 00 7b 3e b6 44 86 3d 3d 18 3d 3e 17 5c 8d 3d
       0.24512002 0.06556074 0.18466277 0.0690233
0000b0 dc 05 35 3e fa 4b 43 3e b3 01 11 bd 53 c2 ca 3e
       0.17678016 0.19071952 -0.03540201 0.39601383
0000c0 4f ea b1 3d c4 74 dd 3d 4f 54 3d 3d dc c2 e5 bd
       0.08687269 0.10813287 0.04622298 -0.11218807
0000d0 01 2a 60 bd f8 bb 57 bd 03 5a 96 bd 8a a8 6b bd
       -0.054727558 -0.052669495 -0.07341387 -0.05753378
0000e0 a8 4e 5f 3d 3c 78 34 be 65 87 da be 41 30 9b bd
       0.05451837 -0.17623991 -0.42681423 -0.07577563
0000f0 b9 38 2b be bc 5b 18 3e 4e e0 e0 bc 67 9c aa bd
       -0.16720857 0.14878744 -0.027450707 -0.08330613
000100 b5 01 0d 3d 30 47 18 be 74 e4 3d bd 21 41 b1 3e
       0.034425456 -0.14870906 -0.046360448 0.34620002
000110 4d 88 a3 bd cf 62 82 3e 16 67 cd bc 64 50 16 be
       -0.07984982 0.2546601 -0.02507357 -0.14679104
