Src/extractor/unihar_bert_td3.pt (torch, 68479 bytes, 29 tensors)

transformer.embed.lin.weight f4 [36, 6]
00000000: 3b84 46c0 10d1 c23e cb62 133f f6e0 1ebe
00000010: 9946 a8be 0fee cbbd ea9d 3ebf 60b8 dcbe
00000020: 8194 8dbf 2e68 98bf a83f 743d 8ab6 163f
00000030: 9546 bbbf fa6e 2c40 b7cb 0640 43b6 9dbc
00000040: 5a7b eabe 6155 1a3f b494 b53f f19a 3cbf
00000050: 103e 1440 c6e9 81bd 2127 3bbe 9c43 0a3e
00000060: ddb6 c3be 8ec2 a6be 872b 0c3f 8a40 9c3f
00000070: 2d45 613f d37b aa3e fd8f 9abf 6d30 223f
00000080: fb74 3fbf ec50 d83e 3f79 8ebf 87ad b8be
00000090: 8735 9e3f 9686 5940 1032 e8bf 63ec 353d
000000a0: 2aa2 4cbc 3b6d 3b3e 67c7 123d 880f 4ebe
000000b0: 4a5a 02be 5e44 0fbe 19f4 ec3d fb53 193e
000000c0: 9811 7e3c 267c 96bf c8f5 113e a5a1 ed3d
000000d0: 3e20 a33d d627 6bbd f8f4 3740 71d9 0cbf
000000e0: 1eb0 5bbe a294 b73e 9862 07be c04b 163f
000000f0: ce92 993d c158 d8bd 9f23 963c 6c6d 023d
00000100: 61b8 afbd b6cc df3d 207e 83bf 1c97 dcbd
00000110: f5b0 0fc0 ad3e 2d3f 9778 4ebe 65b3 4b3e
00000120: e7ca 7340 3246 dbbf f3c0 ca3f 7343 533e
00000130: 7a16 1ebf 67ec f0bd da68 aa3f 4fae 0c40
00000140: 6be2 373f 4303 9cbe e274 60be 5618 3bbe
00000150: daeb 0b40 484e 8840 bd0e 3f40 908b be3e
00000160: ba57 14be ef97 54be 1efc f4be 2686 31bf
00000170: a3f8 af3f e07a 7ebd fa69 b6be 2056 a2bc
00000180: 50ad 3a3e 0f15 8c3f a70f 83bf 27b6 39be
00000190: c6fc 593f 4c5e 3bbf 4e64 9dbf 795c f4bf
000001a0: 41dd 2bc0 c5a6 a93e 0f45 6fbe 8f69 5ebe
000001b0: 5a13 70bf 4dcb b63e d48b 083f 3799 0abf
000001c0: 44f6 443f bd43 89bf 1da6 0940 b085 85c0
000001d0: cb6e f3bf 16c7 28be feae 8dbe 987d 4ebd
000001e0: 7407 883f e6d0 6e3f 2204 7ec0 d04b 36be
000001f0: 8c81 b2be 7c37 683e c509 0c3f 0b9b 8abe
00000200: ad4d 19bf f826 fc3e 4311 e1bd b591 80bf
00000210: 7777 3fbe a478 55c0 a41c 5e40 2a26 483b
00000220: 0d3f 91bc d6fb 233e 0299 24bf c104 163f
00000230: f911 3e3e 335d 0bbf 52e6 f93e 2c3e 3e3f
00000240: 1028 40c0 0e49 5dbf 1cea 57c0 cb3a 0c3d
00000250: 3d9d 1ebe 5021 05bd e937 75bd a2af 51be
00000260: 4476 a0bc 8eed f9bd e152 a03d 2178 b73d
00000270: e27b 80bf 55b5 943f e2f5 afbe cd85 56be
00000280: 2ec8 3abf 4b35 423e 5e05 eabd 7cf1 593e
00000290: c0ff 783f b092 c1be de70 a6be 1d79 a8bd
000002a0: 62df 84bf 6727 243f 105e ba3f b7ae 45be
000002b0: de89 eb3d 2cf6 b5be 6517 e7bf 0d9c bdbf
000002c0: 8f48 843f b3ab d33e 3601 9e3e dabb 973e
000002d0: 9613 993e bd3d 11bf be14 263e 6da8 353d
000002e0: feac 013e 9eba 313e 89bc 86c0 cf51 adbe
000002f0: e972 2240 4bad f43e 4974 81be 780b ee3c
00000300: dec9 d53f e120 eebf 3b96 b53f 99ef 48bf
00000310: 6683 f6bd a271 85be 8d68 3c40 734a 9f3f
00000320: 957c c3bf d586 703e 6dcb 363d 4fd7 9b3d
00000330: 4c91 0e3f a55b 23c0 17ad b43e ad98 b23d
00000340: c489 933e 7996 6e3e 39b3 2eba 79cb 2cbf
00000350: bf7c 993f f12f 88bd b8fa 33bf 7ab4 72bf
-3.1018207 0.38050127 0.5757262 -0.15515503 -0.32866362 -0.099575154 -0.7445971 -0.43109417
-1.1060945 -1.1906793 0.05963102 0.5887228 -1.4630915 2.6942735 2.1061838 -0.019251948
-0.45797235 0.6028653 1.4186006 -0.7367392 2.316288 -0.06343417 -0.18276645 0.13502353
-0.3822545 -0.32570308 0.5475392 1.2207196 0.8799618 0.33297595 -1.2075192 0.6335514
-0.74787873 0.42249238 -1.1130751 -0.3606989 1.2360085 3.3988395 -1.8140278 0.04441489
-0.012489835 0.18303387 0.035834696 -0.20123112 -0.12729755 -0.13990924 0.115699954 0.14973442
0.015507124 -1.1756637 0.14253914 0.11603097 0.07965134 -0.057411037 2.8743267 -0.5501929
-0.21453902 0.35855585 -0.13221204 0.58709335 0.07498704 -0.105638035 0.018327532 0.031842634
-0.08580089 0.109277174 -1.0272865 -0.10771009 -2.2451756 0.6767376 -0.20163189 0.19892652
3.8092592 -1.7130797 1.5840133 0.20631199 -0.61753047 -0.1176384 1.3313248 2.198139
0.7182986 -0.30471238 -0.21919587 -0.18271002 2.1862702 4.259556 2.9852746 0.37215853
-0.1448659 -0.20761083 -0.478486 -0.6934532 1.3747753 -0.0621289 -0.3562773 -0.019816458
0.18230176 1.0943927 -1.0239152 -0.18135892 0.85151327 -0.7319076 -1.2296236 -1.909072
-2.6853793 0.33135048 -0.23366188 -0.21719955 -0.9377953 0.3570198 0.5333836 -0.5414004
0.7693827 -1.0723797 2.1507638 -4.1725693 -1.9018186 -0.16482195 -0.2767257 -0.050412744
1.0627275 0.93287504 -3.9690022 -0.17802358 -0.3486446 0.22677416 0.5470241 -0.27071413
-0.5988415 0.4924848 -0.109896205 -1.0044466 -0.18697916 -3.3354883 3.470498 0.0030540326
-0.01773026 0.16014037 -0.6429597 0.58601004 0.18561544 -0.54439086 0.48808533 0.74313617
-3.0024452 -0.864396 -3.373664 0.034235757 -0.15489669 -0.032502472 -0.059867773 -0.20477155
-0.019587643 -0.12203513 0.07828308 0.0895846 -1.0037806 1.1617838 -0.3436728 -0.20949478
-0.729617 0.18965642 -0.11426805 0.21283525 0.97265244 -0.37807226 -0.32507986 -0.082262255
-1.0380671 0.64122623 1.4559956 -0.1930493 0.115009055 -0.35539377 -1.8054014 -1.4813248
1.0334643 0.41341934 0.308603 0.29635507 0.29897755 -0.5673483 0.1621885 0.044350076
0.12663648 0.17356345 -4.2105145 -0.33851478 2.5382636 0.47788462 -0.2528403 0.029058203
1.670223 -1.8603784 1.4186472 -0.78490597 -0.12036781 -0.26063257 2.9438813 1.2444595
-1.5272394 0.23488934 0.044627596 0.07609426 0.55690455 -2.5524685 0.35288307 0.08720527
0.28816044 0.23299588 -0.00066642795 -0.67497975 1.1991194 -0.06649769 -0.7030444 -0.94806635

transformer.embed.lin.bias f4 [36]
00000000: 6970 0cbb e620 c8bb 316b 90bd 1dce d83c
00000010: cfd4 14bc 87ab 64bc 8b20 65bc aa4c 53bf
00000020: 5099 443c 1f5a 89bc adbc 99bc 8c1b 8f3d
00000030: 3e03 08bc c04a 543d 8edf 453c 84c2 773c
00000040: 4861 10bd 8abf 63bc 661b 39bc 0fc9 bb3b
00000050: 4beb d53c b388 cb3d c137 9fbc 9bcc a43c
00000060: e6d7 cebc 1974 a43f 3b07 1bbc d88d 15bc
00000070: 0435 bbbb fbe3 05bc 3b31 2cbb e3b2 093d
00000080: 3b24 86bc cf41 d03c 495e c8bc 67ec 3fbc
-0.0021429306 -0.0061074374 -0.07051695 0.02646547 -0.009083941 -0.013956911 -0.01398481 -0.82538855
0.011999443 -0.016766606 -0.018766725 0.06987676 -0.008301554 0.0518291 0.012077225 0.01512206
-0.035249025 -0.013900647 -0.011298036 0.005730755 0.026113173 0.09938183 -0.019435765 0.020117095
-0.025249433 1.284793 -0.009462173 -0.0091280565 -0.005713107 -0.008172031 -0.002627446 0.033617865
-0.016374698 0.025422005 -0.024459021 -0.011714078

transformer.embed.pos_embed.weight f4 [20, 36]
00000000: 6f93 eb3d 4caa 0340 b1f9 a73f 2f7d f43f
00000010: a939 333f f020 b7be 1f93 5bc0 e2cf bd3c
00000020: 2df0 eebf cc81 7bbe 9e59 1ebe e6f6 cc3f
00000030: c6ee 2f3e bfef 523f 6fd1 f7bd e5da a2bf
00000040: 74b5 2abf 4224 b93e e4ed d53e 208f 6ebf
00000050: b182 eabe 6a41 73be 1eed 01c0 1da8 c4bf
00000060: 48a9 45be b308 64bf 0a22 f43f 665e 16c0
00000070: cc7a 6b3f b96d f9be 8607 c03f 98f8 acbf
00000080: d32a d3be df82 b33f 3f86 723f c4ae 493f
00000090: 5d88 e13f 804c 7c3f f2af c53f 5266 80bf
000000a0: 4c7d 3abe de8e 18bf b3ca 00bf 9c97 d8be
000000b0: 18bf f53e 0711 82be 7698 17be 51ca 2a3e
000000c0: eff9 873f f310 7f3e 8be3 afbf f9ec 5f40
000000d0: 9cd6 a7bf 5f8a 433f 4ba3 733f 68f9 93bc
000000e0: b127 283e 1514 513f 057f 13bc ca04 bbbf
000000f0: 5dac b6bf c402 85bf 5831 51bf 7276 723d
00000100: 8307 fd3f 7543 93be 05c9 bebf dcdf 1ebf
00000110: f71a a3bf a0d1 2140 a799 2f3f 5cb8 10c0
00000120: dd7e 533f 42e5 173f 0ea9 35be 1649 8dbf
00000130: 61f5 f53d 5090 87bf bf3f 87be a6ab 8abe
00000140: 53e8 1d40 6382 42be c82f 72c0 f7dc a0bf
00000150: 0ba4 cfbd 4939 e73f 4e7a c8be 75c0 273f
00000160: c3f8 6b3e 4d01 ae3f bbda 07bf a464 e73e
00000170: 10bb 043f d0d7 a1bf 8080 2dbe 05f9 5fbf
00000180: f4a4 f73e 1c71 79bf 5477 6cbf dc28 21be
00000190: f17c dc3f fcab e83f bd37 8d3f 3937 a43f
000001a0: abeb 8abe fb67 2440 178c 8cbf e467 ce3e
000001b0: d3a2 1940 4dd9 c33e 3c5e c3bf 2d57 e1bf
000001c0: 8046 1cbf f4f7 3ebf 8557 5dbf b7e9 3fbf
000001d0: d7b1 01c0 096c 0440 750c cdbf 0452 1bbf
000001e0: cb39 21bf 16e8 9a3e 2b68 e33e 242e d93e
000001f0: 5926 363f e28e 413f c93c 5dbf 91f6 76bf
00000200: c12e 8e3f 3604 933e f87d 25be e8ff 1e3f
00000210: f430 b3bf b39d a8bf 5f5f e03e 4127 103f
00000220: 4bfa ee3f a9ec 83bf 9f02 4240 6bbb e83e
00000230: 5fba abbf cc5f 84bf 6311 bf3f 450e 72bd
00000240: 18f4 8a3f 422d 9f3e 28f4 fdbe 2c99 cebf
00000250: 2732 21bf 8259 08bf 5718 0dc0 9b15 263f
00000260: 717b 1040 d97b 5640 8e76 193f 40ed 4fbf
00000270: b11a a0be ef3d c03e 28fc 193f 26a4 f03e
00000280: 52d3 3c3f 8463 8d3e 1bd6 35bf 3204 2b3e
00000290: dfaa 473e 53c5 a23e 88dd 03c0 8a6b 143f
000002a0: 7e0b a4be a32c eebd 336f d5bf 9905 a5be
000002b0: 1eaa 803f 50fa b3bf a2e5 debf f49f c73f
000002c0: bb43 92bf e906 1fbf a223 313e 0e48 183f
000002d0: b6c6 92be 3c87 3a3f 1ec9 04be f499 b73f
000002e0: f265 bcbd be4e 8ebd 2f89 19bf 0bfa b03f
000002f0: 038d 653e 1e24 3640 81bc f7bf 8004 96bf
00000300: 5957 793f a743 66bf 404e 913e 7354 623f
00000310: 5528 023f 59a1 cf3e cea3 efbe 8ea5 f1be
00000320: 0e25 4bbf f51e 73be 5785 22c0 5722 dbbf
00000330: 9196 6e3f 3124 e13e a7b6 5abf 4121 db3d
00000340: 82c0 d13f d936 ccbf d522 cbbf d02d 173f
00000350: b796 a4be 76a1 16c0 bd21 afbf 5519 f3be
00000360: 0ab4 08bf 37e1 703f 70af 313f 8ea2 b03c
00000370: d163 e8bd a4be dbbe 7e3c 3d3f 41fd a63f
00000380: 7f34 96bf 0fe7 c03f 9eb1 813f e3b6 06bf
00000390: d44b 29c0 3d4b e6bf b81f 663e ee07 0e3f
000003a0: 99e4 08bc c5de a8bf ab67 a0bd 0bd8 1340
000003b0: 6061 763f d70d 0e3f dedc 6dbf 5d0e 0ec0
000003c0: 5f91 90bf 356f 173f 6e47 57bf 8182 323f
000003d0: 8295 373f 473f da3e d3f6 1540 c538 d43f
000003e0: 3480 1ebe e1ea 9fbd 87fb eabe 9cf3 1d3f
000003f0: f0ab 0440 f02e 84be 406e d23e 7763 10bf
0.1150273 2.057269 1.3123075 1.9100703 0.7000986 -0.35767317 -3.4308546 0.023170415
-1.8667046 -0.24561232 -0.15463874 1.6012847 0.17180929 0.82397074 -0.12100493 -1.2723051
-0.66683125 0.36160475 0.4178306 -0.9318714 -0.45802835 -0.23755422 -2.0300975 -1.5363804
-0.19302857 -0.89075774 1.9072888 -2.3495116 0.9198425 -0.48716524 1.5002296 -1.3513365
-0.4124361 1.4024314 0.94736093 0.78782296 1.761974 0.9855423 1.5444319 -1.0031226
-0.1821186 -0.59593 -0.50309294 -0.4230317 0.47997355 -0.25403616 -0.14804253 0.1667874
1.0623149 0.2490881 -1.3741316 3.4988387 -1.3112369 0.7638301 0.9517104 -0.018063262
0.16421391 0.8167127 -0.009002452 -1.4610837 -1.4271351 -1.0391469 -0.8171592 0.05919499
1.9767917 -0.28762403 -1.4905096 -0.6206033 -1.2742604 2.5284195 0.6859383 -2.2612524
0.82615453 0.59334195 -0.1774027 -1.1037929 0.12009693 -1.0590916 -0.26415822 -0.27084082
2.467305 -0.18995051 -3.7841663 -1.2567433 -0.101387106 1.8064357 -0.3915581 0.6552804
0.23044114 1.3594147 -0.5306813 0.4519397 0.51847935 -1.2643986 -0.1694355 -0.8748935
0.48368037 -0.97438216 -0.9236958 -0.15738243 1.7225629 1.8177485 1.1032635 1.2829353
-0.27132925 2.5688465 -1.0980252 0.40313637 2.400563 0.38251725 -1.5263133 -1.7604729
-0.61045074 -0.74597096 -0.8646167 -0.74965996 -2.0264795 2.069094 -1.6019427 -0.6067202
-0.6297881 0.30255193 0.4441541 0.42418015 0.71152264 0.75608647 -0.86420876 -0.9646998
1.1108018 0.2871415 -0.16161335 0.6210923 -1.3999314 -1.3173126 0.43822762 0.56309897
1.8670133 -1.0306598 3.03141 0.4545549 -1.3416251 -1.0341735 1.4927181 -0.05909564
1.0855742 0.31089216 -0.4960034 -1.6140494 -0.6296715 -0.5326158 -2.2046106 0.6487672
2.2575343 3.351309 0.59946525 -0.8122139 -0.31270364 0.37547252 0.60150385 0.47000235
0.7375995 0.27614987 -0.71029824 0.16700819 0.19498776 0.3179117 -2.0603962 0.5797659
-0.32040018 -0.116296075 -1.667456 -0.32230833 1.0051916 -1.4060764 -1.7413828 1.5595689
-1.142692 -0.6211992 0.17298749 0.59484947 -0.2866723 0.728626 -0.12967345 1.4343858
-0.09199132 -0.06948613 -0.5997495 1.3826307 0.22417073 2.8459544 -1.9354402 -1.1720123
0.97398907 -0.8994698 0.28380013 0.8841011 0.5084279 0.40552786 -0.4680466 -0.4719662
-0.79353416 -0.23742278 -2.5393884 -1.7119855 0.93198496 0.43972924 -0.85434955 0.10699702
1.6386874 -1.5954238 -1.5870005 0.5905428 -0.32146236 -2.3536048 -1.3682171 -0.47480264
-0.5339972 0.9409365 0.6940832 0.021561887 -0.113471635 -0.42918885 0.7392043 1.3046037
-1.173477 1.5070513 1.013233 -0.52622813 -2.6452532 -1.7991711 0.22473037 0.5548085
-0.008355283 -1.3192984 -0.07832273 2.3100612 0.9624233 0.5548987 -0.9291514 -2.2196267
-1.1294364 0.59154063 -0.8409337 0.69730383 0.71712506 0.42626402 2.34319 1.6579825
-0.15478593 -0.078084715 -0.45895025 0.61699843 2.0729942 -0.2581706 0.4109974 -0.5640177

transformer.embed.norm.gamma f4 [36]
00000000: 7f12 983e 4acf 1a3f 2ef2 133f 1467 8f3e
00000010: a724 543f 8bfe 223f b794 de3e 5854 9c3f
00000020: 0840 183e cd94 c93e 5ac4 c33e 7ce7 fd3e
00000030: 3acd a33e ce92 e33e 6458 d93e a675 7d3e
00000040: 1ddf 143f 78fc b63e a3da 513f d448 8c3e
00000050: 0772 b33e 913b 253f c142 e13e aa7e 1d3f
00000060: 29c9 cb3e f9ac b43f 54ae 503e 84ef 523e
00000070: 0a9e 7c3e 90f4 c03d 8cc3 5f3e 6368 d73e
00000080: 22a5 f23e 6a71 c53e 2765 a03e c63e 123f
0.2970161 0.6047255 0.5779141 0.2800833 0.8286843 0.6366965 0.43472835 1.221324
0.14868176 0.39371338 0.38235742 0.4959067 0.31992513 0.4444794 0.4245025 0.2475191
0.58152944 0.35739493 0.8197424 0.27399313 0.35047933 0.64544016 0.43996242 0.615214
0.3980191 1.4115287 0.20379001 0.2059918 0.24669662 0.094216466 0.21851939 0.42071828
0.4739161 0.3856309 0.31327173 0.57127035

transformer.embed.norm.beta f4 [36]
00000000: acc8 d3bb 8728 9dbd 97f7 9d3d e393 37bd
00000010: 48f3 5c3d 10d1 6f3c ddac 1e3c 9f9a f13d
00000020: bbd7 57bd 60f9 7fbd 61f3 5e3c 30be 88bd
00000030: 8c3a f03c ec80 8a3d b12e 033c 8356 a0bd
00000040: 3e18 483c 1212 f23d ce31 943d 8f24 ba3c
00000050: a102 55bd a71b a0bc 2e21 a23d d6a4 8d3d
00000060: 4189 2a3d 1ae0 c1be d65e 823d ea75 8d3c
00000070: ce54 233c 79cd 843c ad62 603c 0412 f7bc
00000080: 81e4 b03d 97e8 a73d c4fc e13d 0abe 78bc
-0.006463131 -0.076737456 0.0771324 -0.04481877 0.05394295 0.014637247 0.0096847685 0.1179707
-0.05269597 -0.062493682 0.013607831 -0.066769004 0.029324792 0.06762871 0.008006738 -0.07829001
0.012212811 0.11819853 0.07236062 0.02272251 -0.05200446 -0.019544436 0.07916485 0.069162056
0.0416348 -0.37866288 0.06365745 0.01726814 0.0099689495 0.016211258 0.013695401 -0.030159958
0.08637334 0.0819866 0.11034539 -0.015182028

transformer.attn.proj_q.weight f4 [36, 36]
00000000: a562 0b3f 83bf 8d3e db9f 00bf fa4e 013c
00000010: f27b b13e 86d5 853e f3a3 b1be 4ee6 8c3a
00000020: 464c c93e d44f 363e bb5d 903d 808c ca3d
00000030: b78b 963d a47b f93e 85b4 283e d849 a9bd
00000040: c08c 94be a1a8 febe a3c1 c8bd 4a5e 003e
00000050: 7d8d 68bd 8b8e 59bd 4948 08be 95d1 a13e
00000060: 3427 ad3e 67f9 c63d 848b 903d 333f 22bf
00000070: 8575 4a3d 1387 81be 8b07 b4be 142f 05be
00000080: ce0e 84be 2bb4 72bc 77da 37be f40b 22be
00000090: ece4 253f b231 2ebf 5ff5 01bf d5ca 68be
000000a0: 0142 b4be acf1 d2bd 3a8d d73e 7ef6 9b3c
000000b0: 2387 153f 5198 f33e 623e f3be b30c 8abe
000000c0: a3f4 19bf aa8a 0cbd d34f a0be 1d50 393e
000000d0: 3760 043e e57e 9c3e bbc9 0dbe 2c2d 7bbe
000000e0: 7f2e 6abf 4efb 66be ff77 a03e 929c 3d3f
000000f0: e5bd 823e e430 2dbe 9cb6 0abe c389 8dbe
00000100: 3079 073f a98b 103f 900f 1e3f 3466 a7be
00000110: a02b 9bbe 6e29 8a3e 46af cfbe 3dbf b23e
00000120: 3cef 933d 1192 473e a6f1 a7bc c00f 64bc
00000130: b46a ce3e c9a4 b43e 6485 d03d 6a57 b3bc
00000140: 1775 29be 2674 4ebd 98e8 5a3c 4494 59bf
00000150: fe0d a3be 0687 3dbe 2a37 693e 00cd b23d
00000160: 2cda 0dbf f64e a2be a32f 013f 4318 283f
00000170: 3a49 1f3f 8942 37be 193a 0ebe c197 afbe
00000180: 0b7e 7d3e bdfb d5bd 0908 5abe 94cf 363e
00000190: c88e cfbd a244 b83e dae1 ec3e 696f bcbd
000001a0: 95ea 0e3e 3197 683e 2303 ab3e 1561 3ebd
000001b0: 188a 553e 5cfc c93e 7b5a b13e ee42 debe
000001c0: f0a3 8e3e 41fc 673e fa47 8cbe f05e c23e
000001d0: 4be0 803e 9716 9ebc b472 c73d 73bb 15bf
000001e0: b779 c73e 33e0 81be f1a2 173e 9a1d 96be
000001f0: c9f1 773e 52cc ca3e 26c4 b6be 29ab 813d
00000200: e537 ab3c 6725 bd3e 7b73 26bd 5de3 fcbd
00000210: 2599 92be 5a9a 55be ddf6 49be 32ff 5b3f
00000220: 6c28 f93c cbf1 26be 444b 7ebe 089f 14be
00000230: 7a63 2dbe ce40 c43d 82f9 babd d663 cabe
00000240: 4530 313e 5198 cf3e 898c 023e 3027 aabe
00000250: 9e74 e93e ca88 803e 02fa 843e 8161 283d
00000260: b27e 8c3e 9860 32bf e404 2abf 94dd 463d
00000270: b42d b7be 69e1 263e 920e c23c 7ddc bcbe
00000280: 5634 c2be d1fc b23e 59ea 5dbe 4bb7 f93c
00000290: b9d7 ff3c 42bd 4f3f b0e5 8d3e e73f 5e3f
000002a0: afd1 59bf 680c 863d 871d 9ebe 3dd1 673f
000002b0: 741d a8be 20fc 5bbe 3c24 2a3e 31ba 6ebe
000002c0: 8f57 603e a02c 993d e4ab 3dbd 1b1b c13e
000002d0: 5a48 11bf 9597 033f a8df f9bd 2f23 6fbf
000002e0: d117 803e 043e 093f 95b4 ce3e e8db 2a3e
000002f0: a5d7 acbd 4410 d4be 10df 10bf d02f aabd
00000300: 8ec8 323f a57a e63d f73b 87be 0ddc 0bbf
00000310: 97a2 c5bd b2e9 afbe 60e5 b23d 6006 dc3d
00000320: dec4 cc3e 2e9d 9fbe acdc 96bd 4c27 92be
00000330: be78 31bf ddf7 fd39 7a8c 82bf d2e2 913f
00000340: abc8 873e f070 683f 44fb c53d d620 923e
00000350: 1585 93be 942b 72be 66d8 103f da8d e73e
00000360: 437e 873e f0da 48bd c7dc da3e 3f14 22bd
00000370: f575 943d f62c b03d be20 5e3c 8e1d 103e
00000380: 6ffc 103f a0ab 36be e4cc 98be cbea 8a3e
00000390: 4be3 a0bd 31a3 c23d 16dc 4dbf 64eb 883e
000003a0: 1afc 0ebd 70a1 333e 6786 93bd 5438 bbbe
000003b0: 4b99 a9bc 6652 103e 41ed 873e b6e2 81be
000003c0: b8ea 22bf 90ca 583e 0f6d a4be bc63 793f
000003d0: 2041 973e c1fd be3d 7e2d 0abf 3696 36bf
000003e0: 9ed4 55bc e2ff de3d 2d93 57bf 110f 7a3e
000003f0: 5a0c 63bc 41da 8b3e 5412 303d 1624 ffbe
0.54447395 0.27685174 -0.5024392 0.007892365 0.34664875 0.26139468 -0.34695396 0.0010749788
0.39316005 0.1780389 0.07049128 0.098900795 0.07350867 0.48727143 0.16475113 -0.08266038
-0.29013634 -0.4973803 -0.09802558 0.12535968 -0.05677556 -0.053114455 -0.13308825 0.3160521
0.33818972 0.097155385 0.070578605 -0.63377684 0.04942848 -0.25298366 -0.35162005 -0.1300624
-0.25792545 -0.014813463 -0.17954431 -0.15824872 0.6480243 -0.6804458 -0.5076503 -0.22733624
-0.35206607 -0.103000015 0.42099935 0.019038435 0.5840933 0.47577146 -0.47508532 -0.26962814
-0.6013891 -0.034311928 -0.313109 0.18096967 0.12927328 0.30565563 -0.13846485 -0.2452895
-0.914772 -0.22556803 0.3134155 0.7406703 0.25535503 -0.16913182 -0.13546222 -0.27644166
0.5291929 0.56463104 0.61742496 -0.32695162 -0.3030672 0.26984733 -0.4056341 0.34911528
0.07223365 0.19489314 -0.02050097 -0.013919771 0.40315783 0.3528197 0.10181692 -0.021892268
-0.16548572 -0.050403737 0.013361119 -0.8499186 -0.31846613 -0.18508539 0.2277495 0.08730507
-0.5541103 -0.31700867 0.5046331 0.6566202 0.6222111 -0.17896475 -0.1388935 -0.34295467
0.24755113 -0.10448406 -0.21292128 0.17852622 -0.10134655 0.35989863 0.4626606 -0.09200937
0.13956673 0.22713925 0.3340083 -0.046479303 0.2085346 0.39450347 0.34639344 -0.43410438
0.2785945 0.22654821 -0.27398664 0.37963057 0.25171122 -0.019297881 0.09738675 -0.5848915
0.3896005 -0.25366363 0.14808251 -0.2931946 0.24213327 0.3960901 -0.35696524 0.06331474
0.020900676 0.36942598 -0.040637475 -0.123480536 -0.28632465 -0.20859662 -0.19723077 0.8593627
0.030414782 -0.16303174 -0.24833399 -0.1451379 -0.16932479 0.09582673 -0.09129621 -0.39529294
0.1730357 0.40545896 0.12748922 -0.33233023 0.45596784 0.25104362 0.2597199 0.041108612
0.2744041 -0.6967864 -0.6641371 0.048551157 -0.35777056 0.16296925 0.023688588 -0.3688697
-0.37930554 0.3495851 -0.21671428 0.030482909 0.031230794 0.8114816 0.277143 0.8681626
-0.85085577 0.06545335 -0.30881903 0.9055365 -0.3283497 -0.21482897 0.16615385 -0.23313214
0.21908401 0.07479215 -0.046306506 0.37715992 -0.56751025 0.5140317 -0.12200862 -0.9341306
0.2501817 0.53610253 0.40372148 0.1668545 -0.084395684 -0.4141866 -0.56590366 -0.08309901
0.6983727 0.11253861 -0.26412937 -0.54632646 -0.09650152 -0.34357983 0.08735156 0.107434034
0.39993948 -0.31174606 -0.073663086 -0.28545606 -0.6932486 0.00048440593 -1.019912 1.1397345
0.26520285 0.9079733 0.09667066 0.28540677 -0.2881247 -0.23649436 0.565802 0.45225412
0.26463518 -0.04903692 0.42746565 -0.03957009 0.07249061 0.086023256 0.013557611 0.14073774
0.56635183 -0.17838907 -0.2984382 0.27132258 -0.07855853 0.095037825 -0.8041395 0.2674209
-0.03490839 0.17542052 -0.072033696 -0.36566412 -0.020702979 0.14093933 0.26548198 -0.2536828
-0.636394 0.21171021 -0.32114455 0.9741781 0.29541874 0.093257435 -0.53975666 -0.71322954
-0.01305118 0.108886495 -0.8420895 0.2441981 -0.013857925 0.27314952 0.04298623 -0.4983222

transformer.attn.proj_q.bias f4 [36]
00000000: 094a b7be 4c51 ed3e 75ba ee3e 0291 9abe
00000010: e2ca 9d3d 317d 1d3e 99ef 00be 2291 eebc
00000020: d9ef bf3d f77f 81be 47a2 b7be 1465 093f
00000030: 722f 533f b5e4 7d3c 7c81 7a3e 8fd0 633e
00000040: 467e 19be 63c0 6ebd 2b75 b73e 6100 353f
00000050: 67ca 17bf 2dab 3bbf 3681 ca3e 4d72 c5be
00000060: 606a 89be 308b 213f ceda 503f e9cb 11bf
00000070: 37a0 753e c30e 093f f3f8 493a 2cac 7e3f
00000080: f8e5 4bbe c84d 73bf e8fd 76bf 967b eebe
-0.35798672 0.46351087 0.4662663 -0.30188757 0.077047125 0.15379788 -0.12591399 -0.02912194
0.09371919 -0.25292942 -0.35865995 0.5366986 0.8249427 0.015496423 0.24463457 0.22247528
-0.14989576 -0.058288943 0.3583158 0.70703703 -0.59293216 -0.7330807 0.39551705 -0.38563767
-0.2683897 0.6310301 0.8158387 -0.5695177 0.23986898 0.5353815 0.0007704638 0.99481463
-0.19911945 -0.9504056 -0.9648118 -0.46578664

transformer.attn.proj_k.weight f4 [36, 36]
00000000: 9d8f 223f 2632 e0bd ff11 0e3d 7171 5dbe
00000010: c0a3 9d3d 425a 153e 32ae 1abf d68f b53e
00000020: ff7f 303e 6044 c439 2256 903e 214a cfbc
00000030: 517e 8abd b800 f53e 2e30 b5bc ca3c 6dbe
00000040: 477d 2ebe f371 63be 43ad 023d 97c7 d23d
00000050: a16a 383e d80f a23c 9c4d 80bc 8ec8 7e3e
00000060: c6f3 713d c847 94be fea7 6cbe 4a98 6e3e
00000070: 4042 1c3c 3cfd 9bbe cea7 20be 844c efbe
00000080: 597d 01be 580c 10be 7ad8 643d fe3a 123e
00000090: 99fb 84be 1804 d83e 502e e03e d287 263f
000000a0: 76fd 1a3e 3816 7ebd 378d 14bf 4e66 bbbe
000000b0: 1147 38bf 537f a4be add7 d33e 34c3 f43e
000000c0: 3923 0a3f b9ce 52bd 20ee bd3d b777 87be
000000d0: 9b5a 28be 63a7 9bbe 83d9 213e d32a ad3e
000000e0: 6acd 2f3f 6b49 2d3e b5e1 c0be 72b2 1fbf
000000f0: 8c64 87be adaf 203f a433 bf3e e800 7ebe
00000100: 6764 67be 5946 99bf 2cf1 69bf 6a1a 423d
00000110: 35aa f23c 486e 103e 7a79 5dbd c32b b7bc
00000120: 6cba 183e ed15 b93e 8292 0ebe 193f 8c3e
00000130: f601 de3d 1819 47bd be11 b5bd 9d15 92bd
00000140: 1e1e fd3e 4780 1dbe f08c 933e 511f 423d
00000150: f078 0fbe 5cb7 6c3d d3df 3d3e b860 34bf
00000160: 4d8b 85bd bb3c 9c3e a368 f9bd a81f 5bbd
00000170: ee2e 90be efb8 eb3e 9210 523b ba5a e53e
00000180: 9604 8ebe ddbd c7bd df1c f43e 1b24 fdbd
00000190: 1dad 9ebe 39cc 8dbf ba26 2bbd 4750 603d
000001a0: bff8 643e b48e 933c 1c3d 09bf 914f e23d
000001b0: eff3 86bc 6ade f4bd 762c 5bbe 5293 6d3c
000001c0: 9d5f 69bd 9d2c 3ebd 2488 01be d918 b1bf
000001d0: c1f5 60be a93d fdbd 553a cfbe b5ec 513e
000001e0: 7918 3abe a306 fb3e 9bee 463e 7721 8e3d
000001f0: 5089 26be 5262 5d3b b5c7 f9bd 4a4e 613c
00000200: ca04 22be e5a0 773e 5ce5 13be 9814 163e
00000210: 3d4b c43c b47d c43f 4820 683c 80c7 dabe
00000220: 3aee 99bd e0b4 5abe bc5b 843e 1fbc a8ba
00000230: 51de 5d3d 4843 b83c f1b4 943e f34c c0bd
00000240: 3515 47be 54bb 41bd 9894 47be 4e20 bf3e
00000250: 00db 97bd 74b8 b8bc 5d7e f93c 8b06 d23e
00000260: 2163 5dbd 13e8 923e 0c5c 3f3f 8ca4 d2be
00000270: 9d28 95be 6492 8e3d ea6e e33e d4e1 583e
00000280: 3b08 3bbe ed1f 8bbc 4e24 623e b152 3c3f
00000290: fba9 3fbc 1c40 f1bd d5fc 01bd 5302 b5be
000002a0: 494a 4c3f ae37 1cbf 41af ec3d ff86 3dbe
000002b0: a920 a2be e4a7 05bf e7e6 d23e c62b cd3e
000002c0: 7db5 ff3d 849b 08be dd41 65be 9abc 03bf
000002d0: 371d d33e de02 91be b78d d23d 85dc 233f
000002e0: 4ff2 37be cec4 a5be cff9 34be 9197 c4be
000002f0: 7c29 e33e 8ef9 d73e 9cf4 0e3f 5653 013f
00000300: 48e6 5a3e 4f63 9cbd d2d8 84be 6695 0b3d
00000310: a302 703e b77a 193e 1ee1 893b b4c0 06be
00000320: 6333 12bf d852 5abe 26bb 063e c23f bb3c
00000330: 60fd 9f3e 3f6d 9c3e 2b33 a13e a163 89be
00000340: a4f0 b93e 8e5c 27bf fac0 babe 2f31 71be
00000350: b832 6ebe 98b6 d33e 8d77 1cbf dfba f13d
00000360: 811c f2bd 992e b23d b78d 00bf db0c 3bbd
00000370: 317c 39bc fc94 2d3d 054e 1d3e 39c3 033f
00000380: 7ed6 a1be 5ed1 6d3e 197a 2a3f 15d5 793d
00000390: 5a21 843e 081f 3bbe a93b e63e b893 24bf
000003a0: 9df0 613e 37ff 4dbe 99f6 a0bb 48ed 80bd
000003b0: ee7e a6be 068a 02bf ba3d a2be b83f 473e
000003c0: b649 813e 6c14 5dbf 4ca5 803e 1038 0bbf
000003d0: c99b 5ebe 6542 053f c024 b83e 55bb bb3e
000003e0: 095a 0abb ef5b e1be 8fdb 073f 1884 8e3e
000003f0: 24f0 b63d 01c3 73be c308 71be 19c3 e73e
0.63500386 -0.10947065 0.03468513 -0.21625306 0.076972485 0.14585212 -0.6042205 0.354613
0.17236327 0.00037434977 0.28190714 -0.025303902 -0.06762374 0.4785211 -0.0221177 -0.2316772
-0.17039977 -0.22211437 0.031903517 0.10291975 0.18009426 0.019782946 -0.015662007 0.24881193
0.05907037 -0.28961015 -0.23110959 0.23300281 0.00953728 -0.3046664 -0.15689012 -0.46738064
-0.12645473 -0.14067209 0.05587051 0.14280316 -0.25973204 0.42190623 0.43785334 0.65050995
0.1513575 -0.06203291 -0.58027977 -0.3660149 -0.7198344 -0.3212839 0.41375485 0.47805178
0.53959996 -0.051466677 0.09273934 -0.26458523 -0.16440813 -0.30401143 0.1580563 0.33821735
0.6867281 0.16922538 -0.376722 -0.6238166 -0.264439 0.6276806 0.37344086 -0.24805033
-0.22596894 -1.1974593 -0.91383624 0.04738847 0.029622177 0.14104569 -0.054070927 -0.022359734
0.14914864 0.3614954 -0.13923076 0.2739189 0.10840218 -0.048607916 -0.08841275 -0.07133029
0.4943704 -0.15380965 0.28818464 0.047393147 -0.14010978 0.057792053 0.18542413 -0.7046008
-0.0652071 0.30515084 -0.12178161 -0.053496987 -0.28160805 0.4603953 0.0032053334 0.4479578
-0.27737874 -0.097530104 0.47678277 -0.12360402 -0.3099145 -1.1077949 -0.04178498 0.05476406
0.22360514 0.018012382 -0.5360887 0.11050332 -0.016473738 -0.119564846 -0.21403679 0.014500456
-0.05697595 -0.046429265 -0.1264959 -1.3835708 -0.21968748 -0.12365276 -0.4047419 0.20500453
-0.18173398 0.490285 0.19426958 0.06939977 -0.16263318 0.0033780527 -0.12196294 0.013751576
-0.1582214 0.2418247 -0.14442962 0.14656293 0.023961658 1.5350862 0.014167853 -0.4273033
-0.07516141 -0.21358061 0.25851238 -0.0012873447 0.054167096 0.02249302 0.29044297 -0.09389677
-0.19441684 -0.04729779 -0.19490278 0.37329334 -0.07414818 -0.022548892 0.030455763 0.41020617
-0.054049615 0.28692684 0.7474983 -0.41141164 -0.29132548 0.069615155 0.44420558 0.21179897
-0.18264858 -0.016982997 0.22084162 0.7356368 -0.011698241 -0.11779806 -0.03173526 -0.35353336
0.7980085 -0.6102246 0.115568645 -0.18508528 -0.31665543 -0.52209306 0.4119179 0.4007246
0.12485788 -0.13340575 -0.22388406 -0.5145966 0.41233227 -0.283225 0.10280936 0.6400836
-0.17963527 -0.32376713 -0.1767342 -0.38396886 0.44367588 0.42182583 0.55841994 0.50517786
0.21376908 -0.07636129 -0.2594667 0.034078024 0.23438506 0.14988218 0.0042077443 -0.13159448
-0.5710966 -0.21320665 0.13157329 0.02285755 0.31247997 0.30552098 0.3148435 -0.26833823
0.36316407 -0.653756 -0.36475354 -0.23553918 -0.23261535 0.41350245 -0.6111992 0.11803221
-0.11821843 0.08700294 -0.5021624 -0.045666557 -0.011321113 0.04237841 0.15361793 0.5146976
-0.31608957 0.23224398 0.66592556 0.060994226 0.25806695 -0.18273556 0.44967392 -0.642879
0.22064443 -0.20116888 -0.004912209 -0.06295258 -0.32518715 -0.5099186 -0.3168772 0.194579
0.2525155 -0.86359286 0.25126112 -0.5438242 -0.21739115 0.52054435 0.35965538 0.3666636
-0.0021110794 -0.44015452 0.53069395 0.27835155 0.08932522 -0.23804857 -0.23538499 0.45266035

transformer.attn.proj_k.bias f4 [36]
00000000: 4017 c33c f82b 3a3e 5c8c babd 1aba de3e
00000010: 5aeb eabb 16da 4a3e f187 c1bd 4dcb 7dbd
00000020: c8b4 3e3d 084a 5bbd 09d8 643e d023 acbd
00000030: 3962 9ebe e376 5cbd 6796 33be bbc8 17be
00000040: a25c 04be 7194 cd3c e22d 89bc 4d2c e8bc
00000050: 9483 8b3d 43f6 0d3e 06f7 a53b 8d78 01be
00000060: 20ac 3b3e 883e c23d a543 f33c 89e5 f2bb
00000070: 4e1b b53d 6242 ecbb ca2b 193d 441e 4b3d
00000080: 7b9b 50bd 07ae 83be d47c 2d3e 6ca9 d9bb
0.023814797 0.18180835 -0.09108803 0.4350136 -0.0071691694 0.19809756 -0.09449757 -0.06196146
0.046559125 -0.0535374 0.22348036 -0.08405268 -0.30934313 -0.053824317 -0.17537843 -0.14822666
-0.12925962 0.025095196 -0.016745511 -0.028341437 0.06812206 0.13863473 0.005064848 -0.12643643
0.18327379 0.09484583 0.029695341 -0.0074126166 0.088430986 -0.007210062 0.037395276 0.04958941
-0.050929528 -0.2571871 0.1694215 -0.006642511

transformer.attn.proj_v.weight f4 [36, 36]
00000000: ff79 7e3f 34e7 813f 184c 15be 413d 6cbd
00000010: 4e36 98bf 9a13 ec3e 4c51 93bf e63e cebe
00000020: 1be5 fd3e d2e5 63bf f4a6 3dbe 0ac8 55bd
00000030: 7715 98be ac97 2dbf 77fc a1bf 8f16 323f
00000040: b385 4bbf 6226 1f3f 64d9 443e f241 fb3e
00000050: d1f5 dcbe 0e8c a3be f7e3 583f 0c37 76bd
00000060: f199 5d3f 5cfb 003f 8f3d c33e c174 b33e
00000070: 2eb7 e83c 64fb 973e d870 d9bc 9213 653f
00000080: eed3 073f dd3d 8dbf d18c b83e 814d 2e3f
00000090: d562 2abe fdd3 c33e 14c4 17be 63f9 bebe
000000a0: bb31 4c3f 601d efbe 90fd 8b3e a962 a73f
000000b0: ad96 103f 6470 ff3e b284 653e 168f f83d
000000c0: acdd 8fbe 0e45 06bf e705 90be 5633 1d3e
000000d0: 3b7c 053f 5819 a43e 3373 e93e 5870 b33e
000000e0: 878d 373d 1288 d9be dfdd a4bd ed90 d33e
000000f0: c4f6 843e c96a 93bf 652c 40be df8c 94bd
00000100: 4ad2 45be 2e71 ec3d ea86 c63e c869 4bbe
00000110: 36d0 b3be ab36 253e bd4a 143f 7df1 cabe
00000120: 6d9b 6c3e 6be8 48bf f516 033f 1f21 54bd
00000130: 320d 18bf ed8b 803f aeae 08be 9aa2 893f
00000140: c88f ab3e 63b4 54be 6826 863d 61ab 51be
00000150: 9147 2b3d 7bf8 58be b893 b33e f7ca 693f
00000160: d295 2ebe fc81 a5be 2385 dbbc 049e c4bd
00000170: 8a7b b9be 8d17 2b3e 66e8 883e ba73 21bf
00000180: d46b 32be 0d03 f0bf e274 1fbe d13c ba3e
00000190: 910f 52be 361a 50bd bc8e 0ebf b1b2 043f
000001a0: 4f58 bc3d 4e88 51bf 72f2 d7be 7809 9d3f
000001b0: e781 edbd 5553 e3be 7a95 14bf 3100 5dbe
000001c0: 9966 173f c76b 19bd 9e65 02bf 4072 843f
000001d0: 45c6 03be d7fe 823e 05be 183f d77e 39bd
000001e0: 975b 3b3e 8144 10bf 60f1 bdbe 736c 09bf
000001f0: a51c 143f aefb 3b3f 9db8 fb3e f87c afbd
00000200: 7bd9 a1be e5fc b33e 9c71 973d 6f79 36bf
00000210: 4ed0 883e b83f edbf 618e 8e3d 469b 903e
00000220: 459f 133f 7978 ca3e e4f9 d63e 2ca4 573e
00000230: 554e 31bf ac19 ed3d 45c6 4b3e c011 69be
00000240: 20fc 70bd 6200 c2bf 3d08 01be f69d babe
00000250: ef3e 923f e9cf ab3f 9b01 323e fffc 85bf
00000260: 39c5 783e 5427 8e3e af85 64be bc31 9b3f
00000270: 112b 363e 0330 b3be b412 553c c98f 60bd
00000280: 8054 1dbf 2a62 4f3f 7cc1 98bf 69e7 7c3e
00000290: 8829 0c3e 74dc 6c3f 3e46 cebe 5c82 9abf
000002a0: 2584 f53e 5a54 9d3e 47b9 7dbe 9888 ffbe
000002b0: 59e2 c6be 2950 bcbd 3620 80be 2c15 153f
000002c0: 238f 59bf 11b5 273d bb9a 4abe 4d90 f43e
000002d0: a48c 41be 24c1 f83e 090d a7be 3390 433e
000002e0: 553e adbf 315c b43e 84fa 0cbe b842 5d3f
000002f0: dc88 453e c86a 093f adab 833e cbd0 083e
00000300: d7fb 013f 699a e0be 2203 2ebf 520a 833e
00000310: 254f 80bf d4d9 993d aca2 e3bf 03ab 3a3f
00000320: 4965 8b3f c232 e3be 70cb d13c 1218 58be
00000330: 4258 8f3e d17e 35bf 604d a93d 085c 293e
00000340: 61be 83bf d989 4bbb 3434 19be 6cce 5ebf
00000350: b5a1 ca3e c630 913e 6ce7 6e3e f023 0ebe
00000360: 3dc6 39bf b5e1 52bf 45e1 10bf d33d 713e
00000370: 38ba fa3f 14c6 a0bf 386f 85be b67d eb3d
00000380: ed5a 1c3f 0f28 b23e 9b0d c4bd f095 d03c
00000390: 56ed 803e c9c9 febe a79c 0ebe 7f59 203e
000003a0: 36eb ca3d d8c3 eebe 1a71 71be 4866 023f
000003b0: d788 13bf 29b8 1a3d 3e12 803f f5c6 ac3e
000003c0: 8e48 f9be 42ce 013f e4cb 58bf 800f 09bf
000003d0: 31a2 e6be 4c0c 113f 2853 e03d b5ff dfbd
000003e0: d5ac c53e 0a72 2dbd 0e8a 4a3f a5c8 cdbe
000003f0: 782e 693e 2100 a1be 8660 7ebf ff43 43bf
0.994049 1.0148683 -0.14579809 -0.057675604 -1.1891572 0.46108705 -1.1509185 -0.40282363
0.49588856 -0.8902255 -0.18520719 -0.052192725 -0.29703876 -0.6780956 -1.2655171 0.6956567
-0.79500884 0.6216794 0.19223553 0.4907375 -0.43156293 -0.3194279 0.84722847 -0.06011109
0.8656302 0.50383544 0.38132903 0.35050014 0.02840766 0.29683983 -0.026543066 0.89482987
0.53057754 -1.1034504 0.36044934 0.6808701 -0.16639264 0.38247672 -0.14820892 -0.37299642
0.7976338 -0.467021 0.2734189 1.3076984 0.56479913 0.49890435 0.224139 0.121366665
-0.2809881 -0.5244912 -0.28129503 0.15351614 0.52142686 0.32050586 0.45595703 0.3504665
0.044812705 -0.42486626 -0.08050131 0.41321507 0.25969517 -1.1516963 -0.18766935 -0.072534315
-0.193185 0.11545025 0.38774806 -0.19864571 -0.3511979 0.16134135 0.5792654 -0.39637366
0.23106165 -0.7847964 0.51206905 -0.0517894 -0.59395134 1.0042702 -0.13347885 1.0752747
0.33508134 -0.20771937 0.06550294 -0.20475532 0.041816298 -0.21188538 0.35073638 0.91325325
-0.1704934 -0.32325733 -0.026796883 -0.096004516 -0.36227065 0.16708203 0.26739806 -0.6306721
-0.17423946 -1.8750931 -0.15571931 0.36374524 -0.2051375 -0.050806247 -0.55686545 0.5183516
0.09196531 -0.8184861 -0.4217716 1.2268515 -0.115970425 -0.44399515 -0.58040583 -0.21582104
0.59140927 -0.0374563 -0.50936306 1.0347366 -0.12868603 0.25585052 0.59664947 -0.04528698
0.18296658 -0.5635453 -0.37098217 -0.53681105 0.5785621 0.7343091 0.49164286 -0.08568758
-0.31611237 0.3515388 0.07394716 -0.7127904 0.26721424 -1.853507 0.0696075 0.28243464
0.576649 0.39545038 0.41987526 0.2105872 -0.6926015 0.11577162 0.19899853 -0.22760677
-0.058834195 -1.5156367 -0.12600799 -0.3644864 1.1425456 1.3422824 0.17383425 -1.0467833
0.24293984 0.2776438 -0.22316621 1.2124553 0.17789866 -0.34997568 0.013004947 -0.054824624
-0.6145706 0.8100916 -1.1934047 0.24697651 0.13687718 0.92523885 -0.40287966 -1.2071033
0.4795238 0.30728418 -0.24777709 -0.499089 -0.38844565 -0.09194977 -0.25024575 0.5823543
-0.84984034 0.040944163 -0.19785587 0.47766343 -0.18901306 0.48584855 -0.32627133 0.19097976
-1.3534647 0.35226586 -0.13767439 0.8642993 0.19290489 0.5367856 0.25716916 0.13360898
0.507749 -0.43867806 -0.6797353 0.2559381 -1.0024153 0.075122505 -1.7784019 0.72917193
1.0890285 -0.44374663 0.025609702 -0.21102932 0.27997023 -0.7089663 0.08266711 0.16539013
-1.0292474 -0.0031057505 -0.1496132 -0.87033725 0.39576498 0.28357524 0.23330468 -0.13880897
-0.7256811 -0.8237565 -0.56593734 0.2355874 1.958808 -1.2560449 -0.26061416 0.11498587
0.6107624 0.34796187 -0.095729075 0.02546212 0.25181073 -0.49763325 -0.13926946 0.1565914
0.09908144 -0.46633792 -0.23578301 0.5093732 -0.57630676 0.037773285 1.0005567 0.33745542
-0.48688167 0.5070535 -0.8468611 -0.53539276 -0.45045617 0.5665939 0.10953361 -0.10937444
0.38608423 -0.042345084 0.79116905 -0.40192142 0.22771633 -0.3144541 -0.99366033 -0.7627563

transformer.attn.proj_v.bias f4 [36]
00000000: 2ebf 333e 8aff 7b3f e55f c0bd a2c2 d9be
00000010: cbf6 203e ac6d 71be f141 9cbe bcb0 d5be
00000020: 115a d0be 0a70 44be 743f 1f3e ff76 983e
00000030: f745 0c3f d8ea 39bd 6916 4b3e 3604 253e
00000040: 8d60 0cbe 62bf ab3e 090c d8be 0de3 fbbe
00000050: 3e54 473e 6eed 35bf e609 efbe fa06 4d3e
00000060: 0f7f 193e f410 cebe 290c 87be 3738 4e3d
00000070: d58d 8a3e 11ec 83be 0c80 d83e 19e3 c93e
00000080: b9ac e6be 85ea 7b3e 5910 e23d 7cfa 8dbe
0.17553398 0.98436797 -0.093932904 -0.42531306 0.15719144 -0.23576993 -0.3051906 -0.417364
-0.40693715 -0.19183365 0.15551549 0.29778287 0.5479426 -0.04538998 0.19832768 0.16114888
-0.13708706 0.3354445 -0.42196682 -0.49196663 0.1946573 -0.71065414 -0.4668724 0.20022193
0.14989875 -0.4024731 -0.26376465 0.05034658 0.27061334 -0.25766042 0.42285192 0.39431074
-0.45053652 0.24601181 0.11038274 -0.27730167

transformer.proj.weight f4 [36, 36]
00000000: e184 cf3f 5de8 9cbe 3e2f 133f 935a ae3e
00000010: ddd8 2abe 0576 31bf 69a1 333e e094 ce3e
00000020: 972a 223f 3027 303c bbeb 193e 3394 8b3d
00000030: ab35 143e 47fb 223d 981b 37be 0392 96be
00000040: 0dcd ef3d 1b5b 3e3d 9fc6 a0bf 867a 18bf
00000050: 0845 f43d 04b5 223f 6ca0 efbe 060d 25bf
00000060: 2102 25be 5e69 d13f 0947 22bf 4c36 ddbc
00000070: a80f ebbd ded1 643e a71f c03d fbe7 e0bd
00000080: 3c8e cc3d a6d9 ab3d 55c4 b8bd ce2d 78be
00000090: 5192 b0be bbd7 5a3f 69c0 073e fa68 403f
000000a0: 29d3 cebe 0df5 c9be 9579 003f ff00 183f
000000b0: 8805 e13c a9dd 8bbe ebc0 05bf b5bb ec3c
000000c0: 1560 c53d 9346 94bd 11f0 a3bb 6bee 0d3f
000000d0: b7e6 0abd 73e7 6c3e 2b1b 123f 81b9 a3be
000000e0: d856 83be 50a5 40bf 4c9f 1b3f 9914 4cbe
000000f0: 243c 12bf 8c67 bbbe 24a2 cfbe 5e63 933e
00000100: fbd2 823e 7264 203d 0957 25be 3258 023f
00000110: 08c1 b23b 73ad cabd 85b0 18be 1a69 583e
00000120: 2ebc dbbe 26d6 f8be aefd e53f 392f d53e
00000130: 84cb 5abe b06c 973e 006b 85be 720c a4be
00000140: c49d 77be 02bf 8bbe 3eea f1bc 77dc b33b
00000150: b48b c6be bac3 9abd 853d e2bd 49c2 993e
00000160: 69ea 633e f5f9 88be e12c 55be 4adb 6abe
00000170: 98f2 ea3e 91e7 97be d57a 013e 81f2 db3e
00000180: 4de5 babc afac b73e f534 7f3e 9b49 3f3e
00000190: 4b48 f73d d9a9 69bd bff2 d2be fa30 15be
000001a0: d3a9 bc3e 4f53 7ebe b504 8cbe d3ef 293e
000001b0: f2d7 42bf 75d8 bf3e 4927 493f 1a2d 813f
000001c0: 8e9d 853f 7d38 fa3e 3ddd 533f 7c63 a23e
000001d0: f420 f93d 7e16 173f 8ea1 d73e 89cf 253f
000001e0: eb98 e23e 0504 ccbd 644a 2b3e b367 89bd
000001f0: 1104 c6bc addc 003f 8324 f93d 06ce c1be
00000200: 3e34 943e cef9 1d3f 1881 0dbe 86c8 e5be
00000210: 8770 233f 00e1 0d3f d3ed 213f b314 e53d
00000220: aa4d ee3d 1d35 fb3d a389 733f 0521 463e
00000230: 19e7 593e a3d1 fe3e 48a2 f33e c51b adbe
00000240: 5d4f b53d be38 4bbe 1710 68be e21f 853d
00000250: 0b94 0f40 7b38 8dbe 68fa 0fbe bca3 113e
00000260: 4513 5cbd 8a59 5cbd a799 49bc 26fe bfbe
00000270: 84b7 84bd 9086 a6be d88e a5bc c502 fd3c
00000280: 9f54 f9bd ac94 803e 0486 12bf 8d53 c23a
00000290: b8c7 7ebf 1c7d 31bf b8ac 8f3e 7703 863f
000002a0: 5ed8 11bf 4167 cdbd 3f0a 143f a4bd b03e
000002b0: 89b2 06be 458d 343d 9c17 c23d b88c e93d
000002c0: 8853 febd f65a 64be 5c87 d9bd ee58 843e
000002d0: 8e26 e13e 50d0 033f 1e72 9dbe 35ed 293d
000002e0: de5e 693d 99d2 0340 37b8 f8bc 2a9e 84bd
000002f0: 37e5 94be dcf3 b0be 22c8 6b3e f8b5 6bbd
00000300: 47aa a3be c0f3 c0be eb98 a8be 106c c83c
00000310: 845a d63e 672a 59be bed7 353e a419 69be
00000320: 5e6f f83e 0fb2 a53c 2d67 31be 34de 363f
00000330: 684f 353e f057 9d3e db91 6fbf 96cf 7f3e
00000340: e7c8 48be e28e 4abd 7ef6 c1bd 63da c7be
00000350: 38ca a23e 852a d5be f615 dbbe 51a4 dbbd
00000360: d457 fcbb cae3 043e 99dc dabe bde6 183f
00000370: ba4f 39be fea0 b7be 8b0e c43f 5d58 29bf
00000380: 4bd2 d1bc f794 80be 4692 853d fd52 64be
00000390: fd64 c5be 1024 c03b 436b 93bd 07d4 b8be
000003a0: b600 003f 92a3 b1be 8b82 013f cac5 c8be
000003b0: fda3 8ebd 9c31 30bf e319 983f ec9c c5be
000003c0: eef1 7c3f cdf5 36be 7f3f fa3e 83f9 42be
000003d0: b885 a8be 6779 f9bd c33e bfbe 1a0d 72be
000003e0: fa43 8c3e 317a b0be 91c8 c6be 664e 9dbd
000003f0: b531 4bbe f909 8f3e 4807 f5be 608a e73d
1.6212426 -0.3064603 0.5749396 0.34053478 -0.1668429 -0.6932071 0.17542042 0.40347958
0.63346237 0.0107515305 0.1503133 0.06815376 0.14473598 0.039790418 -0.1788162 -0.29408273
0.11709032 0.046473604 -1.2560614 -0.59561956 0.11927229 0.6355746 -0.4680208 -0.64473
-0.16114093 1.636028 -0.6338964 -0.02700343 -0.114775956 0.22345683 0.09381037 -0.10981747
0.099880666 0.083911225 -0.09021822 -0.24236223 -0.3448663 0.8548543 0.13256992 0.7516018
-0.40395477 -0.3944477 0.5018552 0.5937652 0.027468458 -0.2731755 -0.52247494 0.0288981
0.09637467 -0.072400235 -0.0050029834 0.5544192 -0.033911433 0.23135166 0.57072705 -0.31977466
-0.25652194 -0.75252247 0.6078994 -0.19929732 -0.5712302 -0.36602437 -0.4055339 0.2878675
0.2555159 0.039158292 -0.16146483 0.50915825 0.00545514 -0.09896364 -0.14911087 0.21133843
-0.42917007 -0.48600882 1.7968042 0.4163759 -0.21366698 0.2957511 -0.26058197 -0.32040745
-0.24181277 -0.27294165 -0.02953064 0.005488928 -0.3877846 -0.07556863 -0.1104689 0.3003104
0.22257389 -0.26753202 -0.20817901 -0.22935215 0.4588821 -0.2966886 0.12644513 0.42958453
-0.022814417 0.35873935 0.24922545 0.18680422 0.12074336 -0.057046745 -0.41200826 -0.14569464
0.36848316 -0.24836467 -0.2734734 0.16595392 -0.76110756 0.3746983 0.7857557 1.0091889
1.0438707 0.48871222 0.8275946 0.31716526 0.121644884 0.59018695 0.42115444 0.647698
0.44257292 -0.09961704 0.16727597 -0.06709232 -0.02417186 0.50336725 0.12165167 -0.37852496
0.28946108 0.61709297 -0.13818777 -0.4487955 0.6384358 0.5542145 0.63253516 0.11185589
0.11635907 0.1226599 0.9513189 0.19348533 0.21279563 0.49769315 0.47584748 -0.3381025
0.08853028 -0.19845864 -0.22662388 0.06500222 2.2434108 -0.27582154 -0.14060366 0.14222616
-0.053729314 -0.05379633 -0.0123047 -0.37498587 -0.06480315 -0.32524538 -0.020209715 0.03088511
-0.12174343 0.25113428 -0.5723574 0.0014825925 -0.99523497 -0.69331527 0.2806146 1.0469807
-0.56970775 -0.1002946 0.57828134 0.34519684 -0.13154043 0.044080038 0.094771594 0.11403793
-0.12418276 -0.22300324 -0.10621521 0.25849098 0.43974727 0.51489735 -0.30751127 0.041485984
0.056975238 2.0597289 -0.030361278 -0.0647548 -0.29081127 -0.3456105 0.23025563 -0.057546586
-0.3196585 -0.37685966 -0.32929167 0.02446559 0.41865933 -0.21207581 0.1775808 -0.22763687
0.48522466 0.020226507 -0.17324515 0.71432805 0.17706072 0.30731153 -0.9358193 0.24981532
-0.19607888 -0.04945267 -0.09470843 -0.39033803 0.31794906 -0.41634002 -0.42790192 -0.107247
-0.0077008996 0.1297752 -0.42746428 0.5972708 -0.1809682 -0.35865015 1.5316938 -0.66150457
-0.02561297 -0.2511365 0.0652204 -0.22297283 -0.3855361 0.005863674 -0.07198193 -0.36099264
0.50001085 -0.34695107 0.5058982 -0.392134 -0.06964872 -0.688257 1.18829 -0.38596284
0.98806655 -0.17867203 0.4887657 -0.19040494 -0.3291452 -0.12181359 -0.3735257 -0.2363781
0.27395612 -0.34468225 -0.38824895 -0.07680969 -0.1984318 0.27937296 -0.47857118 0.1130569

transformer.proj.bias f4 [36]
00000000: 97f1 6bbf 0aaa b13f 508e b0bd 58ec 21bf
00000010: acbf 053f 3016 d93e 357b 4dbe 6884 b2be
00000020: f272 06bf 1a74 6b3d 01a0 6b3f 9ca3 0a3f
00000030: 66c9 943f 2970 19bf 298e f7bb 6535 073f
00000040: 1b9e a33e 83a3 ac3e e772 c7bf a367 babf
00000050: faea 093f 3434 85bf 8d78 c6bf 327c 2d3f
00000060: 2dea a6be dabe 88bf 2f45 fcbd 2f67 313e
00000070: 4ab1 93be efa8 90bf 45a2 0f40 c6e9 0d40
00000080: e81e fcbf 42ff b93f 001a d3bd 1457 c0be
-0.9216551 1.3880017 -0.08620894 -0.63251257 0.52245593 0.4239974 -0.20066531 -0.34866643
-0.5251914 0.05748377 0.9204102 0.541559 1.1623962 -0.5993677 -0.0075547886 0.5281585
0.31956562 0.337185 -1.558194 -1.4562877 0.5387417 -1.0406556 -1.5505539 0.6776763
-0.32600537 -1.0683243 -0.12317883 0.17324518 -0.28846198 -1.1301554 2.2442791 2.2173934
-1.9696932 1.4531024 -0.103076935 -0.37566435

transformer.norm1.gamma f4 [36]
00000000: b973 803f c006 963f 0bc3 6b3f c841 3d3f
00000010: abc2 713f acb0 5b3f bcb2 643f f133 673f
00000020: 8e45 533f f12e 513f d33b a03f 75d3 143f
00000030: fda8 7b3f aa60 9f3f d02a ee3e 46b3 d43e
00000040: 8247 2c3f 9806 5b3f 31ed 4e3e c8c3 743f
00000050: 17dd 0e3e a898 483f 1597 4e3f cd91 003f
00000060: ccae 4c3e 1b31 fe3e 841c b53e 4f36 85ba
00000070: d724 113f 0eb4 513f 2558 b23e 9050 ec3e
00000080: 6e43 7c3f d8c0 923f bea4 0a3c 6766 5f3e
1.0035316 1.172081 0.92094487 0.739285 0.94437665 0.85816455 0.89335227 0.9031363
0.8252801 0.8171225 1.2518257 0.5813516 0.9830473 1.2451375 0.46517038 0.41543025
0.6729661 0.85556936 0.20207669 0.9561124 0.13951527 0.78357935 0.8069928 0.50222474
0.19988555 0.4964684 0.35373318 -0.001016328 0.5669684 0.81915367 0.34832874 0.46155214
0.9854039 1.1465101 0.008462129 0.21816407

transformer.norm1.beta f4 [36]
00000000: bfdb 493e f2e3 86bf cebd e7be 45d5 ecbd
00000010: 55af 913e 448a d5be bcc2 5f3e c62e 103d
00000020: 59e4 73be 286b 04be bee3 15be 5708 34be
00000030: d193 3ebf 907a 953e abcb e6bd 8b63 bbbd
00000040: 523d ac3c 9037 efbd 31ea ca3c ed7c 1a3f
00000050: ab7a 7dbc 1289 433f ee35 1b3f 2c65 86be
00000060: e8d4 8cbc e997 073f 1b65 aa3d 3238 1cbc
00000070: 96ef f0be 98ed 303f c966 80be 1589 64be
00000080: 1e99 213f b7c0 cabe f76c 093b b0e1 bc3c
0.19712733 -1.0538313 -0.45261997 -0.115641154 0.2845408 -0.4170705 0.21851629 0.035200857
-0.23817576 -0.12931502 -0.14637658 -0.17581306 -0.744443 0.2919507 -0.11269315 -0.09149846
0.021025334 -0.116805196 0.024769874 0.6034687 -0.015471141 0.7638103 0.60629165 -0.26249063
-0.017191365 0.5296617 0.083200656 -0.009534882 -0.4705779 0.6911254 -0.2507842 -0.22317918
0.63124263 -0.39600155 0.002096949 0.023056835

transformer.pwff.fc1.weight f4 [72, 36]
00000000: 885f f7be 83f6 c83e 1c08 cd3d 9aef 8b3e
00000010: 3bac 92bb f930 543d 38bc a5be 922b ad3e
00000020: a8d7 05be 6d29 823d 739c 81be 08b3 dc3e
00000030: 7861 febd 11ee 77bd bcc5 cb3e a36a 87be
00000040: 3257 8cbe ec7f d1be 2c05 5fbd ddc0 083f
00000050: 573d 983e 415d b2be 77c7 bbbe bdde 843e
00000060: 5eb2 d73d 369a 56bd 8c4d 12bf 1989 a83d
00000070: ba9e 473e 746d 04bf a82f 793e 3a8c 6f3a
00000080: 89f4 283e 6308 873e f5af a03e e26c 9d3e
00000090: a3f4 403d 9f3b 11bf c709 aa3e 6d3f d9bd
000000a0: 7e4d cfbe cb44 96bf 333f a33e cb5d 21bf
000000b0: 12fb 66be ab4b 333d a07f 93bc 7c24 e4be
000000c0: 3fed b1be 1d01 ddbd 567e a1bd f975 54bf
000000d0: 710a 09bf 7f22 26be 7cd4 06bf 774e c2ba
000000e0: 371c 663f 62f1 bc3e eff4 803e 6f50 80bf
000000f0: e235 3bbe d501 f6bc 96f8 e43e a018 583d
00000100: f4af c8bd 7669 083f 04dd d3be 3888 313e
00000110: 5115 3fbe 7521 29be 510d 143e cb46 083f
00000120: 7db8 6fbe edfa 863d 3e1f e33d 757e 833d
00000130: 231d cebd 238f d93d 6979 f2be 7f25 2a3e
00000140: fc73 d53d 83c3 76be 9ab4 b9bd 2180 dcbd
00000150: 2823 c53d 9d5a 263e d2c3 d5bc bef9 babe
00000160: c30c 89be b2b9 86bc 62ce a0be 9abd 7cbd
00000170: c91c dbbe 897c abbe e29d 22be 3737 41bd
00000180: 8a22 ab3e 6a91 4abe 9260 95be f240 843d
00000190: 3766 c33e 4fa1 debe d4b9 193e 373a 11be
000001a0: c354 d03e f13f aebe 96b7 063e be73 1d3f
000001b0: 7e74 02bd f3a3 13bd 9266 bcbe 1945 d23c
000001c0: e81a 043d 74d2 e9be a94b 93be e5cf 8abe
000001d0: 0c1d cebe 446c 33be d1c4 3ebe 7a85 333f
000001e0: 7d37 8ebe 76b6 763d fcd9 c1bc 8480 acbe
000001f0: 1ad2 a13d 5d59 613e 5529 823e 14eb c73e
00000200: 80c6 e53e e198 9c3e c4a2 403f 338a 70be
00000210: cb1f 19be 1532 503d 21bd 1dbf 0168 863d
00000220: 517b 34bf 7681 273f 6802 35be f1e2 cd3d
00000230: e55a 133e f576 c0bd 27c0 3b3c 2470 aabd
00000240: 282b 54bd 5309 3cbf f2ce 12bf 417e 30bf
00000250: 4b6e d03e 705f fbbe 9156 7c3a 165c c23e
00000260: 1e40 8a3c 335f b13d 82a0 6fbe ec5e 91bf
00000270: 70e2 3d3e 2bd4 11bd 53f5 693f a6aa ee3e
00000280: 64f5 96bf 53f1 31bf 1ac1 173f 55b6 ab3e
00000290: 4090 06bf a3c8 863f 9b47 3e3f e859 183f
000002a0: 8c96 20be b594 fe3e 7894 15be 1f4d 563d
000002b0: 66e6 1abf f653 a43e 06a6 833e ffd7 31be
000002c0: 1c83 813e 9746 90bd 876b 0f3e 87cf 273f
000002d0: 7684 12bd 41e5 0dbf a4b2 bbbe 529f 5dbe
000002e0: b97c 9c3d 57b5 aebe 4cc5 b33d 4c0a 8a3e
000002f0: 3a31 123c 9500 783e d207 87be 0344 9bbd
00000300: 2a25 abbe 1292 193f 80c1 48bd 2d9f 8f3e
00000310: 0c7f e4bd bb87 49bc 0645 903e 2196 6bbe
00000320: de5d 0d3e f828 a53e 23e5 aa3e ba40 d6be
00000330: 1bfa 053e ec25 0b3f db56 8abe 8a35 b73d
00000340: 46eb 69be 3a43 693e 58a0 c6be 6826 603e
00000350: 9387 b1bb 0374 6abc 7483 223c 3617 24be
00000360: eb05 013f 79f2 4abf a305 91be 8c3e b5be
00000370: 5d57 2dbd 5852 383d 8531 163f c01d 4a3d
00000380: 13a5 4ebe 20da acbd 03b0 65be eb47 e03e
00000390: cd80 7f3e bad3 1bbd fb23 10bf 2317 81bf
000003a0: fbaf 0b3f 4e85 f4be c19c e83d 1ced 6abf
000003b0: c8d3 593f 3a74 613e 034f 5d3f c0f9 c2bd
000003c0: 9998 a4bd c65b 8d3f 3846 06bf 0314 833d
000003d0: fa36 88bf 6619 de3e 13d2 8abf 7ce2 8bbd
000003e0: 0aa9 fc3e 8bfd 80be 0d51 083d 1c55 5c3e
000003f0: 575c 663e 252b dabe 5b08 a3be 09f0 b0be
-0.48315072 0.39250574 0.10011312 0.2733124 -0.004476098 0.051804516 -0.32370162 0.33822304
-0.13070548 0.063555576 -0.25314674 0.4310534 -0.124209344 -0.060529772 0.39799297 -0.26448545
-0.27410275 -0.4091791 -0.05444829 0.53419286 0.297343 -0.34836772 -0.36675617 0.25951186
0.10532068 -0.05239316 -0.5714958 0.08229274 0.19494143 -0.5172951 0.24334586 0.0009138022
0.16499533 0.26373586 0.31384245 0.30747133 0.047108304 -0.567316 0.33210585 -0.10607801
-0.4048881 -1.1739744 0.31884155 -0.6303374 -0.22556713 0.043773334 -0.018005192 -0.44559085
-0.34751317 -0.10791228 -0.07885425 -0.8299251 -0.5353156 -0.16224097 -0.52667975 -0.001482441
0.898868 0.3690291 0.2518687 -1.0024546 -0.18282273 -0.03003017 0.44720906 0.05275786
-0.097991854 0.5328592 -0.4137956 0.1733712 -0.18660475 -0.16516669 0.14458205 0.5323302
-0.2341022 0.06590829 0.11089943 0.06420604 -0.10064151 0.10623004 -0.47358254 0.16615866
0.10422513 -0.2409802 -0.0906765 -0.10766626 0.09625846 0.16245504 -0.026094351 -0.36518663
-0.2676755 -0.016445968 -0.31407458 -0.061704256 -0.427954 -0.3349345 -0.1588054 -0.047171798
0.3342479 -0.19782034 -0.2917524 0.064577 0.3816392 -0.43482444 0.15012294 -0.14182363
0.40689668 -0.34033158 0.1315597 0.61504734 -0.031849377 -0.036045026 -0.36797005 0.025667714
0.032252222 -0.45668375 -0.28768662 -0.27111736 -0.40256536 -0.17521769 -0.18629767 0.70125544
-0.2777671 0.060232602 -0.023663513 -0.336918 0.07901402 0.22006746 0.2542216 0.39046538
0.44878006 0.30585387 0.7524836 -0.23490219 -0.14953534 0.050829012 -0.6161671 0.06562806
-0.70500666 0.65431917 -0.17676699 0.10053051 0.14390142 -0.09397689 0.011459387 -0.083221704
-0.05179897 -0.7345173 -0.57347023 -0.6894265 0.40709147 -0.4909625 0.00096259365 0.3796088
0.016876277 0.08660736 -0.23401073 -1.1357093 0.1854341 -0.03560273 0.9138996 0.4661457
-1.1793637 -0.69508857 0.59279025 0.33537546 -0.5256386 1.052998 0.7432801 0.59512186
-0.15682429 0.4972283 -0.14607418 0.052319642 -0.6050781 0.32095307 0.25712603 -0.17367552
0.2529534 -0.07044714 0.14005862 0.65551037 -0.035770856 -0.5542794 -0.3665973 -0.21642807
0.076409765 -0.34122726 0.08777866 0.2696098 0.008922869 0.24218972 -0.26373154 -0.075813316
-0.3342679 0.5998851 -0.04901266 0.2805113 -0.11157045 -0.012300427 0.2817766 -0.23006488
0.13805339 0.3225782 0.33377942 -0.41846257 0.13083689 0.5435474 -0.2701939 0.08945759
-0.22843656 0.22779551 -0.38794208 0.21889651 -0.005417773 -0.014309886 0.009919036 -0.1602448
0.50399655 -0.79276234 -0.28324613 -0.35399282 -0.042319644 0.045000404 0.5866931 0.049344778
-0.20180158 -0.084400415 -0.22430424 0.4380487 0.24951477 -0.038043715 -0.563049 -1.0085186
0.545654 -0.47757953 0.113580234 -0.9176805 0.8508878 0.22016993 0.8644869 -0.09520292
-0.08036918 1.1043632 -0.52450895 0.06400301 -1.0641778 0.43378752 -1.084536 -0.06830308
0.49347717 -0.25193438 0.03328042 0.21516842 0.22496162 -0.42611042 -0.31842312 -0.34558132
