Src/extractor/unihar_bert_td4.pt (torch, 68479 bytes, 29 tensors)

transformer.embed.lin.weight f4 [36, 6]
-1.6518766 -0.21800269 0.093440115 -0.4574353 -0.5621627 -0.08768687 -0.55403817 -0.18647593
-1.1822191 -1.097905 0.21523677 0.67081976 -0.43572187 1.0793958 0.81272745 0.012747268
-0.68642884 0.9478843 1.0242563 -0.36018598 1.1673139 -0.49583316 -0.113071345 0.21516326
-0.53273845 -0.26230565 0.65354705 1.1259288 0.88790315 0.26591215 -0.53230625 0.41939288
-0.57232517 0.2962471 -0.8573497 -0.3267126 0.240253 1.7851957 -0.6762145 0.24757324
0.134462 0.1645212 0.10349237 -0.12981021 -0.18926404 -0.1464587 0.1080644 0.12582347
-0.40133142 -0.6364255 0.17938213 0.32730076 0.45272905 -0.3382136 0.94996136 -0.23704198
-0.17884003 0.30888054 -0.030727781 0.72177416 0.07854726 -0.16866867 -0.03208353 -0.10594957
-0.03116596 0.0023219709 -0.600227 -0.17387222 -1.0351442 0.57114583 -0.086817674 0.11772725
1.6041429 -0.8944598 0.8121096 0.37845927 -0.649767 -0.09274442 0.7613885 1.0043627
0.30166754 -0.26514885 -0.1672159 -0.08952862 1.3146217 2.0421438 0.6958579 0.36009791
-0.11243913 -0.26590768 -0.19969654 -0.18805219 0.30774644 -0.10725532 -0.43062034 -0.22378959
0.024596479 0.4746176 -0.3612567 -0.33300355 0.96518666 -0.7821926 -0.56831753 -0.6829614
-0.89076114 0.58408755 -0.24800737 -0.40294477 -0.8147041 0.3769769 0.6596774 -0.3314739
0.66735667 -0.7997319 0.84489113 -2.3487196 -0.9229669 0.1995194 -0.24987175 -0.09395728
1.0024474 0.34579027 -2.2532737 -0.13950936 -0.17452148 0.17374511 0.4249266 -0.5807749
-0.11617517 0.2080132 -0.052731257 -0.7276335 -0.17280066 -1.3831532 1.4369127 -0.13811004
-0.029715007 0.25915244 -0.40574187 0.31142226 0.114608824 -0.5337632 0.37198064 0.4340232
-1.1103387 -0.42635825 -1.5654521 -0.049053572 -0.20717025 -0.3153246 -0.0837065 -0.19970255
-0.061518382 -0.1686934 0.051464267 0.06339695 -0.55675715 0.30442375 -0.14195456 -0.41766158
-0.4899328 0.393425 -0.10170602 -0.06385568 0.3284193 -0.56851155 -0.23612075 0.014651295
-0.27383038 0.4152154 0.73352855 -0.23478296 0.24801767 -0.72228265 -0.72025985 -0.85184366
0.10753434 0.37972423 0.22285368 0.5909824 0.31445184 -0.19992371 -0.003688915 0.10644856
0.1631263 0.30407572 -1.7496886 0.08601452 1.2743782 0.3530655 -0.487352 0.07261133
1.2213649 -1.0896468 0.7149272 -0.91020733 0.09343685 -0.20172769 1.0937569 0.3357541
-0.47861296 0.22053388 0.16322076 0.08806741 -0.08394635 -0.49361923 0.21020901 0.0166572
0.78988767 0.5519323 0.0652143 -0.058157735 0.7209006 0.023523062 -0.6676365 -0.85679793
00000000: b170 d3bf 193c 5fbe 885d bf3d f634 eabe
00000010: e5e9 0fbf 2c95 b3bd 72d5 0dbf 8cf3 3ebe
00000020: f552 97bf 2788 8cbf 0767 5c3e d8ba 2b3f
00000030: f016 dfbe a429 8a3f e80e 503f ebd9 503c
00000040: cdb9 2fbf 8ca8 723f d51a 833f 4c6a b8be
00000050: 8b6a 953f d8dd fdbe f391 e7bd c253 5c3e
00000060: 8c61 08bf ed4c 86be dc4e 273f 6f1e 903f
00000070: 9f4d 633f a325 883e 3945 08bf aaba d63e
00000080: e783 12bf b3ad 973e 457b 5bbf e046 a7be
00000090: e204 763e 4b81 e43f 651c 2dbf d783 7d3e
000000a0: 68b0 093e 3f78 283e cff3 d33d f8ec 04be
000000b0: 6fce 41be 45f9 15be de50 dd3d ded7 003e
000000c0: 507b cdbe c8ec 22bf f3af 373e f793 a73e
000000d0: 1acc e73e 552a adbe ab30 733f 22bb 72be
000000e0: d721 37be 9725 9e3e d4b8 fbbc 31c6 383f
000000f0: 63dd a03d 7bb7 2cbe 056a 03bd 17fc d8bd
00000100: c14f ffbc 352c 183b 7aa8 19bf 8f0b 32be
00000110: 9b7f 84bf 9d36 123f 77cd b1bd fc1a f13d
00000120: 8e54 cd3f 51fb 64bf 6ae6 4f3f 6ac5 c13e
00000130: 2157 26bf c9f0 bdbd 5bea 423f f58e 803f
00000140: 2b74 9a3e 97c1 87be a53a 2bbe c85a b7bd
00000150: 8645 a83f 7cb2 0240 be23 323f c15e b83e
00000160: 7d46 e6bd 0d25 88be 407d 4cbe c190 40be
00000170: f190 9d3e ada8 dbbd 457a dcbe 1929 65be
00000180: 8e7e c93c 1401 f33e a3f6 b8be 717f aabe
00000190: 7916 773f c63d 48bf 427d 11bf 8fd6 2ebf
000001a0: ec08 64bf c386 153f a5f5 7dbe c74e cebe
000001b0: 7390 50bf 1e03 c13e 9ee0 283f f2b6 a9be
000001c0: e3d7 2a3f 3bbb 4cbf c94a 583f 6c51 16c0
000001d0: 8f47 6cbf d04e 4c3e 61de 7fbe ad6c c0bd
000001e0: 3250 803f 6c0b b13e a335 10c0 8bdb 0ebe
000001f0: c2b5 32be 3dea 313e fb8f d93e aaad 14bf
00000200: 3fed edbd 6a01 553e bbfc 57bd 3046 3abf
00000210: a8f2 30be 2a0b b1bf c1ec b73f b86c 0dbe
00000220: e36c f3bc a1af 843e 66bd cfbe bd72 9f3e
00000230: 08b8 ea3d b4a4 08bf 3f74 be3e 4a38 de3e
00000240: 941f 8ebf a14b dabe bc60 c8bf 66ec 48bd
00000250: 7024 54be 3a72 a1be 506e abbd d37e 4cbe
00000260: b3fa 7bbd f6bd 2cbe 32cc 523d 43d6 813d
00000270: a387 0ebf 6edd 9b3e 895c 11be bdd7 d5be
00000280: 79d8 fabe 006f c93e 3f4b d0bd c4c6 82bd
00000290: 9326 a83e f989 11bf a3c9 71be fc0b 703c
000002a0: 7f33 8cbe 1d97 d43e 87c8 3b3f f26a 70be
000002b0: 58f8 7d3e 84e7 38bf f362 38bf 6d12 5abf
000002c0: f73a dc3d 376b c23e c133 643e 9f4a 173f
000002d0: d5ff a03e cdb8 4cbe b9c1 71bb b401 da3d
000002e0: 950a 273e d0af 9b3e ccf5 dfbf 6128 b03d
000002f0: d31e a33f 00c5 b43e 3486 f9be 40b5 943d
00000300: af55 9c3f 8c79 8bbf 7805 373f 5903 69bf
00000310: d25b bf3d b491 4ebe 3a00 8c3f f6e7 ab3e
00000320: c20c f5be a2d3 613e 5823 273e b05c b43d
00000330: 10ec abbd a9bb fcbe 0841 573e ae74 883c
00000340: 1436 4a3f 6f4b 0d3f 138f 853d ce36 6ebd
00000350: f18c 383f 70b3 c03c 3aea 2abf 1c57 5bbf

transformer.embed.lin.bias f4 [36]
0.006176598 -0.047576137 -0.04611935 0.030096654 0.023813637 -0.005171745 -0.02411209 -0.5731806
0.0033984773 -0.13112806 -0.15449496 0.13867012 -0.032316364 0.15237923 0.023645753 0.023698738
-0.07545362 -0.06832525 -0.0823086 -0.03967116 0.03766206 0.030612474 -0.03605924 0.02194148
-0.052743852 1.1679465 -0.033061616 -0.26404408 0.0005460721 -0.018951898 -0.033139784 0.06469342
0.010199804 0.12443421 -0.046220057 -0.010515673
00000000: 0f65 ca3b 32df 42bd a5e7 3cbd 428d f63c
00000010: d114 c33c be77 a9bb b886 c5bc f7bb 12bf
00000020: fdb8 5e3b 6f46 06be ed33 1ebe 8aff 0d3e
00000030: 2a5e 04bd 4d09 1c3e bdb4 c13c db23 c23c
00000040: 6d87 9abd 1cee 8bbd 6991 a8bd 3a7e 22bd
00000050: 8843 1a3d 03c7 fa3c dbb2 13bd 9ebe b33c
00000060: f009 58bd 457f 953f 9e6b 07bd c930 87be
00000070: 4726 0f3a 0341 9bbc 95bd 07bd fc7d 843d
00000080: 141d 273c 5dd7 fe3d 3e51 3dbd ee49 2cbc

transformer.embed.pos_embed.weight f4 [20, 36]
-0.28045565 2.5859535 1.5801532 1.6284776 0.35856923 -0.41251245 -4.320038 0.5286486
-1.1675867 -0.1522011 0.084900305 1.0957992 1.2964867 0.6678469 -0.28115422 -1.120491
0.16688122 0.19535083 0.94791 -0.71226585 -0.43598035 -0.50565743 -3.0577238 -2.3006144
-0.0068014893 -0.8957874 2.1282527 -1.711477 2.1381311 -0.6738418 0.58911496 -0.21415381
-1.2854975 1.7351712 0.30195853 0.54068595 2.7318642 1.3779619 1.7693332 -1.6451309
0.01353178 -0.0855034 -0.9876455 -0.19110547 -1.3325616 -0.04908876 -0.48376465 -0.97400105
1.4154142 0.30678916 -0.9086954 2.1634836 -0.42773482 0.7847605 0.7599706 0.20838547
0.062025107 1.5543371 -0.22769216 -1.5544502 -0.9973201 -0.7475749 -0.9968888 -0.22286603
2.2690263 -0.96418697 -0.6741749 -0.88435525 -1.2992489 2.0932791 0.8315223 -2.2255957
2.1524074 0.8803576 0.08125562 -1.4410588 -0.18650146 -1.0718945 -1.0497935 0.027518503
2.535141 0.07648907 -3.4860632 -1.338036 -0.17675336 1.8045506 -0.5842431 -0.08512938
0.7913599 1.6635091 -1.2027004 0.079926014 0.89047444 -1.7452868 -0.07321427 -0.50240177
-0.15846005 -1.27537 -0.021445552 -0.14038652 1.2675445 1.8936949 1.3484997 1.1812277
-0.1464498 2.4148395 -0.7590385 0.5963841 1.9738489 -0.17368804 -1.3921748 -1.5900918
-0.76310056 -0.5578255 -1.05549 -1.2846721 -1.396023 2.5570798 -1.5062313 -0.52496564
-0.3860428 0.0751872 0.4988015 1.1226752 1.0997831 1.0415246 -1.4450532 -0.9564237
0.76467186 0.5769153 0.34968588 0.8015893 -0.9787482 -1.4569595 1.0611819 0.32482696
1.2565166 -0.85784215 3.1978648 0.29387733 -1.3869108 -1.0259765 1.753766 -0.1380292
0.8706796 0.6822295 -0.72215617 -1.5964324 -0.774012 -0.63730806 -2.1477952 0.5038251
1.8999206 3.3375206 0.8299101 0.21988931 -0.7559628 0.38941687 0.16362755 1.0272563
-0.14457808 0.10881713 -1.0003614 -0.6604429 0.20407358 0.3106429 -2.4310014 1.2325312
-1.4813455 -0.39349738 -1.3221629 -0.50820583 1.5395321 -1.565052 -1.9521186 1.547257
-1.2421296 -0.43980068 0.8827059 1.1521661 0.17739964 0.4725222 0.033110987 1.0437611
0.30981836 -0.2680021 -0.46611246 1.4326403 -0.26137644 2.6337147 -1.8494545 -0.73507637
0.8035554 -1.0310864 0.80469114 1.2382332 0.6018151 0.4604091 -0.41718763 -0.866764
-0.2777164 -0.4584928 -2.365677 -1.2019156 1.0644685 0.49569425 -1.0281852 -0.016431926
0.8338991 -1.5771979 -1.7665237 0.515029 -0.35264236 -2.6607103 -1.1517557 -0.9092817
-0.9250807 0.93323344 0.45109516 0.033136506 -0.24704218 -0.63822305 0.55489504 0.99185556
-0.15531085 1.1361502 0.5867039 -0.4556087 -2.4436152 -1.4795748 0.7160795 0.41062784
0.20377953 -0.4766657 -0.330356 0.8952256 0.7574406 1.1064636 -1.043979 -2.3821208
-0.9944745 0.7301145 -0.7219514 1.1157978 0.64820164 0.34724012 1.1879796 2.1933024
-0.2003092 0.07963403 -0.6771931 0.88662165 1.7085729 -0.55416846 0.35611 -0.5656517
00000000: e297 8fbe 4380 2540 7642 ca3f f471 d03f
00000010: 6396 b73e d534 d3be c03d 8ac0 8455 073f
00000020: 7b73 95bf 9bda 1bbe 36e0 ad3d 2643 8c3f
00000030: 47f3 a53f 04f8 2a3f 72f3 8fbe 406c 8fbf
00000040: e9e2 2a3e 0c0a 483e 3baa 723f 0e57 36bf
00000050: d138 dfbe c472 01bf bfb1 43c0 443d 13c0
00000060: 07df debb 5352 65bf 4b35 0840 ae11 dbbf
00000070: 24d7 0840 e580 2cbf 3dd0 163f 234b 5bbe
00000080: 2f8b a4bf 171a de3f 4f9a 9a3e 656a 0a3f
00000090: ddd6 2e40 0e61 b03f 8379 e23f a693 d2bf
000000a0: 66b4 5d3c 681c afbd 56d6 7cbf 27b1 43be
000000b0: 6191 aabf 4c11 49bd 00b0 f7be 2258 79bf
000000c0: 4b2c b53f 7813 9d3e 43a0 68bf 8476 0a40
000000d0: 0f00 dbbe 10e6 483f 6f8d 423f 0063 553e
000000e0: 0a0e 7e3d 85f4 c63f 2228 69be 39f8 c6bf
000000f0: 5f50 7fbf 1261 3fbf 1b34 7fbf fe36 64be
00000100: ba37 1140 f5d4 76bf ba96 2cbf 1b65 62bf
00000110: ca4d a6bf 49f8 0540 a5de 543f 2970 0ec0
00000120: 0bc1 0940 1e5f 613f 5969 a63d 9d74 b8bf
00000130: 3dfa 3ebe d733 89bf a25f 86bf 7c6e e13c
00000140: c03f 2240 4da6 9c3d a91b 5fc0 c344 abbf
00000150: d5fe 34be 84fb e63f f590 15bf 5058 aebd
00000160: 9096 4a3f deed d43f 16f2 99bf 40b0 a33d
00000170: 22f6 633f 8f65 dfbf 5df1 95bd 679d 00bf
00000180: 5a43 22be 533f a3bf 95ae afbc 7cc1 0fbe
00000190: e63e a23f 9864 f23f a39b ac3f 7832 973f
000001a0: f0f6 15be bb8c 1a40 5950 42bf a1ac 183f
000001b0: 15a7 fc3f 47db 31be c932 b2bf 2188 cbbf
000001c0: 8f5a 43bf a7cd 0ebf 4c1a 87bf 2370 a4bf
000001d0: e2b0 b2bf 32a7 2340 30cc c0bf 2664 06bf
000001e0: 67a7 c5be bffb 993d e962 ff3e d2b3 8f3f
000001f0: b1c5 8c3f ae50 853f 81f7 b8bf 2fd8 74bf
00000200: 89c1 433f b9b0 133f 070a b33e f534 4d3f
00000210: 3e8f 7abf a67d babf cfd4 873f b84f a63e
00000220: 89d5 a03f 8b9b 5bbf d1a9 4c40 1777 963e
00000230: 4b86 b1bf 3353 83bf 677b e03f 8757 0dbe
00000240: dce4 5e3f 98a6 2e3f 3adf 38bf e657 ccbf
00000250: a725 46bf 9f26 23bf 7a75 09c0 affa 003f
00000260: 9930 f33f f099 5540 fd74 543f aa2a 613e
00000270: c786 41bf a661 c73e fb8d 273e 227d 833f
00000280: 470c 14be 84db de3d d80b 80bf c912 29bf
00000290: aaf8 503e 960c 9f3e 8795 1bc0 95c3 9d3f
000002a0: bb9c bdbf 7d78 c9be a23c a9bf c719 02bf
000002b0: 630f c53f a053 c8bf 06df f9bf 840c c63f
000002c0: 1afe 9ebf 8e2d e1be 04f9 613f 2e7a 933f
000002d0: 40a8 353e 6eee f13e 639f 073d f799 853f
000002e0: 83a0 9e3e 9237 89be 4ba6 eebe c260 b73f
000002f0: 22d3 85be c88e 2840 edba ecbf f72d 3cbf
00000300: cfb5 4d3f a4fa 83bf 3d00 4e3f 6d7e 9e3f
00000310: 8e10 1a3f beba eb3e 9e99 d5be 3fe4 5dbf
00000320: d830 8ebe 91bf eabe 4167 17c0 5fd8 99bf
00000330: 8140 883f a3cb fd3e 939b 83bf 3f9c 86bc
00000340: 697a 553f 9fe1 c9bf 731d e2bf f1d8 033f
00000350: 8a8d b4be 1449 2ac0 bb6c 93bf afc6 68bf
00000360: 17d2 6cbf 63e8 6e3f f2f5 e63e 25ba 073d
00000370: a0f8 7cbe 9662 23bf 9a0d 0e3f 3fea 7d3f
00000380: cf09 1fbe 5f6d 913f 3a32 163f 8b45 e9be
00000390: 3164 1cc0 b562 bdbf fc50 373f d03d d23e
000003a0: 95ab 503e 870d f4be 6c24 a9be 812d 653f
000003b0: a1e7 413f 99a0 8d3f 1ba1 85bf ab74 18c0
000003c0: e195 7ebf c9e8 3a3f cfd1 38bf 76d2 8e3f
000003d0: 8bf0 253f 75c9 b13e b70f 983f 115f 0c40
000003e0: db1d 4dbe 2b17 a33d 875c 2dbf a3f9 623f
000003f0: 84b2 da3f fcdd 0dbf 0d54 b63e 8dce 10bf

transformer.embed.norm.gamma f4 [36]
0.395139 0.6138487 0.66396534 0.37793335 0.77348894 0.69441026 0.5699311 1.2137167
0.29238206 0.63809264 0.6246843 0.6551909 0.4490748 0.74029714 0.43164948 0.4801959
0.68972945 0.52887493 0.6851147 0.29112232 0.3973266 0.5403973 0.41338035 0.6813069
0.39919767 1.5250646 0.43489817 0.75396454 0.51999164 0.41654173 0.299556 0.50679654
0.56747335 0.6149778 0.51020426 0.7185051
00000000: a94f ca3e 3025 1d3f a2f9 293f 7b80 c13e
00000010: 5f03 463f dfc4 313f 01e7 113f 125b 9b3f
00000020: 1ab3 953e 0a5a 233f 4feb 1f3f 97ba 273f
00000030: 22ed e53e 1d84 3d3f 2901 dd3e 3ddc f53e
00000040: 1c92 303f 5964 073f ad63 2f3f fc0d 953e
00000050: 646e cb3e 7a57 0a3f 97a6 d33e 216a 2e3f
00000060: a363 cc3e 5135 c33f f9aa de3e d203 413f
00000070: 2c1e 053f f544 d53e 675f 993e 6bbd 013f
00000080: ef45 113f 2f6f 1d3f bf9c 023f f3ef 373f

transformer.embed.norm.beta f4 [36]
-0.023337243 -0.056094363 0.042243294 -0.06330933 0.030164251 -0.014247817 0.0014255239 0.029575797
-0.045637276 0.003124973 0.07906326 -0.107129395 0.03517557 0.029745903 -0.004299576 -0.07881659
0.06802177 0.11714989 0.108621836 0.05291053 -0.03733577 0.010594113 0.11741259 0.07412193
0.030359188 -0.3600126 0.08216986 0.15731426 -0.025149679 0.056956843 0.023724584 -0.040421534
0.06099412 0.03667036 0.114599764 -0.017092792
00000000: bf2d bfbc 34c3 65bd 4e07 2d3d 52a8 81bd
00000010: 051b f73c ad6f 69bc a5d8 ba3a f148 f23c
00000020: 27ee 3abd 59cc 4c3b ebeb a13d a866 dbbd
00000030: 4214 103d aead f33c 75e3 8cbb 986a a1bd
00000040: ff4e 8b3d 48ec ef3d 2075 de3d b6b8 583d
00000050: 64ed 18bd ee92 2d3c 0376 f03d 3dcd 973d
00000060: d5b3 f83c 9253 b8be ac48 a83d fd16 213e
00000070: b306 cebc 944b 693d 0f5a c23c 0d91 25bd
00000080: f8d4 793d a933 163d 48b3 ea3d 2f06 8cbc

transformer.attn.proj_q.weight f4 [36, 36]
-0.28431642 -0.0839012 -0.30392796 0.14886802 -0.08046356 0.18456025 -0.20915121 0.052326437
-0.1920475 -0.12682976 -0.13295385 0.21630618 0.24293678 0.30277598 -0.243345 -0.21060005
-0.10072436 0.035220426 0.1752035 -0.12929565 0.040279493 -0.037246983 -0.10610175 -0.013786465
0.17468774 0.01788249 0.099250525 0.16436471 -0.04673318 -0.09380571 0.20498249 0.08405433
-0.21923365 -0.14267169 0.5347869 -0.08239949 0.15276249 -0.2046684 -0.2293543 -0.20243831
-0.09597324 -0.039426386 0.19833145 -0.03106369 -0.06208888 0.23483366 -0.116994694 -0.1565179
-0.15461566 -0.01531302 -0.21442956 -0.055701364 -0.01700519 -0.17269707 -0.22878368 0.09341056
-0.16747478 -0.12989093 -0.058098447 0.21825814 0.28322178 -0.0463193 -0.05539363 0.04006928
0.20641623 0.35405058 0.4366707 -0.10422698 -0.00942961 -0.026603332 0.12585725 0.12624851
0.06478609 -0.21867068 -0.035633475 0.24441196 -0.03488342 0.04985712 0.0076314895 -0.10380749
0.20870928 0.098243415 -0.10561422 -0.05615791 0.059975896 -0.045434177 -0.10605251 -0.08364628
0.06609863 -0.24498157 0.13315675 0.0395236 -0.068093225 -0.099856414 0.033249635 -0.113724165
0.4146441 0.019421514 -0.2906967 0.083498485 0.15939943 -0.079145655 -0.23003839 0.10642111
-0.1655701 -0.0047661136 -0.3953902 -0.2839207 0.1974054 0.026267068 0.16356811 -0.015189734
0.06867983 -0.09750709 0.017035358 0.25117823 0.14753795 0.021126343 -0.0014685265 0.079801425
0.034559194 -0.015414152 -0.13799906 0.2373486 0.114060156 0.0055899336 -0.045680176 0.075201474
0.0062760934 -0.04832484 0.07012017 0.01537729 0.034096006 -0.14400351 -0.022996487 0.18439658
0.02409673 0.04666256 0.2746334 -0.22779042 -0.09048922 -0.0075688385 -0.0034877332 -0.030628148
0.2258607 0.19685821 0.16980593 -0.12264229 0.048920855 -0.03396283 0.1341663 0.018505901
0.0485971 0.09501233 0.18874995 0.0796338 0.5432144 0.014346537 -0.14239237 -0.20832758
-0.006581409 -0.39186782 0.086706705 0.051165495 -0.118758276 -0.07672697 -0.09574202 0.25100496
0.10575688 0.036225803 0.03588899 0.094095625 0.02633625 0.08984066 -0.21251845 -0.2811242
-0.20870909 -0.027588135 0.059654232 0.13411787 -0.04005384 -0.00074819755 0.08750598 0.0588311
-0.17034036 -0.1360483 -0.09246948 -0.08219844 -0.31787044 -0.20542993 -0.1846246 -0.04858984
-0.0039565163 0.0043717534 -0.22865541 0.19405425 -0.1943252 -0.095529646 0.3204316 0.3178376
0.38142616 -0.2065631 0.025887458 -0.25365287 -0.05684142 -0.034756947 0.051599033 0.016950643
0.13680881 0.30295885 0.30426285 0.04026549 -0.10857388 0.13096233 0.05908047 0.015419417
0.04068734 -0.0789791 0.13555802 0.18542324 -0.027196089 0.17429566 0.07931812 0.10563808
0.066814855 -0.027528172 0.114446364 0.08529626 -0.32592604 0.094271496 -0.067772575 -0.041760206
0.16509764 0.0029709483 0.06309701 0.013066699 -0.04901204 -0.03358402 0.106110424 -0.30998462
0.1394094 0.0440209 -0.023136279 0.0233052 -0.047124773 0.024848977 0.29646128 -0.21885201
0.1887768 0.06061907 -0.05755777 -0.18800019 0.098962836 -0.07469578 0.13308841 -0.091501154
00000000: ec91 91be 64d4 abbd 729c 9bbe dc70 183e
00000010: 14ca a4bd 5dfd 3c3e bc2b 56be 3f54 563d
00000020: 1aa8 44be a9df 01be 0e25 08be 5e7f 5d3e
00000030: 6bc4 783e 7405 9b3e 6f2f 79be 8aa7 57be
00000040: 9348 cebd 4b43 103d 8c68 333e 1466 04be
00000050: 1cfc 243d 4b90 18bd e04b d9bd a0e0 61bc
00000060: 58e1 323e 4d7e 923c dc43 cb3d 394f 283e
00000070: 4a6b 3fbd 351d c0bd eee6 513e ad24 ac3d
00000080: c97e 60be 8718 12be cbe7 083f 10c1 a8bd
00000090: c56d 1c3e 9894 51be dbdb 6abe fd4b 4fbe
000000a0: 9e8d c4bd 907d 21bd 6617 4b3e 4879 febc
000000b0: e950 7ebd 3c78 703e ea9a efbd 3a46 20be
000000c0: 9153 1ebe 76e3 7abc 6c93 5bbe 1d27 64bd
000000d0: 784e 8bbc 80d7 30be 4546 6abe 094e bf3d
000000e0: 827e 2bbe 2102 05be a3f8 6dbd 107f 5f3e
000000f0: 7202 913e 4eb9 3dbd 6ee4 62bd af1f 243d
00000100: c75e 533e 1e46 b53e 4d93 df3e f474 d5bd
00000110: a77e 1abc 3bef d9bc b9e0 003e 4a47 013e
00000120: 92ae 843d 35eb 5fbe 68f4 11bd 2147 7a3e
00000130: ebe1 0ebd fb36 4c3d 9311 fa3b 0599 d4bd
00000140: e3b7 553e d833 c93d 454c d8bd d605 66bd
00000150: 49a9 753d 3019 3abd 0f32 d9bd be4e abbd
00000160: b85e 873d 73dc 7abe 3e5a 083e 80e3 213d
00000170: 7674 8bbd 8581 ccbd c530 083d 37e8 e8bd
00000180: 3b4c d43e de19 9f3c 33d6 94be 4101 ab3d
00000190: 9b39 233e 1e17 a2bd 2f8f 6bbe 50f3 d93d
000001a0: 358b 29be 0f2d 9cbb 9670 cabe 0e5e 91be
000001b0: a424 4a3e 092e d73c 667e 273e 5dde 78bc
000001c0: 03a8 8c3d ccb1 c7bd bc8d 8b3c 6f9a 803e
000001d0: 3014 173e 2711 ad3c 937b c0ba ee6e a33d
000001e0: f18d 0d3d a48b 7cbc a04f 0dbe 830b 733e
000001f0: 5f98 e93d c32b b73b 231b 3bbd 3b03 9a3d
00000200: b0a7 cd3b 44f0 45bd 2a9b 8f3d 07f1 7b3c
00000210: 41a8 0b3d a875 13be 2163 bcbc 75d2 3c3e
00000220: 8166 c53c 3e21 3f3d c09c 8c3e e441 69be
00000230: 6a52 b9bd 0504 f8bb 7492 64bb e2e7 fabc
00000240: 0748 673e 3395 493e 9be1 2d3e e22b fbbd
00000250: 3c61 483d 9c1c 0bbd e462 093e b099 973c
00000260: c10d 473d d395 c23d ab47 413e 0c17 a33d
00000270: 1910 0b3f bd0d 6b3c 4ecf 11be d353 55be
00000280: dca8 d7bb e6a2 c8be 4993 b13d e992 513d
00000290: 8a37 f3bd 0823 9dbd 6414 c4bd b983 803e
000002a0: 1097 d83d 8261 143d 5500 133d 35b5 c03d
000002b0: 1fbf d73c 61fe b73d 709e 59be 83ef 8fbe
000002c0: d6b7 55be 8300 e2bc ff57 743d 3256 093e
000002d0: 7f0f 24bd b022 44ba 5636 b33d e1f8 703d
000002e0: b46d 2ebe 3f50 0bbe a460 bdbd a857 a8bd
000002f0: eabf a2be 395c 52be 3b0e 3dbe 2406 47bd
00000300: aaa5 81bb ed40 8f3b a524 6abe 28b6 463e
00000310: 2ffd 46be 0ca5 c3bd 9c0f a43e 9cbb a23e
00000320: 4a4a c33e 4785 53be ef11 d43c cade 81be
00000330: 8cd2 68bd 4d5d 0ebd 8259 533d 13dc 8a3c
00000340: 9c17 0c3e 6c1d 9b3e 57c8 9b3e 6ded 243d
00000350: fb5b debd fd1a 063e 5dfe 713d b9a1 7c3c
00000360: c5a7 263d cbbf a1bd b9cf 0a3e 97df 3d3e
00000370: 55ca debc 907a 323e 8a71 a23d c758 d83d
00000380: 3ad6 883d c382 e1bc db62 ea3d ceaf ae3d
00000390: c7df a6be 6a11 c13d 59cc 8abd c00c 2bbd
000003a0: 5b0f 293e 3eb4 423b 0139 813d b515 563c
000003b0: d9c0 48bd 668f 09bd 6c50 d93d 4eb6 9ebe
000003c0: 56c1 0e3e 424f 343d 4b88 bdbc 8cea be3c
000003d0: e805 41bd 1590 cb3c c6c9 973e be1a 60be
000003e0: b54e 413e b44b 783d b2c1 6bbd 1f83 40be
000003f0: 07ad ca3d 1afa 98bd 5448 083e f564 bbbd

transformer.attn.proj_q.bias f4 [36]
-0.01089817 0.24487305 -0.37500834 0.15043335 -0.034808744 0.05947963 0.11960752 -0.16611911
0.13016525 -0.07803736 -0.2011922 -0.10027972 0.021581655 0.31955642 0.024113744 0.053140555
-0.23982096 -0.30252814 0.025726372 -0.24220009 -0.56055355 0.0889854 0.3079635 0.32930595
-0.34960565 -0.20333898 -0.02127667 -0.4951871 0.6743472 0.104271695 -0.38453606 0.76259905
0.19356443 -0.5858111 -0.44129845 -0.75123435
00000000: 3d8e 32bc 00c0 7a3e 1801 c0be 330b 1a3e
00000010: 9d93 0ebd eaa0 733d caf4 f43d 211b 2abe
00000020: 0a4a 053e 0dd2 9fbd 5405 4ebe 745f cdbd
00000030: 03cc b03c e69c a33e 308a c53c e9a9 593d
00000040: a093 75be f8e4 9abe 1dc0 d23c 4d03 78be
00000050: 7080 0fbf fa3d b63d 64ad 9d3e ca9a a83e
00000060: 83ff b2be 1838 50be 694c aebc 2a89 fdbe
00000070: 05a2 2c3f 668c d53d e9e1 c4be b139 433f
00000080: c135 463e b7f7 15bf dff1 e1be e550 40bf

transformer.attn.proj_k.weight f4 [36, 36]
0.44099632 -0.11162339 0.21509849 -0.010757195 0.08782005 -0.027428295 0.052343372 0.1222707
0.14995359 0.17464264 -0.01135988 -0.046274196 0.12854171 -0.029012192 -0.2314786 0.1899218
0.14997251 -0.1261543 0.036811545 0.09158931 -0.17840476 -0.12755151 0.27887264 -0.3029738
0.35267892 0.06193569 -0.28955093 0.18972506 0.1725921 -0.22443508 -0.23152308 -0.3180073
-0.13431747 -0.032123946 -0.44865003 -0.17584787 -0.14426894 0.087311044 0.30592477 0.24698457
0.037797593 -0.15214172 -0.26105905 0.24637309 -0.30080122 -0.29246455 0.1538136 0.17999163
0.0799354 0.090834156 0.037489172 0.1292909 -0.004899984 0.1330054 0.24568197 -0.01553062
0.10036661 0.12206946 -0.023662774 -0.33138064 -0.19195578 -0.03975066 0.0564314 -0.0848265
-0.21296322 -0.50363153 -0.6331568 0.10027533 0.0007554452 0.12172346 -0.07144865 -0.14387761
0.049131326 -0.06403176 -0.03665823 -0.44655657 0.1744615 0.19725664 -0.077902764 0.008556634
-0.19034283 -0.032831218 0.17410004 0.017870914 0.17144376 0.23590861 0.20972294 -0.029169353
0.074739225 0.08475762 -0.10163091 -0.25119817 0.16936728 0.025363632 0.09077294 0.13157403
-0.1548466 0.05700057 0.08212709 0.033959202 -0.2620249 -0.15610239 0.06409705 -0.24681234
0.104788005 -0.42567012 0.3066863 -0.0051601054 0.021209097 -0.08526546 -0.03713587 -0.15909769
-0.06613513 0.022281153 -0.17142156 -0.7012134 -0.22022568 -0.08118635 -0.3825717 0.008822073
0.11802394 0.40705413 0.13077557 -0.12436757 -0.05569082 0.116915286 -0.20536509 -0.14750433
-0.25636697 0.18550944 -0.27817336 0.020732885 0.010423067 0.8658853 -0.084498346 -0.4217674
0.041703828 -0.17896327 -0.018098738 0.1215395 -0.027825823 0.17357767 0.25983182 -0.18738952
-0.481607 -0.0800978 -0.025650153 0.09577898 -0.008381191 0.09655219 -0.06736815 0.13925655
0.020614017 -0.12233264 0.016068446 -0.119010605 -0.23464622 0.13352965 0.24692076 -0.20234525
0.022771709 0.276572 0.054038506 -0.14691244 -0.104707435 -0.13361996 0.14284265 -0.19276832
0.23620543 -0.0153656285 0.12953587 0.17005064 -0.27231586 0.20880683 0.6357105 0.12268266
0.12426442 -0.17822646 0.12679628 -0.11205148 0.1371316 0.0859725 -0.09137732 0.006470647
0.073832795 -0.016115477 -0.16962282 0.11695893 -0.04473529 0.27232546 0.26544282 0.1759154
-0.13141935 0.068834126 0.19823846 -0.041405134 0.098384134 0.35400993 -0.21016562 -0.22570384
-0.19198513 0.16041456 -0.12107114 0.23848937 -0.3031194 -0.07331344 0.10518615 -0.03526896
0.20038591 -0.29204145 -0.10705263 0.061450306 0.041788373 -0.13408387 -0.0364025 0.16248813
-0.22151165 0.039505955 -0.15037788 -0.1370357 -0.017061658 0.091717 0.021403585 0.24851097
0.18871179 -0.049725525 0.17704749 0.17176019 0.51297486 0.07145319 -0.020555304 -0.32116318
0.019761669 -0.1540921 -0.021938257 -0.17983817 -0.34772775 0.054771118 -0.2011267 0.21057542
0.124578185 -0.18814576 0.16836545 0.19193308 -0.023010261 0.0044308347 0.10679289 0.017864998
-0.12128961 -0.23843883 0.32344845 0.07154417 -0.008285449 -0.06793507 -0.15401879 0.2002958
00000000: 45ca e13e ce9a e4bd c742 5c3e f23e 30bc
00000010: 00db b33d 4eb1 e0bc 0166 563d 1069 fa3d
00000020: 6f8d 193e 85d5 323e ca1e 3abc 038a 3dbd
00000030: 70a0 033e faaa edbc ba08 6dbe dc7a 423e
00000040: 6592 193e 982e 01be b4c7 163d 2d93 bb3d
00000050: bdaf 36be dd9c 02be 65c8 8e3e 621f 9bbe
00000060: 5592 b43e 47b0 7d3d 0540 94be 4947 423e
00000070: fcbb 303e 4fd2 65be 6314 6dbe dad1 a2be
00000080: 858a 09be 6694 03bd 75b5 e5be 7711 34be
00000090: 3dbb 13be 22d0 b23d 2ca2 9c3e 86e9 7c3e
000000a0: a6d1 1a3d 0acb 1bbe 88a9 85be 3a49 7c3e
000000b0: 9e02 9abe eabd 95be 5081 1d3e ba4f 383e
000000c0: 2cb5 a33d 4207 ba3d 3f8e 193d d564 043e
000000d0: 0c90 a0bb 9132 083e 0e94 7b3e 2474 7ebc
000000e0: 028d cd3d 8eff f93d 6fd8 c1bc b9aa a9be
000000f0: 0e90 44be 97d1 22bd 9d24 673d 84b9 adbd
00000100: 0813 5abe ffed 00bf 9016 22bf 275d cd3d
00000110: 1209 463a 264a f93d ab53 92bd a754 13be
00000120: ee3d 493d 1523 83bd f126 16bd 10a3 e4be
00000130: 09a6 323e a5fd 493e 7c8b 9fbd 2031 0c3c
00000140: 3be9 42be 077a 06bd 4847 323e 0666 923c
00000150: f48e 2f3e 0792 713e 9cc1 563e 91f4 eebc
00000160: e110 993d 6795 ad3d de23 d0bd 0c9d 80be
00000170: 9e6e 2d3e 64c7 cf3c 2ae7 b93d 58bb 063e
00000180: 1b90 1ebe 6e79 693d 3f32 a83d ce18 0b3d
00000190: 2128 86be 4ed9 1fbe 5045 833d 60bc 7cbe
000001a0: 189b d63d 6ff1 d9be fd05 9d3e 1a16 a9bb
000001b0: b3be ad3c a89f aebd c81b 18bd 81ea 22be
000001c0: db71 87bd f786 b63c 2289 2fbe b982 33bf
000001d0: d782 61be 0745 a6bd 70e0 c3be 758a 103c
000001e0: 89b6 f13d 6669 d03e 08ea 053e 6db4 febd
000001f0: 0f1c 64bd 4871 ef3d 3a4b 52be 600b 17be
00000200: 8842 83be 30f6 3d3e bd6c 8ebe 03d8 a93c
00000210: 83c5 2a3c a9aa 5d3f 780d adbd e6f1 d7be
00000220: a2d1 2a3d 2642 37be ce43 94bc b4e9 f83d
00000230: fbf2 e3bc 58be 313e ad08 853e 0ae3 3fbe
00000240: 3195 f6be 510a a4bd 4520 d2bc c527 c43d
00000250: 4351 09bc 28bd c53d 50f8 89bd 4599 0e3e
00000260: bade a83c 8989 fabd f9a1 833c d5bb f3bd
00000270: 1947 70be ffbb 083e ccd8 7c3e 9833 4fbe
00000280: bc8b ba3c d89a 8d3e 7b57 5d3d 3770 16be
00000290: da70 d6bd acd3 08be 5845 123e 0f65 45be
000002a0: d6df 713e 1ec0 7bbc 0da5 043e c121 2e3e
000002b0: fc6c 8bbe 75d1 553e ecbd 223f 0c41 fb3d
000002c0: 587e fe3d ff80 36be e2d6 013e 3f7b e5bd
000002d0: 3a6c 0c3e 5a12 b03d 0824 bbbd b907 d43b
000002e0: a635 973d 9b04 84bc 9bb1 2dbe 2a88 ef3d
000002f0: 5a3c 37bd 3e6e 8b3e 1fe8 873e 2b23 343e
00000300: cb92 06be e8f8 8c3d 06ff 4a3e 6e98 29bd
00000310: 9f7d c93d ca40 b53e a835 57be e81e 67be
00000320: c097 44be b743 243e 25f4 f7bd 8f36 743e
00000330: 7732 9bbe 5b25 96bd d66b d73d 2f76 10bd
00000340: f731 4d3e 7586 95be 693e dbbd 51b3 7b3d
00000350: 492a 2b3d 484d 09be ca1a 15bd 4a63 263e
00000360: f3d3 62be ffd0 213d a9fc 19be 1653 0cbe
00000370: e4c4 8bbc 1fd6 bb3d 9256 af3c a979 7e3e
00000380: aa3d 413e feac 4bbd f04b 353e e7e1 2f3e
00000390: 5252 033f 0d56 923d 9963 a8bc 806f a4be
000003a0: 39e3 a13c 52ca 1dbe dcb7 b3bc 7f27 38be
000003b0: 5f09 b2be ae57 603d 28f4 4dbe 15a1 573e
000003c0: d922 ff3d 48a9 40be fe67 2c3e 1b8a 443e
000003d0: 0480 bcbc 8930 913b 3bb6 da3d 9e59 923c
000003e0: b066 f8bd 4f29 74be 099b a53e c085 923d
000003f0: b1bf 07bc 8b21 8bbd 1ab7 1dbe 581a 4d3e

transformer.attn.proj_k.bias f4 [36]
0.0944579 0.11000848 -0.05839859 -0.03665208 0.009341248 0.103984796 0.062974356 0.01774541
0.10127387 -0.1373503 0.16836913 -0.038661208 -0.1835374 -0.0554985 -0.13141292 -0.17775698
-0.041448813 -0.066750735 -0.032877207 0.020464113 0.05857828 0.11811973 0.028172405 -0.12421746
0.14606571 0.09985105 0.037063368 -0.065624505 0.0022105852 0.014016337 -0.031058924 0.10290695
0.042246122 -0.16638212 0.16942987 -0.0884112
00000000: 2573 c13d 204c e13d 5c33 6fbd 7e20 16bd
00000010: 090c 193c fbf5 d43d b3f8 803d d25e 913c
00000020: ad68 cf3d 8fa5 0cbe f568 2c3e 375b 1ebd
00000030: 3af1 3bbe 6552 63bd 1c91 06be ed05 36be
00000040: 3bc6 29bd 9cb4 88bd 40aa 06bd 5ba4 a73c
00000050: c7ef 6f3d c2e8 f13d d1c9 e63c b965 febd
00000060: 4092 153e b57e cc3d c2cf 173d 2466 86bd
00000070: 77df 103b c7a4 653c 496f febc e1c0 d23d
00000080: 450a 2d3d 1360 2abe 067f 2d3e ee10 b5bd

transformer.attn.proj_v.weight f4 [36, 36]
1.0012388 0.78644186 -0.17520298 0.09394707 -0.9212004 0.024581948 -0.7320362 0.13049038
0.13573742 -0.5195665 0.093867816 0.020007184 -0.2473843 -0.57616156 -1.0708125 0.68335193
-0.45791087 0.011465126 0.058733072 0.5903333 -0.035617296 -0.07047604 0.5956187 0.16834001
0.74003667 0.27637836 0.5316557 0.4833979 -0.28437725 0.089556396 -0.07392757 0.17709044
0.6432116 -0.72995895 -0.028665245 0.37659666 -0.6766873 -0.002738504 -0.3398978 -0.3305822
0.9816697 -0.6439072 0.8561173 0.8301256 0.45719126 0.4083095 0.037001774 0.41542745
-0.4877309 -0.6423817 -0.06633963 0.47706166 0.5252313 -0.36345333 0.25199983 0.3215165
0.7566107 -0.2535339 -0.21695821 0.08972496 0.120257266 -0.4445841 -0.67367536 -0.20667222
-0.6890473 0.5548924 0.37112433 -0.46507505 -0.16329393 0.06544027 0.9251723 -0.37210587
0.41707304 -0.4146779 0.52418417 -0.34322098 -0.12650551 0.5633659 0.053717796 0.37445295
0.27521124 0.23562816 0.1553148 -0.16185789 0.32230666 -0.43112528 0.062589444 0.976548
-0.23867242 0.15378173 -0.062000472 -0.04874886 -0.12346435 -0.22214063 0.104840934 -0.54818386
0.21641403 -1.2612683 0.05002016 0.60267454 -0.1616397 -0.065527774 -0.36808276 0.5899469
-0.3978647 -0.7593669 -0.25338197 0.70241785 0.009553672 -0.31057093 -0.22431897 -0.24421611
0.71926856 0.35207728 0.43981913 0.6894466 0.51639587 -0.21327238 0.32631463 0.32530016
-0.11176539 -0.5813486 -0.2055983 -0.101414464 0.22178388 0.42151156 0.47525236 -0.02441452
-0.19823328 0.14652748 0.002312806 -0.30584595 0.24675478 -1.0226144 -0.32136074 0.028142454
0.058787245 0.46230263 0.14414293 -0.06804025 -0.26541758 -0.33343953 -0.2647486 0.4718432
-0.22008838 -1.1218152 -0.09409093 -0.46350545 0.7516693 0.92922205 -0.075939745 -0.8889457
0.12569119 0.16650823 -0.36353907 0.88321364 0.646308 -0.15535717 0.33164614 -0.12915875
-0.87395936 1.0076268 -0.65952504 0.36422732 0.055327546 0.5803069 -0.29348195 -0.9799395
0.143427 0.38562748 -0.5112224 -0.7777336 -0.2936839 0.07074813 -0.17483965 0.5698217
-0.7967715 0.2830539 -0.3989525 0.3942477 0.09037496 0.39312455 0.24237618 0.10756321
-0.72400534 0.12745422 -0.35247818 0.6014872 -0.25743648 0.77517354 0.2733096 -0.0039319997
0.7742565 -0.31227618 -0.42795223 -0.08404472 -0.90450513 0.04305338 -1.3142301 0.40571034
0.5266659 -0.18373147 0.08759279 -0.3726855 0.20412011 -0.6562298 0.4330129 0.31193897
-0.9718617 0.27036095 0.028563337 -0.4133398 0.06505132 0.2305228 -0.08446189 -0.3465449
-0.44801834 -0.039021738 -0.2349861 0.011017306 1.496442 -1.0601451 -0.46372902 0.11062067
0.6343557 0.4614075 0.0844395 -0.06557247 -0.0012162708 -0.52772516 -0.30689856 -0.72135735
0.39664403 0.06743254 0.120054364 -0.106945805 -0.7236779 -0.17240095 0.592627 0.2850135
-0.56790996 -0.027565543 -0.36074808 -0.26150182 0.2189592 0.8217952 0.22551472 0.09464528
-0.18076704 0.21154469 1.1729394 -1.1129546 0.20343412 -0.0796702 -1.45634 -0.54004645
00000000: 9828 803f 4154 493f 6968 33be 5267 c03d
00000010: cad3 6bbf 1560 c93c b966 3bbf 459f 053e
00000020: c0fe 0a3e 4f02 05bf c53d c03d 1be6 a33c
00000030: 4f52 7dbe 537f 13bf 6210 89bf 27f0 2e3f
00000040: 4b73 eabe 39d8 3b3c 1792 703d 1520 173f
00000050: 71e3 11bd be55 90bd 787a 183f 5361 2c3e
00000060: 0b73 3d3f 7781 8d3e 971a 083f ee7f f73e
00000070: e599 91be 5869 b73d 5667 97bd 3257 353e
00000080: 84a9 243f 97de 3abf 60d3 eabc 47d1 c03e
00000090: 613b 2dbf 7978 33bb 1607 aebe 1242 a9be
000000a0: b54e 7b3f 1ad7 24bf 812a 5b3f 1c83 543f
000000b0: f914 ea3e f10d d13e 2c8f 173d e8b2 d43e
000000c0: ddb7 f9be 2173 24bf 12dd 87bd 6d41 f43e
000000d0: 8f75 063f 8e16 babe 1f06 813e d09d a43e
000000e0: 3db1 413f 32cf 81be 4b2a 5ebe b8c1 b73d
000000f0: 7149 f63d 87a0 e3be fd75 2cbf e2a1 53be
00000100: 6765 30bf 6e0d 0e3f 0204 be3e 511e eebe
00000110: 8636 27be 8c05 863d 18d8 6c3f a984 bebe
00000120: 998a d53e a950 d4be ef30 063f a9ba afbe
00000130: a98a 01be bf38 103f 3107 5c3d 4cb8 bf3e
00000140: 7de8 8c3e 8248 713e d80a 1f3e 13be 25be
00000150: 6105 a53e 74bc dcbe e52e 803d 0dff 793f
00000160: 8b66 74be f578 1d3e 35f4 7dbd e2ac 47bd
00000170: e1da fcbd d578 63be d8b6 d63d c755 0cbf
00000180: a49b 5d3e 3d71 a1bf f0e1 4c3d e148 1a3f
00000190: e184 25be 6d33 86bd 5875 bcbe c306 173f
000001a0: ecb4 cbbe df65 42bf 48bb 81be a8d1 333f
000001b0: 0187 1c3c 2703 9fbe dfb3 65be ca13 7abe
000001c0: fc21 383f 7943 b43e f92f e13e 937f 303f
000001d0: 8532 043f 1364 5abe b612 a73e be8d a63e
000001e0: 41e5 e4bd 43d3 14bf 5c88 52be 63b2 cfbd
000001f0: 501b 633e 5dd0 d73e 4754 f33e f600 c8bc
00000200: aafd 4abe 4d0b 163e 7292 173b d797 9cbe
00000210: 49ad 7c3e 07e5 82bf 6589 a4be 018b e63c
00000220: e5ca 703d eeb2 ec3e 349a 133e b058 8bbd
00000230: d0e4 87be 96b8 aabe 218d 87be 6f95 f13e
00000240: d95e 61be a497 8fbf bfb2 c0bd 9650 edbe
00000250: 666d 403f 7fe1 6d3f 4c86 9bbd f291 63bf
00000260: 31b5 003e 2281 2a3e cb21 babe 4a1a 623f
00000270: 7174 253f f315 1fbe 86cd a93e 3142 04be
00000280: cdbb 5fbf eaf9 803f a2d6 28bf 017c ba3e
00000290: 239f 623d fe8e 143f 4443 96be 51dd 7abf
000002a0: 87de 123e f770 c53e 79df 02bf 8d19 47bf
000002b0: bc5d 96be 65e4 903d 2a09 33be d6df 113f
000002c0: 38f9 4bbf 71ec 903e 8143 ccbe d6da c93e
000002d0: 8216 b93d 9f47 c93e 7631 783e 1a4a dc3d
000002e0: 6a58 39bf 5c83 023e 0578 b4be 11fb 193f
000002f0: b7ce 83be c671 463f 3cef 8b3e 01d8 80bb
00000300: ad35 463f aae2 9fbe 8e1c dbbe a31f acbd
00000310: a68d 67bf be58 303d b138 a8bf 44b9 cf3e
00000320: 94d3 063f 1a24 3cbe d963 b33d a2d0 bebe
00000330: dd04 513e adfe 27bf deb3 dd3e 77b6 9f3e
00000340: eecb 78bf c06c 8a3e a9fd e93c 46a1 d3be
00000350: a039 853d 2b0e 6c3e 5bfa acbd 556e b1be
00000360: a962 e5be 42d5 1fbd 32a0 70be ee81 343c
00000370: 698b bf3f d6b2 87bf e46d edbe 178d e23d
00000380: 2365 223f 9b3d ec3e 9eee ac3d dc4a 86bd
00000390: 476b 9fba ff18 07bf cf21 9dbe e0aa 38bf
000003a0: ed14 cb3e 121a 8a3d 10df f53d 6706 dbbd
000003b0: f442 39bf e089 30be 67b6 173f 4aed 913e
000003c0: 8c62 11bf 22d1 e1bc f9b3 b8be 91e3 85be
000003d0: d736 603e 2c61 523f 55ed 663e 62d5 c13d
000003e0: ff1a 39be 2c9f 583e e122 963f 4c75 8ebf
000003f0: 0951 503e 212a a3bd 5969 babf 7c40 0abf

transformer.attn.proj_v.bias f4 [36]
0.12754786 0.38923773 0.045694463 0.19870986 -0.10757933 0.060814966 -0.21025994 -0.10015266
-0.16099322 -0.05426703 0.1789967 0.35186452 0.3866436 0.025935814 0.095424935 0.07773347
-0.09350349 0.27311295 -0.49490118 -0.6400404 0.14117464 -0.5537031 -0.24057856 0.3531892
0.7811549 -0.6467136 -0.24376813 -0.054234795 -0.275442 -0.25703177 -0.026050346 0.28463945
-0.058327667 0.21700415 -0.27855843 0.06138106
00000000: e89b 023e 2b4a c73e 1e2a 3b3d 997a 4b3e
00000010: 8d52 dcbd 1d19 793d 624e 57be d61c cdbd
00000020: 68db 24be 1b47 5ebd e94a 373e 9627 b43e
00000030: 26f6 c53e 5877 d43c 266e c33d ba32 9f3d
00000040: c27e bfbd 76d5 8b3e b063 fdbe b0d9 23bf
00000050: 1690 103e 7dbf 0dbf 3a5a 76be 37d5 b43e
00000060: c4f9 473f 068f 25bf 5a9e 79be 4e25 5ebd
00000070: bc06 8dbe ab99 83be 8967 d5bc 43bc 913e
00000080: fee8 6ebd 5636 5e3e 369f 8ebe b56a 7b3d

transformer.proj.weight f4 [36, 36]
1.0900769 -0.7642496 0.43528327 -0.020148152 -0.21884291 -0.34331945 0.2180838 0.25053015
0.22875282 0.28745055 0.2814236 0.062897645 -0.17456795 -0.09252484 0.14471443 0.1483442
-0.08268472 -0.08994961 0.017785404 0.024383195 0.03795156 0.23855248 -0.009358824 -0.056096546
-0.10414967 0.19810084 -0.14254552 0.03556613 -0.09300356 -0.07076204 0.017544203 -0.15451713
0.2649867 0.2156834 0.18983735 0.1675683 -0.5691419 0.5828657 0.011831665 0.62304026
-0.49965376 -0.10941284 1.0363301 0.3172078 -0.20333005 0.4162499 -0.16526283 0.19272219
-0.053453933 0.30340385 0.30630416 0.015622837 -0.1373178 -0.06774204 -0.33311188 -0.17676778
0.11096928 -0.09110564 -0.38564336 0.17623492 0.46802968 0.0059092725 0.07613904 0.024850149
-0.1014352 0.12327052 -0.08428749 0.27152395 0.3143648 0.4174376 -0.029309731 0.17670183
-0.50056046 -0.72629195 1.1484231 0.715198 0.30351943 -0.07219942 -0.068991676 -0.6381476
-0.17875797 -0.07789662 -0.037872538 -0.031401865 -0.28415328 -0.028115317 -0.101480566 -0.026250213
0.16699614 0.104143076 0.3530606 -0.27721483 -0.11173409 -0.06298473 -0.10340917 -0.4841455
-0.44441575 -0.16795039 -0.18721119 0.02162063 -0.13712 0.17019556 0.00093945756 0.12296359
-0.10610611 0.010479886 0.343179 -0.16448526 -0.19040923 0.081648506 0.63813096 0.8679762
0.2527415 0.02416271 0.20059203 0.31003523 0.47960463 0.38818693 0.26348087 0.19973753
0.3567501 -0.15497947 0.4833473 -0.12863772 0.23415494 0.4212883 0.014817168 -0.02389968
0.31223422 0.12216675 -0.085607275 -0.2800789 0.26751205 0.36949596 0.28850284 -0.28639263
0.12775852 -0.13794897 -0.05578246 0.17727499 0.062363118 -0.011913083 0.04250528 0.11633832
-0.07178693 -0.019846002 0.14634675 0.07940956 2.064486 -0.0035069487 -0.30689216 0.23813123
0.21389109 0.09133204 -0.014734707 -0.025616143 -0.18810014 0.16625895 0.034208156 0.06984344
0.02842947 0.036140412 -0.05599913 0.18083933 -0.08118245 0.1329178 -0.037032705 0.06517639
0.20611155 -0.14490648 0.007708749 0.012144881 0.05283998 0.011946268 -0.09883733 0.08931379
-0.06985258 0.04804153 0.062377784 0.044653766 0.3875753 0.27508378 -0.044289764 -0.31304413
0.16913639 1.1031421 -0.07749286 -0.5005272 -0.0008379753 -0.14460748 0.3021152 0.2170217
-0.2944725 -0.013691278 -0.17439547 -0.03517488 -0.14435266 0.037946198 0.12311747 -0.27836725
0.1284341 -0.07390647 -0.22803034 0.09509421 -0.015424942 -0.05832032 0.14444812 0.28255582
-0.043827314 0.16773061 0.035777487 -0.002343352 0.095430076 0.018286306 0.09176981 -0.12369688
0.05857857 0.7588353 -0.4704529 0.3644048 0.3584286 -0.15924275 1.1392779 -0.16910808
0.016497727 -0.11827334 0.06718228 -0.39878485 0.10603523 -0.1603035 -0.2133137 0.10907824
0.13445492 0.24619071 0.0549176 0.061575487 0.15198249 0.102568455 -0.096983775 0.06178681
-0.09062847 -0.07254183 0.057116546 0.1681446 0.04768617 -0.015481361 0.04711715 0.22001275
-0.108274736 -0.5370853 -0.05077751 0.13061984 -0.02541004 0.25698364 -0.30870456 0.31692484
00000000: a487 8b3f dda5 43bf 73dd de3e bd0d a5bc
00000010: 5b18 60be 91c7 afbe 5c51 5f3e 7d45 803e
00000020: 2e3e 6a3e b82c 933e c116 903e 7bd0 803d
00000030: f1c1 32be aa7d bdbd 0530 143e 8be7 173e
00000040: 9b56 a9bd 8037 b8bd b2b2 913c 44bf c73c
00000050: 1873 1b3d 1a47 743e c155 19bc 7ec5 65bd
00000060: 6c4c d5bd f2da 4a3e 74f7 11be caad 113d
00000070: a778 bebd b0eb 90bd dcb8 8f3c bd39 1ebe
00000080: 56ac 873e 1cdc 5c3e b964 423e 0697 2b3e
00000090: 49b3 11bf b036 153f 9ad9 413c 917f 1f3f
000000a0: 9ed2 ffbe d713 e0bd 77a6 843f 1069 a23e
000000b0: c135 50be b51e d53e a93a 29be f758 453e
000000c0: 83f2 5abd c057 9b3e e6d3 9c3e edf6 7f3c
000000d0: 0a9d 0cbe 57bc 8abd a48d aabe 9d02 35be
000000e0: dd43 e33d 9895 babd 0c73 c5be ed76 343e
000000f0: 96a1 ef3e 92a2 c13b c9ee 9b3d 8a92 cb3c
00000100: 42bd cfbd 4175 fc3d eb9e acbd 3005 8b3e
00000110: 6cf4 a03e 62ba d53e f61a f0bc 53f1 343e
00000120: bb24 00bf 45ee 39bf 87ff 923f 3717 373f
00000130: e666 9b3e 4add 93bd 824b 8dbd a45d 23bf
00000140: 540c 37be 4388 9fbd 3c20 1bbd 3e9f 00bd
00000150: 8a7c 91be 1852 e6bc 0bd5 cfbd b00a d7bc
00000160: 0901 2b3e f748 d53d 5cc4 b43e 1aef 8dbe
00000170: d8d4 e4bd 23fe 80bd 30c8 d3bd ebe1 f7be
00000180: 768a e3be 30fb 2bbe 4ab4 3fbe bf1d b13c
00000190: 2f69 0cbe bf47 2e3e ee45 763a 56d4 fb3d
000001a0: 294e d9bd d4b3 2b3c 28b5 af3e d36e 28be
000001b0: a3fa 42be 5537 a73d 8d5c 233f b033 5e3f
000001c0: 5567 813e e0f0 c53c ff67 4d3e f0bc 9e3e
000001d0: bd8e f53e 70c0 c63e f7e6 863e ff87 4c3e
000001e0: f3a7 b63e f0b2 1ebe 4c79 f73e 9bb9 03be
000001f0: 50c6 6f3e 1ab3 d73e b5c3 723c 43c9 c3bc
00000200: 2add 9f3e 9032 fa3d de52 afbd 8066 8fbe
00000210: 57f7 883e 932e bd3e a5b6 933e 0ea2 92be
00000220: 21d3 023e 7f42 0dbe 267c 64bd 9387 353e
00000230: 7870 7f3d 172f 43bc 041a 2e3d c942 ee3d
00000240: 0705 93bd 1594 a2bc ecdb 153e 7ba1 a23d
00000250: 8a20 0440 d6d4 65bb f820 9dbe acd8 733e
00000260: 4406 5b3e 4b0c bb3d d769 71bc f2d8 d1bc
00000270: 539d 40be c93f 2a3e da1d 0c3d 140a 8f3d
00000280: ebe4 e83c f807 143d 585f 65bd f22d 393e
00000290: fc42 a6bd 9b1b 083e 9baf 17bd 337b 853d
000002a0: e80e 533e 5d62 14be ac99 fc3b 53fb 463c
000002b0: bc6e 583d 48ba 433c 3a6b cabd 26ea b63d
000002c0: df0e 8fbd 32c7 443d d97f 7f3d dee6 363d
000002d0: 4570 c63e c8d7 8c3e 2f69 35bd 5247 a0be
000002e0: 1732 2d3e c333 8d3f 94b4 9ebd 8d22 00bf
000002f0: 92ab 5bba fc13 14be d8ae 9a3e f03a 5e3e
00000300: 19c5 96be 6251 60bc ba94 32be 8913 10bd
00000310: 2fd1 13be 796d 1b3d 0325 fc3d 2786 8ebe
00000320: 3b84 033e 465c 97bd c980 69be c1c0 c23d
00000330: e5b8 7cbc 4ae1 6ebd 35ea 133e 28ab 903e
00000340: 4584 33bd 93c1 2b3e 6a8b 123d ec92 19bb
00000350: d870 c33d 2acd 953c cff1 bb3d ca54 fdbd
00000360: 15f0 6f3d 0843 423f 34df f0be 4493 ba3e
00000370: f483 b73e 8810 23be dcd3 913f ab2a 2dbe
00000380: 3e26 873c 4b39 f2bd dd96 893d 872d ccbe
00000390: 0029 d93d 9a26 24be e86e 5abe 6a64 df3d
000003a0: 8dae 093e 6b19 7c3e 47f1 603d 9436 7c3d
000003b0: 4ca1 1b3e 690f d23d 6e9f c6bd 2b14 7d3d
000003c0: 6b9b b9bd d090 94bd 0af3 693d 192e 2c3e
000003d0: 9352 433d 89a5 7dbc eafd 403d 064b 613e
000003e0: 25bf ddbd 6c7e 09bf 14fc 4fbd 35c1 053e
000003f0: b728 d0bc 5c93 833e 860e 9ebe f943 a23e

transformer.proj.bias f4 [36]
-0.51061 0.7904088 0.17376542 -0.020256573 -0.00028936574 0.42250663 -0.06334077 -0.08696094
-0.3238932 -0.3370116 0.47481105 0.41077095 0.8690031 -0.2747044 0.26559207 -0.06438056
0.31957412 0.121605724 -0.44063076 -1.2180986 0.39795694 -0.60270536 -0.6630774 0.88483936
0.0022229655 -0.6615651 0.27183846 -0.42477506 -0.579835 -0.7372977 0.8381077 1.0824224
-1.1014305 0.6530575 -0.0636152 -0.046244066
00000000: 56b7 02bf 3b58 4a3f 90ef 313e 1df1 a5bc
00000010: 03b6 97b9 ca52 d83e ceb8 81bd 9418 b2bd
00000020: 54d5 a5be c98c acbe 6f1a f33e 9250 d23e
00000030: fd76 5e3f 0ea6 8cbe affb 873e f4d9 83bd
00000040: 389f a33e 6c0c f93d 5b9a e1be a8ea 9bbf
00000050: 03c1 cb3e e64a 1abf 71bf 29bf d584 623f
00000060: 2caf 113b 555c 29bf 692e 8b3e 1e7c d9be
00000070: 1170 14bf 8bbf 3cbf 3a8e 563f d18c 8a3f
00000080: adfb 8cbf c72e 273f b048 82bd 6b6a 3dbd

transformer.norm1.gamma f4 [36]
0.9152278 0.5838105 0.8089227 0.56853855 0.909401 0.79586095 0.9024565 0.93208325
0.82418793 0.25018084 0.8383197 0.57085544 0.6598626 0.8900287 0.4007186 0.07716806
0.36313578 0.6906919 0.2165315 0.84455717 0.7459325 0.5839105 0.21633548 0.27050287
0.31807947 0.3865943 0.621657 0.14707676 0.7739893 0.65151376 0.62379754 0.53373003
0.80618954 0.24577221 0.3886952 0.12524015
00000000: 5e4c 6a3f 9b74 153f 8f15 4f3f be8b 113f
00000010: 81ce 683f 8bbd 4b3f 6407 673f 029d 6e3f
00000020: fbfd 523f b417 803e 1f9c 563f 9523 123f
00000030: c1ec 283f ecd8 633f fd2a cd3e 4a0a 9e3d
00000040: efec b93e 2fd1 303f 6fba 5d3e e634 583f
00000050: 6ff5 3e3f 297b 153f 0c87 5d3e 5a7f 8a3e
00000060: 50db a23e b0ef c53e ea24 1f3f 4a9b 163e
00000070: 2a24 463f 9bc9 263f 32b1 1f3f 88a2 083f
00000080: 7062 4e3f b6ab 7b3e 0f03 c73e f43e 003e

transformer.norm1.beta f4 [36]
-0.039812848 -0.12915257 -0.102428876 -0.07539253 0.3042971 -0.16089797 0.00915931 0.08832018
-0.035010137 0.22548638 0.016564853 -0.120768405 -0.17836863 0.054117095 -0.16193704 -0.006130857
-0.090009116 -0.1290982 0.0048568696 0.29276076 -0.18366508 0.36929804 0.110667534 -0.27616835
0.081071034 0.24400175 -0.08852704 0.06769422 -0.64066505 0.5152504 -0.6519254 -0.011919738
0.14989448 -0.049195003 -0.2583124 0.019488186
00000000: cc12 23bd 9240 04be 3bc6 d1bd 6667 9abd
00000010: d4cc 9b3e 70c2 24be ee10 163c 36e1 b43d
00000020: ca66 0fbd e7e5 663e 04b3 873c 6d55 f7bd
00000030: 44a6 36be e3a9 5d3d d3d2 25be 5be5 c8bb
00000040: b356 b8bd 5232 04be 6026 9f3b bde4 953e
00000050: b312 3cbe a214 bd3e a9a5 e23d f065 8dbe
00000060: 9208 a63d 98db 793e aa4d b5bd 44a3 8a3d
00000070: a002 24bf 73e7 033f 95e4 26bf 014b 43bc
00000080: f07d 193e b380 49bd 8641 84be b0a5 9f3c

transformer.pwff.fc1.weight f4 [72, 36]
-0.22273538 0.11747721 0.5196453 0.024073325 -0.3675289 0.20870118 -0.14556295 -0.04952764
-0.39376947 -0.053674605 0.058839586 0.08261564 0.07273491 0.11330486 0.3588323 0.38196924
-0.1660921 -0.23207244 -0.10694548 0.31438473 -0.17980574 -0.10814334 -0.4361832 0.112050824
0.03643707 0.9103503 -0.07123723 -0.1964776 0.17964588 -0.2989996 0.20436919 -0.04070532
0.06068307 -0.099220276 0.2827152 -0.019708702 0.02229926 -0.03650184 -0.2000065 -0.019051854
0.055862635 -0.31921574 -0.090935074 -0.10484276 -0.030344458 0.21951394 -0.0879532 -0.65292424
-0.10032553 -0.048620004 0.17492245 -0.39030787 -0.72752225 -0.21000487 0.2942202 0.19167759
-0.29668006 0.40600377 -0.2708369 -0.001164752 -0.028815558 -0.150944 -0.25415447 -0.08898279
-0.14268348 0.56611425 -0.27956906 0.23229058 0.029694848 -0.043559395 -0.19041005 0.5080489
-0.7480308 0.09808109 -0.0014566605 0.022469228 -0.22522427 0.19562753 -0.5722935 0.28160247
0.3208618 0.15299068 -0.01622762 -0.16523694 -0.06429779 0.0004993333 -0.029279612 0.13064098
-0.08485703 0.09669808 -0.23699793 0.3081905 0.0684948 0.05216299 0.13166232 0.011829499
0.0664594 0.10222576 -0.17965698 0.04809536 0.3471284 0.05445374 -0.15849294 -0.13999602
0.22265537 -0.043336775 0.15914881 0.2559918 0.05656625 -0.0748704 -0.07273987 -0.019347847
-0.36424467 -0.1895872 0.07187748 0.15078789 -0.10249534 0.15366352 -0.25383586 -0.20138799
-0.34351394 0.32863677 -0.018942744 -0.40471488 0.15768102 0.031200908 -0.24904823 0.325604
-0.12410504 0.37088466 0.077797905 0.046846636 0.2502351 -0.27913988 0.09442851 -0.035158567
-0.3215391 0.65463376 -0.04532844 0.18473041 -0.060961116 0.12425324 -0.0941015 0.18380994
0.15668099 -0.3397893 -0.42670408 0.094287574 0.2598548 -0.19894262 0.124597855 -0.28152323
0.3350521 -0.50055844 0.11075374 -0.17299172 -0.3364494 0.06656381 0.2684665 0.100954756
-0.18914331 0.28288326 0.0145642245 0.016439449 0.039258104 0.22006443 0.118315466 0.33620337
-0.5778074 0.43847853 0.22876228 -0.44562292 0.4576586 0.10524962 -0.2569613 -0.58625305
0.51561844 0.1538071 0.35111374 -0.10412733 0.13933474 0.13437285 0.12081136 0.2215728
-0.0010831106 0.2712064 0.048075445 0.46867222 0.43777364 -0.35328737 -0.3732738 -0.38834593
-0.040286746 -0.2139211 -0.14849535 -0.24396284 0.43845963 0.014561995 -0.22722083 0.1956846
-0.17561553 -0.0036327452 0.45451528 -0.3402677 0.113515526 -0.14411087 -0.08161542 0.20664552
0.43846086 0.17460294 0.1274214 -0.066311784 -0.16233352 0.25173292 -0.1055173 -0.14297134
-0.34409603 0.13684438 0.3071651 0.18392129 -0.24730952 -0.24312916 -0.1585527 0.1651169
0.39987522 -0.10933369 0.049634524 -0.43170613 0.015210925 -0.10041554 -0.114880666 0.084459186
0.021593802 -0.15515693 0.012485974 0.31028205 0.27660367 -0.121933796 -0.010551472 0.17728695
0.24267448 -0.2017833 0.11078203 0.4044243 0.24042673 -0.015976306 -0.07412938 -0.04253637
0.18711694 -0.34863475 0.255002 0.18880229 0.024527496 0.3306759 0.2015972 0.21697511
00000000: be14 64be e497 f03d 7907 053f 6c35 c53c
00000010: bf2c bcbe c3b5 553e 740e 15be 7fdd 4abd
00000020: 279c c9be e7d9 5bbd c701 713d 6332 a93d
00000030: 0af6 943d 610c e83d deb8 b73e 7991 c33e
00000040: 0c14 2abe 66a4 6dbe 3b06 dbbd 09f7 a03e
00000050: ff1e 38be 417a ddbd 6853 dfbe e77a e53d
00000060: 0a3f 153d b80c 693f d3e4 91bd 6d31 49be
00000070: 17f5 373e 7a16 99be 2846 513e 9fba 26bd
00000080: d08e 783d 0034 cbbd 0cc0 903e 2574 a1bc
00000090: f0ac b63c f482 15bd 81ce 4cbe a212 9cbc
000000a0: 38d0 643d 3f70 a3be 2b3c babd cdb7 d6bd
000000b0: f194 f8bc 43c8 603e cf20 b4bd 0b26 27bf
000000c0: 7977 cdbd c525 47bd df1e 333e 6fd6 c7be
000000d0: e63e 3abf 840b 57be 08a4 963e 2147 443e
000000e0: 73e6 97be badf cf3e 22ab 8abe 97aa 98ba
000000f0: 9b0e ecbc 1091 1abe 8920 82be 9c3c b6bd
00000100: 9e1b 12be ddec 103f ad23 8fbe 95dd 6d3e
00000110: 9c42 f33c 566b 32bd dafa 42be 7e0f 023f
00000120: f27e 3fbf bdde c83d 6aed beba 6311 b83c
00000130: 31a1 66be 9552 483e d481 12bf 332e 903e
00000140: ff47 a43e 97a9 1c3e c9ef 84bc df33 29be
00000150: 8fae 83bd b1e5 023a ccdb efbc c0c6 053e
00000160: 86c9 adbd a509 c63d 96af 72be 25cb 9d3e
00000170: 0047 8c3d dca8 553d 7dd2 063e 84d0 413c
00000180: de1b 883d bd5b d13d 00f8 37be a4ff 443d
00000190: d0ba b13e e30a 5f3d f94b 22be 1e5b 0fbe
000001a0: c5ff 633e e781 31bd e8f7 223e 5b11 833e
000001b0: 03b2 673d a755 99bd a4f8 94bd 607f 9ebc
000001c0: 477e babe 2623 42be 8034 933d 2468 1a3e
000001d0: 14e9 d1bd f859 1d3e c6f6 81be a738 4ebe
000001e0: 0fe1 afbe 1443 a83e d02d 9bbc ca36 cfbe
000001f0: 2277 213e 0c99 ff3c 8006 7fbe 91b5 a63e
00000200: c92a febd 98e4 bd3e 8254 9f3d 42e2 3f3d
00000210: d11e 803e 6ceb 8ebe bc63 c13d 6e02 10bd
00000220: c6a0 a4be 1496 273f 50aa 39bd f829 3d3e
00000230: 5db2 79bd 7c78 fe3d 4ab8 c0bd ac38 3c3e
00000240: fb70 203e ddf8 adbe f578 dabe d819 c13d
00000250: b00b 853e 9db7 4bbe 292d ff3d d023 90be
00000260: f38b ab3e 9924 00bf dbd2 e23d be24 31be
00000270: 1943 acbe 9b52 883d 7174 893e 5ec1 ce3d
00000280: c9ae 41be 13d6 903e c99e 6e3c 06ac 863c
00000290: 1bcd 203d 9258 613e 614f f23d d922 ac3e
000002a0: 30eb 13bf 4280 e03e a940 6a3e b028 e4be
000002b0: 3a52 ea3e 1d8d d73d 6e90 83be ae14 16bf
000002c0: 92ff 033f 9c7f 1d3e 2ec5 b33e b640 d5bd
000002d0: c4ad 0e3e 0999 093e f26b f73d fbe3 623e
000002e0: 29f7 8dba 91db 8a3e c2ea 443d cef5 ef3e
000002f0: de23 e03e 15e2 b4be be1d bfbe 47d5 c6be
00000300: b703 25bd 220e 5bbe 2a0f 18be 65d1 79be
00000310: c87d e03e 6f95 6e3c 94ac 68be 8b61 483e
00000320: 8fd4 33be 5a13 6ebb 3ab6 e83e 9137 aebe
00000330: d47a e83d cd91 13be fc25 a7bd e29a 533e
00000340: f17d e03e 1dcb 323e c17a 023e 79ce 87bd
00000350: c23a 26be 23e3 803e 7419 d8bd 1467 12be
00000360: 5b2d b0be ef20 0c3e be44 9d3e dd55 3c3e
00000370: b53e 7dbe daf6 78be a45b 22be 6814 293e
00000380: 72bc cc3e 57ea dfbd 924d 4b3d 9608 ddbe
00000390: 3e37 793c aaa6 cdbd 8e46 ebbd f0f8 ac3d
000003a0: 7ce5 b03c 75e1 1ebe f891 4c3c 4add 9e3e
000003b0: ff9e 8d3e 6db8 f9bd 15e0 2cbc b68a 353e
000003c0: a97f 783e 48a0 4ebe b0e1 e23d b410 cf3e
000003d0: 6d32 763e bee0 82bc 25d1 97bd 9e3a 2ebd
000003e0: 959b 3f3e 4180 b2be 9f8f 823e 6355 413e
000003f0: e3ed c83c 5a4e a93e 7f6f 4e3e b92e 5e3e
