Src/extractor/unihar_bert_td2.pt (torch, 68479 bytes, 29 tensors)

transformer.embed.lin.weight f4 [36, 6]
000000 40 d2 f1 bf 1e c5 3f be 4c 6c 28 3e 92 9b 10 bf
       -1.8892288 -0.18727538 0.16447562 -0.5648738
000010 17 0e 3b bf 31 55 ba bd 56 77 1d bf 81 a3 53 be
       -0.73068374 -0.0909828 -0.6151022 -0.2066784
000020 fa f2 a0 bf 52 b2 c6 bf 68 f9 d0 3e f8 65 6f 3f
       -1.257415 -1.5523169 0.40815282 0.93514967
000030 9b ef 6c bf 2b f6 ed 3f 25 70 cf 3f 21 4e 7e be
       -0.9255311 1.859075 1.6206099 -0.24834491
000040 dc 3f 5e bf 99 70 86 3f 06 34 dd 3f 1a 60 6b bf
       -0.8681619 1.0503112 1.7281501 -0.91943514
000050 71 ff a0 3f 5f 2d df be 82 89 27 be d2 9a 83 3e
       1.2577955 -0.43589303 -0.16361049 0.25704056
000060 ee a6 4a bf cb f6 9a be c9 9a 71 3f 2e 38 b9 3f
       -0.79160964 -0.30266413 0.9437681 1.447027
000070 e4 db 92 3f 16 ab c5 3e 39 37 81 bf ac 36 e1 3e
       1.1473355 0.3860709 -1.0094978 0.43987024
000080 89 d7 5c bf 61 7b 90 3e 8d f8 b8 bf 2d e4 d5 be
       -0.8626638 0.2821913 -1.4450852 -0.41775647
000090 56 bc b2 3e d3 2e 35 40 22 29 9f bf ee 69 94 3e
       0.34909314 2.830983 -1.2434428 0.28987068
0000a0 57 2f 27 3e ba 4f 65 3e ff 9d 83 3d f9 5d 8d be
       0.16326652 0.22393695 0.0642662 -0.27610758
0000b0 34 92 67 be e0 d7 40 be 58 72 34 3e 74 ff 07 3e
       -0.22614366 -0.1883235 0.17621744 0.13281041
0000c0 16 b4 19 be 12 cb 38 bf 46 52 e0 3c 72 a7 37 3e
       -0.15010104 -0.7218486 0.027382981 0.17934969
0000d0 6a 07 e3 3e 94 c3 df be 28 04 fb 3f 6e 09 3b bf
       0.44341594 -0.43703902 1.9610643 -0.73061264
0000e0 5b 29 87 be 03 9e cf 3e cf ee 86 bd a2 6d 95 3f
       -0.2639874 0.4055024 -0.06588518 1.1674082
0000f0 da 8d 3b 3e cf 96 79 be 77 52 5e be 2e af e2 bc
       0.18315831 -0.24373935 -0.21711145 -0.027671423
000100 95 2f 40 3d 05 f9 9d 3d d4 a1 62 bf 67 13 d3 be
       0.046920378 0.07713512 -0.8852818 -0.4122574
000110 eb 12 09 c0 55 46 64 3f 85 ae ab be 73 76 68 3e
       -2.1417797 0.8916982 -0.33531585 0.22701435
000120 6a 50 46 40 ca 6f e4 bf be 12 73 3f 9c 1f e4 3e
       3.098658 -1.7846615 0.94950473 0.44555366
000130 82 89 52 bf de 2b e7 3c 24 01 98 3f 96 4e 00 40
       -0.8224107 0.02821916 1.1875348 2.0047965
000140 89 cc 3b 3f 03 96 13 bf b0 b2 63 be d3 b7 1a be
       0.7335897 -0.57650775 -0.22236133 -0.15109186
000150 3a e7 ef 3f 40 90 6f 40 75 04 00 40 23 59 19 3f
       1.874244 3.7431793 2.000272 0.59901637
000160 8b 36 73 be 7c 34 a0 be e8 5d 6a be ec ab 0a bf
       -0.23751275 -0.31290042 -0.22887385 -0.5416858
000170 b4 14 1d 3f 43 70 23 be f7 e0 34 bf b3 f6 e3 bd
       0.61359715 -0.15960793 -0.7065577 -0.111310385
000180 50 c2 6c bd 8c 27 89 3f 8a 0b 47 bf dc ae ae be
       -0.0578025 1.0715194 -0.7775198 -0.34117782
000190 ed 5c 99 3f 1e 2d 81 bf 44 eb 42 bf 01 17 95 bf
       1.1981484 -1.0091894 -0.76140237 -1.1647645
0001a0 a3 7c e4 bf 82 8f 10 3f 04 e5 cd be 5c 77 c2 be
       -1.7850536 0.56468976 -0.40213788 -0.3798169
0001b0 52 98 a5 bf ab bb 12 3f 94 1d 68 3f 21 00 f9 be
       -1.293711 0.5731761 0.9067013 -0.4863291
0001c0 7d 0c 4f 3f 5d e3 a6 bf 12 34 60 3f 50 87 37 c0
       0.8087843 -1.3038136 0.87579453 -2.8676338
0001d0 47 ed c1 bf 85 90 95 be e5 81 cb be 0c 5d 8d be
       -1.5150536 -0.29211822 -0.3974754 -0.27610052
0001e0 af c2 75 3f cc e1 3d 3f e6 8c 3f c0 76 d6 8e bd
       0.9600019 0.74172664 -2.9929748 -0.06974499
0001f0 7d 5e 6c be 52 a5 80 3e 1a f0 e9 3e 0f 1e e6 be
       -0.2308292 0.2512613 0.45690995 -0.44944808
000200 91 ed 8e be 3b 22 18 3f 62 25 0b be 25 c9 a0 bf
       -0.27915624 0.5942723 -0.13588479 -1.2561384
000210 4c bd 8a be 9a 68 11 c0 22 46 2a 40 5c ae 05 be
       -0.27097547 -2.2720094 2.6605306 -0.13054794
000220 1e e2 ec 3d 79 d9 53 3e d9 23 2d bf c4 1e e5 3e
       0.11566566 0.20688428 -0.67632824 0.44750035
000230 9a 83 7c 3d f4 6a 1d bf 87 29 27 3f a3 28 61 3f
       0.061648943 -0.6149132 0.6529774 0.8795263
000240 34 09 ff bf 39 bf 0b bf da 3e 33 c0 9c 3b 1a 3d
       -1.9924684 -0.5458866 -2.8007112 0.037654504
000250 ac 11 4d be d7 80 33 be 56 fd 57 bd 84 18 13 be
       -0.20026273 -0.17529617 -0.052731834 -0.1436482
000260 f1 7c ba bb 85 f4 84 bd 2d 59 98 3b 5b 5b 9c 3c
       -0.0056911637 -0.06491951 0.0046493025 0.01908653
000270 6d 8e 21 bf e4 d1 55 3f b3 05 d8 be 78 d1 3b bf
       -0.6310795 0.8352339 -0.42191848 -0.733665
000280 8c 54 5e bf 49 19 1b 3f 0c 62 3a 3e 91 14 dd 3c
       -0.8684776 0.6058546 0.18201464 0.026987346
000290 57 86 0f 3f 4c 45 7d bf 2e 2b ab be 63 f5 72 bd
       0.5606436 -0.98933864 -0.3343138 -0.05931605
0002a0 6a bf 4c bf 27 b0 12 3f dc 28 2c 3f 51 b1 ba be
       -0.79979575 0.5730004 0.67249846 -0.36463407
0002b0 bc d5 92 3e 40 bc 55 bf 97 23 c6 bf 13 fd 6d bf
       0.2867869 -0.8349037 -1.5479611 -0.92964286
0002c0 3b 1e 9f 3f 89 0c 4e 3f c2 af bf 3e 17 c5 2b 3f
       1.2431101 0.8048788 0.3743878 0.6709761
0002d0 3f e3 e9 3e fa 1b 1e bf f1 ea 04 3c 86 e7 90 3d
       0.45681188 -0.6176144 0.008112655 0.070754096
0002e0 ed 7d 56 3e 8b 2d c0 3e 25 0e 64 c0 df 5c 2b bf
       0.20946474 0.37534747 -3.5633633 -0.66938585
0002f0 61 a7 06 40 fc 41 04 3f 4b 84 1a bf 50 57 d4 3d
       2.103966 0.51663184 -0.60358113 0.10368216
000300 15 1a d6 3f e6 c1 08 c0 a6 80 86 3f 41 1e 80 bf
       1.672671 -2.1368346 1.050801 -1.0009233
000310 8f fb 40 3e d8 53 0d bf a2 ef 0b 40 24 ef 1f 3f
       0.18845962 -0.5520606 2.186501 0.62474275
000320 79 8e 8b bf 6a 37 9a 3e 45 e2 23 3e 9e 03 0d 3e
       -1.0902854 0.30120403 0.16004284 0.13770911
000330 8f f8 8b be 33 77 91 bf c4 21 4d 3e ec 66 3e 3d
       -0.27338073 -1.1364502 0.20032412 0.046484873
000340 a1 83 8a 3f bf fd 06 3f 43 50 35 3d 73 2a bc be
       1.082142 0.52730936 0.044265997 -0.36751136
000350 39 d9 be 3f 03 56 62 3d ab c4 4d bf 76 a4 7f bf
       1.4910041 0.05525781 -0.80378217 -0.9986032

transformer.embed.lin.bias f4 [36]
000000 82 1c 35 bd 4a 5c 06 bd c4 32 9c bd d0 4c 22 bd
       -0.04421664 -0.032802857 -0.0762687 -0.039624035
000010 55 97 61 bd 63 97 26 bd af e2 95 bd ad 26 a1 be
       -0.055075962 -0.040671717 -0.07318627 -0.3147482
000020 40 2b e6 bc a9 ff 8e bd ce 16 55 bd 0d 74 26 bd
       -0.028096795 -0.06982357 -0.0520237 -0.04063802
000030 ab 66 d2 bc 87 17 e4 bb 0a b7 fd bc 66 bd 51 bd
       -0.025683722 -0.0069608125 -0.030971069 -0.051206015
000040 e6 51 61 bd b7 4f fb bc 07 fc fc bc 02 8a 20 bd
       -0.055009745 -0.03067766 -0.030881895 -0.039194115
000050 26 79 3c bd fb 39 98 bc 35 16 83 bd f4 70 20 bc
       -0.046013974 -0.018582335 -0.0640072 -0.009792555
000060 a7 d4 5b bd 86 c7 9f 3f 5b bd 3e bd c8 ea 40 bd
       -0.053669598 1.2482765 -0.046567302 -0.047098905
000070 e5 7d ce bc ca eb 2a bd fa 4f 5c bd 63 1a 6e 39
       -0.025206516 -0.041728772 -0.05378721 0.00022707279
000080 ad d3 9e bd 6d cf 90 3c 19 db 25 bd ee 24 8f bd
       -0.07755218 0.017677033 -0.04049215 -0.06989466

transformer.embed.pos_embed.weight f4 [20, 36]
000000 95 ea a1 3e da 69 09 40 0e 12 ce 3f 25 ec be 3f
       0.31624284 2.1470857 1.609926 1.4915816
000010 e8 37 3d 3f ec 26 84 be 61 42 96 c0 17 7f 10 3e
       0.7391343 -0.25810945 -4.695603 0.14110981
000020 ae 61 15 c0 20 55 c3 be 41 67 53 3e c7 e8 d5 3f
       -2.334087 -0.38150883 0.20644857 1.6711663
000030 39 dd 82 3e 14 9e 99 3f d0 b1 04 be 4d bf c2 bf
       0.25559404 1.2001367 -0.12958455 -1.521463
000040 0f 82 0e bf f1 b8 5d 3f 0d a9 5c 3f e6 a7 94 bf
       -0.55667204 0.86610323 0.8619545 -1.1613739
000050 56 dd 85 bf 6c 97 f8 be ae 6e 56 c0 45 5a fe bf
       -1.0458171 -0.48553026 -3.3505054 -1.9871298
000060 ea f2 21 bf 79 34 50 bf 58 b9 0b 40 f2 0f 25 c0
       -0.6326128 -0.81330067 2.1831875 -2.5790982
000070 d8 c8 e1 3f 1d 27 cf be 98 be 92 3f e0 7d 41 bf
       1.7639418 -0.4045953 1.1464415 -0.75582695
000080 ea 66 45 bf 88 60 22 40 e8 48 59 3f cb 84 43 3f
       -0.7711016 2.5371418 0.8487687 0.763745
000090 8d f7 1c 40 c5 ef 83 3f de eb c3 3f f8 ba e5 bf
       2.4526093 1.0307547 1.5306356 -1.7947683
0000a0 f5 cc cb 3e 9a 95 09 bf 19 ac 87 bf bc 4d 31 bf
       0.39804807 -0.537439 -1.0599395 -0.6925924
0000b0 0e 4f 17 3e 65 d2 d5 be e0 4d f6 be 4f 5e 0f be
       0.1477625 -0.4176208 -0.4810629 -0.1400082
0000c0 25 bb c8 3f d0 4a c9 3e 70 75 99 bf 7d b2 51 40
       1.5682112 0.3931489 -1.1988964 3.276519
0000d0 f7 7a 83 bf bb 04 5d 3f 71 57 83 3f 64 13 89 3e
       -1.0271901 0.86335343 1.026106 0.26772606
0000e0 de 39 1b 3d 31 4a 6a 3f 5b 77 a6 3e 9c 34 c4 bf
       0.037896983 0.9151946 0.32512936 -1.5328555
0000f0 ce e9 af bf 32 f8 36 bf 2c cf 78 bf 3b 16 13 be
       -1.3743227 -0.71472466 -0.9719112 -0.14363949
000100 26 61 11 40 77 a6 a8 bf bd 22 ac bf f1 b4 6f bf
       2.2715545 -1.3175801 -1.3448101 -0.9363547
000110 cf d8 d5 bf ab 29 2f 40 31 d9 34 3f 5b 1a 17 c0
       -1.670679 2.7369182 0.7064391 -2.3609836
000120 1a 2e 87 3f 24 86 33 3f f8 2e e8 bd 90 60 7d bf
       1.0560944 0.7012656 -0.113370836 -0.9897547
000130 bf 95 45 3d 68 95 7d bf aa 83 69 bf 98 37 d2 be
       0.048238512 -0.990561 -0.9121653 -0.4105804
000140 5d 19 28 40 04 da 45 be 0c 34 86 c0 22 e4 93 bf
       2.626548 -0.19321448 -4.1938534 -1.1553996
000150 fa 0e 93 3d 82 7c f4 3f f6 ab e8 be 37 66 4f 3f
       0.07180591 1.9100497 -0.45443696 0.8101534
000160 71 47 a7 3e 8a 99 e1 3f 50 6a 68 bf 3b fd 58 be
       0.32671693 1.7624981 -0.9078722 -0.2119035
000170 fa d6 a3 3f e3 8c ec bf 2d 25 0d be 8a e9 9e bf
       1.2799981 -1.8480495 -0.13783713 -1.241502
000180 38 5d b9 3e ed 1f 4e bf fd cd 58 bf e7 60 ad bc
       0.36203933 -0.80517465 -0.84689313 -0.02116437
000190 d3 be dc 3f 33 5d f4 3f 35 6e 88 3f 8c 5e 9e 3f
       1.7245735 1.9090942 1.0658633 1.2372603
0001a0 38 fb 08 bf 42 9b 30 40 29 f0 77 bf 42 2e 13 3e
       -0.5350833 2.7594762 -0.9685083 0.14373115
0001b0 18 a0 2a 40 51 c5 47 3e af 5b e2 bf 6d 81 ff bf
       2.6660213 0.19508864 -1.768423 -1.9961373
0001c0 4f 2d 30 bf 2a e4 3a bf 79 92 73 bf 4e f3 8f bf
       -0.68819135 -0.730044 -0.95145375 -1.1246126
0001d0 2a 57 20 c0 0e 0c 08 40 70 5e 03 c0 7f fc 47 bf
       -2.50532 2.1257358 -2.052639 -0.78119653
0001e0 0c 4d 19 bf f8 5f c2 3e a2 4e 0e 3f 79 c3 91 3e
       -0.5988319 0.37963843 0.55588734 0.28469446
0001f0 c7 f4 f5 3e a3 64 92 3f 33 60 b9 bf 37 fb 48 bf
       0.48038313 1.1436962 -1.4482483 -0.78508323
000200 8f 9a 85 3f 70 2d 27 3f 97 77 5e be 85 e1 bb 3e
       1.0437793 0.6530371 -0.21725307 0.36695495
000210 34 10 bc bf 08 bb 62 bf 9a c9 ae 3e 33 c2 54 3f
       -1.4692445 -0.8856664 0.34138185 0.83108824
000220 b5 f4 03 40 69 22 bc be 0d 8a 43 40 52 11 43 3f
       2.0618107 -0.36745003 3.055301 0.76198304
000230 97 93 b5 bf c4 3a 8d bf 8c c0 8a 3f b2 85 a4 3e
       -1.4185666 -1.1033559 1.0840011 0.3213325
000240 cf 69 8b 3f e1 2a bb 3e ff 01 19 bf e5 fd cb bf
       1.0891665 0.36556152 -0.5976867 -1.5936857
000250 a3 87 50 bf bd 15 22 bf cb 44 13 c0 f4 24 0c 3f
       -0.81456965 -0.6331442 -2.3010738 0.54743886
000260 f7 7b 0e 40 11 e4 56 40 2f d4 b9 3e e5 7d 0d bf
       2.2263162 3.35767 0.36294696 -0.55270225
000270 8a fa 18 bf 9a 1c 0b 3e 22 5a 3f 3f 26 05 3e 3f
       -0.5975729 0.1358513 0.74746907 0.74226606
000280 1f c6 4d 3f 9e 0f 8d bd 36 f0 83 bf 36 72 e0 3d
       0.80380434 -0.06887744 -1.0307682 0.10959284
000290 55 58 dd 3e 18 e7 3a 3f 3c 7a 0d c0 0b 5b 49 3f
       0.43231454 0.7300887 -2.2105856 0.78654546
0002a0 10 3b 13 bf f6 74 46 be e0 b2 ce bf 6b 7e 99 be
       -0.57512 -0.19380555 -1.6148338 -0.29979262
0002b0 52 95 a5 3f d8 d6 bf bf 30 f8 ed bf bb 9d cd 3f
       1.2936194 -1.498744 -1.8591366 1.606376
0002c0 5c d9 b0 bf b3 a9 57 bf 49 8d 01 3f 46 95 86 3f
       -1.3816333 -0.84243315 0.5060621 1.0514305
0002d0 84 0a 9a be 04 f9 41 3f c0 39 e0 bd be b2 8f 3f
       -0.30086148 0.7577059 -0.10948515 1.1226423
0002e0 f3 99 88 3e b8 79 65 be 5f 05 d5 be 76 f2 bf 3f
       0.26679954 -0.22409713 -0.4160566 1.4995868
0002f0 9a a7 4d 3e f8 33 2a 40 07 0d d8 bf 85 30 55 bf
       0.20083466 2.659422 -1.6878976 -0.8327716
000300 7d f6 65 3f b1 3c 8a bf 24 43 04 3f 02 98 a3 3f
       0.89829236 -1.0799772 0.5166495 1.2780764
000310 59 e0 3e 3f 7d 40 6d 3e f8 f8 9b be 38 4f 4d bf
       0.7456108 0.23169132 -0.30463386 -0.80199003
000320 eb cc fb be 49 0f ef be d6 c0 1c c0 ce 34 a9 bf
       -0.49179778 -0.4669135 -2.4492698 -1.321924
000330 fd ef 45 3f 9b b8 4c 3e f9 34 19 bf 60 db 12 3e
       0.7731932 0.19992296 -0.59846455 0.14341497
000340 93 d0 89 3f b8 50 d0 bf db 3c df bf 78 5d 58 3f
       1.0766777 -1.6274633 -1.7440447 0.8451762
000350 25 c8 87 be 8f 8c 27 c0 0e 05 b8 bf 49 e0 3c bf
       -0.26519886 -2.617954 -1.4376543 -0.7377973
000360 06 d7 62 bf 70 3f 7c 3f 1e ad 2b 3f 25 7c 17 3f
       -0.8860935 0.985343 0.6706103 0.59173805
000370 76 d3 56 be 37 57 28 bf 4f 35 49 3f 11 38 96 3f
       -0.20979103 -0.6575808 0.7859697 1.173586
000380 ef 3f 0d be bb a1 cf 3f 35 5c 46 3f b8 57 c4 be
       -0.1379392 1.6221231 0.77484447 -0.38348174
000390 09 40 fd bf 06 2f ed bf 72 c3 58 3e 97 63 62 3f
       -1.9785167 -1.8529975 0.21168306 0.8843321
0003a0 0c e4 bf 3d f3 b6 8e bf b8 1d 18 3d e2 a0 ca 3f
       0.09369668 -1.1149582 0.037137717 1.5830348
0003b0 55 38 a0 3f 29 a2 fd 3e e7 40 70 bf 99 7a 22 c0
       1.2517191 0.4953778 -0.93849033 -2.5387328
0003c0 ce 5c 1d bf a5 da af 3e 35 f0 55 bf 7f 57 66 3f
       -0.61469734 0.343465 -0.8356965 0.8997726
0003d0 cc e8 46 3f 7b 83 15 3e dd a3 fa 3f 2b f0 c3 3f
       0.7769897 0.14600937 1.9581257 1.5307668
0003e0 69 13 84 bd 09 05 11 3e e3 ba 0f bf e4 a6 2f 3f
       -0.06449015 0.14162077 -0.5614454 0.6861403
0003f0 44 68 03 40 0a 8b de be e8 c7 7a 3e fa 27 92 be
       2.0532389 -0.43465453 0.2449032 -0.28546125

transformer.embed.norm.gamma f4 [36]
000000 52 0c 99 3e 18 b5 15 3f f3 49 21 3f 50 67 97 3e
       0.29892212 0.5847945 0.6300346 0.2957101
000010 03 6e 3b 3f f7 c2 18 3f 3e c1 f9 3e 9f ca 7d 3f
       0.7321474 0.5967249 0.48780245 0.991373
000020 a6 94 68 3e 4b 8b f9 3e e3 2a d2 3e 5b 5e 09 3f
       0.22712955 0.48739085 0.41048345 0.536596
000030 26 4f c3 3e 72 62 03 3f 94 1e fe 3e 18 5a a2 3e
       0.38146323 0.5132209 0.49632704 0.3170936
000040 75 fe 0e 3f f8 f2 d3 3e e5 e3 28 3f d6 48 34 3e
       0.5585702 0.41396308 0.6597274 0.1760591
000050 3c dc d4 3e 9d f0 f2 3e fd 22 d4 3e df a0 1d 3f
       0.41574275 0.47449198 0.41432944 0.61573595
000060 f3 2a db 3e 61 fe d6 3f 73 ba 59 3e d2 ed a5 3e
       0.42806205 1.679638 0.21262531 0.32408005
000070 5f a4 b7 3e 19 80 75 3e cf c2 61 3e 7a f8 ec 3e
       0.35867593 0.23974647 0.2204697 0.46283323
000080 21 65 0e 3f 9d 32 e8 3e 11 0a b4 3e 6d c2 01 3f
       0.5562306 0.45351115 0.3516393 0.50687295

transformer.embed.norm.beta f4 [36]
000000 88 da 9a 3c 35 7d 25 bd e1 4f a1 3d 0b 3d 20 bd
       0.018903032 -0.04040261 0.07876564 -0.039120715
000010 ef 12 c0 3d c9 7e f3 b9 29 35 89 3c 79 b5 00 bd
       0.09378611 -0.00046443034 0.016748982 -0.031423066
000020 1d 72 75 bd 24 30 e5 bc 02 80 82 3c dc 89 16 bd
       -0.05992328 -0.027977057 0.01593018 -0.036752567
000030 27 7c 4f 3c 26 17 a2 3d 3a c7 bf 3c 40 ae d9 bc
       0.012663878 0.079145715 0.023410428 -0.026572347
000040 6e be 3b 3d 83 1a d8 3d 7f 64 94 3d 80 3e 17 3d
       0.045835905 0.10551932 0.072457306 0.03692484
000050 b1 92 ec 3c 7c 78 33 3d 05 ad ae 3d ba 43 97 3d
       0.028878542 0.043816075 0.085290946 0.07385965
000060 4c e1 6d 3d 49 c4 c5 be 14 5d 71 3d d8 b2 38 3d
       0.058076188 -0.38626316 0.058926657 0.045092434
000070 51 de b1 3c 5b 39 26 3d d1 3c f8 3b 48 5d 2c bd
       0.021712454 0.040582042 0.0075756093 -0.042081147
000080 8d 54 f5 3d d0 06 76 3d 9c 69 b5 3d 3e 60 4d 3c
       0.119790174 0.06006509 0.08858034 0.012535153

transformer.attn.proj_q.weight f4 [36, 36]
000000 b4 81 c1 3e 08 c2 cf 3d e2 b8 92 be 78 37 9c 3e
       0.37794268 0.101444304 -0.2865668 0.3051107
000010 d2 e8 8a 3e 30 15 c5 3e aa 94 6f bd 66 e0 51 3d
       0.27130753 0.38492727 -0.058491386 0.051239394
000020 19 2f d2 be f7 1c 3a bd 6d 7f bf be 9b a0 05 bd
       -0.41051558 -0.04543778 -0.37401906 -0.03262387
000030 d5 d6 55 3e e6 06 86 3e dd ac 02 3f 8b 88 52 be
       0.20882733 0.26177138 0.5104502 -0.205599
000040 e0 96 79 be de 75 dc bd 95 15 99 3e 04 77 d4 3d
       -0.2437396 -0.10764669 0.29899278 0.10374263
000050 0f d0 96 3e c0 fa 9e be be 22 6f 3d 89 d5 70 be
       0.2945561 -0.31050682 0.058382742 -0.23518957
000060 9c 32 3a 3f b6 99 ee bc bc 38 06 3d bc 65 2b be
       0.72733474 -0.02912603 0.03276895 -0.16738027
000070 93 6a 2e be f6 52 15 bf 7b b9 0b 3f c3 dd d5 3d
       -0.17032842 -0.58329713 0.54579896 0.10442688
000080 b5 39 82 3e ae a4 9b be d4 9b 09 3f d2 0e 04 bf
       0.25434652 -0.30399078 0.537534 -0.51585114
000090 29 f4 af 3e 3d a4 09 be e4 7d 8b be d3 cd 7d be
       0.34365967 -0.13441558 -0.27244484 -0.24785547
0000a0 63 df 3d be ae 3c 00 3d 8c 38 2e 3f 4e 8c 20 bd
       -0.18542247 0.03130787 0.68055034 -0.039196305
0000b0 93 53 45 3e 74 d1 1d 3e 73 3e 34 bf 62 f1 e5 be
       0.19270162 0.15411931 -0.7040779 -0.44910723
0000c0 95 2e 5e be 05 51 f3 bd d9 60 1a be db f7 53 3e
       -0.21697457 -0.118806876 -0.15076007 0.20700018
0000d0 26 6b e7 bd 09 74 34 3e ea 97 17 be 1a cb 8e 3e
       -0.11299734 0.17622389 -0.14804044 0.2788933
0000e0 21 f0 72 be 17 c9 24 be 2a 04 da 3d 5d 18 1b 3e
       -0.23724414 -0.16092335 0.106453255 0.15146013
0000f0 0d 64 3b 3e d7 89 ed bd af 6f d4 be ff e6 85 3d
       0.18299885 -0.115985565 -0.41491458 0.065382
000100 07 96 e8 3e 93 04 3a 3f c0 93 35 3f 7b 8b 65 bd
       0.45426962 0.7266323 0.70928574 -0.056041222
000110 9c e3 8b bd a4 37 5a 3e 1b 3c e9 3d 95 53 9a 3e
       -0.068305224 0.21310288 0.11388417 0.30141893
000120 3d 28 24 3f fa 49 22 be b3 f5 ac 3e e6 2f 9b 3e
       0.641239 -0.15848532 0.33781204 0.3030998
000130 ac 8e a5 3e 1c 3a 42 bd b1 41 9c bd 98 7a 09 bd
       0.32335413 -0.0474187 -0.07629717 -0.03356418
000140 0d 65 17 3f ca 50 76 3e 3c 08 62 be 24 c4 03 bf
       0.59138566 0.24054256 -0.22073454 -0.5147116
000150 fd 80 1e be 21 ea a2 be ba a0 8e 3d 50 93 9b bc
       -0.15478893 -0.3181925 0.0696425 -0.018991143
000160 8d 59 89 be ac d4 97 be 25 63 07 3e c5 34 e1 3e
       -0.26826134 -0.29654443 0.13221414 0.43985572
000170 ee 9f e0 3c 92 ee 6f 3e 51 6a 2b be 07 1d 9f 3e
       0.02742001 0.23430851 -0.16739775 0.31076834
000180 4b 65 36 3f 69 b4 a1 3a a6 57 3e be ac 41 c1 bd
       0.7124831 0.0012337092 -0.18588123 -0.09436354
000190 4e 2f 02 3e 25 52 17 bf 5c 3b 2e be c8 02 18 be
       0.12713358 -0.5910972 -0.17014831 -0.14844811
0001a0 f5 23 e6 3d 67 60 5d 3e 54 ad 03 bf 10 16 22 be
       0.11237327 0.21618806 -0.5143635 -0.15828729
0001b0 d7 10 b7 3e 1f 89 82 3e 48 e6 86 3e 6c 2b 86 be
       0.35755035 0.2549524 0.26347566 -0.26205003
0001c0 fb 49 dc 3e 5d 30 9f 3d 24 48 0b be 43 78 e7 3e
       0.43025193 0.077728964 -0.13601738 0.4520894
0001d0 26 58 9c 3e 91 92 ba bd 2d f6 06 be 3e d8 ca bd
       0.30536002 -0.091099866 -0.13179846 -0.09904526
0001e0 39 66 2e 3d 12 02 eb bd a9 2f 81 3e 6f 72 cc 3d
       0.042577956 -0.11475004 0.25231674 0.09982764
0001f0 76 ee 60 bd 9e 3a 9e 3d b8 16 d5 bd 1d 49 6f 3e
       -0.054914914 0.07726024 -0.10404724 0.23367734
000200 9a 43 ca 3e c4 83 54 3e ea 91 eb bc 26 96 9f be
       0.395047 0.2075339 -0.0287561 -0.31169242
000210 02 79 bb bc ba 08 3e be 90 a5 a9 be 75 53 16 3f
       -0.02288485 -0.18558016 -0.33134127 0.58721095
000220 98 93 b0 bc 06 33 5a be 5f 88 b9 3d 08 68 be bc
       -0.021554753 -0.21308526 0.09059214 -0.023242965
000230 2c 73 7f 3d f2 5d e9 bd c3 b3 cb bd e1 87 46 be
       0.062365696 -0.11394872 -0.09946396 -0.19387771
000240 80 f9 7c 3e 51 6c 02 3e 91 8e 24 3e 67 db 35 bd
       0.24704552 0.12736632 0.1607001 -0.04439869
000250 ea 7d a1 3e e9 3f 89 3d 2c da 32 be 32 d0 9b 3c
       0.31541377 0.06701643 -0.17466038 0.019020174
000260 cd bb 38 3c ea 43 8b be f9 75 65 be 43 dd b2 3d
       0.011275244 -0.27200252 -0.22408284 0.087336086
000270 0a 1a 0c bf 6d f6 aa bc f2 3f 9e 3e 08 9b c5 be
       -0.5472723 -0.020869458 0.3090816 -0.38594842
000280 1d 5e 8f be 87 b1 90 bc 29 58 f7 bd 8f f4 d8 3e
       -0.2800149 -0.017662777 -0.12077362 0.42374083
000290 b1 3e ae 3e ea 27 18 3f c6 b9 d7 3d db 0b 04 3f
       0.34032205 0.59435904 0.1053348 0.5158059
0002a0 3e f3 8c be c3 00 9d bc dd e3 cd 3d 23 77 86 3e
       -0.2752933 -0.019165402 0.10053227 0.2626277
0002b0 fc ae ae be 54 cf b1 be c4 4b 04 3f 5f e9 d9 bd
       -0.34117877 -0.3472849 0.5167811 -0.10640215
0002c0 36 42 0f 3e d4 3b ff 3d e3 85 3e 3e 48 ae 76 3e
       0.13990101 0.12462583 0.18605761 0.2408992
0002d0 1b cd d1 bd f6 6c fb 3c aa 95 25 3c ed 24 7c 3e
       -0.10244199 0.030691605 0.0101064835 0.24623461
0002e0 a6 89 16 3e 49 94 06 be 2c 60 09 3f 80 69 b0 3e
       0.14700946 -0.13142504 0.5366237 0.3445549
0002f0 5a 07 61 3d cf da 3d 3e c1 dd 05 3c 60 30 21 3f
       0.05493865 0.185405 0.008170546 0.6296444
000300 10 fd e1 be 5e 7c f1 bd 7b 0d e0 3d 3f 6d ff 3e
       -0.44138384 -0.11791299 0.10940071 0.49888036
000310 d5 d1 b3 be 55 02 eb be 85 9e 23 3e 6b b0 67 3e
       -0.35121027 -0.45900217 0.15978439 0.22625892
000320 87 ae 27 3e 9e 8e 83 3d eb 28 2e be 55 31 5a 3d
       0.1637517 0.064236864 -0.17007796 0.053269703
000330 9d 61 cd bc 44 dd 89 bd 8d 4f a8 be c1 e4 cc 3a
       -0.02507096 -0.06731656 -0.32873192 0.0015632139
000340 c7 5b ac bd 59 d4 46 be 7c 90 3a 3d 01 55 47 3d
       -0.08415943 -0.19416942 0.045547947 0.04866505
000350 36 d7 07 3f a8 65 33 bf 44 fc b5 bd ba 05 4e 3f
       0.5306276 -0.7007699 -0.088860065 0.8047749
000360 f8 a8 c1 3d 82 09 a5 3e f8 74 a7 3e b2 a0 47 be
       0.09456056 0.32233816 0.32706428 -0.19494894
000370 47 df c2 3e 0c 4b cb 3c 32 fa e5 3d f8 d7 ac 3e
       0.38060972 0.024816059 0.112293616 0.3375852
000380 1f eb 8c 3e e5 2d 84 bd b9 a6 c5 be f0 2a 06 3e
       0.27523133 -0.06454066 -0.38603762 0.13102317
000390 bc 36 bf bd be 3c f4 bc 76 a8 79 be 8e cd bb 3e
       -0.09336612 -0.02981412 -0.24380669 0.36680263
0003a0 32 b7 51 be 5c 0f e8 bb 8a d9 93 3d bb 0f 29 3e
       -0.2048004 -0.007081909 0.07219227 0.16509907
0003b0 a2 a1 fe 3e c5 5b 11 3e 5c f5 eb 3c ea 29 0d bf
       0.4973269 0.14195164 0.02880352 -0.5514208
0003c0 20 a4 34 bf 31 83 91 3d a0 92 ba be 9a 3d 60 3f
       -0.70562935 0.07105101 -0.3643999 0.87593997
0003d0 58 13 af 3e 2f f9 97 3d 63 7b 36 be 54 81 56 be
       0.34194446 0.07420575 -0.17820506 -0.20947772
0003e0 a0 7c 72 3d 2e 4d b2 3d 5b 18 15 bf 6c 7e e3 bd
       0.059200883 0.08706127 -0.5824029 -0.111080974
0003f0 8c 5d 24 3e 91 01 25 bf a9 45 97 3e fb 13 9c be
       0.1605131 -0.64455515 0.29545334 -0.30483994

transformer.attn.proj_q.bias f4 [36]
000000 d8 7e 61 3e 87 b1 34 3f 83 67 18 3d 8e c1 4b 3c
       0.22021043 0.70583385 0.03720809 0.012436284
000010 9c 69 a0 3e e8 1d 09 3f 8d a3 54 3e 4d cd 4f 3c
       0.31330574 0.5356126 0.20765515 0.012683225
000020 37 6e a4 3e 3c 0d 9f 3e ef ae 44 bf 14 4c 74 3e
       0.32115337 0.31064785 -0.7682943 0.23857147
000030 aa dc 51 3f b3 88 b5 bd 6f 51 9b 3e 31 31 34 3f
       0.8197733 -0.08863964 0.30335566 0.7038756
000040 41 59 dd be 7d 58 6a bd ec c0 22 3d d6 36 e6 3c
       -0.43232158 -0.057213295 0.039734766 0.02810232
000050 8d 20 c2 be 36 f5 27 be 44 7f 88 3e f9 34 82 3f
       -0.3791546 -0.16402134 0.26659596 1.0172416
000060 44 61 e8 bc 8b cb a9 3d 5a cf af be 12 f1 04 be
       -0.028366692 0.08290776 -0.34337884 -0.12982586
000070 ea d7 96 3e c1 6b 93 3e 54 44 85 3e ec c3 52 3f
       0.29461604 0.28793147 0.26028693 0.82330203
000080 ed 9e a1 be 3f e6 65 bf 4d 9b 47 bf 93 c6 85 be
       -0.31566563 -0.8980445 -0.77971345 -0.26128063

transformer.attn.proj_k.weight f4 [36, 36]
000000 ba 7b 0d 3f 7e a7 b1 be 68 71 24 3e c3 39 20 3e
       0.55266917 -0.346981 0.16058886 0.15647034
000010 cc b1 a5 3d c2 30 5f 3c 09 73 30 be 49 71 b9 3e
       0.08090553 0.013622465 -0.17231382 0.36219242
000020 57 69 ad 3d fb 40 4e bd 71 44 5f be 0d d3 17 bc
       0.084673576 -0.05035494 -0.21803452 -0.009266627
000030 fc 8b bd 3e 17 fa f9 3d fd ca bf bd bc c2 97 be
       0.37020862 0.12205904 -0.09364889 -0.29640758
000040 64 12 20 be 9a 51 64 3d cb d1 38 3e 76 a8 03 3e
       -0.15632015 0.055741884 0.1804878 0.12857231
000050 dd 51 f8 3d e2 4b 12 3e 08 4f b1 3e 22 22 4c 3e
       0.12124989 0.1428676 0.3463061 0.19934896
000060 dd 71 f1 3e fe 01 03 bf 4e af 38 be cc 89 1c 3f
       0.47157183 -0.51174915 -0.18035623 0.6114776
000070 68 8a bd bd 35 bf 7d bf de ef 84 be 63 33 bd be
       -0.092549145 -0.99119884 -0.25964254 -0.36953267
000080 84 3a 68 be cc b6 4b be 70 f3 e4 bd bf e2 95 be
       -0.22678572 -0.1989395 -0.111792445 -0.29274556
000090 6a f3 52 be 2f 71 9b 3e a9 79 bb 3e 08 82 b4 3e
       -0.20600668 0.3035979 0.36616257 0.35255456
0000a0 a7 26 93 3d 16 c7 e2 bd f6 ad ed be 49 09 0d 3d
       0.07185107 -0.11073129 -0.46421784 0.034432683
0000b0 99 6f 2d bf 73 42 6b be 2b f9 20 3f e6 11 17 3f
       -0.6774841 -0.22974567 0.628802 0.59011686
0000c0 1a 14 c8 3e be 22 ca 3d f3 29 f3 3d c3 0a 5c be
       0.39077836 0.09869908 0.118732356 -0.2148848
0000d0 44 e1 66 3d 78 40 d5 bd 65 01 21 3e 09 65 b2 3d
       0.056367174 -0.10412687 0.15723188 0.08710677
0000e0 41 32 71 bd 17 0c 94 3e 8e 2e 29 be 53 82 96 be
       -0.058885816 0.28915474 -0.16521665 -0.29396304
0000f0 2c de 5d be 2d 52 a2 3e 69 92 3c 3e 37 da bb be
       -0.21666783 0.3170332 0.18415226 -0.36689922
000100 cb 07 56 be cd f0 9f bf b3 71 67 bf 08 37 c2 3d
       -0.2090141 -1.2495362 -0.90407866 0.09483153
000110 da 00 95 3c 28 de 8a 3d 34 c0 ee 3d 8f 22 5d be
       0.018188883 0.06780654 0.116577536 -0.21595214
000120 c8 5a 28 3e ba 02 86 3e fb 27 82 bd 39 d6 b5 3d
       0.1644088 0.26173955 -0.06355282 0.0887875
000130 20 9f 1b 3e 3c 38 83 3e ef 33 50 be 80 da 05 be
       0.1519742 0.2562884 -0.20332311 -0.13071632
000140 b3 7e d2 be e2 e9 80 be be 7a 2f be 4f 52 b3 bd
       -0.4111229 -0.25178438 -0.17136666 -0.087559335
000150 c0 ec 87 bd f9 7d b9 be 72 e0 c1 3e ca 84 09 bf
       -0.06636953 -0.36228922 0.3786655 -0.53718245
000160 5c fe 24 be 8b 09 e3 3d 39 91 62 3c 68 de c5 3e
       -0.16112655 0.110858046 0.013828569 0.38646245
000170 29 f0 8e 3e 09 9a f9 3d 27 e3 04 bf cb 7d 9b 3e
       0.27917603 0.12187583 -0.51909107 0.3036941
000180 a2 8f 96 bd 56 a7 5a bd 46 b7 e1 3d 1c 50 ed be
       -0.073516145 -0.05338224 0.11021285 -0.4635018
000190 c1 4a 63 be 93 c6 b3 be dd 53 1e 3f 77 c5 6d 3d
       -0.22196485 -0.35112438 0.61846715 0.058049645
0001a0 ca 90 e5 3e 54 bf 0d bd 0b 01 ff 3e bb 15 9f 3d
       0.44837028 -0.034606293 0.49805483 0.07767817
0001b0 4b 99 56 3e 8b 13 1f be 0b 5f d9 bd b4 f7 ef bd
       0.20956914 -0.15534799 -0.10613831 -0.117171675
0001c0 1c b8 d8 bd 2d 88 9e bd a4 a0 27 be e4 1a 8a bf
       -0.10581991 -0.07740817 -0.16369873 -1.0789456
0001d0 62 17 28 bd e5 a3 fa bd 1a fd e7 be 72 6c bd 3c
       -0.041037925 -0.12238292 -0.4531029 0.023123
0001e0 42 59 d1 bb 79 9d 99 3e 63 81 04 3e 1b 9e 27 bc
       -0.006388814 0.30002955 0.12939982 -0.010230566
0001f0 4a 65 1f bd 27 71 8b bd 15 be 5c be e0 d1 94 bd
       -0.038914956 -0.068086915 -0.21556886 -0.07266593
000200 15 0c 07 be 67 aa 94 3d 6e 33 98 bb c7 4f 53 3e
       -0.13188203 0.07259064 -0.004644803 0.20635901
000210 1c 4a 22 3e 3b 0b d2 3f 11 ee 8f 3c 91 fa 13 bf
       0.15848583 1.6409677 0.017569574 -0.5780421
000220 a1 58 8b bd 4b b6 8c bd 11 71 08 3e 23 af 52 bd
       -0.06804014 -0.06870707 0.13324381 -0.051436555
000230 36 c4 7c 3d 31 86 f9 3d f0 a0 9b 3e 43 d2 10 bd
       0.06171056 0.12183798 0.30396223 -0.03535677
000240 9d e7 0f 3d b4 07 e7 3c f2 d7 70 bd 68 d5 f4 3e
       0.035132993 0.028201915 -0.05879969 0.47819066
000250 bc c0 fe 3d 7b 79 9f 3d 3c 07 15 be 11 ca 97 3e
       0.12439105 0.077868424 -0.14553541 0.29646352
000260 d8 29 2b 3f ab 45 07 3c db d6 86 3d 12 ee dd be
       0.66860723 0.008256356 0.06583949 -0.43345696
000270 04 24 11 be 12 35 73 be 4d 0d 81 3e b1 11 6e 3c
       -0.14173895 -0.23750713 0.2520546 0.014530585
000280 72 cb a4 be 78 51 0e be 49 78 4d 3e 47 18 fb 3e
       -0.32186466 -0.13898265 0.20065416 0.4904196
000290 32 74 7c 3e 55 be 82 ba 40 c8 5e 3d 7f 2e 14 bd
       0.246537 -0.0009974936 0.054390192 -0.036177155
0002a0 f5 1f fd 3e b0 e9 dd be c0 11 d0 3d 34 36 12 3e
       0.49438444 -0.43342352 0.101596355 0.1427849
0002b0 c5 d6 cb bd 82 5d e6 be d6 f4 d5 3e 8a 94 99 3d
       -0.099530734 -0.44993216 0.41788357 0.07499035
0002c0 bb 17 b3 bc 42 0f 4e 3e 4c f4 ec be e1 e9 d6 be
       -0.021861902 0.20123008 -0.46280134 -0.4197531
0002d0 13 87 0b 3e d8 58 32 3e 39 93 57 3e 78 b0 b4 be
       0.13625745 0.17416704 0.21052255 -0.35290885
0002e0 1b b4 0c 3d 93 73 a5 3d 9b 86 95 be 73 56 f8 be
       0.03435145 0.08078685 -0.29204258 -0.48503456
0002f0 07 4e c4 3d 06 d8 cb bd cf de 75 be f1 7a 86 be
       0.09585195 -0.099533126 -0.24010776 -0.26265672
000300 4e 15 91 3e 48 1d 81 3d f1 13 44 be de 10 17 bd
       0.28336567 0.06304413 -0.19148232 -0.03688132
000310 3b 77 82 3e e9 dd 05 3f c1 80 64 bd bf ca 81 be
       0.2548159 0.52291733 -0.05578685 -0.25349995
000320 4f 77 a9 bd dc de c4 bc d0 18 7a 3e 50 af f6 bc
       -0.082747094 -0.024032049 0.24423528 -0.030112892
000330 cd 96 2b bd 03 e4 13 3e 2f de f0 3d de ea bc 3d
       -0.04189186 0.14442448 0.11761128 0.09224485
000340 ac 3b af 3e 75 21 b1 3e e4 ee e4 bc 05 18 dd bd
       0.34225214 0.34595838 -0.027945943 -0.10795597
000350 f4 f1 2f be ee bc 35 3f 17 98 63 3d f9 8e 45 be
       -0.17182142 0.7099141 0.055564966 -0.19292821
000360 af 54 11 be 7b 66 16 bd f5 97 a3 be 51 cc 36 3e
       -0.1419246 -0.036718827 -0.31951872 0.17851378
000370 86 3d 4c be 5e da 9e 3d 63 93 93 3d 72 46 a9 3e
       -0.19945344 0.07756494 0.07205846 0.33061558
000380 8c 08 b1 be 1f b5 9f 3e af 51 2d 3f 32 66 a2 3d
       -0.34576833 0.31192872 0.67702764 0.079296485
000390 6f 49 1a 3d a3 9a 5d bd 1d 83 0c 3e 34 42 fc be
       0.037667688 -0.05410255 0.13721891 -0.4926926
0003a0 68 ee 23 3e 5c 0d 80 3d 69 79 34 bd df 45 73 be
       0.16008914 0.06252548 -0.0440611 -0.23757122
0003b0 28 11 1d bf 22 95 55 be 86 e7 14 be 22 70 b3 3e
       -0.61354303 -0.20857671 -0.14541444 0.35046488
0003c0 90 aa 8f 3e 6b 81 97 bf ff c1 6a 3e 84 b0 4c be
       0.28059816 -1.183637 0.22925566 -0.1998921
0003d0 b1 36 93 be 52 ac 92 3e 22 33 17 3f 38 a7 a5 3d
       -0.28752664 0.28647095 0.590624 0.08088535
0003e0 4a a1 80 bd 71 e0 ce be 7d 1f d4 3e e1 ec 7c 3e
       -0.062807634 -0.4040561 0.41430274 0.24699737
0003f0 04 e1 1a be 77 cf 13 bd f0 32 1c be d1 99 2b bd
       -0.15124899 -0.036086526 -0.15253806 -0.041894738

transformer.attn.proj_k.bias f4 [36]
000000 14 65 bc 3d d4 51 d5 3d 97 af e7 bc b1 2e 9b 3c
       0.091989666 0.10415998 -0.02828197 0.018943163
000010 16 38 b3 3a c3 69 e9 3d 32 93 9a 3d 3a be ea 3c
       0.0013673331 0.113971256 0.075476065 0.02865516
000020 a6 b1 6f 3d 27 19 cd bd b5 0d 87 3e 80 09 84 3d
       0.058519028 -0.10014563 0.26377645 0.064471245
000030 1a a7 9b be 9c 8f 9b bd f6 cd 36 be 77 94 46 be
       -0.30400926 -0.07595751 -0.17852005 -0.19392572
000040 e9 3d 40 bb ec c7 6e 3a 09 99 c2 ba ee d9 9d bc
       -0.0029333776 0.000910877 -0.0014846633 -0.019268956
000050 19 49 15 3d 4a aa fa 3d bd 24 49 3c 66 6a 0b be
       0.036446664 0.12239511 0.0122768255 -0.13614807
000060 fc ef 44 3e 27 ea c7 3d 93 74 5b 3d 60 76 13 bc
       0.19232172 0.09761458 0.05357797 -0.009000391
000070 91 a6 6c bd 96 72 97 bc 5f b5 f2 bc e9 05 87 3d
       -0.057776038 -0.018487256 -0.0296275 0.06592924
000080 be 19 62 bc 78 d6 73 bd 5e 8f 45 3e ba c9 bc bc
       -0.013800083 -0.059530705 0.19292971 -0.02304541

transformer.attn.proj_v.weight f4 [36, 36]
000000 0a 3d 81 3f 33 3f 7e 3f 02 10 81 bd 12 f1 fa bd
       1.0096753 0.99315184 -0.063018814 -0.12253012
000010 62 cf 68 bf ec a7 ce 3e 28 1c 9a bf ce ca 70 3e
       -0.9094144 0.4036249 -1.2039843 0.23514864
000020 19 b7 43 3e 58 4b 3c bf 9f 7c 7c bd 45 f1 d0 bd
       0.19112815 -0.73552465 -0.061642285 -0.102022685
000030 31 d0 87 be a3 99 70 bf fb f0 c1 bf f4 61 01 3f
       -0.26526025 -0.9398443 -1.5151666 0.5054009
000040 7b 1e 22 bf 58 07 c3 3e a2 da 8c 3e cf 66 18 3f
       -0.6332776 0.3809154 0.27510554 0.59531873
000050 ed 78 a5 be 28 b0 68 be 65 32 4d 3f 63 f1 79 3d
       -0.32318822 -0.22723448 0.8015502 0.06102122
000060 48 8b 49 3f fc 0a 83 3d ab 9a fd 3e 95 2a 1b 3f
       0.7872815 0.063985795 0.49532065 0.6061185
000070 ea 14 58 3d 11 f6 02 3f ec 77 d7 3d c5 1c 6e 3f
       0.05275432 0.5115672 0.1052092 0.9301265
000080 a0 73 21 3f 48 1a 92 bf c4 7c a2 3e 93 cd 00 3f
       0.63067055 -1.141427 0.31735814 0.5031368
000090 d6 0f 1a bf 77 ef a2 3e ff 4c 90 be 71 b3 04 bf
       -0.60180414 0.31823322 -0.28183743 -0.51836306
0000a0 e7 05 9e 3f 87 f0 eb be 12 45 51 3e 87 ff e1 3e
       1.2345551 -0.46081945 0.20436504 0.44140264
0000b0 1f 1a 98 3d 1d 31 fb 3e 6c 2b 69 3e 2f 0f 33 be
       0.07426857 0.49060908 0.2277047 -0.17486261
0000c0 16 fe b7 3d bc 18 0a bf 09 ad 84 be 4c 89 62 bf
       0.0898401 -0.5394399 -0.25913265 -0.8849075
0000d0 7e 19 15 3f 85 46 d6 3e 6c 14 6b bc de de 34 3e
       0.58242023 0.41850677 -0.014348131 0.17663142
0000e0 2b 54 6a be 6d 73 19 be 54 2a 27 be ad cc 74 3e
       -0.2288367 -0.14985438 -0.1632474 0.23906203
0000f0 cc 95 5d bc 8d 51 6f bf de 98 7e be a4 48 5c 3c
       -0.013524484 -0.9348381 -0.24863002 0.013445053
000100 65 b4 85 3e 09 be 72 3f c5 44 b9 3d 22 bc 59 bd
       0.26114193 0.9482122 0.0904632 -0.053157933
000110 1c 00 32 bf 8f f7 2c 3f c9 f5 84 3f f0 b4 50 bf
       -0.69531417 0.67565244 1.0387508 -0.8152609
000120 db 5f 08 3f d4 c0 87 be e2 63 49 3f b3 b8 f3 bd
       0.53271264 -0.26514304 0.78668034 -0.11900463
000130 8c 4a 6a bf fd a7 52 3f d2 dc a9 be 3a 19 0d 3f
       -0.9152 0.8228758 -0.33176285 0.5511662
000140 09 94 a4 3e 56 a5 88 3d 9a fc 67 3e 1a ef 16 bf
       0.32144192 0.0667216 0.22654954 -0.5895859
000150 40 d6 9b 3e 3f b5 a1 bc fa 88 0f 3e cb 3f 45 3f
       0.30436897 -0.019739745 0.14017096 0.77050465
000160 29 55 b3 be 31 5a 30 3d 65 c6 08 3c 38 cb 44 be
       -0.3502591 0.043054763 0.008348082 -0.19218147
000170 49 d5 f0 be ec 87 40 be 9a 2f 4d 3e 46 64 29 bf
       -0.47037724 -0.1880185 0.2003769 -0.6616863
000180 f4 39 74 be 9d d0 04 c0 ee e3 ae 3d cc 12 09 3f
       -0.23850232 -2.0752327 0.08539568 0.53544307
000190 90 1a 21 3e 99 43 01 be f7 fd 05 bf fc f6 30 3f
       0.15732789 -0.12623443 -0.52340645 0.6912687
0001a0 b0 30 a0 bd 6e 5d 42 bf 1d a9 2b bf e9 a1 41 3f
       -0.078217864 -0.7592381 -0.6705492 0.7563768
0001b0 bc 80 a0 be fc 32 eb be 0a 4e 09 be 08 1c 5f be
       -0.31348217 -0.45937335 -0.13408676 -0.21788037
0001c0 3d f1 8a 3f 41 bf 10 3e ff 20 3a 3f fe ff 92 3f
       1.085487 0.14135458 0.727066 1.1484373
0001d0 a9 b6 35 3f 0f f0 aa 3e eb ac d1 bc 0c 82 57 3e
       0.7098184 0.33386275 -0.025595149 0.21045703
0001e0 d4 73 85 be c3 86 11 bf f3 a9 8d 3e e3 e8 1e 3f
       -0.26064932 -0.56846255 0.27668723 0.62074107
0001f0 53 01 ec 3e 12 4f 11 be 27 4f 5e 3e 55 29 95 bd
       0.4609476 -0.14190319 0.21709882 -0.07283274
000200 13 3c cc 3e c4 31 8d 3e 4a c7 0d be 8a 07 90 be
       0.39889583 0.2757703 -0.13845554 -0.28130752
000210 64 8d 66 3d 48 f2 c1 bf 92 db 35 bf 0e e4 60 bd
       0.056287184 -1.5152063 -0.7103816 -0.05490499
000220 3a 6d 88 be 9b 80 c3 3e 05 0a 20 3e 71 4c f4 bd
       -0.26645833 0.38184056 0.15628822 -0.119286425
000230 b8 df de bd 20 27 09 bf b8 81 6f 3e ed ee 43 3f
       -0.10882515 -0.53575325 0.23389328 0.76536447
000240 83 10 31 be 06 39 e3 bf 2c 63 c6 bd 01 f5 2e be
       -0.17291455 -1.7751777 -0.09686884 -0.17085649
000250 69 31 7d 3f ca 53 9c 3f ed 4e 7b bd d1 24 7b bf
       0.9890352 1.221307 -0.061354566 -0.9810305
000260 a2 a4 49 3d a5 a6 d1 3e df 7f 1b be 92 0e a3 3f
       0.04922927 0.40947452 -0.15185498 1.2738822
000270 54 e2 55 3f 61 80 00 bf ce ab 82 3e 5f d2 2f bd
       0.83548474 -0.5019589 0.25521702 -0.042925235
000280 b9 84 97 bf f1 7a 80 3f 71 53 94 bf 78 04 65 3e
       -1.1837379 1.0037519 -1.1587964 0.22364986
000290 01 00 3b bd f8 91 55 3f 47 d4 62 be 81 b7 a6 bf
       -0.0456543 0.83425856 -0.2215129 -1.3024751
0002a0 c1 1c 64 3e 57 0a d9 3e e3 6c 81 be 03 0d 31 bf
       0.22276594 0.423907 -0.25278386 -0.6916048
0002b0 f6 b2 f6 be 16 de 8f 3d 74 75 b6 be 13 80 34 3f
       -0.4818341 0.070247814 -0.35636485 0.70507926
0002c0 1c 2d 61 bf bd b9 41 3e ad 83 f6 be 47 26 14 3f
       -0.87959456 0.1891851 -0.48147336 0.57870907
0002d0 a0 aa 50 3c 53 cd 26 3f 41 eb 14 3e 3f 59 95 3e
       0.012735993 0.6515705 0.14542867 0.29169652
0002e0 51 03 62 bf 29 cc b6 bb be 6a ef bd 50 b6 5b 3f
       -0.8828631 -0.005578537 -0.11690281 0.8582506
0002f0 3a 54 1f 3d cc 53 8d 3f 46 4a a1 3e f8 00 9d 3e
       0.038898684 1.1041198 0.3150198 0.30664802
000300 87 74 1c 3f a4 ff f2 be a1 35 41 bf 6a 6e f6 3e
       0.61115307 -0.47460663 -0.75472456 0.48131114
000310 73 6d 54 bf a4 97 5e 3d d5 c7 ce bf 06 fe fd 3e
       -0.82979506 0.054343835 -1.6154734 0.49607867
000320 db c4 47 3f cd c6 42 bf df 27 60 bd e6 72 5b 3d
       0.7803475 -0.76084596 -0.054725524 0.053576373
000330 60 a7 86 3e 2e 9c 91 bf dd 55 4d 3e 67 5c c1 3d
       0.26299572 -1.1375787 0.20052285 0.094414525
000340 c6 a9 89 bf 29 25 b1 bd 62 1e 87 3d 56 d4 38 bf
       -1.0754936 -0.08649666 0.06597592 -0.72199
000350 ca 71 d5 3d ce 18 41 3e 2f a2 90 3d ad 8d 21 bf
       0.10422094 0.18857118 0.07062184 -0.63106805
000360 ec e7 0f bf b3 ee 21 be cd 72 0b bf 24 13 a9 3e
       -0.5621326 -0.15813713 -0.5447205 0.33022416
000370 3a 34 d5 3f fd 0f d2 bf c2 51 ba be 9c e7 89 3e
       1.6656563 -1.6411129 -0.363905 0.26934516
000380 58 27 1a 3f 28 dc 2e 3f a3 ad 4e 3e e1 02 70 be
       0.60216284 0.6830468 0.20183425 -0.23438598
000390 ac d2 56 3d 4c 99 a5 be 1b c1 82 be e2 f7 c4 bd
       0.052447006 -0.3234352 -0.25537953 -0.096175924
0003a0 99 da be 3e 32 69 fa be 71 d0 38 3d cd fb f2 3d
       0.37276152 -0.48908383 0.04512066 0.118644334
0003b0 19 a4 4a bf 20 6e e2 be 16 eb 85 3f 2a 8b 0e 3f
       -0.79156643 -0.44224644 1.0462368 0.556811
0003c0 4e 8b 13 bf 75 06 34 be 38 5b 10 bf 26 d8 15 bf
       -0.5763444 -0.17580588 -0.5638919 -0.5853294
0003d0 20 5f 8a be df 8d 1f 3f fd 3c c3 3e ac 51 49 bd
       -0.270257 0.62325853 0.38132468 -0.049150154
0003e0 51 c5 91 3e 3d bc b0 3d 23 9d 97 3f b1 68 27 bf
       0.28470853 0.086296536 1.1844829 -0.6539412
0003f0 61 82 ad 3e 13 e9 0c bf ad 88 d3 bf 62 45 13 bf
       0.33888534 -0.55043143 -1.6526085 -0.57527745

transformer.attn.proj_v.bias f4 [36]
000000 67 31 4a 3e 1b ed b7 3d 68 8f 92 bd bc d6 3e 3f
       0.19745408 0.08980771 -0.07156259 0.7454641
000010 2a e6 29 be a7 58 c0 3d 82 8f 7d be f1 9e 50 be
       -0.16591707 0.09391909 -0.24761775 -0.20373131
000020 38 58 44 be 3f f3 05 3d c1 e8 6a 3e 83 10 be 3e
       -0.19174278 0.03270268 0.22940351 0.37121972
000030 e7 89 02 3f 00 eb e0 3d 13 2b e3 3d 57 3f 43 bd
       0.5099167 0.10982323 0.110922 -0.047667827
000040 81 43 30 be 34 0c aa 3e 0b a4 7a bf 2c 49 50 bf
       -0.1721325 0.33212435 -0.9790656 -0.8136165
000050 4c 30 65 3f 76 86 1b bf a7 12 9e be 56 20 1f 3d
       0.8952682 -0.60752046 -0.30873606 0.038849197
000060 c6 1b d8 3e c4 b1 b0 be b7 61 d9 be ab 0e 28 3e
       0.4220869 -0.34510624 -0.42457363 0.16411845
000070 a3 74 15 3f ea 03 8b be 48 39 b2 3e b9 36 8a 3e
       0.583811 -0.27151424 0.34809327 0.26994875
000080 6a 05 05 bf 0c 03 ab 3e 07 08 32 3e 4b 97 a6 be
       -0.51961386 0.33400762 0.17385875 -0.32537302

transformer.proj.weight f4 [36, 36]
000000 7e e6 fc 3f 4d f7 26 bf ab 32 d4 3e 30 61 25 3d
       1.9757841 -0.652211 0.41444907 0.04037589
000010 d3 ba 0f be c9 98 8b 3c 45 4e 8f 3e 3d 44 48 3f
       -0.14036112 0.017040627 0.27989402 0.78229123
000020 82 04 03 3d 1d de b4 bd 9a 1e 96 3d bf b3 62 be
       0.03198672 -0.08831427 0.073300555 -0.2213888
000030 97 e6 d0 3d 21 f9 e8 3d a7 3e 31 3d 08 a9 9c bd
       0.102002315 0.113756426 0.04327264 -0.07649428
000040 6d 79 1b 3e 7c ad 64 3e a7 df 21 be 3e 98 0a bf
       0.15183039 0.22331804 -0.15807973 -0.54138553
000050 7a 0e 86 3e 1d 5e a0 3f 27 f2 d3 3d 7d e3 0d be
       0.2618292 1.2528721 0.10348921 -0.13856311
000060 81 51 e9 3e 1c 93 92 3f bf 6a 86 be fb d6 a6 3d
       0.45569995 1.1451144 -0.26253316 0.08146473
000070 57 9f e3 bc 9d dd 8c 3d 6d ce 46 3e 0d bc 8a 3c
       -0.02778594 0.06878207 0.19414683 0.016935373
000080 31 b7 fd 3d 81 d4 cb bc d8 e3 6f 3e 93 aa 0d 3d
       0.123884566 -0.024881603 0.23426759 0.0345865
000090 c7 1a 5d be 9b 6a 36 be 64 7d a2 be fd 73 4c 3d
       -0.21592246 -0.17814104 -0.3173629 0.049915303
0000a0 c2 d7 4e be 76 ca 4d bc 19 36 a3 bd f2 9d b3 3e
       -0.20199493 -0.0125604775 -0.07969303 0.3508144
0000b0 97 5a a7 be 50 de 03 3f a4 13 46 be 43 29 e9 be
       -0.32686302 0.51511097 -0.1934343 -0.45539293
0000c0 41 ce 8c be fd 19 72 3e 20 f9 b0 3e ea 3e 31 3e
       -0.2750111 0.23642726 0.34565067 0.17309156
0000d0 37 2e bd bd 78 2c 1c be 98 e0 02 be 82 49 0b 3e
       -0.092373304 -0.15251338 -0.12780988 0.1360226
0000e0 b7 02 83 be 56 18 8a bf c7 a3 0d bf d6 c6 4e be
       -0.2558801 -1.0788677 -0.5532803 -0.20193037
0000f0 55 e0 5c be b2 b6 f1 bd 63 7a a9 bf cd 8c f6 3d
       -0.21569951 -0.118024245 -1.3240474 0.12038574
000100 94 01 69 3e 8b f3 38 3e b0 08 9e 3e f4 1f 3a 3e
       0.22754508 0.18061654 0.30866003 0.18176252
000110 33 d7 20 3e 88 9a 38 bc 12 07 93 3e ff 37 15 3f
       0.15707092 -0.011267312 0.28716332 0.5828857
000120 76 f4 6c be 3b 4b 27 bf 1d 07 d1 3f b3 a3 9b 3e
       -0.2314013 -0.6534917 1.6330296 0.3039833
000130 39 d5 6e be 6c c2 ba 3b 1f 8e 23 bf 60 25 1e bf
       -0.23323525 0.0056994464 -0.63888735 -0.6177578
000140 d4 42 92 bd 11 9f 49 3e 4c 9c 09 3e 4c 08 80 be
       -0.07141653 0.19689585 0.13438529 -0.2500633
000150 d6 5d 24 bf e3 57 6a be af e6 f0 be 4c ef 04 3f
       -0.6420568 -0.22885089 -0.47050998 0.5192764
000160 a7 fb ab 3d 33 a0 7b be 2c f1 32 3e 41 3e be 3d
       0.08397608 -0.2457283 0.17474812 0.09289218
000170 fb cf ae 3e 75 00 f0 3e b2 66 e9 be 9e 35 0a 3f
       0.34143052 0.4687535 -0.45586163 0.53988063
000180 97 12 07 bf a1 d1 87 3e 16 e8 14 3e 44 97 98 3e
       -0.5276274 0.26527122 0.14541659 0.29802907
000190 9b d0 da bd 37 8c 53 be da 41 f8 be 7f 0f 20 bd
       -0.106843196 -0.20658956 -0.4848774 -0.03907728
0001a0 39 08 b5 3e 8d fc 13 be 3a 27 ea be 1b 5e 90 3e
       0.35357836 -0.14451809 -0.45733052 0.28196797
0001b0 2b c8 85 be 1b 6f fd 3e 2f bb 22 3f fd 36 99 3f
       -0.2612928 0.4949883 0.6356687 1.1969906
0001c0 5f 53 2a 3f a2 ab dd 3d 72 42 92 3e fd 5e a7 3e
       0.66533464 0.10823752 0.2856632 0.32689658
0001d0 00 2a 91 3e 12 7c a5 3e a5 d7 8d 3d 40 50 05 3f
       0.28352356 0.3232122 0.069258966 0.52075577
0001e0 b4 ab 0c be 84 78 67 3e fa 15 3b 3d 9a 96 3a 3e
       -0.13737375 0.22604567 0.045675255 0.18221512
0001f0 f5 b3 2b be 4d cc f0 3d 82 00 a0 3d 82 46 90 be
       -0.16767867 0.11757717 0.07812597 -0.28178793
000200 62 54 33 3f df 22 1a bf aa 42 8a 3f bf e1 9b bd
       0.7005063 -0.6020946 1.0801594 -0.07611417
000210 f3 13 05 bf f6 33 b3 3e a8 79 f9 3e c5 cd 28 3e
       -0.51983565 0.3500058 0.4872563 0.16484745
000220 0b ef 31 3e 25 79 26 bd 89 2c 83 3e 84 44 52 bd
       0.17376344 -0.040642876 0.25619915 -0.051334873
000230 ce 02 a0 3e 06 95 f7 3e 44 d6 ec 3e f3 02 80 be
       0.3125214 0.48355883 0.46257222 -0.2500225
000240 18 66 d0 bd 15 9e 9e bd f6 03 03 be fb 0a 93 be
       -0.10175723 -0.077449955 -0.1279448 -0.28719315
000250 0c 17 19 40 42 5b 11 be d1 c2 a6 be 60 37 d9 bd
       2.3920317 -0.14194968 -0.32570508 -0.10606265
000260 bf b7 a7 3e b2 8a 0e be 36 bf 2e 3e d3 90 62 be
       0.32757375 -0.13920096 0.17065129 -0.22125559
000270 08 f7 eb 3d 53 58 2f be 05 ed 43 3e 47 1c 4a be
       0.11521727 -0.17123537 0.19133385 -0.1973735
000280 fb d6 e1 3b 6e 22 86 3e 32 af 0f bf c5 fd 9e 3e
       0.0068920827 0.26198143 -0.561267 0.31052986
000290 8c 72 10 bf 18 ca f1 be e7 ec a2 bd 15 82 94 3f
       -0.56424785 -0.47224498 -0.07955342 1.1602198
0002a0 b1 22 ac be 94 ab a4 bd 60 0d 4b 3f 47 57 26 3e
       -0.33620217 -0.080405384 0.79317284 0.16244231
0002b0 fa 21 0c be d9 ef af 3d ab 35 ed 3d ab 6f c2 3c
       -0.13684836 0.08590669 0.11582502 0.023734888
0002c0 cb c6 0e be 6c 2b a0 be ed 31 d7 bd d4 4a 95 3e
       -0.13943021 -0.31283128 -0.105075695 0.29158652
0002d0 f1 0b cd 3e df 48 52 3e 04 0c 12 bf 8c 6f 19 3e
       0.40048173 0.2053561 -0.57049584 0.14983958
0002e0 72 3d 0d be cf c4 c9 3f ee e4 82 be 16 ce c7 be
       -0.13792971 1.5763186 -0.25565284 -0.3902442
0002f0 e6 f4 65 be 57 01 63 be 00 8e bb 3e 06 a7 05 be
       -0.22456703 -0.2216848 0.36631775 -0.13051996
000300 a0 37 9d be 19 d8 a1 3d 83 de 3a bf 5b 13 1f be
       -0.307065 0.079025455 -0.72995776 -0.15534727
000310 c1 6e d7 bd 72 71 77 be b3 99 c9 be 74 ac 8d be
       -0.105191715 -0.2416437 -0.39375076 -0.27670634
000320 32 20 fb 3e bf 56 7d 3d 36 35 33 3e 28 6a 92 3e
       0.49048 0.061850306 0.17500767 0.28596616
000330 ac 41 df be 67 d1 82 3e 77 ea 52 bf 4a 26 d2 3e
       -0.4360479 0.25550386 -0.82389015 0.41044837
000340 84 ce b9 bd e0 8e 78 3e db dc 4e 3d 3b 87 99 be
       -0.09072593 0.24273252 0.050503593 -0.29985985
000350 84 48 4d bd 27 11 d1 3d d9 62 68 be a4 db 91 be
       -0.050117984 0.1020835 -0.22693957 -0.28487885
000360 d9 71 c5 bd 8c 13 8c 3f b3 23 14 bf c8 c8 58 3f
       -0.09640855 1.0943465 -0.5786697 0.8468137
000370 9e 81 e9 3d f4 8b b2 be f5 3f a0 3f 58 82 cb bd
       0.11401676 -0.348724 1.2519518 -0.099369705
000380 20 7d 08 3d 53 09 a6 be 7d 1b 67 3d 31 ef 15 bf
       0.033322453 -0.3242899 0.0564227 -0.585681
000390 ba 14 ea 3d 06 6b 67 be 5f e9 f9 be 71 eb dd 3d
       0.114297345 -0.2259942 -0.4881086 0.108359225
0003a0 1e a3 ac 3e e3 f6 e9 3d 7b e5 1b 3f 1c 09 0c be
       0.337182 0.11424043 0.60897034 -0.1367535
0003b0 e2 c8 0d be e9 1d 73 bf 76 87 62 3f 18 23 23 bf
       -0.13846162 -0.94967514 0.88487947 -0.63725424
0003c0 2a 1c a7 bd 4c f1 c9 be ef 6a e1 3d 32 0e 27 3e
       -0.08159669 -0.39441907 0.11006724 0.16314009
0003d0 6b 0f c1 bd ca a7 bb 3c ec 4a 65 bd bc 96 86 3e
       -0.09426769 0.022907156 -0.055979654 0.26286876
0003e0 61 d6 2f be dd 9b 22 bf 49 fa 0a bf 6a 4c da 3d
       -0.17171623 -0.6351908 -0.54288155 0.10659106
0003f0 02 3a c7 be 1d 0a 64 3e aa 50 30 bf 50 48 cc 3e
       -0.38911444 0.22269483 -0.68873084 0.3989892

transformer.proj.bias f4 [36]
000000 d0 3c d1 be 6e 19 98 3f 54 e3 7e bd 40 b7 27 3f
       -0.4086671 1.188276 -0.062228516 0.6551399
000010 a7 b8 be be fd 9e 41 3f c5 12 9b be 3e c7 8a be
       -0.37250254 0.7563322 -0.30287758 -0.27105135
000020 b5 69 a1 be a5 ab 4b bf 27 87 33 3f 5f 63 9a 3f
       -0.3152596 -0.79558784 0.701281 1.2061576
000030 26 68 8d 3f 4e 29 41 bf c5 a6 1c 3f 39 9c c9 be
       1.1047409 -0.7545365 0.6119197 -0.39377
000040 ab 2c 01 3f 89 94 28 3f 32 e1 9b bf 92 aa c5 bf
       0.5045878 0.65851647 -1.2178099 -1.5442679
000050 a6 65 93 3f 8a a0 54 bf 02 74 83 bf 78 e7 ea 3e
       1.1515396 -0.83057463 -1.0269778 0.45879722
000060 a5 d3 b8 be b5 85 f5 be 5b 5e 72 3e 25 0f b5 bd
       -0.36098972 -0.47953573 0.23668806 -0.08840779
000070 cf 6f c1 3e 37 2f d5 bf 60 c1 65 3f 23 ba df 3f
       0.37780616 -1.6655034 0.8974819 1.747868
000080 63 c3 fa bf c6 77 cf 3f 5c 22 96 be ed 5c c0 bc
       -1.9590877 1.6208427 -0.2932309 -0.02348181

transformer.norm1.gamma f4 [36]
000000 8c 7f 3f 3f d4 c7 2f 3f 18 92 5a 3f 30 c3 4d 3f
       0.74803996 0.6866429 0.8537917 0.8037596
000010 36 25 79 3f 06 de 52 3f db d8 8f 3f 8f ea 85 3f
       0.97322404 0.8237003 1.1238054 1.0462207
000020 f9 bc 3f 3f 8e ff 9b 3e 7f 1a 96 3f 52 3a 12 3f
       0.74897724 0.3046841 1.1726836 0.5712024
000030 5a c0 41 3f 32 22 97 3f 4e b3 80 3f f5 c0 1f bc
       0.7568413 1.180731 1.005472 -0.009750594
000040 de 5b ef 3e 91 9a 81 3f 1d da 54 3e b6 e1 6c 3f
       0.46749777 1.0125295 0.20786329 0.9253191
000050 c6 9b 4b 3f 9b b4 c6 3e bb d5 2c 3f a4 6f ab 3e
       0.79534566 0.38809666 0.67513627 0.33483613
000060 a9 73 d0 3e 16 83 8d 3e 8a 92 f7 3e c8 20 43 3e
       0.40713242 0.27639073 0.48353988 0.19055474
000070 1d 1f 42 3f 1b 5b 63 3f dc e8 c3 3e c6 2b e9 3e
       0.75828725 0.8881089 0.38263595 0.4554121
000080 89 a4 8f 3f 40 e6 72 3f 45 7f 9c 3e f9 2d e6 3d
       1.1222087 0.94882584 0.3056585 0.11239237

transformer.norm1.beta f4 [36]
000000 e9 01 30 be 8c f4 c6 be 6e cf 98 be 48 2a 3c bf
       -0.17188229 -0.3885845 -0.29845756 -0.73502016
000010 75 1f 2d 3f 4c a5 13 bf 7f 1f 2a 3d 09 63 f1 bc
       0.67626125 -0.576741 0.041533943 -0.029466169
000020 a2 72 0f bd 9b 93 56 3e 6e 59 a0 bd 48 ec 69 be
       -0.03502143 0.20954745 -0.07829557 -0.2284404
000030 1d 27 00 bf e1 a4 8c 3e 1a 1c 09 be bb d3 24 3c
       -0.5005968 0.27469543 -0.13389626 0.010060246
000040 27 5c cb 3d 3a 7b 41 be 0d 45 e8 3d 10 b2 5a 3f
       0.09929686 -0.18894663 0.113412954 0.8542795
000050 58 3f 14 bf dc 78 2f 3e cc 3c c1 3e 7d f4 5c be
       -0.57909155 0.17135948 0.37741697 -0.2157764
000060 ba e7 81 3e ae 6f 65 bd 78 59 bd 3d 2b b4 6c bc
       0.25372106 -0.05601471 0.092455804 -0.014447252
000070 19 23 7b bf fe 92 44 3f eb 4e c3 be b1 21 24 be
       -0.9810043 0.7678679 -0.38146147 -0.16028477
000080 87 99 35 3f cb e5 b7 be 80 20 90 3d 65 6b 11 3d
       0.7093739 -0.35917506 0.07037449 0.03550281
