Src/extractor/unihar_bert_td1.pt (torch, 68479 bytes, 29 tensors)

transformer.embed.lin.weight f4 [36, 6]
00000000: 80b4 eabf 5477 30bf be88 c4be bd6e 11bf
00000010: 6e24 1abf 2960 21bd 4bca 2bbf d192 e83b
00000020: 861f 9cbf f307 94bf 067f ba3e eba1 3d3f
00000030: c636 f8be a7c0 ce3f b6f4 753f 84d6 91be
00000040: 01d6 66bf f25b 6d3f 495b a33f f183 44bf
00000050: 0742 1a3f ed8d d1be 0e65 e3bc 7312 bf3e
00000060: e7ce c8bf 76ec 3a3e c15b df3f 1960 833f
00000070: 2b69 523f 1ee9 4f3e 2bf6 14bf 8428 023f
00000080: 907e 3cbf 1bbc 643e 995a 95bf 4765 c1be
00000090: d205 9b3e cbbd fd3f 7f5b 91bf 9f45 d63e
000000a0: 46ec 693e 85da 873e 382c 063e c13e 93be
000000b0: bb19 84be 196f 42be 685a be3d e0f8 663d
000000c0: 98fb edbe fc3e 70bf 0a6a abbe 54a4 58bd
000000d0: 6ed6 233f 37c3 08bf 1d8f 9e3f 785b fbbe
000000e0: 58f0 71bd 7420 d83e 0839 92bb 9dcc 5f3f
000000f0: f9ad 473e a100 d6be 5ed7 16be 7fcf 4bbd
00000100: 1f65 9f3d 41d0 3ebd f750 23bf 4940 52be
00000110: 46f3 a8bf d01e 4b3f 7f38 36be 2cf3 0a3e
00000120: 5bc2 4140 6064 0ac0 1a16 593e 1b1f c13e
00000130: 85dc edbe 9813 68bd a922 4f3f bcf7 aa3f
00000140: c258 9b3e 0ae9 edbe 6a26 1ebe cf66 fcbd
00000150: f6e9 df3f 766b 6340 089b ff3f f58a c73e
00000160: 3aad 76be 030b a7be 15c2 debd da99 31bf
00000170: b66f d43e 7113 c8be dd2f 3ebf fc65 29be
00000180: 8cf6 64be 6f32 663f 2bfd f3be 8fb0 f4be
00000190: 2e18 3d3f 00d1 51bf 79b4 5ebf 6cd1 45bf
000001a0: beda afbf 1619 1c3f 0c15 85be 2ded a3be
000001b0: d6a8 89bf d306 cd3e 0eca 413f 033f a6be
000001c0: b39e 323f eb2f 63bf 371d 383e 8fb1 f6bf
000001d0: 0dcd f7be aa80 ab3e 4032 83be a5cd 92be
000001e0: 80ce 703f e9be 353f ecb5 38c0 e3fa 9abd
000001f0: 75df 18be dc72 f93d df98 df3e af5c b1be
00000200: f0b5 90be adb7 103f 4058 5a3c 091e 53bf
00000210: a162 d93d 8709 fbbf d14e 0640 fbe6 85be
00000220: f9c3 513d cd0b ad3e a506 28bf 64c3 a23e
00000230: b93a 44be 58e6 0dbf 5fd0 bb3e baa4 1d3f
00000240: e989 b4bf 1517 26bf 2c59 14c0 a5d6 f1bb
00000250: 0338 6cbe 5015 8cbe d66a 7fbd 5ba7 62be
00000260: 4364 7bbd 1f6a e8bd 160b c53c 3238 d83c
00000270: 39e1 43bf 9696 933f 87b1 593c 8b10 93be
00000280: 8545 a9be a3c1 ca3e ae0a 813d 5e37 7e3d
00000290: 730b 113f 1ab6 36bf 1608 b6be e5c7 29be
000002a0: 6576 92be 2459 b23e a564 4e3f cfe6 94be
000002b0: 8c25 e33d 7582 5bbf 4fda 86bf c20d 03bf
000002c0: 686c 673f 557d 0e3f 8181 cd3e 618c 243f
000002d0: a985 123f 69d2 78bf 55fe 0ebf 07a0 eabd
000002e0: 0569 f63d b368 9b3e 65cb 49c0 8119 6dbf
000002f0: 14ec c63f c755 dd3e 7421 1cbf bb9f 973d
00000300: 1f94 da3f cde2 d7bf b2ec 923f 2546 53bf
00000310: c66f 5b3e da07 babe 82a6 d43f 9b87 723e
00000320: 1b6f 9abf 182e ba3e 56e2 ba3e de22 323e
00000330: d16e 5cbd ee8e 47bf bb1f 853e 883c 6a3d
00000340: 3877 5d3f 31e1 1e3f ddb6 853e 183e e1bd
00000350: 1114 cc3f 1994 ea3d 4c57 13bf 3459 5ebf
-1.8336334 -0.6893208 -0.38385576 -0.568096 -0.6021184 -0.039398346 -0.6710555 0.00709758
-1.219712 -1.1564926 0.36425036 0.7407519 -0.4847929 1.6152543 0.96076524 -0.28483975
-0.90170294 0.9271842 1.2762233 -0.76763827 0.60257 -0.40928593 -0.027758148 0.37318763
-1.5688142 0.18254265 1.7449876 1.0263702 0.82191724 0.20303771 -0.5818812 0.5084307
-0.7363062 0.22337382 -1.1668273 -0.3777258 0.30277878 1.9823545 -1.1356047 0.41849992
0.22844037 0.26533905 0.13102806 -0.28758815 -0.2580088 -0.18987693 0.092945874 0.05638969
-0.46481013 -0.93846107 -0.3347934 -0.05289109 0.6399907 -0.53422874 1.2387425 -0.49093223
-0.0590671 0.4221226 -0.004462365 0.8742159 0.19499959 -0.41797355 -0.14730594 -0.04975843
0.07782959 -0.046585325 -0.6379542 -0.20532335 -1.3199241 0.7934389 -0.17794989 0.13569325
3.0274875 -2.1623764 0.21199837 0.37719044 -0.46457306 -0.05665931 0.8091226 1.3356853
0.30341154 -0.46466857 -0.15444341 -0.12324297 1.7493274 3.553434 1.9969187 0.38973203
-0.24089518 -0.3262559 -0.10876862 -0.69375384 0.4149148 -0.39077333 -0.74291784 -0.1654281
-0.22359675 0.89920706 -0.4765409 -0.47790954 0.7386502 -0.81959534 -0.8699413 -0.7727268
-1.373863 0.6097578 -0.2599262 -0.32016888 -1.075465 0.4004427 0.75698936 -0.3246995
0.69773406 -0.8874499 0.17979895 -1.9272937 -0.4839863 0.334966 -0.25624275 -0.2867252
0.94065094 0.7099443 -2.8861036 -0.07567384 -0.14928992 0.12180111 0.4367132 -0.34641024
-0.28263807 0.56530267 0.0133267045 -0.82467705 0.10614515 -1.9612283 2.0985606 -0.26152787
0.051212285 0.33798066 -0.6563514 0.31789696 -0.19163026 -0.554296 0.36682412 0.6157948
-1.4104587 -0.6487897 -2.3179426 -0.007380324 -0.23068242 -0.2736001 -0.062357746 -0.22134154
-0.061374914 -0.11348366 0.024053138 0.026393984 -0.7651554 1.153033 0.013286955 -0.2872356
-0.33060852 0.39600858 0.06300865 0.06206452 0.56658095 -0.71371615 -0.35553044 -0.1658016
-0.28605953 0.34833634 0.8062232 -0.29082343 0.11091146 -0.85745937 -1.0535372 -0.5119287
0.9039979 0.5565999 0.40137866 0.642767 0.572352 -0.9719606 -0.5585683 -0.11456304
0.1203175 0.30353317 -3.1530392 -0.9261704 1.5540795 0.43229505 -0.60988545 0.07403513
1.7076453 -1.6866089 1.1478484 -0.8252891 0.21429357 -0.36334115 1.6613314 0.23684542
-1.2065157 0.36363292 0.36500806 0.17396113 -0.05381662 -0.7795247 0.2600077 0.057186633
0.8651004 0.62062365 0.26116076 -0.109981716 1.5943624 0.11454029 -0.5755508 -0.86854863

transformer.embed.lin.bias f4 [36]
00000000: 531f b3bc d90e f6bc 4e3c 21bd 41c9 9bbc
00000010: 0676 08bd 1070 d3bc acab 45bd 2772 fdbe
00000020: 3c94 0a3b baea 84bd 7072 c7bd 2a15 553d
00000030: 36a0 13bd f1ee c83d dce7 1fbb 470f f6bc
00000040: cb17 e8bc e417 cebc a360 39bd 27f6 ccbc
00000050: 531a ebbc 7be5 acbb 39e8 c1bc 9c67 c2bc
00000060: 6646 e2bc f3f3 953f 0064 00bd c816 cabd
00000070: 4ea2 3fbb f003 20bd 4d21 8abc f7ea bb3c
00000080: 2241 0dbd 62d9 173d aad9 8cbc edab eebc
-0.021865522 -0.030036377 -0.03936415 -0.019016864 -0.03331568 -0.025810272 -0.048259422 -0.49501154
0.0021145483 -0.06490083 -0.09738624 0.052022137 -0.03604146 0.098111995 -0.0024399674 -0.030036582
-0.028331658 -0.025157876 -0.045258176 -0.025019718 -0.028699076 -0.0052763796 -0.023670303 -0.023731045
-0.02762146 1.1715072 -0.031345367 -0.098676264 -0.0029241028 -0.039066255 -0.016861582 0.022939188
-0.034485944 0.037072547 -0.017193634 -0.029134715

transformer.embed.pos_embed.weight f4 [20, 36]
00000000: 15aa acbe 2b5e f23f e682 d33f e95c f23f
00000010: b610 d33e 54a3 03bf 9cf4 9cc0 419e 123d
00000020: 4c84 b5bf 7dfb 11bf 1aa9 803c e0a2 b83f
00000030: 4019 ea3f ddfd 503f 5a30 06be 02cb b2be
00000040: 82cf 633c 132d bf3e d0ab 683f 5aef 9bbf
00000050: 6a02 c9be 63bb 38bf b947 42c0 beac 1cc0
00000060: ed2e 9c3f 0297 a1bf 926a 4140 729b 26c0
00000070: 7479 e23f b467 c4be da11 1d3f 0ab1 73bd
00000080: cb81 84bf 1bd8 f03f 9f40 823f e812 ee3e
00000090: a813 fe3f 66b1 973f 2373 ab3f 911d 0ac0
000000a0: 143d 373f e058 05be be71 80bf a853 24bf
000000b0: 15e3 4dbf cb8d a1be 4d26 97bf e60e 12bf
000000c0: 73de c53f bc78 e03e 15c4 0cbf 7ee2 5140
000000d0: e53e 11bf 7da0 613f 2a26 893f 1189 8dbe
000000e0: b166 19be 52f5 883f 5d19 1ebe facb d0bf
000000f0: e1fe 71bf f6e4 8abf 7e04 a2bf 6f51 b6be
00000100: 647c 0540 1823 65be 683d 25bf 89cf 6fbf
00000110: b6eb d2bf d08f 2040 9eca d23f 5ef2 03c0
00000120: 4fc6 843f 9a5f 953e 758b 13bf ce64 5abf
00000130: 593e f5be 3a77 90bf b85e 32bf 578a 69be
00000140: 5c47 3d40 5795 2d3e 1fbe 78c0 844a 30bf
00000150: 7019 663e 7320 0740 2bc2 a73d b20b ff3e
00000160: d0a7 213f 29d9 0340 83dc 79bf 4264 3abe
00000170: 2842 b53e 6649 dfbf a21d d43d 484d 30bf
00000180: 891f d23e e857 8dbf 3b92 14bf b76d 09bf
00000190: b9fa 573f de93 d73f ba22 6b3f 97ab be3f
000001a0: ded6 26bf 9d72 2040 d527 1ebf 5816 283f
000001b0: 1686 0640 bf2a 8a3e 4c64 c6bf 18f3 aabf
000001c0: c536 76bf aaa7 84bf 1bdd 3fbf 8a67 a0bf
000001d0: dff7 f2bf c9ab 1740 88a6 d8bf ae68 a0be
000001e0: 3cf7 4fbf 5411 bc3e 0e9f 1c3f 6bd8 d83e
000001f0: 1d4c a03f 3bac 8e3f ad21 cebf 8b53 20be
00000200: 3d75 153f 62ed 293f f0c8 2d3e 1a49 083f
00000210: 6984 8ebf 6090 a6bf 76df e13e e2fc 733e
00000220: 3cef c33f 9fff 2dbf 9692 5240 9ac3 223f
00000230: 9173 cabf 7402 8ebf 585a 8a3f 7d9a 143f
00000240: 3409 8b3f 797d 6d3f 0ba8 58bf f2b8 b5bf
00000250: f26d b6be db0a 2abf 91b4 e6bf 07df 0f3f
00000260: 42dc b63f 7485 5040 3dce 353f cba8 afbe
00000270: 59e1 ccbe f9cc 903d 2395 6f3e 86b9 b23d
00000280: 0250 3bbd 13e9 2f3b dc60 49bf ace7 4c3e
00000290: 8a88 583f cf6a a93e ddb4 30c0 e705 783f
000002a0: 52e0 a2bf 83a9 44be e9db e0bf 0de6 16bb
000002b0: c5a6 c73f 5dfb b8bf c65e 02c0 531e b23f
000002c0: 6913 9cbf 5dc3 24bf b6a1 fa3e bc2d cc3f
000002d0: 95fb 85bd 36cd 573f 975f c9be 78db ab3f
000002e0: 1417 be3e e608 0fbf 635b 203e 993c d23f
000002f0: 1fc4 e03e 36f6 2240 41bd 02c0 b87b 2bbf
00000300: 7827 713f 4567 8ebf 08ed 2c3f 929d 853f
00000310: deff f53e 8fc9 d23e d314 52bc 4c97 83bf
00000320: a3fa 27bf 3e39 16bf 622a 15c0 73ed c1bf
00000330: 26c5 333f b0a6 a13e 3460 97bf 8385 263b
00000340: e48e 8a3f 0fbd b7bf f498 cfbf 5ea8 6c3f
00000350: d7ef c3be 54ba 06c0 4aea a2bf e135 93bf
00000360: 3c33 55bf 9491 6e3f 6eba 133e 7228 993d
00000370: cbce 25bf cad6 06bf 152a 563f 4424 bc3f
00000380: 3557 04be c6cd c93f 8d7c 573f 50fd 06bf
00000390: 78f4 0dc0 d107 e8bf 18ce 693e fcf3 593f
000003a0: 85cf 88be b6db 39bf 0e14 07be 85ff 9b3f
000003b0: a226 683f aa6e 8c3f 528f 73bf 77eb 11c0
000003c0: 444c c2bf 2e05 323f 3b9c 95bf 9b15 b83f
000003d0: 6c48 833e 12ca 34be 06b5 0e40 c69f db3f
000003e0: 2ce8 1ebe d710 a53e 30f4 90bf c895 d83e
000003f0: d420 0540 7396 2cbf 98ed c83e 647b 17bf
-0.33723512 1.8934988 1.6524322 1.8934604 0.41223687 -0.51421094 -4.9048595 0.035795454
-1.4180999 -0.57024366 0.015705634 1.4424706 1.8288956 0.81637365 -0.13104382 -0.34920508
0.013904454 0.37339076 0.90887165 -1.2182419 -0.39259654 -0.7216093 -3.0356276 -2.4480433
1.2201821 -1.2624209 3.0221295 -2.6032376 1.7693315 -0.3836037 0.61355364 -0.05949501
-1.035211 1.881595 1.0175971 0.464988 1.9849749 1.1851013 1.3394512 -2.1580546
0.7157757 -0.13022184 -1.0034711 -0.6419015 -0.80424625 -0.31553492 -1.1808563 -0.57053983
1.5458511 0.43842113 -0.549867 3.279449 -0.56736594 0.8813551 1.0714772 -0.27643636
-0.1498058 1.0699866 -0.15439363 -1.6312249 -0.9452954 -1.0851123 -1.2657621 -0.35609004
2.0857172 -0.22376668 -0.64546824 -0.9367605 -1.6478183 2.5087776 1.6468084 -2.061668
1.0373019 0.291745 -0.5763467 -0.85310066 -0.4789913 -1.1286385 -0.6967578 -0.22806679
2.9574804 0.169515 -3.886604 -0.688637 0.22470641 2.1113555 0.081913315 0.4981361
0.63146687 2.0601294 -0.976021 -0.18202308 0.35402036 -1.7444274 0.103572145 -0.6886792
0.41039684 -1.1042452 -0.5803563 -0.53683037 0.8436695 1.6842 0.91849864 1.4896115
-0.6517161 2.5069954 -0.6177953 0.65659094 2.101934 0.26985738 -1.5499358 -1.3355436
-0.9617732 -1.0363667 -0.74946755 -1.2531598 -1.8981894 2.36986 -1.6925821 -0.31329864
-0.81236625 0.3673197 0.611802 0.42352614 1.2523228 1.114631 -1.6104027 -0.15656869
0.58382016 0.6637784 0.16971183 0.53236544 -1.1134158 -1.301281 0.441158 0.23826936
1.5307384 -0.6796817 3.290197 0.63579714 -1.5816518 -1.1094499 1.0808821 0.5804823
1.0862184 0.9276958 -0.84631413 -1.4197066 -0.35630757 -0.66422814 -1.8023854 0.5619969
1.4285967 3.2581453 0.7101782 -0.34308466 -0.40015677 0.070703454 0.23396735 0.08726792
-0.0457306 0.0026841804 -0.7866342 0.20010251 0.8458334 0.330893 -2.761039 0.96884006
-1.2724707 -0.19205289 -1.7567111 -0.0023025305 1.5597769 -1.445171 -2.0370345 1.3915504
-1.2193424 -0.643606 0.489515 1.5951457 -0.06542126 0.842975 -0.39330742 1.3426352
0.37126982 -0.5587295 0.15659861 1.6424743 0.4389963 2.5462775 -2.0428011 -0.66985655
0.9420085 -1.1125265 0.6754918 1.0438712 0.48046774 0.41169402 -0.012822348 -1.0280547
-0.65616816 -0.58681095 -2.3307118 -1.5150589 0.702227 0.31572485 -1.1826234 0.002540917
1.0824857 -1.4354571 -1.6218553 0.9244441 -0.3826892 -2.1051226 -1.2727749 -1.1500818
-0.832813 0.93190885 0.14426586 0.074784175 -0.64768666 -0.5267149 0.8365796 1.4698567
-0.12923892 1.5765922 0.84174424 -0.52730274 -2.2180462 -1.8127385 0.22832525 0.85137916
-0.26720825 -0.7260088 -0.13191244 1.2187353 0.9068395 1.0971272 -0.95140564 -2.2799966
-1.5179524 0.69539154 -1.1688303 1.4381593 0.2564119 -0.17655209 2.2297988 1.7158134
-0.15518254 0.3223941 -1.132452 0.42301774 2.0801287 -0.6741707 0.3924377 -0.59172654

transformer.embed.norm.gamma f4 [36]
00000000: d58d c33e 6c1e 223f b54f 353f ddf2 b13e
00000010: 838a 323f c8eb 303f ebfd 163f 45dc 983f
00000020: dee1 193e d7da 2d3f 6e50 143f 9e33 253f
00000030: c1c2 003f 6dff 403f 6bc2 083f 544b 0d3f
00000040: 8703 0f3f 783c e73e d81f 2d3f 7835 603e
00000050: 46d6 db3e 86c3 193f 7891 f33e 5fe4 113f
00000060: f84b f53e 1c52 d33f f96d 833e b637 0f3f
00000070: 4d55 d83e 6938 ce3e 3a1f 733e ed26 053f
00000080: e3cf 093f 26c7 0b3f cd08 fa3e 065e 123f
0.38194147 0.6332767 0.7082475 0.34755602 0.697426 0.69109774 0.589812 1.1942221
0.15027568 0.6791205 0.57935226 0.64531887 0.5029717 0.7538975 0.5342166 0.55193067
0.5586476 0.45163321 0.67626715 0.21895397 0.42936915 0.6006397 0.4757192 0.5698909
0.47909522 1.6509433 0.2566984 0.55944383 0.4225258 0.40277413 0.2374238 0.5201252
0.53832835 0.5460075 0.4883484 0.5717472

transformer.embed.norm.beta f4 [36]
00000000: fd06 58bc 6b21 59bd 84a0 503d 6a89 16bd
00000010: b739 913d 1efb 923c 4df1 65bc 9b3b 733a
00000020: 2428 cfbc e74c f6bc 4470 a03c 5b7e 8cbd
00000030: 15c2 9b3d 818f 913d 5262 413d f7f4 babd
00000040: 2ebd 4b3d 5d2c c03d c76a ce3d d919 fe3c
00000050: 4906 02bd c37b b93c a275 0a3e 7dd2 b63d
00000060: 1364 5b3d cc7b d8be fb3b 623d 4fd1 983d
00000070: 05af 73bb 7b88 993d 7acb 223c 9dd6 05bd
00000080: 799c 9f3d 8c8d 6a3d 0525 ef3d 5f92 7cbc
-0.01318526 -0.053010385 0.05093433 -0.036752142 0.07091086 0.017942008 -0.014034581 0.0009278596
-0.025287695 -0.030065967 0.019584782 -0.06860038 0.076053776 0.07107449 0.047212906 -0.091287546
0.049740963 0.093834616 0.1007896 0.031018184 -0.031744275 0.022642022 0.13521436 0.08926866
0.053562235 -0.4228195 0.055232983 0.074617974 -0.0037183177 0.07496735 0.009936208 -0.032675374
0.07793517 0.057263896 0.11676983 -0.015415757

transformer.attn.proj_q.weight f4 [36, 36]
00000000: 78cc bbbd 4074 b1bd f2ab e3be a5c1 863e
00000010: 3138 ac3d ec10 4e3e 22b0 37be 5bdf cdbc
00000020: 066f 9dbe 4705 98bd 789d 413d 2c75 0cbe
00000030: 2505 9e3d 3f9d 6e3e 6137 9b3e 9c6f 60be
00000040: 46f6 88be e7fd 87be fb81 133e 8c3e 1b3e
00000050: bb1f 283e 604e 89bd 9212 4abe 9410 81be
00000060: abfe 0e3f 61d2 0e3d 7e7b 593e 10e4 2dbe
00000070: a49a f6bd a4f2 acbe 0605 a63e 93a4 9a3e
00000080: bde4 6abd 0e75 a3be 8d00 be3e 2b0b b4be
00000090: 9b38 aa3e 2c10 0dbe 9832 cabe 7c71 81be
000000a0: c84b a0bd c084 713d 4d66 3c3e 1fbf 6cbc
000000b0: ad5e f23d 3258 323c 0aa8 fcbe 834c 44be
000000c0: ead4 88be 0ffb 243e 73f0 283e 2b8b 0d3e
000000d0: 5013 1ebe dfa8 e53d dc1e a63d 62e8 923e
000000e0: c85c 583d 874d 94be f6e7 f53d 49c9 5bbd
000000f0: 5e7a 063d 32df 87bd 5e33 8dbe b101 ffbd
00000100: d590 b83d a6d9 4f3e f998 e53e 6cc2 853d
00000110: 238c 493b 3369 b73e 6985 823d 0348 0abb
00000120: 8c90 c93c 64c3 7fbe 48fa 98bc d6b1 2d3e
00000130: 853b 5f3e 75a0 9b3d 428f 803e cc82 8abc
00000140: f3ac 1d3f 6a9d 633d 94b7 82be a6df bdbe
00000150: c3f3 b2bd 4110 92bd 5575 88be 4034 b8bc
00000160: 7409 99bd 734e 82be 3f73 0a3e 86ce a53d
00000170: 3ca5 53be 8422 7b3a d506 3d3b 27c8 33be
00000180: f3a4 d73e 3176 9e3c d5a0 a7be a6b2 973e
00000190: bca3 353e e56b 553d 8cb0 763e b097 a3bd
000001a0: a7d5 a3bd b8cb b73e 7d87 15bf 0907 7bbe
000001b0: 6de5 cf3b 2b4a bdbd 2383 5e3d a44d a03c
000001c0: 6489 043d 2851 8abe 9749 d03e 7af8 b13e
000001d0: 6979 2c3e 6ff3 f2bc fbc9 633e e872 a43e
000001e0: b5ab 74be b6fa fabd 3b49 933e 8818 9a3e
000001f0: 1134 78be 7b44 b9be c87b 17bd 7520 fc3e
00000200: 3db6 4d3d 44a7 a1bc cbda 8cbd 4c80 813e
00000210: 23dd 103d b85e b7bd 9202 8fbe 786e 323e
00000220: 2668 66be 9b31 7bbe 51eb 683e 59a7 293e
00000230: 0c0d bf3e 28ce cebe 63f5 683d fa46 ef3d
00000240: 8a12 653d 8617 0bbe 9e78 5ebd ec2c dc3c
00000250: 241a 73be 2320 c0bd 45f0 dd3e 3d06 90bd
00000260: 524d 86bc 6718 25bd 48e7 16be d6a8 9e3d
00000270: fcee 9abe 7d10 ae3d d82c 5dbe c421 8e3d
00000280: 5afb 91be 03aa 10bf 322c 88bd 451f a93e
00000290: 86f4 4c3d 00c7 003e 32d3 f03d 8277 ec3e
000002a0: afad fd3d 3432 1f3c beec 323d fa07 7f3e
000002b0: 36ff 6dbe f6a2 823e f6cb 243f d844 a2bc
000002c0: ef66 bb3d 7f93 40be a1b1 293e c008 073f
000002d0: c732 22bf a160 8d3e aec0 a5be d1ce 103d
000002e0: 244d bbbe a6a6 583d a084 4a3e 339d cdbd
000002f0: 15d1 29bf af33 f5bd c218 2d3d 140d 14bd
00000300: 38d2 053c f448 d23d edb7 a1be 16d9 2a3e
00000310: 6693 47bd 8acd 1fbd 84e3 283e a860 a0be
00000320: 6ffb 08be 312f 0abd 761f 3fbb 62d2 8ebe
00000330: 22b8 f4bd 92d5 bdbc a2f4 7f3e 38a5 7dbd
00000340: cb5e 483e 3faf 4f3f 2dbc 6b3e d44b 483e
00000350: a035 1dbd 654c 87be ea2d 9e3d b126 9c3e
00000360: af8a babc 937a 463e 131e 1f3e 3ece 843e
00000370: c784 113e 7565 3bbe eedf 453e cd0a 223e
00000380: 1419 fe3b aba6 e13d cafb 823d 8cea d03e
00000390: fd66 a0bd 19ad 85bb e6de 113d 1dfd a73e
000003a0: f904 00be e131 123d 593c 9d3e 082b 9cbc
000003b0: 2639 2a3e e923 08bd e465 b7bd a289 fbbe
000003c0: 3704 d4be 7f7c 113e 2e5d b6bd 1458 01bd
000003d0: 62bb 983d f4e5 cebe fd26 cdbe 0bf2 443e
000003e0: 4157 8b3e 5a92 0839 6dde c4be 65c6 4fbe
000003f0: 5987 8ebe b18c edbd bf88 db3b 7933 e5be
-0.09169859 -0.08664751 -0.4446712 0.26319614 0.08409155 0.20123643 -0.17938283 -0.025130918
-0.30748767 -0.074228816 0.047269315 -0.13716573 0.07715825 0.23302172 0.30315688 -0.21917576
-0.26750392 -0.265609 0.14405052 0.15160578 0.16418354 -0.06704402 -0.19733647 -0.2520796
0.5585734 0.0348686 0.21238515 -0.1698153 -0.12041214 -0.3377887 0.32425708 0.30203685
-0.057347048 -0.31925243 0.37109795 -0.3516477 0.33246312 -0.137757 -0.39491725 -0.25281894
-0.07826954 0.05896449 0.183984 -0.014449864 0.11834464 0.010885285 -0.49346954 -0.19169812
-0.2672494 0.16111396 0.16497974 0.1382262 -0.15437055 0.1121385 0.08111355 0.2869292
0.052822858 -0.289654 0.12007134 -0.053658757 0.032831542 -0.06634368 -0.27578253 -0.124514945
0.090119995 0.2029787 0.4484327 0.06531224 0.0030753694 0.35822448 0.06373102 -0.0021100051
0.024605058 -0.2497688 -0.01867403 0.1696237 0.21800049 0.07598964 0.25109297 -0.016908072
0.61592025 0.055570044 -0.25530684 -0.37084693 -0.087379 -0.071320064 -0.26652017 -0.022485852
-0.07472506 -0.25450477 0.13520525 0.08096032 -0.206685 0.00095800334 0.0028843184 -0.17556821
0.42118034 0.019343467 -0.32739893 0.29628485 0.17738241 0.05210485 0.24090785 -0.079879165
-0.07999735 0.35897613 -0.58409864 -0.24514402 0.0063444884 -0.09242662 0.05432428 0.019568272
0.03235759 -0.27015042 0.40681145 0.34759885 0.1684319 -0.029657094 0.22245018 0.32118917
-0.23893626 -0.122548506 0.28766808 0.3009684 -0.24238612 -0.3618506 -0.03698328 0.49243513
0.050222624 -0.019733079 -0.06877669 0.25293195 0.035367142 -0.08953613 -0.27931648 0.17424953
-0.22500667 -0.24530642 0.22746016 0.16567744 0.3731464 -0.4039166 0.056874644 0.116834596
0.055925883 -0.13583192 -0.05431425 0.02687689 -0.2374044 -0.093811296 0.43347374 -0.0703244
-0.016394291 -0.040306475 -0.14736664 0.07747047 -0.30260456 0.08499239 -0.21599138 0.06940034
-0.2851208 -0.5650942 -0.066490546 0.3303167 0.050037883 0.12575912 0.11759032 0.46184927
0.12386643 0.009716559 0.043682806 0.24905387 -0.23241886 0.25514954 0.6437372 -0.019808218
0.091504924 -0.18806265 0.16571666 0.52747726 -0.6335873 0.27612785 -0.32373565 0.035353485
-0.3658229 0.052893303 0.19777155 -0.10039749 -0.6633466 -0.119727485 0.04225994 -0.036145285
0.008167796 0.10267821 -0.31585637 0.16684374 -0.048724554 -0.039014377 0.1649304 -0.31323743
-0.13377164 -0.03373641 -0.002916304 -0.27894884 -0.11949183 -0.023173127 0.24995664 -0.061925143
0.1956741 0.8112678 0.23021002 0.19560176 -0.03838122 -0.26425472 0.07723601 0.3049827
-0.022771208 0.19382696 0.15538816 0.259386 0.14210807 -0.18300422 0.19323704 0.15824433
0.0077544544 0.110181175 0.06395681 0.40803945 -0.078321435 -0.0040794727 0.035612963 0.32810298
-0.12501897 0.0356921 0.30710104 -0.019063488 0.16623363 -0.03323737 -0.08954981 -0.49128443
-0.41409466 0.14207648 -0.08904491 -0.03157814 0.074576154 -0.40409815 -0.40068808 0.19232957
0.27215007 0.00013024491 -0.38450947 -0.20290525 -0.27837637 -0.115991004 0.006699651 -0.44765833

transformer.attn.proj_q.bias f4 [36]
00000000: ed17 84be b01d 803e d3c4 18be 0d39 dabc
00000010: 4cf3 d23e 27e6 9dbd aa26 b5bd f7d8 013e
00000020: 25b7 983d 5466 6d3e e77c 1fbf 6f3a 433e
00000030: e53e 063f 38ba 573e 1099 683e 829a 583e
00000040: 991e 83be 188f f0be f0a7 943d 561b 21bf
00000050: b9c3 e3be 6a9d a63e 676b 8b3e 0f4d 173f
00000060: a278 b43d 835d 9abe 6db6 c53d 5cd4 fabe
00000070: d818 473f 22c7 063d c426 bbbc 5199 323f
00000080: 5a10 64be adaa 50bf b5ba a6bd 40cd 52bf
-0.25799504 0.2502265 -0.14918832 -0.026638532 0.41201246 -0.07709914 -0.08845265 0.12680422
0.07456807 0.23183566 -0.6229996 0.1906526 0.5243972 0.2106713 0.22714639 0.2115269
-0.25609282 -0.46984172 0.07258594 -0.62932336 -0.44485262 0.32541972 0.2723038 0.5910196
0.088120714 -0.3014947 0.096539356 -0.48990142 0.77772284 0.03290475 -0.022845633 0.6976519
-0.22271863 -0.8151043 -0.0814108 -0.82344437

transformer.attn.proj_k.weight f4 [36, 36]
00000000: 4aa8 263f 9f52 50be fbf3 543e f1fc 90be
00000010: 1132 6f3e 341a f73c 241d 913c 763e 943e
00000020: c6b8 863e bc07 283d b79d 56be de83 2fbe
00000030: 0f99 813d 09c1 58be 7c4d e7bd 75a7 053c
00000040: 3acc 083e 195d 8c3d 511d c3bc 5454 6c3e
00000050: d4c4 f23d ccee 113e a1e2 b73e 4f9e 143e
00000060: 65f7 e53d cdd2 b5be 1480 b5be 85a2 943e
00000070: 105c 923d 27a2 02bf 6fb2 bdbe bdbf c9be
00000080: 647d 95bd 44b0 653d 0035 36be 9fbf 73be
00000090: c5e5 b33e 86f0 7e3d f60b 9d3c 439f ab3e
000000a0: 77a6 89bc 1e61 5dbe a87c 82be 07b8 cdbc
000000b0: cddd 8abe b493 2f3a 5921 703d 379c de3e
000000c0: f8ca c33d 5214 983e f9c4 1d3e baf4 38bc
000000d0: d1f6 11be cc26 933e c70c 4f3e dd7a af3d
000000e0: 942b 7bbe 399e 23bb babf c2bd 7cf8 6fbc
000000f0: 9597 f7bd 27ba e83d d099 31be 8e50 bebe
00000100: 3ea7 2ebe 7e41 5abf 07a8 17bf 8b13 6d3e
00000110: fbbe 21bc 1a64 013e b453 a63d e244 ffbd
00000120: 2ede 2abe 723e 853e 1e11 3a3e 7d91 40bc
00000130: a941 df3c 2f73 b93d c75b 81be 3df8 41bd
00000140: 5ff6 72bf e135 1dbe 808f ae3e f6d9 893e
00000150: cea1 863e 6742 89be ea8a 183e 71d0 b6be
00000160: 3045 523e 8ee9 b0bd 5954 41be b1c1 05be
00000170: 7f72 413e 4ebb a93e a94d bdbe 0228 1d3e
00000180: 0ddb 6ebe cd61 073e 4090 b93e a864 52be
00000190: 66c7 d0bc a3bd 3dbe 5ae5 f1bd 6489 ecbd
000001a0: 7754 183e ec84 2abf 47a0 ff3e 27b8 5f3e
000001b0: 6cf6 1b3e 49f9 40bd aa7a 4b3d ec48 8cbe
000001c0: 4e17 11bd 0eb6 0cbb 46f1 9dbe e914 67bf
000001d0: d7aa eebd b0bc 2abe 79b6 03bf b8b2 b8bd
000001e0: 0850 cb3d 718e 983e 65fc 5b3d bfb4 8fbd
000001f0: d281 793d 937b b73d 94a7 0fbe 8b8e 65be
00000200: 47de 4fbd 11cd 453e b465 f0bc b8d3 e7bc
00000210: 5859 c6bd 2c46 913f b7f7 4dba ac2f d4be
00000220: d313 aa3c fb7f 1fbd 50ee e0bd 5dc0 7bbd
00000230: c690 39bd adef 813e 92d0 5d3e c7b7 2cbe
00000240: 4d18 31be 1572 023e 2a1d de3d 118a f23d
00000250: 7379 0f3e 260c 2e3c ba75 53be 7045 283f
00000260: 0a68 163f 8f50 6b3c f38f cd3e dc14 06be
00000270: 755c d73d bb3b a2be a7c4 9cbc 7b04 283d
00000280: 5e9b febc 5ac0 a93d 5f24 993e c220 d6bd
00000290: 7f7f 443e 1249 68be 6124 3b3e d821 b3be
000002a0: 0f08 c9bd 1f33 54bf bb34 8d3e 3fc6 4b3e
000002b0: cb98 94bd 646f 80be 32b8 a6be a802 523d
000002c0: ebe2 7fbe 95f4 483e c3d0 bcbe 1010 97be
000002d0: 05c6 95bd 9114 c03d f491 893e ded3 58be
000002e0: 1dc4 c2bb 7bd7 17be df30 733e b1e9 72be
000002f0: 93db 2dbe 77bc 773d 60a1 3c3e d2b3 893e
00000300: 9662 e4bb 24fa 1ebe 939d 9abe b83f ad3e
00000310: 3020 ae3e 5379 a83e a2a1 a7bb aa9c 74be
00000320: 0b8b 2ebe 0d66 153e 5fff bfbb 4dcf 0d3b
00000330: e636 13bf 12de 8a3e 55ed 11be 10dc 6c3d
00000340: 61c9 cb3e c483 ae3d 279f 86bf a3f0 22be
00000350: 42e9 05bc 2497 7a3e e78e 54be d021 783e
00000360: 0a22 ad3d ad99 b63d 5b32 f3bd 7bd2 0bbe
00000370: a06b 8bbe 1a8a 9dbc fa24 153e be46 9d3e
00000380: f74a 76be 5348 203e a545 e23d ebef 15be
00000390: 4c49 05be 5306 0ebe c88e 56be 9371 0abe
000003a0: 6e63 ec3d 9d51 2f3e cb03 9d3c b9b9 dbbd
000003b0: a8f4 dcbe e161 3cbe 10f9 d7bd 0c8f 1b3e
000003c0: e9b0 95bc 537e 81bf 6687 db3b 9d5e 173e
000003d0: 79c8 983c 3ac7 223f c249 cd3e da52 cabd
000003e0: 3472 36bc 1a48 68bd ceb8 433e 2341 993e
000003f0: da75 99bd b643 19be f6c0 dbbd 0b52 c3be
0.6510054 -0.20344017 0.20796196 -0.2831798 0.23358943 0.030163862 0.01771409 0.28953904
0.26312846 0.041023 -0.20958601 -0.17140147 0.06328022 -0.21167387 -0.11294076 0.008157601
0.13359156 0.068536945 -0.02381769 0.23079044 0.11853948 0.1425125 0.35915092 0.14513515
0.112288274 -0.3551239 -0.35449278 0.29030243 0.07146466 -0.51028675 -0.37050197 -0.39404097
-0.07299307 0.056076303 -0.17793655 -0.23803566 0.35136238 0.0622411 0.019170742 0.33519945
-0.01680301 -0.21619079 -0.2548573 -0.025112165 -0.27122346 0.00066977297 0.058625553 0.43478557
0.095601976 0.29703003 0.1540717 -0.011288816 -0.14254309 0.28740537 0.20219718 0.08568356
-0.24528342 -0.0024966134 -0.09509225 -0.014646646 -0.12089459 0.11363631 -0.17343831 -0.37170833
-0.17055985 -0.85256183 -0.59240764 0.23151986 -0.009872193 0.12635842 0.08121434 -0.1246431
-0.16686317 0.26024204 0.18170592 -0.011753437 0.027252989 0.09055173 -0.25265333 -0.04735588
-0.9490718 -0.15352584 0.34093857 0.26924103 0.26295322 -0.26808473 0.14896742 -0.35705903
0.20534205 -0.08638297 -0.18879832 -0.13062169 0.18891333 0.33150715 -0.36973312 0.15347293
-0.23325749 0.13220902 0.36242867 -0.2054621 -0.025485706 -0.18529372 -0.118113235 -0.11549643
0.14875971 -0.6660907 0.4992697 0.21847592 0.15230721 -0.047112737 0.04967753 -0.27399385
-0.035422616 -0.0021470818 -0.3084814 -0.9026628 -0.11653679 -0.16673541 -0.51450306 -0.09018463
0.09927374 0.29796174 0.0537075 -0.070168965 0.060914822 0.08959117 -0.1402877 -0.22417657
-0.05074909 0.19316508 -0.02934537 -0.028299198 -0.0968501 1.134954 -0.0007857042 -0.4144262
0.020761406 -0.03894041 -0.109829545 -0.06146275 -0.045304082 0.2537817 0.21661595 -0.1686698
-0.17294426 0.12738831 0.10845406 0.1184274 0.14011173 0.010623014 -0.20650378 0.65730953
0.587525 0.014362468 0.40148887 -0.13093895 0.10515682 -0.31686196 -0.01913674 0.041019898
-0.031079944 0.08288641 0.2991056 -0.10455467 0.19189261 -0.22684124 0.18275596 -0.34986758
-0.0981599 -0.82890505 0.27579293 0.19899844 -0.072557054 -0.25084984 -0.32562405 0.051272064
-0.24988906 0.1962455 -0.36878023 -0.29504442 -0.0731316 0.09378923 0.26869166 -0.21174571
-0.0059437887 -0.14828293 0.23749112 -0.23721959 -0.16978292 0.06048247 0.18420935 0.26895005
-0.00696976 -0.15525109 -0.30198345 0.33837676 0.34008932 0.32905063 -0.0051157037 -0.23887888
-0.17045228 0.1458971 -0.0058593 0.0021638453 -0.57505643 0.2712255 -0.14250691 0.057827055
0.39802077 0.08521226 -1.051732 -0.15912108 -0.008173289 0.24471718 -0.20757638 0.24231648
0.08453758 0.0891603 -0.11874839 -0.1365451 -0.2723055 -0.019230891 0.14564887 0.30718035
-0.24052034 0.1565259 0.1104844 -0.14642303 -0.13016242 -0.138696 -0.20952904 -0.13519888
0.11542402 0.17120977 0.019166848 -0.10728783 -0.43155408 -0.18396713 -0.10545552 0.15191287
-0.018272834 -1.0116676 0.0066994904 0.14782186 0.01865028 0.63585246 0.40095335 -0.09879084
-0.011135627 -0.056709386 0.19113466 0.29932508 -0.074931815 -0.14967236 -0.10730164 -0.3814853

transformer.attn.proj_k.bias f4 [36]
00000000: 1194 ce3d dbbe ad3d f19e 9abd c9c8 b3bd
00000010: 5131 033c 31c2 483d ad14 923d cdb3 463c
00000020: ed80 dd3d 8bc7 cbbd ba92 633e 184f 093e
00000030: 89c8 50be 3baa e7bc 80b2 833e a7f9 76be
00000040: 2766 46be b9b9 61bd 051f 03bd cc72 65bc
00000050: 3954 983d 9948 253e 97c8 dc3c cd7b 11be
00000060: d585 1f3e c29a bf3d bbdd d83b 062c 99bd
00000070: 2c5c 6e3b 204f 07bd fd6f cc3d 6820 953d
00000080: c24b 88be e8df 0fbe 18eb 183e 379a b43d
0.10086835 0.084836684 -0.07549847 -0.08778531 0.008007363 0.04901332 0.0713285 0.012127829
0.10815606 -0.09950169 0.2222394 0.13409078 -0.20388998 -0.028279414 0.25722122 -0.24118672
-0.19374906 -0.05510876 -0.032012004 -0.0140044205 0.07437939 0.16140975 0.026951117 -0.14207383
0.15578397 0.093556896 0.006618229 -0.074791 0.0036370857 -0.033034444 0.099822976 0.072815716
-0.266203 -0.14050257 0.14933431 0.08818477

transformer.attn.proj_v.weight f4 [36, 36]
00000000: 3a52 5a3f b5d3 263f 345e 93bd 7492 843d
00000010: 007f 34be 0dd3 05be 078f 45bf 54ad 043f
00000020: effe 083e 5612 a4be 8155 823e 7a23 b9be
00000030: aee6 dfbc 9770 34bf 9789 63bf 65a9 d13e
00000040: c637 b8be 4bb5 52be c754 5d3d 87df 0a3f
00000050: 6e82 dabe ea76 13bf 535f 6c3f b275 9b3e
00000060: fc54 a83e 6649 54be e0e4 533e 3e52 583f
00000070: f35b 8cbd 7334 7d3e e38c 3d3e b2f5 253f
00000080: 31cb c33e 2d3b 65bf 2ae9 5e3e 1b1f 533e
00000090: f86b 84be cd40 46be 4684 86be c0e7 21be
000000a0: 7260 5a3f 4712 c3be 6b01 7a3f 60e5 383f
000000b0: 6638 dfbd 27c5 143f 4180 59bd 7395 353f
000000c0: 1acd 4dbc 47c6 27bf 5b86 83bd 50f4 d7bd
000000d0: b5fe cfbe 71ae 7b3d 4e89 06bd 7038 e73e
000000e0: a7b0 073f 9124 123b cd7c 69be 3c4d 473c
000000f0: 1cb9 783d b38d e8be 52f0 a9be 8203 b9be
00000100: 2d98 4abf f4d9 543f 45c7 013f 4cf2 8abe
00000110: b257 9bbe d1c5 9e3e d4b7 fb3e 5449 f8bd
00000120: e89a 833f 49ca a1be 7462 2a3f 8c88 63be
00000130: 9408 1abf 468a 403f 789b 47be 83d9 043f
00000140: dae5 2a3c f5ad 7abd 6fd1 70be d894 53bd
00000150: ebd6 08be 3268 483d b029 e83c 17e2 ac3f
00000160: 1204 80be e5b5 3b3e 84da 03bd 26fd 3c3e
00000170: 1602 23be b51e 73be dcf0 813c 4b72 02bf
00000180: 625c 2f3d 74d2 93bf c6d7 c4bd d815 b93e
00000190: 07f0 973e dc5b 9ebe f59a bc3d 72c1 c93e
000001a0: 4d3a e23c 74f6 24bf 67ac 65bf f4c5 723f
000001b0: 6179 eabe 0996 57be b64b a4bd 6f9f ffbe
000001c0: a6f1 903f 7b78 633d cbee 0b3f 19fc 313f
000001d0: 1ba7 0c3e 0fd4 d03e 4494 f73e 8505 d2bd
000001e0: 1cfa ebbd 556f 31bf c654 a23e 606d 00bf
000001f0: 995c f43e 34cb 0e3e 88e6 713e fea2 abbd
00000200: d36c e7b9 b685 843e bfb4 68bc 2217 25be
00000210: b0df 23be ce98 aabf da13 85bd 46cb c83d
00000220: c1f6 88bd 5d69 213f 4a91 3cbe 00bb 413e
00000230: 14ad 0ebf 7a41 a2be 167f f73d f6d2 2abd
00000240: 892d 00be 30ca b1bf 96a1 fb3d 4de7 b4be
00000250: 6b19 5b3e 4134 a43f 16e4 e7bd 55e9 49bf
00000260: 3726 36bd 2508 c33e 72cc 5ebe 4857 a03f
00000270: 06ea 443f 16f7 f7be 2429 2f3d dad0 653a
00000280: 4519 8ebf 6a9f 8e3f 82c5 8bbf 9122 d33e
00000290: 2a7a e93c 5b60 433f 3eb5 dbbe 3c40 85bf
000002a0: a3d3 b73e a146 8a3e 69ae 7ebe 55e7 02bf
000002b0: 064f d3be e451 4d3d 0753 cdbe 97e0 573f
000002c0: fae3 57bf fb62 af3d 7506 1ebf 1c1b c63e
000002d0: 1e8b 453e 0476 e93e d01b b93e bf2c 9a3d
000002e0: 8664 4bbf 3642 b03d d3e2 4abe 4212 703f
000002f0: 00d8 5c3c 5c12 573f 030b c83e b77a aabe
00000300: 367f 3b3f 8192 babe 242e e1be a51e f83e
00000310: 3a6f c1be 16ff 44be 40aa 82bf 6d15 4d3d
00000320: ac4d 993e 816d fcbe da3d ae3e 3a9a c53a
00000330: 4a80 703c fce4 94bf 1f8a ee3d 06ec e43e
00000340: 7d48 25bf f47e 963d b1a6 9e3d 001c f4be
00000350: a49a 253e 1d5d 593d ef85 3a3e 5446 7ebe
00000360: 7b77 39bf 1153 9cbe ed6a b7be 24be 413e
00000370: d237 a13f 76a3 a7bf a144 73bc 08e0 2dbe
00000380: 041d ba3e a1a9 503f 1a51 30be 7dd4 813e
00000390: 0d5a c53d dc74 98be a7d2 8fbd 7b02 babe
000003a0: a2b9 7abe 8779 d1bc a977 3abe 4c98 8dbd
000003b0: 5125 24bf 8d70 0bbe a1a2 033f 3b28 f63d
000003c0: ee4b 14bf afa2 713c 3b34 b9be ca52 87bf
000003d0: 6335 c5be f581 793f add7 9c3e 4d3f 37be
000003e0: d8c5 c4bd 89c0 1e3f cc57 893f d624 1abf
000003f0: f4fb 823e af3e b3be 000c efbf f6fa 18bf
0.8528172 0.6516679 -0.07195702 0.06473246 -0.17626572 -0.1306879 -0.7717137 0.5182698
0.133785 -0.3204524 0.2545586 -0.3615988 -0.027331676 -0.704843 -0.8888182 0.4094955
-0.35980052 -0.2057697 0.054035928 0.54247326 -0.42677635 -0.57603323 0.92332953 0.30363232
0.32877338 -0.20731124 0.20692778 0.8450049 -0.068534754 0.24727039 0.18510775 0.64828026
0.3824096 -0.8954342 0.21768633 0.20617335 -0.25863624 -0.19360657 -0.26272792 -0.15811062
0.85303414 -0.38099882 0.97658414 0.72225 -0.10899429 0.5811333 -0.053100828 0.70931166
-0.012561107 -0.6553692 -0.06422111 -0.10544646 -0.40624014 0.061445657 -0.032845788 0.45160246
0.53003925 0.0022299627 -0.22801514 0.01216441 0.06072341 -0.45420608 -0.33191162 -0.3613549
-0.7913845 0.8314507 0.50694686 -0.27137983 -0.30340344 0.31010297 0.49163687 -0.12123361
1.0281649 -0.31599644 0.6655648 -0.22220057 -0.6016934 0.7521099 -0.194929 0.51894397
0.010430777 -0.061201055 -0.23517393 -0.05165562 -0.13363235 0.048927493 0.02834019 1.3506497
-0.25003105 0.18331106 -0.032190815 0.18455943 -0.15918764 -0.23742183 0.015861921 -0.5095565
0.042812712 -1.15486 -0.09611468 0.36149478 0.29675314 -0.30929458 0.09209243 0.394054
0.02761569 -0.6443856 -0.8971619 0.948333 -0.4579573 -0.21053328 -0.08022253 -0.49926326
1.1323745 0.05553482 0.54661244 0.69525295 0.1373562 0.40786788 0.48355305 -0.10254959
-0.11522314 -0.69310504 0.31705302 -0.50166893 0.47726896 0.13944703 0.23623097 -0.08380698
-0.00044140834 0.25883263 -0.0142032495 -0.16122106 -0.16003299 -1.3327882 -0.06497927 0.09804396
-0.066876896 0.63051397 -0.18414798 0.18918991 -0.55732846 -0.3169058 0.120847866 -0.041705094
-0.1251737 -1.3889828 0.122866794 -0.35332718 0.21396415 1.2828447 -0.11322801 -0.7887166
-0.04447004 0.3809215 -0.21757677 1.2526636 0.7691959 -0.484307 0.042763844 0.0008766778
-1.1101462 1.1142399 -1.091965 0.4123731 0.028500635 0.763189 -0.42911714 -1.0410228
0.35903654 0.2700701 -0.2487122 -0.51134235 -0.41271228 0.050126925 -0.40102407 0.8432707
-0.8433224 0.08563801 -0.617286 0.38692558 0.1929135 0.4559785 0.36154032 0.07528066
-0.7945026 0.08606379 -0.19813089 0.9377786 0.013479233 0.8401239 0.390709 -0.3329675
0.73240983 -0.364399 -0.43980515 0.4846088 -0.37780172 -0.19237933 -1.0208206 0.05006926
0.2994207 -0.49302295 0.34031564 0.001507587 0.014679024 -1.163238 0.11647438 0.44711322
-0.64563733 0.07348433 0.077466376 -0.47677612 0.16172272 0.053067315 0.18215154 -0.24831516
-0.7244794 -0.30532125 -0.35823765 0.18920189 1.259516 -1.3096759 -0.014847905 -0.16979992
0.36350262 0.81508833 -0.17218438 0.25357428 0.096363164 -0.29776657 -0.070226006 -0.36330017
-0.24484876 -0.025570644 -0.18209709 -0.06913814 -0.6411944 -0.13617153 0.51420027 0.12019392
-0.5792836 0.014748259 -0.3617266 -1.057214 -0.38517293 0.97463924 0.30633298 -0.17895241
-0.09608048 0.62012535 1.0729918 -0.6021246 0.2558285 -0.3500876 -1.8675537 -0.59757936

transformer.attn.proj_v.bias f4 [36]
00000000: e98d 573e 261f 103f 9715 133e 3dc3 833e
00000010: 5b64 5ebe 46a6 453e 7989 8abe d49c 893d
00000020: 975d 50be 68e7 23be 200f 723e f18e d03e
00000030: f777 163f a35f 1d3d 6e64 6f3e caaa 05be
00000040: 9fb6 75be f94b c63e ac33 1bbf 0ccc 3cbf
00000050: fd85 683e c190 41bf 1371 f6be 26c1 01bd
00000060: 8d13 453f df5f d0be cbcb 2ebe 1fe1 543e
00000070: 2aae 06be 4fd9 703d b085 873e 26fa f33e
00000080: 8b17 c0be 0f8b 953e 6ae9 a23e fc84 42be
0.21050228 0.5629753 0.14363705 0.25734892 -0.2171797 0.1930171 -0.27058008 0.06719366
-0.20348202 -0.16006243 0.23638582 0.40734056 0.587768 0.038421284 0.23378155 -0.13053432
-0.23995446 0.38729838 -0.6062572 -0.7374885 0.22707362 -0.756115 -0.48133144 -0.03167834
0.7698296 -0.40698144 -0.17069928 0.20789002 -0.13152376 0.05880099 0.26469183 0.47651786
-0.37517962 0.29207656 0.31818706 -0.18996042

transformer.proj.weight f4 [36, 36]
00000000: 8a92 ab3f 9610 14bf e3c2 363f a49d bcbe
00000010: cb0e 0abe ca85 61be be2c 403e 4a20 4f3f
00000020: 36d7 db3e 58d5 f73d 6632 353e 49e1 c5bd
00000030: ed68 70bd 794e b8bd 49b4 6f3d 1a45 c3bc
00000040: 63c4 cf3d 0243 a6bd 476c 2ebe c136 01bc
00000050: 15b9 5e3e 662e 013f f090 5ebe e6d2 c0be
00000060: 28ab 0dbd c211 4b3f 8e58 1dbf a471 11be
00000070: ef07 92be d0ad 15bc 4757 893c 5e72 a4be
00000080: f76c 7ebd c26d 203c 907a a7bc ba09 14be
00000090: bda1 c0bd d510 7e3f 3276 0cbe 831f 113f
000000a0: d3d1 1f3e d913 d5be ebff 2b3f 3700 ca3e
000000b0: 90cc 153d 5269 d03e c0a1 7ebe 8060 bfbd
000000c0: 1b99 823e f998 813e 3f06 59bd d3a4 573c
000000d0: 0689 21be cf2e 163e f2c0 41bd 824b 33bf
000000e0: 3fce c0bc 959e 2fbf 52cc 003f d126 8fbd
000000f0: a34a 56bf 055e d9be 3e32 0cbf c1d8 82be
00000100: efa8 6e3e d6af 52be 27f3 2a3e 8b76 a83c
00000110: 79e4 7fbc 9213 68bd 8724 a7be 5283 a63e
00000120: e279 00be 6494 12bf 93e0 853f 1600 463e
00000130: 0620 a1bc f5e3 f43d 731c 28bf 70cf 02bf
00000140: a47d c1be 3128 60be 5eb9 963c 3873 c8bd
00000150: a3cf d4be 0e15 b6be d20e 28be 069b d83e
00000160: 30ac 0f3d 3dea 85bd f60a 6c3d 8a1f 00be
00000170: 5fa6 9b3e b013 b73d ed91 35be 7d29 a83e
00000180: fd11 06be 19d0 95bc b3c3 95be 7640 353e
00000190: f7b6 a33e bc09 febe 990c 8ebe e2af 96be
000001a0: babc 653e 4c43 3cbe 4b69 46bf 12a0 ea3e
000001b0: 6fd3 9cbe c7c0 523f 8c2a c93e 8c09 9c3f
000001c0: 9940 813e 97d0 0ebc 1024 c83d abad d4bb
000001d0: 22d0 d23e e14d e13e fb40 633d c544 2b3e
000001e0: 6b8d cc3c 7ad9 023e b70d 453e 4c7b b63d
000001f0: 67d2 cebd 0a04 5abe 14e1 ab3e 4aa9 6ebb
00000200: 60ec 79bd d57c 5dbe e585 493e 4c9f d1bd
00000210: 3a33 7f3e 5c43 453f 0cc8 e63e 63c6 1a3e
00000220: 91ae dfbb 9c16 ac3e 9531 2c3e 43bd a43d
00000230: 085f 47be da72 f53e 1f28 cc3e d856 99be
00000240: 783d 58bd 06fa 5d3e e68a ca3e b544 c6be
00000250: a2db 0f40 1741 a4be 1373 87be 212b 8abe
00000260: 9321 1e3d a5d6 c83b 2134 e2b9 e034 813b
00000270: 2b4f 0c3d 7c77 b8bd 5edc 273d 63e7 48be
00000280: fcaf caba 30ad 683e 0cbb 07bf c037 9a3e
00000290: ed5c 263e c320 c4be ff70 acbe 95a2 3c3f
000002a0: c06f 6fbe ea03 913e a74e 303f c6de 113e
000002b0: 8726 debd a60e 2d3e 720c 603d 0d7c a43d
000002c0: 8f2f f8bc 0b78 09be 1cb8 b5bd 079f 3f3e
000002d0: 00fb 583e c0ce 073f c026 003e 5110 e4bd
000002e0: 132f f73d 427c e93f e865 f93a a94b 98be
000002f0: c028 5cbc 005d b13d f5d3 e43e 60d5 413e
00000300: f2e8 38be 1144 dc3c fa72 e5be 34bc 63be
00000310: 740c ddbd 83b6 e23d c154 a2bd 9dc5 273e
00000320: 1c6f 633c 1585 423e 76de b03d 72c0 fb3d
00000330: 68d2 1a3d c297 32be d4ce cebe 6bd1 3a3e
00000340: 5066 30be cf5d d53d 0d80 533e 9026 e9bd
00000350: 6ccd 35be cc8a 9f3d 1a69 8f3c e80a 45be
00000360: a137 4d3c 6db1 3f3f 11af a0bf 4cf9 2a3f
00000370: 8a78 513e 3177 bebe 9970 983f 49b2 d7be
00000380: ead0 d5be cc43 c1be f0dd 753e 7315 94be
00000390: 9c57 2ebe 5567 8bbe f121 c3be 77f9 c33e
000003a0: 7320 9b3e 3f4e 02be 00a2 b13e 2869 3d3e
000003b0: 5e2a c3be a108 25bf adba 9b3e 71e5 cc3d
000003c0: 68b5 83be fd13 0abf 4c0b cc3e 69f9 073d
000003d0: 26ca 473e 8149 53be b31b 31be 845b f1bc
000003e0: 00c5 d3bc a2fd ecbe 79cb b5be 0ae7 873d
000003f0: d8de b5be 6fcf 093e 8a03 0dbf 988f c03e
1.3404095 -0.5783781 0.71391124 -0.3683902 -0.13482206 -0.22023693 0.18767068 0.80908644
0.4293763 0.12101239 0.17695007 -0.0966211 -0.058693815 -0.089993425 0.058521543 -0.023836661
0.1014488 -0.081182495 -0.17033492 -0.0078865895 0.2175029 0.50461423 -0.21734977 -0.37660903
-0.034587055 0.7932397 -0.6146325 -0.14203507 -0.28521678 -0.009135678 0.01676525 -0.32118505
-0.062115636 0.009791793 -0.020444185 -0.14456835 -0.09405849 0.99244434 -0.13716963 0.5668871
0.15607385 -0.41616705 0.67187375 0.3945329 0.03657204 0.40705353 -0.2486639 -0.09344578
0.25507435 0.2531202 -0.052984472 0.013161856 -0.15774927 0.14666294 -0.047303148 -0.7003709
-0.023535846 -0.6860135 0.5031177 -0.069898255 -0.83707637 -0.42454544 -0.54764163 -0.25555995
0.2330663 -0.20574889 0.16694318 0.020564338 -0.015618437 -0.05665929 -0.32645056 0.32522064
-0.12546495 -0.57257676 1.045916 0.1933597 -0.01966859 0.11957542 -0.6566841 -0.51097775
-0.3779117 -0.21890332 0.018398937 -0.09787601 -0.41564664 -0.35562938 -0.16411904 0.42305773
0.03507632 -0.06538818 0.05762764 -0.12512031 0.3040037 0.08939302 -0.17731448 0.32844153
-0.130928 -0.018287705 -0.2925087 0.17700371 0.3197553 -0.49616802 -0.27743986 -0.29431063
0.22435275 -0.18385047 -0.77504414 0.4582525 -0.3063006 0.82325405 0.39290273 1.2190413
0.25244597 -0.008716724 0.097725034 -0.0064904294 0.41174418 0.4400473 0.055481892 0.16725452
0.024969777 0.12778273 0.19243513 0.08910236 -0.10098725 -0.21290603 0.33570158 -0.0036416822
-0.06101644 -0.21629651 0.19679983 -0.102354616 0.24921885 0.7705591 0.450745 0.15114741
-0.00682623 0.33611 0.16815789 0.08043911 -0.19469845 0.47939187 0.3987436 -0.2994907
-0.052792996 0.21677408 0.39559096 -0.38724294 2.2477803 -0.3208091 -0.26454982 -0.2698603
0.038606238 0.0061291032 -0.00043144918 0.003943071 0.034255188 -0.09007165 0.040981643 -0.19619517
-0.0015463824 0.22722316 -0.53019786 0.3012066 0.16246386 -0.38306245 -0.3367996 0.7368558
-0.23382473 0.283233 0.68870014 0.14245138 -0.10847192 0.16900119 0.05469937 0.08031473
-0.030296115 -0.13424699 -0.08873007 0.18713008 0.21189499 0.5304985 0.12514782 -0.111359246
0.120695256 1.8241045 0.0019027563 -0.29745224 -0.01343745 0.086603165 0.4469296 0.18929052
-0.18057612 0.026887925 -0.44814283 -0.22239763 -0.10793391 0.110699676 -0.07926322 0.16383977
0.013881471 0.1899608 0.08636181 0.122925654 0.037798315 -0.17440704 -0.40392172 0.18243949
-0.17226529 0.10418283 0.20654316 -0.11384308 -0.17754143 0.07790145 0.017506171 -0.19242442
0.01252547 0.74880105 -1.2553426 0.66786647 0.20456138 -0.3720031 1.1909362 -0.42128208
-0.4176095 -0.37747037 0.24010444 -0.28922614 -0.17025608 -0.27227274 -0.38111833 0.38276264
0.30298194 -0.12725161 0.3469391 0.18497145 -0.3811826 -0.6446629 0.3041586 0.100047
-0.2572434 -0.5393675 0.3985237 0.03319684 0.19510707 -0.20633508 -0.17295723 -0.029462583
-0.025850773 -0.46287256 -0.355068 0.06635864 -0.3552158 0.13458036 -0.55083525 0.37609553

transformer.proj.bias f4 [36]
00000000: c6ef 4fbf b8b3 403f 95f9 73bd e431 df3d
00000010: a5be 63bc c734 a43e b552 58be debe 0bbe
00000020: 05ef 24be 2766 d7be 60c8 a23e d5db d93e
00000030: e5e5 953f 42fb f3be 92a4 d33e 6ea9 dd3d
00000040: 2481 453f 2331 0e3f 818d 68bf 8869 93bf
00000050: bd29 d83e 5027 63bf 216a 82bf 2150 c23e
00000060: 3261 033f 68d8 f7be 89cd a2bc bd9b c5bd
00000070: 1fb1 993e 56f0 68bf 694e 813f 8bed c53f
00000080: 5d60 b8bf a80e 9c3f c6c0 173e eaeb 623d
-0.8122524 0.7527423 -0.05956419 0.10898188 -0.013900434 0.32071516 -0.211253 -0.13647029
-0.16106804 -0.42070124 0.317935 0.4255053 1.1710783 -0.47652632 0.41336495 0.10823332
0.7715018 0.55543727 -0.9084092 -1.151658 0.42219344 -0.8873186 -1.0188638 0.37951759
0.51320183 -0.48407292 -0.019873397 -0.09648845 0.30017945 -0.90991724 1.0102054 1.5463117
-1.4404408 1.2191973 0.14819631 0.055400766

transformer.norm1.gamma f4 [36]
00000000: 2d9d 793f c7b6 4a3f 97c7 403f 258a 663f
00000010: 4425 7f3f 2705 643f 76cc 8a3f 457c 833f
00000020: eb96 423f 8806 143f c411 8e3f 6ef9 c13e
00000030: 3c55 7b3f ec0e 993f 3a13 863f db69 993e
00000040: baa8 3f3f b460 7f3f 670f 113f 2e73 773f
00000050: 3db2 5a3f 8c81 433f 9247 243f 85ea 053f
00000060: 1b05 453e 2c4f 283f 3510 013f e2ba 8e3c
00000070: 93f0 403f ff0d 533f b894 b63e 07b0 093f
00000080: 54d0 933f d286 8a3f cac4 643e ed03 023e
0.97505456 0.79185146 0.7530455 0.9005454 0.9966624 0.8907036 1.0843647 1.0272299
0.7601153 0.57822466 1.1099172 0.37885612 0.9817693 1.1957679 1.0474617 0.29963574
0.7486683 0.9975693 0.5666413 0.96660125 0.8542822 0.7636955 0.6417171 0.52310973
0.19240229 0.65745807 0.50415355 0.017423097 0.7536709 0.8244323 0.35660338 0.5378422
1.1547952 1.0822394 0.22340694 0.1269681

transformer.norm1.beta f4 [36]
00000000: 0f72 13be 522a 2cbf da8c 10bf 0050 febe
00000010: c221 083f 723e 12bf 2a2f 353d e1fb 42be
00000020: ea68 2bbe 81a5 163e 3235 443e 8ac6 b1bc
00000030: c6fa 37bf e491 183e ff8d 82be 4eec 943d
00000040: 1aa3 9bbe 5e75 84be 07da fb3e b0ad 153f
00000050: 7761 c4be 6481 133f d452 c33e 5965 7abe
00000060: 2c7c ca3d 2b22 743e 4d0e c03d d9f7 203c
00000070: 663a 53bf 886a 4c3f b91b 0abe 0d0b 12be
00000080: d4ec 443f af77 d6be 1728 8a3e 378a 563d
-0.14398979 -0.67252076 -0.5646492 -0.4967041 0.5317651 -0.57126534 0.044234432 -0.19041397
-0.1673924 0.14711572 0.19160917 -0.021701116 -0.71867025 0.14899403 -0.2549896 0.07271634
-0.30397874 -0.25870794 0.4918978 0.5846815 -0.3835561 0.5761931 0.3814913 -0.24452724
0.09886965 0.23841159 0.09377728 0.0098247165 -0.82510984 0.79850054 -0.13487138 -0.14262028
0.7692387 -0.41888186 0.2698371 0.052377906

transformer.pwff.fc1.weight f4 [72, 36]
00000000: 907e 653d 21d4 c63d 71ec 663e eb4c 4a3f
00000010: fc71 2bbe ef9b 173f ee45 8fbe a727 843e
00000020: 2862 a2be d4dd 28bf b3da 20be 881c 903e
00000030: 24d7 1f3f 52f8 1a3d 3a52 563d 763c e73e
00000040: dac1 08bd 54ad 0e3e 781d f4be 83f0 be3c
00000050: c397 45bd 6c8f 453c 32cb 8ebd d0f5 b73d
00000060: e309 63bd dc51 8cbd cb9d 013f b823 3abe
00000070: ca4d 533f c7ad dabe 5509 a5bd 0ab2 3c3d
00000080: 28fb e2bd f772 f03d 96c7 55bf 1bc9 e33d
00000090: 486e 503f 925a e4ba 662f eb3d 3b00 393e
000000a0: 19e9 8b3d 03cf 30bf 1fae cc3e e205 82be
000000b0: 6211 1abf 0475 023e 3f28 7ebc 4560 28bf
000000c0: 0838 053d 789b 47bc f858 7c3d 24f1 16be
000000d0: 8005 9ebd 84c3 933d 166c 88bf 8d7a 693f
000000e0: 9ad6 883d a5f8 17bf 3638 103f a345 a9bf
000000f0: f5b4 ba3d a516 393f 9a65 da3d 194c f6bd
00000100: ec32 ad3e cfec 1f3e 9f61 a3be e871 2b3e
00000110: c3e4 5bbd 9db6 023b dcd7 70bd ffe2 5a3e
00000120: eb61 90be 2f43 673e 9310 3d3e c2c5 033e
00000130: 5201 42be 358a 283f 9e7f 53be 1bc8 9b3e
00000140: 1998 103e 747e e23c 1c16 38be 7781 b6be
00000150: 3311 5f3d 2a48 fe3d df81 753e 354b 2f3e
00000160: c6f9 85be ed53 cbbd 519a bfbe df72 563e
00000170: 9a4b ab3d 91bd 45bd 5a98 963c 1628 dbbc
00000180: 327b 2cbf 7d27 0b3f 06ca cdbd 2667 33be
00000190: 3c00 b43e 18bf febd 8c20 cbbd dace 0abe
000001a0: f5a6 443e 9b43 b3be 96c6 c23e 8af7 da3e
000001b0: bc1a a73e 182f 48be 2fd3 32be f098 3dbe
000001c0: 6755 01be 522f 04be 33b4 28be 1403 edbd
000001d0: 929f 69be 8187 1cbe a81e 0f3d d3e6 8fbd
000001e0: 6513 0abf 9c5a 603e db9f 55be ade8 133e
000001f0: 6530 38bd 2d43 af3c 6e03 d03e a0a1 7c3e
00000200: 7f9f 673d 2612 553f b711 723e 4b66 dbbe
00000210: 4e63 8c3e e7a1 833e c8a0 fbbe b522 46bb
00000220: 312c c1be eda5 7b3f 3f5f 3abe d8d0 2fbe
00000230: 3bf8 993e 627b 0cbf 5faf db3e 367b 573d
00000240: 6ee8 383d 3666 bd3d d16e 84bd c785 c03e
00000250: 84c2 2b3f 0468 92be 2026 c23e ccec 84bc
00000260: 188a 47be 527e d93c e53f c73c d905 8b3c
00000270: 1427 0abf 804d 48bd ad48 ff3d cd0c c5be
00000280: fe54 a1be 1d53 c3be b7b1 123f 08b9 a53e
00000290: 425b eebd e000 973e 1689 de3e b234 433e
000002a0: ea39 a3be 62c2 b93e 78a8 e4be 72d8 97be
000002b0: c0bd d83e 6c39 dc3e 7474 d8be 8076 67bf
000002c0: a1a1 6a3f 3401 14bf 37a7 c8bc 760f 2bbd
000002d0: dcf2 183f b939 91bc 542d 51be be6b a63e
000002e0: af22 7a3e 9531 d03e d4dc 253d 11de f63e
000002f0: d891 9e3e 2d98 aabd 476e c1be b833 85be
00000300: d16b 083e 007c ad3c 0f01 f03b 5ea4 b53d
00000310: 8d83 813d a8d1 14be 4799 97bd cc16 2d3e
00000320: 6501 783d 0987 303e a607 893e a2b8 3ebe
00000330: f401 b13e 91c7 3abf 459a 2d3d ce79 66be
00000340: fc8c e63e f7b6 b33c 00de 5b3e d6a5 93be
00000350: 77e4 86bd a227 943c 773e d2be 9776 3abe
00000360: a171 c1bd 73c6 813e 4621 0c3f 546f 143f
00000370: f9af c0be 00d5 433e 06b1 98be cfcd a33e
00000380: 2e7a e83d 2266 19be 0c43 1cbd c08a a7be
00000390: ae0a 2bbe 018e fd3d 7547 1cbe b9eb 29be
000003a0: 6824 82bd 8737 d13c 4bd8 febe e12d b03d
000003b0: f969 21be 39ba 8bbe 7a93 c83e 85f5 0b3e
000003c0: df8f 4ebc db7d 0a3f 6922 81be edd1 033f
000003d0: 9a1f 2c3e b436 6ebe 5c95 7dbe fc6b e1bd
000003e0: 6c2b dd3d 8e99 9dbe c15a 6abb f8b0 d03e
000003f0: 274e 63be 425a 0c3e 1076 6cbe 74c2 0f3f
0.056028903 0.09708429 0.22551133 0.7902362 -0.167427 0.5922231 -0.2798304 0.25811502
-0.31715512 -0.6596348 -0.15708427 0.28146768 0.62437654 0.037834473 0.05232451 0.45163316
-0.033387996 0.13933307 -0.47678733 0.023308044 -0.048240434 0.01205812 -0.0697235 0.08982432
-0.05542935 -0.06851551 0.506314 -0.18177688 0.8254057 -0.42710707 -0.080584206 0.04606823
-0.110830605 0.11740678 -0.8350767 0.11122342 0.81418276 -0.0017422012 0.1148365 0.18066494
0.06831569 -0.69065875 0.39976594 -0.25395113 -0.60182774 0.1273995 -0.015512525 -0.65771896
0.03252414 -0.012183063 0.061608285 -0.14740425 -0.07715893 0.07215026 -1.0657985 0.9120262
0.06681557 -0.59363776 0.5633577 -1.3224376 0.09116546 0.7230018 0.1066391 -0.12026233
0.33827913 0.15617679 -0.31910416 0.1674267 -0.05368496 0.0019945272 -0.05879961 0.21375655
-0.28199705 0.22584222 0.18463354 0.12868407 -0.18945816 0.6583589 -0.20654151 0.30426106
0.1412052 0.027648188 -0.17977184 -0.3564565 0.05445976 0.12416108 0.23975323 0.17118533
-0.26167125 -0.09928117 -0.37422422 0.20942257 0.08364029 -0.048276488 0.018383194 -0.026752513
-0.6737548 0.5435713 -0.100482985 -0.17519817 0.3515643 -0.12438792 -0.09918317 -0.1355547
0.19204314 -0.35012516 0.38042134 0.42766982 0.32637584 -0.19549215 -0.17463373 -0.18515372
-0.12630235 -0.12908676 -0.1647499 -0.11572853 -0.22814777 -0.15286066 0.034941345 -0.07026448
-0.53935844 0.21909565 -0.20861761 0.14444228 -0.044968028 0.021394337 0.40627617 0.2467103
0.05654859 0.8323082 0.2363957 -0.4285148 0.27419513 0.2570946 -0.49146104 -0.003023309
-0.37729028 0.9830006 -0.18200396 -0.17169511 0.30072197 -0.5487577 0.42907235 0.052607737
0.045143537 0.09248011 -0.06466449 0.37602064 0.6709368 -0.28594983 0.37919712 -0.016226195
-0.19486272 0.026549492 0.02432246 0.016970562 -0.5396588 -0.048902035 0.12465034 -0.3848633
-0.31510156 -0.38149348 0.5730242 0.3236773 -0.116385 0.29492855 0.43463963 0.1906307
-0.31880122 0.36281115 -0.4465978 -0.29657322 0.42332268 0.4301256 -0.42276347 -0.9041519
0.91652876 -0.57814336 -0.024493797 -0.04176279 0.59745574 -0.01772772 -0.20427448 0.32504076
0.24427293 0.40662828 0.0404938 0.48216298 0.30970645 -0.083298065 -0.37779447 -0.2601602
0.13322379 0.021177292 0.007324345 0.08869241 0.063239194 -0.14533103 -0.07402282 0.16903228
0.060548205 0.17239012 0.26763648 -0.1862512 0.34571803 -0.72960764 0.04238345 -0.22507402
0.45029438 0.02193783 0.21471405 -0.2883746 -0.06586545 0.018085305 -0.41063282 -0.18209301
-0.09445501 0.25346717 0.5473827 0.57982373 -0.37634256 0.19124222 -0.29822558 0.31992957
0.11351429 -0.14980367 -0.03814988 -0.32723045 -0.16703293 0.12380601 -0.15261634 -0.16593827
-0.063546 0.025539173 -0.49774393 0.08602501 -0.15763082 -0.27290514 0.39175016 0.13667877
-0.012607544 0.5409829 -0.25221565 0.51492196 0.1680893 -0.23263055 -0.24764007 -0.110069245
0.10799298 -0.30781215 -0.003575966 0.40760016 -0.22197782 0.13706306 -0.23091912 0.56156087
